src/cartpole/results/CartPole-v1/train-a2c/20210405-225734/num_env24-num_episodes100000-learning_rate0.003-hidden_layers32-32.pt (torch, 6143 bytes, 7 tensors)

weight f4 [32, 4]
000000 0f 04 92 bc cc 03 5e 3d b4 92 48 c0 5a ab 58 be
       -0.0178242 0.05420284 -3.133954 -0.21159115
000010 66 02 18 be 7d 2c 3b 3e cc 70 21 3f 74 d8 5e 3e
       -0.14844665 0.1827869 0.6306274 0.21762258
000020 4a 58 3f be 07 ed 2e 3e 6f ec 2a 3d e8 1d 29 bd
       -0.18686023 0.17082606 0.041729387 -0.041288286
000030 51 cb 86 bd 4a 9f 98 3d 1a 25 1f 40 09 44 92 3e
       -0.06581748 0.07452257 2.4866395 0.28567532
000040 20 bb 21 bd ae 8f 30 3c da 09 4a c0 b8 8e 96 be
       -0.039485097 0.010776443 -3.1568513 -0.2940576
000050 e7 37 39 bd e3 7a 80 3e 9c 2c 9a 3f 69 2c 82 3e
       -0.04521933 0.25093755 1.2044864 0.25424507
000060 d8 5b 38 bc 6f 72 3d 3c 5c 41 3c bf e9 bc 80 bd
       -0.011252366 0.011562928 -0.7353723 -0.06286032
000070 67 06 a5 bd 84 bd e3 3d 43 91 6a 40 d7 63 1e 3f
       -0.08057862 0.111201316 3.665116 0.61871094
000080 8c 42 8d bd 87 ea d2 3d 69 dd 0e c0 e1 79 54 be
       -0.068974584 0.10298639 -2.2322638 -0.20749618
000090 51 7e 9e bd b3 8c c4 3e 60 22 b6 3f cf a9 79 3e
       -0.07738937 0.38388595 1.422924 0.24381183
0000a0 21 76 0e bd 3e ed 5d bd 54 95 ba bf ac 47 a9 be
       -0.034780625 -0.05418133 -1.4576821 -0.33062494
0000b0 20 3d b7 bd 76 4c 95 3c 09 5e c1 3f b5 c5 cd bc
       -0.089472055 0.018224936 1.5106822 -0.025118688
0000c0 e8 1d 9c be 5e 94 f0 3e 64 92 f8 bd 8c 50 61 3d
       -0.30491567 0.46988195 -0.12137297 0.055008456
0000d0 da ad 33 3d 3e d7 02 3d 89 23 93 bf 04 62 18 be
       0.04386697 0.031943552 -1.149522 -0.1488114
0000e0 e6 4e e1 3d e0 85 46 be fd 93 0b 3f 51 ca 89 be
       0.11001377 -0.19387007 0.5452269 -0.26912168
0000f0 e0 67 7b bd c9 0a 2f 3d 33 7a 1b 40 2f 92 23 3f
       -0.06137836 0.042734895 2.4293334 0.63894933
000100 ad 0d fa 3d 37 78 96 bc 16 e8 25 bd de 72 3f bc
       0.1220964 -0.01836787 -0.040504538 -0.011685101
000110 6d be e3 bd bf 9c b8 3d 1d 4a 14 be 26 37 ff 3d
       -0.11120305 0.09014272 -0.14481397 0.124616906
000120 d0 27 69 3c 51 45 c3 3d 25 99 f1 3f f8 38 d7 3e
       0.014230683 0.095347054 1.8874861 0.4203565
000130 75 32 ea 3d 08 e8 bc bd 39 15 52 40 f5 7c 07 3e
       0.11435405 -0.09223944 3.2825453 0.13231261
000140 1b 5b d4 be 60 ac 89 3e af 07 59 be f4 a3 72 be
       -0.41475758 0.26889324 -0.21194337 -0.23695356
000150 c4 c0 b2 3c b0 a1 ae bc 4a c7 81 bb 1d ea 42 be
       0.021820433 -0.021317333 -0.0039605247 -0.1903462
000160 81 1b 13 3e 9a a1 98 be 38 f8 43 be e4 23 e8 bd
       0.1436596 -0.29810792 -0.19137657 -0.113349706
000170 1e 8e 09 3d a8 ca 05 be 6c 4d 44 c0 35 07 0c bf
       0.0335828 -0.13065588 -3.0672255 -0.546985
000180 ea dc 54 bc 36 89 0f bd 36 ed 42 c0 6b d0 f6 be
       -0.012992123 -0.035042964 -3.0457282 -0.48205885
000190 f9 8a f2 3d 97 76 e8 3d ba d4 ab bf e5 12 e1 3c
       0.11842913 0.11350744 -1.3424294 0.02747483
0001a0 b1 74 9d bd 73 dd 01 3e 13 d1 d9 bf 46 f7 00 3e
       -0.07688273 0.12682132 -1.7016929 0.12594327
0001b0 98 66 8c bd 66 7e ba 3d fa cf 50 be 75 c0 8a 3e
       -0.06855506 0.0910614 -0.20391837 0.27099958
0001c0 8f 89 8a bd 46 4e 15 3e 98 e1 8e 3e ca 37 ec 3d
       -0.067645185 0.1458064 0.2790649 0.115340784
0001d0 31 ff 93 bd e6 23 a0 3d 9b b2 65 3d ad cf 8a 3d
       -0.07226408 0.07819347 0.056078535 0.06777892
0001e0 5f 92 a0 bc 93 6e 5b 3d dd de a0 be 0f 81 01 3e
       -0.019601045 0.05357225 -0.3142003 0.12646888
0001f0 02 6a 19 be 4c 6a a4 bc e7 07 df bf 26 ee cf be
       -0.14981845 -0.020070218 -1.7424287 -0.4061138

bias f4 [32]
000000 d9 ec f8 be aa 15 21 bf a3 44 0d bf 27 bf d3 be
       -0.486182 -0.6292368 -0.55182856 -0.41356775
000010 e6 79 ff be 8b 71 40 3e 53 e7 fc bd 7c cc 08 bf
       -0.4989769 0.18793313 -0.12348809 -0.5343702
000020 17 82 9b be 10 c4 c2 3c d1 b1 d4 3e 74 1e 18 be
       -0.30372688 0.02377513 0.41541913 -0.14855367
000030 1a 52 56 be 15 a2 62 bd 8a 25 e3 be 03 82 a2 be
       -0.20929757 -0.055330355 -0.44364578 -0.31739816
000040 f2 a7 23 bf c5 98 1e bf 57 1a d5 be 7f 53 bf be
       -0.6392814 -0.6195186 -0.41621658 -0.3736839
000050 97 9a fd be 84 a9 03 bf b2 df 69 bf 64 cc 10 bf
       -0.49532005 -0.51430535 -0.91356957 -0.56561875
000060 3d e9 05 bf 5c 4d 96 3a e5 58 9b be c5 a3 08 bf
       -0.5230902 0.0011467147 -0.3034126 -0.5337489
000070 76 dd e6 be 89 69 de be f0 aa 7f be b4 26 fb be
       -0.45090836 -0.43439892 -0.24967551 -0.49052966

weight f4 [2, 32]
000000 a1 33 aa 3f 96 55 f0 bc 79 4f 07 be ee c3 ca be
       1.3297006 -0.029337686 -0.1321391 -0.39602607
000010 18 2e b4 3f 55 75 8a 3d 80 af af bd ed 9a d7 bf
       1.4076567 0.067606606 -0.08578396 -1.6844155
000020 8c 28 ae 3d 2b 4a cf 3d d1 f5 08 3e d8 97 af bd
       0.085038275 0.10121568 0.13375022 -0.08573884
000030 26 9e 26 3e 64 c3 a6 3d c4 d6 3f be c3 19 97 be
       0.16271266 0.081427366 -0.1873427 -0.29511842
000040 12 eb b5 bc 1d b3 86 bc fc 2c 93 bd 2b 97 90 bf
       -0.022206817 -0.01644283 -0.071863145 -1.1296133
000050 de 64 05 bd a8 aa b4 3b 3f 87 4b 3d b1 52 9e 3f
       -0.032566898 0.005513508 0.049689528 1.2368985
000060 59 6f f7 3f 5b 54 70 bd 8b ca 37 3e be 8e 37 bb
       1.9330856 -0.058674198 0.17948358 -0.0028008665
000070 e1 d4 aa bd 3c 22 d4 3d 4b 71 be 3d 96 a7 01 3e
       -0.08341385 0.10358092 0.09298953 0.12661585
000080 63 85 be bf 84 b6 24 3b 02 bc 1a be 13 95 15 3e
       -1.4884456 0.0025133202 -0.15110782 0.14607649
000090 ec e7 c4 bf f8 cf a0 bb dd 85 cc bd a8 a2 df 3f
       -1.5383277 -0.0049076043 -0.0998647 1.7471514
0000a0 20 64 72 be f0 ff 53 3a 87 35 e5 bd 6a 9f dc bd
       -0.23671007 0.0008087149 -0.1119185 -0.10772593
0000b0 c0 88 d8 bd 3e c0 d9 3d 42 5f 12 bd f8 5a 0e 3f
       -0.10572958 0.106323704 -0.035735376 0.5560756
0000c0 44 9e 86 3d 75 32 24 bd 17 fe 58 3e 56 aa 73 3f
       0.065731555 -0.040087182 0.21190678 0.95181787
0000d0 08 f8 96 3d f2 c2 a9 bd 97 3a 9a 3d 98 1e 95 bf
       0.07371527 -0.08289136 0.075307064 -1.1649961
0000e0 f9 42 fe bf d6 0f e9 3c 16 4d a2 bd 4b 1b 36 be
       -1.9864188 0.028449934 -0.07924859 -0.17783849
0000f0 b7 83 99 bd bb 16 2b 3e 52 ca e3 3d 63 d9 2b ba
       -0.07495826 0.1670789 0.11122574 -0.00065555255

bias f4 [2]
000000 62 83 07 be 21 a0 88 3d
       -0.13233712 0.06671167

weight f4 [32, 4]
000000 61 7e 07 be 64 c1 09 be 94 81 a1 be 70 b6 0a be
       -0.13231803 -0.13452679 -0.31544173 -0.13546157
000010 3b c8 85 bd 57 16 8c 3e 6d 36 6b bd 1b 30 d2 3e
       -0.065323316 0.27360794 -0.05742495 0.41052327
000020 18 a5 ee bc 29 a5 0f 3c d7 84 b4 c0 51 1c fe be
       -0.029131457 0.008767405 -5.641216 -0.4963098
000030 5d e4 6d be 15 c6 99 3d 4e 60 2a 3c 35 2f 99 3e
       -0.23231645 0.07508484 0.010398937 0.2991883
000040 ba f2 e4 be 19 07 b1 be 69 6f 2c 3f 1d ce 01 be
       -0.44716436 -0.34575728 0.673575 -0.12676282
000050 15 74 a2 3e 2c c9 cb be 8a 99 15 be 47 ae 63 be
       0.3172919 -0.3980192 -0.14609352 -0.2223445
000060 76 d3 56 bf 30 b6 7a be cd df ee bf 8d 3d 5e be
       -0.83916414 -0.24483562 -1.8662049 -0.21703167
000070 3b 68 c4 3b 78 42 c5 bc e0 c6 b4 40 e2 85 ed 3e
       0.0059938706 -0.024079546 5.6492767 0.46391207
000080 b6 14 14 bd 13 08 7a 3c 05 c6 c0 40 ee 7f c6 3e
       -0.036152564 0.015260714 6.0241723 0.38769478
000090 81 7b ac 3d c3 23 24 3e 35 98 40 3e c8 86 f5 bd
       0.08421994 0.16029267 0.18808062 -0.11988598
0000a0 d2 ae 13 be 5c ab 92 3d d8 64 78 3e 8d a5 38 3d
       -0.14422157 0.071615905 0.24257219 0.045079757
0000b0 21 a2 0a be 45 2f 66 be 54 9c 23 bf 2f b1 fd bc
       -0.1353841 -0.2247897 -0.6391041 -0.030968277
0000c0 dc 10 74 3c 4d 1d 98 be 14 bc c5 3e 5c 78 db be
       0.014896598 -0.29709855 0.38620055 -0.42865264
0000d0 2e 18 66 be df e9 a9 be 3b 67 dd 3f 72 a6 9e 3e
       -0.22470161 -0.33186242 1.7297128 0.30986363
0000e0 d3 98 9d be fc ce 0e 3f da 60 56 be fb 76 13 3f
       -0.30780658 0.55784583 -0.20935383 0.57603425
0000f0 e0 fa 3c be a7 58 16 3e 79 27 a9 bd b6 b1 a2 bd
       -0.18455076 0.14682256 -0.08259482 -0.07944052
000100 7c 15 47 bf a8 c5 8d be f5 b2 64 3f 89 57 ef bc
       -0.7776716 -0.27689862 0.89335567 -0.029216545
000110 02 4d 81 bc d6 fc a7 be 22 e1 45 3e 23 a1 e1 be
       -0.01578379 -0.32810086 0.19324163 -0.4406825
000120 ea 08 5c 3f de 8d be 3e bd f8 32 3f e4 40 47 3e
       0.859511 0.3721761 0.69910794 0.19458348
000130 9b a3 97 bc 58 4a 97 3b 58 1c bb c0 8a 9d b2 be
       -0.01851063 0.0046170168 -5.84721 -0.34885818
000140 7f 54 90 bd 10 99 92 3d 1f 90 84 3e 5a fa bf bd
       -0.07047366 0.071581006 0.25891206 -0.09373923
000150 57 94 97 be 02 bc 9e bd dc 81 29 c0 ed 27 0e bf
       -0.29605362 -0.077507034 -2.648551 -0.5552967
000160 0a ea c3 3d 82 24 1f 3e fd ef b0 be 6a 4b ec bb
       0.09566124 0.1554127 -0.34558097 -0.0072111385
000170 06 ff 2e 3e 1b 93 65 bd f3 e1 eb bd e9 9a ae bc
       0.17089471 -0.056048494 -0.11517706 -0.021314101
000180 e5 2b 7f be 1a f4 35 3e 4b 09 43 3e c9 19 4f 3e
       -0.24919088 0.17768899 0.19046514 0.2022468
000190 9d 56 59 3e 86 c4 e4 bd 35 ca 94 3d 74 b4 98 be
       0.21224447 -0.11170296 0.072651304 -0.29825175
0001a0 65 b5 ee bd 0a ea 78 be 90 96 68 3e 97 89 90 3d
       -0.11655692 -0.24308029 0.22713685 0.07057493
0001b0 05 dc 52 be 04 12 77 3e 77 19 21 3e cf ce 8f 3e
       -0.20591743 0.24127966 0.1573237 0.2808747
0001c0 e5 f1 80 bc 60 85 d9 bb 5b 86 93 3e b5 01 48 3c
       -0.015740344 -0.006638214 0.28813443 0.012207438
0001d0 14 ec 3f 3e db 85 f5 3d 1a 1a ee be 37 af 83 3e
       0.187424 0.119884215 -0.4650429 0.25719616
0001e0 70 4c 0f 3e e2 1c dc 3d 11 33 df be 4a 63 99 3d
       0.13994002 0.107476965 -0.43593648 0.07489641
0001f0 1a 85 5a be 9a 28 94 3e ea 1f 8f be 91 59 bb 3d
       -0.21339837 0.28937227 -0.27954036 0.09147943

bias f4 [32]
000000 18 67 66 3f 23 9e 77 3f d7 77 9c bf 2e 4e 83 3f
       0.9000106 0.9672567 -1.2224072 1.0258234
000010 32 0b 4b 3f e1 35 65 3f bf ad ce bf 13 5d 8e bf
       0.7931396 0.8953534 -1.6146773 -1.1122154
000020 07 2f 8e bf 2d b3 96 3f 8b be 81 3f d1 f7 9e 3f
       -1.1108102 1.177343 1.0136274 1.2419378
000030 82 cb 69 3f 84 5d 39 3d 59 32 01 bd 56 73 54 3f
       0.91326153 0.0452552 -0.031542156 0.8298849
000040 0e cb e6 bf c1 96 8d 3f ce b3 d7 bf 24 b7 93 bf
       -1.8030717 1.1061631 -1.6851747 -1.1540265
000050 8a 12 22 bf 35 42 c9 3d ee 1f 83 3f e9 d6 93 3f
       -0.6330954 0.09827081 1.0244119 1.154996
000060 85 6f 44 3f b4 b4 8f 3f ca 02 a5 3f de 2a 25 3f
       0.76732665 1.1227021 1.2891476 0.64518535
000070 0b f4 1b be dc 02 8f 3f 6a 46 5f 3f 55 16 9a 3f
       -0.15229814 1.1172748 0.8721682 1.2038065

weight f4 [1, 32]
000000 21 ab 1a 3f 3a f8 08 3f 18 f6 00 c1 f5 8f 0a 3f
       0.6041737 0.53503764 -8.0600815 0.5412591
000010 ae 45 ce be 27 38 f3 3e 80 8f 4e c0 3e 50 dc c0
       -0.40287536 0.47503778 -3.2275085 -6.884795
000020 eb 89 ec c0 db 72 18 3f 63 45 19 3f be 5e 03 3f
       -7.3918357 0.59550256 0.598715 0.5131644
000030 8d 19 ae 3e 23 49 8a be 03 31 ba 3d 67 7f e3 3e
       0.3400387 -0.27008924 0.090913795 0.44433138
000040 cb 0b 72 c0 9d e9 2e 3f 76 c3 0f c0 ff 73 00 c1
       -3.7819698 0.68325216 -2.246305 -8.028319
000050 91 ea d4 bc 22 75 e4 be 1d 1f c5 3e 38 0e 17 3f
       -0.025990756 -0.44620615 0.385003 0.5900607
000060 d4 9e 6a 3e f2 3d f8 3e 1b db 1e 3f 18 3d 18 3e
       0.2291215 0.4848476 0.6205308 0.14867055
000070 6e bf c6 bc 93 a8 c8 3e b1 0f d0 3e 62 cc ef 3e
       -0.024261203 0.39191112 0.40636972 0.4683562
