src/cartpole/results/CartPole-v1/train-a2c/20210405-225734/num_env6-num_episodes100000-learning_rate0.001-hidden_layers64-64.pt (torch, 7807 bytes, 7 tensors)

weight f4 [64, 4]
000000 5d d2 0e be 6b f1 28 3e eb b9 37 bf 30 3e c5 be
       -0.13947435 0.16498344 -0.71768063 -0.38524008
000010 99 fe 24 be 1b 7a 20 3e 17 4a 44 3f 1b cd a5 3e
       -0.16112746 0.1567158 0.7667555 0.32383046
000020 2e 9d 91 bd 16 6e 8e 3d ab 4b c8 bd 2f b8 19 bd
       -0.07110058 0.06954591 -0.097800575 -0.037529167
000030 bf 17 45 be 54 28 42 bd 56 95 60 3d ec 2b a2 bd
       -0.1924734 -0.04740174 0.054829918 -0.07918534
000040 50 2d 82 3e fe b9 5e 3e 5d 63 b4 bf bf d1 40 be
       0.25425196 0.21750638 -1.4092823 -0.18830012
000050 59 b1 49 bc d7 06 92 3e 46 dc 79 3e 84 15 97 3e
       -0.012310349 0.28520843 0.24400434 0.29508603
000060 fd 5a b4 bd dc 82 78 bd c5 5e b2 bd 6e d6 57 be
       -0.08806417 -0.060671672 -0.08709482 -0.21077892
000070 0d 5a 86 bd 91 af d4 3d ff 25 a0 3e 19 98 43 3e
       -0.065601446 0.10385049 0.3127899 0.1910099
000080 3e 97 86 be de 47 3e be b9 66 78 bf 3c 91 b4 be
       -0.26287264 -0.18582103 -0.9703174 -0.35267055
000090 e3 94 66 be 10 3d 8d 3e 66 cf bf 3f 0a b4 28 3f
       -0.22517733 0.2758565 1.4985168 0.6589972
0000a0 2b c4 2b 3e 6a 8e 28 be 17 11 a9 bf 2b dc 00 bf
       0.16774051 -0.16460577 -1.320834 -0.5033595
0000b0 bf e0 94 be 7c 8e 9c be 80 29 62 3f 47 18 b6 3e
       -0.29077718 -0.30577457 0.88344574 0.35565397
0000c0 67 24 7c bd 83 ae b5 3d 14 3e 79 3f dd 90 aa 3e
       -0.061558153 0.08871176 0.9736035 0.33313647
0000d0 4e b7 d6 3d 5a 9f cd bd 54 e5 49 be 64 f0 20 be
       0.10484181 -0.100401595 -0.19716388 -0.15716702
0000e0 ac 38 c1 3d 37 96 84 be 0d 12 96 bf ab f4 fe be
       0.094346374 -0.25895855 -1.1724259 -0.49796042
0000f0 3f fa b5 3e 83 0d 97 3e bb eb 1b 3f 85 be c2 3e
       0.35542485 0.29502496 0.6090657 0.3803598
000100 60 ff 89 3e d3 a0 2e be 00 28 3e 3d 8e 0c 3a 3e
       0.26952648 -0.17053537 0.046424866 0.18168852
000110 1f dd 15 3e 45 45 d6 3e 8c e0 83 bf aa e4 56 be
       0.14635132 0.41849723 -1.0302901 -0.20985666
000120 d4 ae d8 3d f3 c8 4d 3e 12 f3 b8 3f 58 a9 21 3f
       0.10580221 0.20096187 1.4449179 0.63149023
000130 ca c6 34 3e 0a 40 b3 be 1f 3e 9d 3d bf 15 d1 be
       0.17653957 -0.35009795 0.07677864 -0.40836903
000140 80 f8 bf be 25 9a 9e 3e ca 2c a0 3f 09 c6 69 be
       -0.37494278 0.30976978 1.2513669 -0.2282945
000150 40 48 c7 3d ba 41 e8 bd 66 41 c8 bf c7 50 be be
       0.097305775 -0.11340661 -1.5644958 -0.37171003
000160 b0 07 b1 3e c8 b1 03 be e2 25 71 3f 76 86 7b 3e
       0.34576178 -0.12860787 0.9419843 0.24563012
000170 20 aa d0 3d 18 1d 8a 3d 7f fa 74 bf 7b a7 46 be
       0.10188699 0.067438304 -0.95694727 -0.19399826
000180 ac 5d 11 3d de 0f 1a bd 81 47 61 bf 1e 31 a0 bd
       0.035489723 -0.03761279 -0.8799973 -0.07821868
000190 43 05 91 3e 10 23 76 3e 21 5f 8d bf d0 38 83 be
       0.28324327 0.24036813 -1.1044656 -0.25629282
0001a0 20 5e e1 be 1d 5b 0a 3d c7 b0 b7 bf 46 c9 fa be
       -0.44017124 0.0337783 -1.4350823 -0.48981684
0001b0 fa 45 eb bd 28 88 4f 3e 49 96 2a bf 2f 0b 21 3e
       -0.11487956 0.20266783 -0.66635567 0.15726922
0001c0 6e af 58 be fe 41 ca 3e 63 46 84 3f 65 0c a5 be
       -0.21160671 0.39503473 1.033398 -0.3223602
0001d0 12 65 25 bb b2 2a 2e 3d 9a ed 64 3f c8 0d f6 3d
       -0.0025237245 0.042521186 0.8942505 0.12014347
0001e0 f8 8a 22 3e 97 0d 4e bd c8 24 e2 be 66 80 84 3e
       0.15873325 -0.05030593 -0.44168687 0.2587921
0001f0 f5 7c ad be 0d ca 3f be 35 1a 4a bf b4 ab 52 be
       -0.33884397 -0.1872942 -0.7894624 -0.20573312
000200 2d 31 42 3d c3 82 48 be 60 e1 25 be 42 e0 10 be
       0.04741018 -0.19581132 -0.16199255 -0.14148048
000210 bf 03 c9 bd 72 b1 69 3d 2e dd 62 3f a0 7e 07 be
       -0.09815168 0.05705399 0.88618743 -0.13231897
000220 3a a6 42 3d 60 a0 ee 3c b1 29 fd 3b e7 06 84 3e
       0.047521807 0.029129207 0.0077259173 0.25786516
000230 71 5f b0 3e 2b 84 93 3e 5a 06 a7 3f 74 52 0d bd
       0.34447816 0.28811774 1.3048813 -0.03450246
000240 e1 c5 e3 be 74 7f 83 be e7 61 74 3f bc 38 12 3d
       -0.44486907 -0.25683177 0.9546189 0.035698637
000250 90 73 17 be 65 57 ba be e6 36 a7 bf be 56 df be
       -0.14790177 -0.36394802 -1.3063629 -0.43620867
000260 f6 48 4f 3c fe cd 8c 3d 3d 46 eb 3e af a7 a4 be
       0.012651673 0.068752274 0.45952025 -0.32159182
000270 39 e8 6d 3e e4 7f a8 be a0 05 14 3d 9f 7d 6c be
       0.23233117 -0.32910073 0.036138177 -0.23094796
000280 7b ca 30 bb 90 a4 72 bc 3a 82 e4 3d f6 a4 ab bd
       -0.0026976157 -0.014809743 0.11157651 -0.08381073
000290 80 58 1a be 5f f4 c5 bc 7d b9 a9 be 3f 6a 47 3e
       -0.15072823 -0.024164377 -0.3314933 0.19474123
0002a0 80 72 d9 be a1 66 6b bd 27 72 94 3f 06 58 cb bd
       -0.4247017 -0.05747092 1.1597337 -0.099288985
0002b0 34 0c b0 3d 71 40 7b 3d 1a c3 0f bf b2 63 55 3e
       0.085960776 0.061340753 -0.56157076 0.20838812
0002c0 59 99 f4 3d 3c 41 15 be cd d6 8f bf b9 70 e4 be
       0.11943311 -0.14575666 -1.1237427 -0.4461725
0002d0 d6 00 29 3c 72 9f e0 bb c0 77 b3 3f c1 18 61 3e
       0.010315141 -0.006854945 1.402092 0.21982099
0002e0 14 26 6c 3e 07 9b c5 3d 57 00 95 bf 85 1c 3b be
       0.230614 0.0964871 -1.1640729 -0.18272598
0002f0 f7 56 af be 15 85 76 3e 61 1e 82 3f e5 1d 82 3e
       -0.34246036 0.24074204 1.0165521 0.25413433
000300 ff 1c 12 be e1 d8 be 3d 3d d7 3d 3d fa 21 df bc
       -0.14268874 0.0931871 0.046347845 -0.027237881
000310 93 8e 32 be ba 2e 36 3e ca 3c 85 be 18 56 dc 3d
       -0.174372 0.17791262 -0.2602294 0.107586086
000320 c7 30 16 bc e9 cb 90 3e 52 15 90 bf 93 4a a9 be
       -0.009166903 0.2828057 -1.1256506 -0.33064708
000330 71 f4 a9 be 76 cc c1 3e 01 d2 f0 be 0d f8 d3 3e
       -0.33194306 0.37851304 -0.4703522 0.41400185
000340 fb f6 49 3e 7d 49 18 ba 33 a4 5a 3f 16 be ca bc
       0.19723122 -0.00058092905 0.854068 -0.024748843
000350 a3 73 a4 3d cc 99 28 be 02 79 75 be 6f 80 14 3e
       0.080298685 -0.16464919 -0.23971942 0.14502119
000360 b3 65 5e be 71 52 38 be a9 57 40 3f 80 2a c4 be
       -0.21718483 -0.18000199 0.7513376 -0.38313675
000370 05 f5 9a bd b3 da 4e 3e bf cd 18 be 65 40 0d 3e
       -0.07566265 0.20200615 -0.14922236 0.13794096
000380 a0 20 cf be d0 8e 7a 3e b4 b0 7f bf a2 c2 83 bb
       -0.40454578 0.24468541 -0.99879 -0.004021005
000390 83 29 fd 3c 04 13 89 3d 15 3b 93 bd 23 91 8c 3e
       0.030903583 0.0669308 -0.071890034 0.2745448
0003a0 47 c6 85 bd a7 bb 9d 3e 8c 74 d2 be 65 dd 8d be
       -0.06531959 0.3080723 -0.41104543 -0.27707973
0003b0 dd 01 97 3e 77 d6 58 be c3 ef f5 3e fa 8d 09 3d
       0.2949361 -0.21175562 0.48034486 0.033582665
0003c0 d8 e3 f0 3d aa dd ab 3e 89 96 70 bf 13 38 28 bd
       0.11762208 0.33567554 -0.939797 -0.0410691
0003d0 90 2c 9a 3e 89 8b 08 bf 1e 5c 03 3f 24 ca b8 be
       0.30112123 -0.53337914 0.51312435 -0.3609172
0003e0 be 72 10 3d b7 1c 97 bc 9c ab 92 bf 74 4c 0f 3e
       0.035265677 -0.01844631 -1.1458621 0.13994008
0003f0 06 73 ba 3e c1 69 85 be 7d 60 93 bf 53 b8 0e bc
       0.3641588 -0.26057246 -1.1513821 -0.0087109385

bias f4 [64]
000000 39 2c 03 bf 67 1a af 3e 99 85 a1 be 80 f9 1b bf
       -0.51239353 0.3419983 -0.3154724 -0.6092758
000010 3d 48 47 be a7 11 87 bc 44 3e cf ba 60 dc ba bd
       -0.1946115 -0.01648791 -0.0015811403 -0.091240644
000020 da d2 a3 3e 5f 30 72 be c7 b3 85 be c0 8b 40 3e
       0.31996804 -0.23651265 -0.26113722 0.1880331
000030 a9 29 cb 3e e6 a5 e1 bd 7a 6f 69 be 27 a1 06 be
       0.39680222 -0.11017971 -0.22796431 -0.13147412
000040 bf c7 0f bf 3d b7 7d 3d 8d ce 67 be 9e f3 08 bf
       -0.56164163 0.061942328 -0.22637387 -0.5349673
000050 27 69 37 3e 2a b4 6a be 0b c6 af bd 16 2a a1 bc
       0.17911206 -0.2292029 -0.085826956 -0.019673388
000060 33 94 42 3e 0a 50 ae be e5 6c 96 be 5d 65 98 3c
       0.19001846 -0.3404544 -0.29379955 0.018603021
000070 99 e7 68 bd fd d4 63 3e 8c dd 68 be 3a 1d 39 3e
       -0.056861494 0.22249217 -0.22740763 0.18077555
000080 55 85 9f be 43 20 4b 3d 6e f6 c8 be 7a 99 bd 3d
       -0.31156412 0.049591314 -0.3925051 0.09257789
000090 80 de 3f 3e 32 6b e7 bd 3e ce 93 be 2c b8 02 bf
       0.18737221 -0.11299743 -0.28868288 -0.51062274
0000a0 9b 63 10 be c6 e9 be be e1 5e 81 3e 99 55 da be
       -0.14100496 -0.3728773 0.252677 -0.4264343
0000b0 8d e4 5e be 3f fe 03 be fc 17 2f be c6 79 b1 3e
       -0.21766873 -0.12889956 -0.17098993 0.34663218
0000c0 4b a7 63 be 48 fb fe be 2f 22 11 3a ec 7d dc 3d
       -0.22231786 -0.49801087 0.0005536405 0.10766205
0000d0 5f 8b 24 3e 9a 12 48 be 15 55 11 bf 61 ef c9 be
       0.16068791 -0.19538346 -0.5677045 -0.39440444
0000e0 0d b4 8d 3e 0b bb bd be 62 69 dc 3d 45 99 e7 3d
       0.2767643 -0.37056765 0.10762288 0.11308531
0000f0 9a fb 78 be 0f 7d 75 bd e3 44 f7 3d da fe 06 3e
       -0.24314728 -0.05993372 0.12073686 0.13183156

weight f4 [2, 64]
000000 5b 18 9b 3d f7 0e d8 bc e2 d1 1f bd 8a ce 49 3d
       0.07573005 -0.026374323 -0.03901852 0.049269237
000010 32 2e 4e 3e de e6 c2 3d 54 f4 60 3d 51 0c a1 bc
       0.2013481 0.09516691 0.05492051 -0.019659193
000020 c7 5f 10 3e bb 57 50 bf 26 c8 9d 3e c0 f7 36 be
       0.14099036 -0.81383866 0.30816764 -0.17867947
000030 d1 fb 65 3d 0e 69 84 3d ce bd f7 3d e7 5a 0e be
       0.056148354 0.0646535 0.12096749 -0.13901864
000040 97 4a 5b 3e d4 2e 32 3e 65 b4 7e be da 93 ee 3d
       0.21415173 0.17400676 -0.24873503 0.11649294
000050 91 d9 aa bb 55 84 40 3f af 86 1b 3c 4c d7 be 3d
       -0.005213924 0.7520192 0.00949256 0.09318408
000060 72 2e da bc ef 86 1d 3e 1c 8a 86 3e f4 7b 9c 3d
       -0.026633475 0.15383504 0.26277244 0.0764083
000070 9c 95 5a bd 18 6f a5 bc de 3a b8 3c b3 65 00 3e
       -0.053365335 -0.020194575 0.022489008 0.12538795
000080 d9 71 4e bd 03 72 ec bc a7 7e 01 3d e3 ed 37 bd
       -0.050401542 -0.028862959 0.031614926 -0.0449046
000090 a7 d5 f8 bd 7f 2b 60 3e fd 2a 2f bd ef 3e ac 3d
       -0.12150126 0.21891592 -0.042765606 0.08410441
0000a0 eb 74 cb bb 7c f1 a4 bd 68 f8 3a be 24 c0 9c ba
       -0.006209006 -0.08053872 -0.18258822 -0.0011959118
0000b0 ff cb a5 3e d7 50 1c bf bb 79 53 3e 90 26 67 be
       0.323822 -0.6106085 0.20651905 -0.22573304
0000c0 dc 24 34 ba 0b 30 7b 3a 46 50 81 3c b2 2c f4 3d
       -0.00068719476 0.0009582049 0.015785348 0.119225875
0000d0 a8 41 24 be 2d 25 01 3a d1 c9 ce bc 4c d2 9e bd
       -0.16040671 0.0004926499 -0.025242718 -0.07754955
0000e0 2e dc 7a 3e 97 8b 9e bb b0 34 a7 3d 3f fb 46 3d
       0.24498054 -0.0048384177 0.08164346 0.04857945
0000f0 04 34 01 3e 35 03 b9 bd bd 50 24 3e 3f eb 8a 3e
       0.12617499 -0.09033815 0.16046424 0.27132604
000100 b0 15 c4 bc 46 f3 2a 3e 8d f1 b6 3b 07 b7 1c 3d
       -0.023936123 0.16694364 0.0055829943 0.038260486
000110 d2 57 22 be 44 9e 9e 3d 95 ce 06 3d f8 df d6 3b
       -0.15853813 0.077450305 0.032911856 0.006557461
000120 46 c0 1c be d3 d1 2e 3f 45 08 02 bf 0c d4 1e 3e
       -0.15307721 0.68288916 -0.5079387 0.15510577
000130 a2 32 21 3e 61 d3 f5 39 a4 35 8f be 19 af 91 3e
       0.15741971 0.0004688753 -0.27970612 0.284539
000140 90 19 23 bd 9d de 22 bd f9 18 99 3e f5 08 c3 3d
       -0.0398193 -0.03976308 0.29901865 0.09523193
000150 14 b5 e2 3c 1d 0a 64 bf 79 e1 59 3e 3c 04 93 3d
       0.027674235 -0.8907793 0.21277417 0.07178542
000160 b7 d1 c0 bd a1 05 ec 3c 2e fb 8b be 37 32 e4 bc
       -0.09415 0.028811278 -0.27340072 -0.027855976
000170 3a 35 a6 3d 5c c3 7a 3d 96 6c 1e be 0c 55 8e bd
       0.08115621 0.061221465 -0.1547111 -0.06949815
000180 c4 50 c5 bb d9 c5 5a 3d 5d 25 27 3b 07 d2 5a 3e
       -0.006021591 0.05341134 0.0025504448 0.21369182
000190 d3 8b af 3d f1 ca 70 be 7f 34 1c bd a9 27 85 3b
       0.08571591 -0.23514916 -0.038136 0.0040635657
0001a0 3e 05 86 bc e0 c9 20 be b5 18 75 3d 82 ef e4 3b
       -0.016359922 -0.15702009 0.059838016 0.0069865594
0001b0 79 7a 9e be 4a de 45 3f 0c d4 47 be 78 6c 24 3e
       -0.30952814 0.7729231 -0.19514483 0.16057003
0001c0 59 f8 af 3c a1 4b 54 bc f6 99 38 be 7f 21 9e bd
       0.021480726 -0.012957484 -0.18027481 -0.077212326
0001d0 39 e0 be 3d 55 88 20 be 17 e1 08 bd 66 ef da bd
       0.09320111 -0.15677007 -0.033417787 -0.10690193
0001e0 6e 50 86 be 78 dc 69 bc 4d 89 8f bc 7f 28 07 3e
       -0.26233238 -0.014273755 -0.017521525 0.13199042
0001f0 5b 89 08 be 42 1f 26 3e a7 32 1f be 21 9e fc bd
       -0.13333647 0.16222861 -0.15546666 -0.12334848

bias f4 [2]
000000 ae 2f ce bc ac 9e a7 bd
       -0.02516922 -0.08184561

weight f4 [64, 4]
000000 13 da e5 3d 0f 78 c7 3d a5 ce ba 3e e0 d8 4b 3e
       0.11223235 0.09739696 0.36485782 0.1990695
000010 23 02 7f be 75 22 da 3e 62 82 38 3d d0 e0 59 3e
       -0.24903159 0.42604414 0.045046218 0.21277165
000020 6a 99 04 bf d0 74 6d be 81 a7 63 be 3d d5 0e be
       -0.5179659 -0.23189092 -0.22231866 -0.13948531
000030 f7 4a f2 3d 79 d2 a9 be d6 73 ef 3b 47 26 0f 3e
       0.11830705 -0.3316839 0.00730751 0.13979445
000040 9a 06 17 3e 54 cc a5 be c3 06 03 bf 49 06 15 be
       0.14748612 -0.32382452 -0.5118219 -0.14553179
000050 e1 33 b6 3e dd 72 b6 3e 09 ab 5d be 11 c9 e8 bd
       0.35586455 0.3563451 -0.21647276 -0.113664754
000060 e0 c3 d5 3e da bd ec be ed d6 4d bf 06 c6 4d 3e
       0.41751003 -0.46238595 -0.80406076 0.20095071
000070 4a bd 91 3a 8c f2 b6 bc 11 e3 10 c0 29 5f 54 be
       0.0011119035 -0.022332452 -2.263859 -0.20739426
000080 05 1a d1 be 9d 1b 88 3e cc 12 20 be ab 83 9c 3e
       -0.40840164 0.26583567 -0.1563217 0.30569205
000090 6e ce c9 3e 8a 07 f5 3d a1 d1 38 bf 36 ad 81 be
       0.39415306 0.119643286 -0.7219487 -0.25327462
0000a0 90 b1 30 3d 6b 44 54 bd ea 02 b6 bf d1 46 63 be
       0.043138087 -0.05182306 -1.4219639 -0.22194983
0000b0 b6 96 9d 3e 96 e9 47 be ab 78 d3 be 5c 97 67 be
       0.30779046 -0.195227 -0.41303 -0.22616333
0000c0 10 de 08 3e 69 a9 85 3e ae 89 1c bf 2c 29 8a 3e
       0.1336596 0.26105812 -0.6114758 0.26984537
0000d0 59 fd 17 3e 93 11 03 3e 6a 31 c4 3e 68 83 56 be
       0.14842738 0.12799673 0.3831895 -0.20948565
0000e0 12 3f ee 3d 67 ce 4a 3e 87 5f 54 be 67 c7 94 3d
       0.116331235 0.19805299 -0.20739566 0.072645955
0000f0 ac 8e 50 bd 04 a9 1e 3e 54 80 92 bf 15 99 88 be
       -0.050917313 0.15494162 -1.1445413 -0.26679292
000100 c4 7f 91 3a 77 33 cb 3a 47 f8 c0 bf 56 05 cd bd
       0.0011100699 0.0015503009 -1.5075768 -0.100107834
000110 14 98 4a 3e 6a 46 d0 bd 61 f4 bf 3f 96 4d ea 3d
       0.19784576 -0.101696804 1.4996454 0.114405796
000120 b0 52 67 3e 31 b7 0e bf 5b 50 b1 be a1 26 67 be
       0.22590137 -0.5574828 -0.3463162 -0.2257333
000130 1d 3e b5 3e 58 e7 73 be 28 e9 ab bd 31 7f 86 be
       0.3539895 -0.2381872 -0.083940804 -0.26268914
000140 fa 13 57 3e d8 99 0b 3e fd cd 65 be 3f a6 3e be
       0.21003714 0.13632905 -0.2244186 -0.18618105
000150 e0 9b dc be 60 88 89 3d 37 5f a1 be fd ad 90 be
       -0.43087673 0.067154646 -0.31517956 -0.28257743
000160 32 88 39 be f4 67 c1 3d 9e 93 bc be 8b 35 0e 3d
       -0.1811836 0.094436556 -0.36831373 0.03471903
000170 4e 52 63 be f5 7a 3a be 64 55 8c be 39 06 7c 3e
       -0.22199365 -0.18210967 -0.27408898 0.24611749
000180 3a 91 d0 be ae 8f 9a 3d 2a 71 1e 3f 5c af c4 3e
       -0.407358 0.07546936 0.61891425 0.3841504
000190 d0 ea 74 be 52 5b af be 0c 13 f3 3e 7b 1b c8 be
       -0.23917699 -0.3424936 0.4747547 -0.39083466
0001a0 8c 6c 80 3d 84 07 94 bd a3 86 9c bf 38 af 47 be
       0.06270704 -0.07227996 -1.2228588 -0.19500434
0001b0 14 4e dd 3e 01 db 45 be ad 68 c3 bf 7a 76 b0 bd
       0.4322363 -0.19321825 -1.526632 -0.086163476
0001c0 5f 51 38 be 12 76 81 3e 0e 5a d6 3f 79 71 16 3f
       -0.1799979 0.25285393 1.6746233 0.58766896
0001d0 c1 cc c5 bd 86 4e 86 bd 08 6d 83 3e 80 c5 14 3e
       -0.09658194 -0.06557946 0.25669122 0.14528465
0001e0 d2 b8 49 3e 6a 49 79 3e 62 08 61 3e 7c 22 a8 be
       0.1969941 0.24344411 0.21975854 -0.3283881
0001f0 79 b7 8c bd ba 93 e2 3e 4a 81 50 bf 6a 57 15 bf
       -0.06870932 0.4425333 -0.8144728 -0.5833651
000200 06 40 3a bd 66 fa 93 3e c3 da 77 3e 45 63 81 be
       -0.045471214 0.28901976 0.24204545 -0.2527105
000210 a4 fc 52 be 92 af 76 bd 4d b4 c1 bf a0 f3 3b be
       -0.20604187 -0.06022603 -1.5133148 -0.18354654
000220 98 bb 23 bd 9c 99 cb 3d 7c aa 24 40 13 d6 bd 3e
       -0.039973825 0.09941408 2.5729055 0.37077388
000230 4b 90 ac bd f9 33 b2 be a3 d4 f9 be 38 20 b5 3e
       -0.08425959 -0.34805277 -0.4879504 0.35376143
000240 34 c2 ff 3d 9a 9f 38 3e f5 bc 0b bf b0 1d b9 3e
       0.12488213 0.18029633 -0.545852 0.36155462
000250 af 1d 1c 3f 7d ed 58 3e f3 2a 83 bf cb 4a 2c be
       0.60982794 0.21184345 -1.0247482 -0.16825406
000260 a2 7c c2 be 54 f8 94 3e f4 32 3b bd dc 7f 0f bd
       -0.37985712 0.2909571 -0.04570289 -0.035034046
000270 f7 cc 83 3e a8 ea 6e be 3f 5c bd be a5 4a 01 be
       0.25742313 -0.23331702 -0.3698444 -0.12626131
000280 d1 75 74 3c ec 7f 9b be a6 8a af 3e e6 3a b0 be
       0.014920668 -0.30371034 0.34285468 -0.34419936
000290 98 2e 89 3d 82 aa 95 3e b9 5e a5 3f fa ff b2 3e
       0.0669834 0.2923165 1.2919532 0.3496092
0002a0 bc 93 e5 3e c6 19 c1 3d 95 52 c6 be e5 79 cb 3e
       0.44839275 0.09428744 -0.3873488 0.39741436
0002b0 a8 4e e9 3d 9c bb 0f bf 8e 1d a6 bf 45 f3 bc be
       0.113919556 -0.56145644 -1.2977769 -0.3690435
0002c0 b3 68 0f 3f 46 b0 00 3e ee 39 af be 53 1d 12 be
       0.56019133 0.12567243 -0.34223884 -0.14268999
0002d0 c8 d9 2e 3e 4f ba 4d 3d 41 97 f0 3d 60 6c 8f 3a
       0.17075264 0.050226506 0.117475994 0.0010942332
0002e0 e4 35 20 3e 91 9f 6e be 39 c8 29 be 02 3b c4 be
       0.15645558 -0.23303057 -0.16580285 -0.3832627
0002f0 3d c6 b1 be 69 83 4f 3e 20 26 cf be a1 5b 62 3c
       -0.34721556 0.20264973 -0.40458775 0.013815791
000300 36 21 a5 3d 7a b6 c8 3c 38 6f 05 bf 59 21 b6 3e
       0.08062975 0.024501074 -0.5212283 0.35572317
000310 b3 e4 9a be 5b dc 84 3e f9 ee 70 be c8 35 3e 3d
       -0.3025261 0.25949368 -0.23528661 0.04643801
000320 c0 5d 31 3e 02 eb 54 be ae 72 20 3f 54 e1 a0 be
       0.17320919 -0.20792773 0.6267499 -0.31421912
000330 1e 1f 88 be 33 26 1f bd b2 13 aa bd 3d 87 89 3e
       -0.2658624 -0.03885479 -0.08304538 0.2686099
000340 cc 1d 61 be c1 91 45 3e 23 d8 26 3e 3e c3 9d 3b
       -0.21984023 0.19293882 0.16293387 0.0048145344
000350 2f 2a 21 3e 4c 90 ae be 03 75 bc 3f b9 98 fa 3e
       0.15738748 -0.34094465 1.4723209 0.48944643
000360 78 ca c6 bd ee 02 b1 3e fa f6 8c be 28 e6 a9 3e
       -0.097065866 0.34572548 -0.27532178 0.33183408
000370 7b 48 b2 be 61 5f fa 3c 27 43 45 be fe 19 85 3d
       -0.34820923 0.030563058 -0.19263898 0.06499098
000380 db 23 b2 3e 41 ea 63 3e d1 17 e0 be e2 97 07 3e
       0.3479298 0.2225733 -0.4376817 0.13241532
000390 40 ed a7 3e 0b 18 22 be 5b ce c4 3e f3 e3 c0 be
       0.32798195 -0.15829484 0.38438687 -0.3767391
0003a0 be 71 7a bd d6 90 0d bd 27 78 c2 3d 1c 09 8e 3e
       -0.06114363 -0.034561954 0.094955735 0.27741325
0003b0 7a ee 22 be 69 4c ab be ac de 6e 3f 9c 1d f9 3d
       -0.15911284 -0.33456734 0.9330852 0.12163851
0003c0 15 53 eb 3d 33 f1 9c be 75 52 19 3e 2d 3a ea 3e
       0.11490456 -0.3065277 0.14972861 0.4574751
0003d0 1e 95 88 3d 7e ee df be c8 f1 6a 3e a9 70 f1 be
       0.06669067 -0.43736643 0.22943795 -0.47156265
0003e0 30 e2 4f 3d 5a 5b c8 3d fe 64 9b be 2c 74 2b 3e
       0.05075282 0.09783049 -0.30350488 0.16743535
0003f0 97 7d 06 bd ed 43 df 3c 06 9a f6 bf 84 0d b4 bd
       -0.032834616 0.02725407 -1.9265754 -0.087916404

bias f4 [64]
000000 ef a5 26 3f 5f 21 25 3f a2 6f 90 3e 19 bc 57 3f
       0.65096945 0.64504045 0.2821017 0.8427139
000010 a1 b0 05 3f 95 30 06 bf 00 c5 d7 bd d6 a2 f7 be
       0.5222264 -0.5241788 -0.10535622 -0.4836642
000020 87 81 71 3f 79 65 93 3c d1 28 c4 be 29 ad 2d 3f
       0.9433827 0.017992722 -0.3831239 0.67842346
000030 e1 0a 70 3f 22 e9 81 3f 4b 43 50 3f 72 a9 d0 be
       0.937666 1.0149271 0.8135268 -0.40754277
000040 82 34 5e 3e fe bc 80 be f6 f0 d2 bd 4c 87 32 3f
       0.21699718 -0.2514419 -0.10299866 0.69737697
000050 0a cb 91 3f 4d df e0 be 33 da 43 3f 33 cd 02 bd
       1.1390088 -0.43920365 0.7650482 -0.031933974
000060 94 d9 14 bf 8c 5d 5a 3f 0e 7b a5 be 49 10 d0 3c
       -0.581445 0.8529899 -0.32320446 0.02539839
000070 69 f6 15 bf 9e e5 6f 3f 91 5c c1 3e 7c 5a 9b be
       -0.5857912 0.93709743 0.37765935 -0.30342472
000080 df 12 30 3f 54 22 98 be 90 a0 02 bf 0f 58 de 3e
       0.68778795 -0.2971369 -0.5102625 0.43426558
000090 7c f9 5f 3f 8e bf 50 be be 70 64 3f ef 91 76 3f
       0.8749006 -0.20385572 0.8923453 0.96316427
0000a0 9b 81 41 3f c8 64 b3 be 07 e6 c4 3e 1b 16 2a be
       0.7558839 -0.35037827 0.38456747 -0.16609995
0000b0 2d ee 87 bc 3b d7 1b 3f 10 c4 58 3f 59 a2 66 3f
       -0.016593063 0.6087529 0.8467417 0.9009147
0000c0 29 5f 21 3f 07 a9 3e 3f e9 50 c7 3e 04 d9 63 3f
       0.6303583 0.74476665 0.38928917 0.89003015
0000d0 d4 36 de 3e 75 90 e9 be b6 f1 26 3f 7b d5 5a 3f
       0.43401206 -0.45618024 0.6521257 0.85481995
0000e0 61 fc 2d bf b8 f1 6d 3f dc 5a 36 3f 62 44 00 bf
       -0.67963225 0.9294696 0.7123239 -0.50104344
0000f0 63 7c 6e 3e d6 b2 72 3f ea c7 e4 be 6f b2 b0 be
       0.23289637 0.9480413 -0.44683772 -0.34511134

weight f4 [1, 64]
000000 c1 1d c9 3e 3d 1e 5a 3e 3b 75 3e 3e bc 0a be 3e
       0.39280513 0.21300597 0.18599407 0.37117565
000010 55 3a f1 3e 87 81 f5 bd 60 f6 01 3d 55 74 06 c0
       0.47114816 -0.11987596 0.031729102 -2.1008503
000020 43 59 f9 3e d3 f8 17 be 94 9c a2 bf 8f 56 f6 3e
       0.48700914 -0.14841013 -1.2704034 0.48112914
000030 38 4e ad 3e 7c e8 d3 3e bb 81 9b 3e 8a 1f 93 be
       0.3384874 0.4138831 0.30372414 -0.28735
000040 46 30 e6 be ec b6 0c bf 1c fe 23 3e ac 5c ed 3e
       -0.44958705 -0.54966617 0.16014904 0.46359766
000050 2b 05 b8 3e aa 06 ff bd 16 61 00 3f 8d bd 12 3d
       0.35941443 -0.12452443 0.5014814 0.0358253
000060 76 a3 3e be f1 7d 97 3e 79 67 20 bf 49 b6 44 be
       -0.18617043 0.29588273 -0.62657887 -0.19210161
000070 cd 63 83 bf cd 1d b5 3e e1 e4 0f 3e 13 5f 38 be
       -1.0264832 0.353743 0.14052154 -0.18005018
000080 f9 f6 8f 3e 7c e7 f3 be 6b 71 df bf da 70 1b 3e
       0.28118113 -0.47637546 -1.7456487 0.15179768
000090 41 b3 f0 3e 83 84 92 bd 7d 16 c0 3e c1 b5 cb 3e
       0.4701176 -0.07154181 0.37517157 0.39787105
0000a0 10 ee ad 3e bd 49 6b be dc 72 24 3e cd ce 35 be
       0.3397069 -0.22977348 0.1605944 -0.1775467
0000b0 e1 98 e9 3d 57 62 0c 3f cd 61 b1 3e 61 fe f8 3e
       0.114061125 0.54837555 0.3464493 0.48631576
0000c0 df 46 79 3e ce 0d d3 3e be 71 ad 3e a2 9e 88 3e
       0.24343441 0.4122147 0.3387584 0.26683527
0000d0 2e c3 85 3e 28 15 14 be 26 03 ce 3e 85 40 ba 3e
       0.26125473 -0.14461195 0.40236777 0.3637735
0000e0 db 47 4d be 2c a0 b7 3e fd f7 b3 3e f8 45 36 be
       -0.20046942 0.3586439 0.35150138 -0.17800128
0000f0 de 14 bc 3d 70 53 c2 3e c3 80 84 3a 27 0b d3 bf
       0.091836676 0.37954283 0.0010109175 -1.6487778
