src/cartpole/results/CartPole-v1/train-a2c/20210405-225734/num_env24-num_episodes50000-learning_rate0.001-hidden_layers128-128.pt (torch, 11135 bytes, 7 tensors)

weight f4 [128, 4]
000000 23 20 77 3c 63 da 7a 3e 0f de 75 bf d0 bc d5 be
       0.015083346 0.2449737 -0.9604196 -0.41745615
000010 93 ee 45 be a2 64 51 3e 01 ae 2c bd 53 72 a4 3e
       -0.1932929 0.20448545 -0.04215813 0.32118472
000020 f0 c9 db 3a 16 a8 be bc 01 fa 81 bf 5a 15 b7 bd
       0.0016768556 -0.023273509 -1.015442 -0.08939619
000030 a6 ed cc be 84 b0 97 be f8 bc 5c bf e6 27 0c bb
       -0.4002506 -0.29626858 -0.86225843 -0.0021386086
000040 2e cb e3 3d 7f 5a 42 3e 57 02 88 bd 49 07 60 bd
       0.11122738 0.18979834 -0.06641071 -0.054694448
000050 ea 22 20 3e 5c 14 c1 3e 8a ad c3 3e 5f c5 c7 3e
       0.15638319 0.37710845 0.38218337 0.3901777
000060 c0 a0 e6 bd ab 76 9b bb 8d db 91 3f 04 14 b9 be
       -0.112611294 -0.004744371 1.1395127 -0.36148083
000070 c4 95 7b be 97 8e ae bd 86 9e 30 bf 99 ef cb 3e
       -0.2456885 -0.085232906 -0.6899189 0.39831236
000080 c4 0b cc bd 02 d9 1e be c7 60 b5 be f6 f0 a9 be
       -0.099631816 -0.1551247 -0.35425398 -0.3319165
000090 f6 4a 96 be b5 65 ee 3e 84 a2 65 3f 6d a1 6f 3e
       -0.29354066 0.4656197 0.89701104 0.23401423
0000a0 43 8d e4 3d 8e fa 8c be ae 7f e6 be 28 b2 be be
       0.11159756 -0.27534908 -0.45019287 -0.37245297
0000b0 ff 8a 8e be ed f0 c3 bd be cb 9f 3e 63 aa 1a 3e
       -0.2784042 -0.09567437 0.3121013 0.1510406
0000c0 b8 df dd bd 4d 1b 60 3d e6 c1 06 3f 1b 53 ff 3e
       -0.108336866 0.054713536 0.52639616 0.49868092
0000d0 c8 b4 2b 3e 2a a5 55 bc 39 0c 27 3f 26 f4 22 be
       0.16768181 -0.013039866 0.65253025 -0.15913448
0000e0 93 ef d4 3d fd 6a 66 be ec 92 4f 3d 98 7a 8f be
       0.10397258 -0.2250175 0.050677225 -0.2802322
0000f0 fb 80 61 3d ed 47 2d 3e d1 07 c9 bc c2 26 26 3e
       0.055054646 0.16921969 -0.02453986 0.16225722
000100 57 66 d2 3d a6 8b a3 bd 4c 72 57 3e 5d 28 b2 3c
       0.10273426 -0.0798562 0.21039695 0.021747762
000110 d9 33 b9 3e a5 c6 eb 3e 9a a3 60 bf a5 02 3b be
       0.3617237 0.4604999 -0.87749636 -0.18262728
000120 b3 f0 1a 3d 5a 2b ba 3e e1 37 a7 3f 60 6a 0b 3f
       0.037827205 0.363612 1.3063928 0.5445919
000130 9f 8a 13 3e c1 ba cf be eb 7c 34 bf 42 29 ca be
       0.14408349 -0.4057217 -0.7050311 -0.39484602
000140 a7 ca dd be 77 78 c3 3e 60 54 11 3f d7 b8 cc be
       -0.43318674 0.38177845 0.5676937 -0.39984772
000150 97 7f b9 3d 18 ce b8 bd 73 b6 a2 bd 99 6a 65 be
       0.09057539 -0.09023684 -0.07944956 -0.22403945
000160 aa c2 fe 3d 5e 7c 72 be 83 16 90 3e d4 4d 63 3e
       0.12439473 -0.23680255 0.28142175 0.22197658
000170 c7 06 3e 3e 00 b7 d3 3c c1 16 31 bf 83 ff 56 be
       0.18557273 0.025844097 -0.69175345 -0.20995907
000180 5a d1 28 3e 22 ea 84 bd 88 24 68 bf a8 9f 78 be
       0.16486111 -0.0648997 -0.9068074 -0.24279654
000190 1d b4 03 3f 17 78 a6 3e 38 17 33 bf 93 6a 3f be
       0.51446706 0.32513496 -0.69957304 -0.18692999
0001a0 d1 1b da be 6f 7d 12 bd 97 0b 95 bf 9a 13 e5 be
       -0.42599347 -0.035764154 -1.1644162 -0.44741517
0001b0 bc a8 6b bd b7 13 b7 3d aa 4c 3b bf ed 67 7d 3e
       -0.057533965 0.08939307 -0.73163855 0.24746676
0001c0 97 61 95 be 02 9b b2 3e bf d8 cb 3d 9f bc ad be
       -0.29176018 0.34883887 0.099534504 -0.3393297
0001d0 70 9f e9 bc 29 62 8f 3d 02 79 c0 be 1c 24 c4 3d
       -0.028518409 0.070011444 -0.37592322 0.095772
0001e0 ef c8 ba 3d 2b a2 58 bd 1a 6c a3 3e 20 72 9a 3e
       0.09120356 -0.05288903 0.31918412 0.30165195
0001f0 8c 9e eb be 38 51 a6 be 16 3f 32 bf b7 2a 84 be
       -0.460194 -0.3248384 -0.6962751 -0.2581384
000200 ad 05 c6 bd c7 76 ae be f6 98 09 3f 62 49 0d 3e
       -0.09669051 -0.34074995 0.53749025 0.13797525
000210 b4 be c5 bd 80 40 bc 3d 8e 98 df bd c0 bf 64 bd
       -0.09655514 0.0919199 -0.10917769 -0.05584693
000220 1e 67 80 3d 52 0f 4a bd 82 5e 43 3f e7 7e c6 3e
       0.06269668 -0.049331017 0.7631608 0.38768694
000230 b2 0f ea 3e 73 cb 8a 3e 7e 58 87 3d d7 bb 5d bd
       0.457151 0.27108344 0.066086754 -0.054134216
000240 5a ac 7a be 19 ef 82 bd ad f5 37 3f 56 84 8e bc
       -0.2447981 -0.063932605 0.71859246 -0.017397087
000250 4d 6a b6 3a fa 43 24 be fc 9b fe be a0 38 b9 be
       0.0013917178 -0.16041556 -0.49728382 -0.36176014
000260 1f 6e c7 bd 75 72 66 3e d1 c1 28 3d 69 11 fa be
       -0.09737801 0.225046 0.041200463 -0.48841408
000270 84 07 31 3e ae 79 93 be 37 95 8d bd 9b 67 9f be
       0.17288023 -0.28803772 -0.06913226 -0.31133732
000280 2e c0 1b bc 07 26 f1 bd 9c 4a 9f bf cd 33 dc be
       -0.009506268 -0.11774831 -1.2444644 -0.4300827
000290 1f 12 8f bd 4e 05 37 3d 9e ac 0a be 36 f2 4c 3e
       -0.06985878 0.044682793 -0.1354241 0.20014271
0002a0 a7 c8 9c be ad fa b2 bc b5 bf 1b be 23 59 78 be
       -0.30621836 -0.021848047 -0.15209849 -0.24252753
0002b0 52 bc 47 3e ea 88 1c 3d 96 9f 58 be 4e b2 6a 3e
       0.19505432 0.03821651 -0.21154627 0.2291958
0002c0 b9 79 94 3d 47 45 3e be c4 99 a6 be b3 03 07 bf
       0.07249779 -0.18581115 -0.3253919 -0.5274002
0002d0 e0 29 a4 3c 15 28 ef bc 28 a5 8e 3e 6d 3f 7c 3d
       0.020039499 -0.029193917 0.2786038 0.061583925
0002e0 8c 18 97 3c 2c e6 0c 3b 30 31 e1 bd a9 83 0b 3b
       0.018444322 0.0021499498 -0.1099571 0.0021288192
0002f0 41 e9 c2 be 44 4c ae 3e 4a af 7a 3f 83 66 83 3e
       -0.38068584 0.3404256 0.9792372 0.25664148
000300 b6 bb b8 be a0 cc cb 3c dd 01 45 bf b4 66 c7 be
       -0.36080712 0.024877846 -0.7695597 -0.38945544
000310 c1 d5 85 be d2 75 bd 3e 2b 73 1c bf f5 b7 13 be
       -0.26139644 0.37003952 -0.6111323 -0.14425643
000320 60 cb a1 3d 20 7d 94 3e 97 44 6b bf b5 d7 b2 be
       0.07900119 0.29001713 -0.91901535 -0.34930196
000330 40 0a 7c be 2a 41 c3 3e a1 8e 07 3f ab 86 e6 3e
       -0.24613285 0.38135654 0.5295201 0.45024619
000340 a3 59 40 3e da ff 74 3d 8a 5b b7 3e f3 4b 10 3c
       0.18784194 0.05981431 0.35812026 0.00880717
000350 6c d2 92 3d d5 e8 b9 bd b2 68 2f bf 0f a3 ea bb
       0.07169041 -0.09077612 -0.6851913 -0.0071605514
000360 71 76 fc bd 76 f1 2d be 26 7d 6c 3e cb 8f 99 be
       -0.123272784 -0.16986641 0.23094615 -0.29992518
000370 03 2e c5 bd a9 b2 e0 3e e1 24 23 3f 0c 39 88 3d
       -0.09627917 0.43886307 0.6372815 0.06651506
000380 05 0c bc be 12 a7 47 3e 05 14 8d bf 4b 36 03 be
       -0.3672792 0.19497326 -1.1021734 -0.1281368
000390 53 91 0f be 13 cc 2b bd dd f9 21 3f f6 8a e8 3e
       -0.1402028 -0.041942667 0.63271886 0.4541852
0003a0 29 89 e5 3d 28 44 b5 3e 78 e0 8f be f1 01 99 be
       0.11207802 0.35403562 -0.28100944 -0.29884294
0003b0 3c 84 64 3e ec 6a 91 be a9 32 55 bf 25 2a 93 3d
       0.22316068 -0.28401887 -0.83280426 0.07185773
0003c0 90 b6 e8 3c c7 da 9c 3e a4 7b 5c 3e 9f b5 ca 3d
       0.028407365 0.30635664 0.2153154 0.09897923
0003d0 f4 74 3d 3e 14 6b ff be 92 89 4d be 66 55 17 bf
       0.18501645 -0.49886382 -0.2007201 -0.5911468
0003e0 a2 cb 69 3d c6 14 8e bc 8d 88 13 3d 83 45 94 3d
       0.057078965 -0.01734389 0.036018897 0.07239821
0003f0 e4 46 b1 3e d3 3c 37 be ce 5d 85 bf f2 5c 8d be
       0.34624398 -0.17894296 -1.0419252 -0.27609974

bias f4 [128]
000000 8c b7 ab bc f5 7c 43 be e0 b4 64 3e 2a 70 bd 3d
       -0.020961545 -0.19090636 0.22334623 0.09249909
000010 11 b2 cb be 91 7d 3a bd 23 d7 82 3e 9d 1f 2d bd
       -0.3978429 -0.045529906 0.2555476 -0.042266477
000020 ed 3e ae bc c6 72 79 3d a6 32 6a 3e 7e bf 04 bf
       -0.02127024 0.060900472 0.22870883 -0.51854694
000030 c7 3f b5 be 59 30 c7 be b7 d5 51 3e 04 58 9c be
       -0.3540022 -0.38904074 0.20491682 -0.305359
000040 2c c1 0a be fd 0d 48 be f3 85 0a 3f df a1 e5 3e
       -0.13550252 -0.19536586 0.5411064 0.4485006
000050 fd 0a ed be df f4 d3 be da 6e f2 be b1 d0 21 be
       -0.46297446 -0.4139776 -0.47350198 -0.15802266
000060 0d 4e 4b be d1 76 74 be 18 b9 d6 bd da 18 a6 3d
       -0.19853993 -0.2387345 -0.104845226 0.08110209
000070 f7 b6 be be ee bf 70 3c 18 46 06 be fe 76 93 be
       -0.37248966 0.014694197 -0.13112676 -0.2880172
000080 1d 4d 84 3d 4f 39 11 3e eb 37 96 be 60 7b 69 bd
       0.06460021 0.14182018 -0.29339537 -0.057002425
000090 57 3e 92 be 35 24 5d 3e c9 2d 09 bf 4c ac 1d bf
       -0.28563187 0.21595843 -0.5358549 -0.6159103
0000a0 2c 98 01 3f 0c 88 b0 be 64 ed f0 bb fe 30 97 be
       0.5062282 -0.34478796 -0.007352518 -0.29529566
0000b0 75 ae 03 be 14 6d 4e be 6c cc 10 bd 5d 6d 56 3e
       -0.12859519 -0.20158798 -0.035351202 0.20940156
0000c0 0d ac c6 be 2f 4b 78 be 22 0f f7 bd 5a ca a0 3e
       -0.3880314 -0.2424743 -0.12063433 0.31404382
0000d0 d0 e2 c8 be d2 9b ca 3e 20 19 b0 be 85 56 02 be
       -0.39235544 0.39572006 -0.3439417 -0.12728317
0000e0 5b 47 c8 3e 45 6b 8a 3e 2d f1 8b 3e 5a bc 47 3e
       0.3911694 0.27034965 0.2733244 0.19505444
0000f0 01 4d 83 be 2a ee a2 be 5e ea f6 bd 60 2d c1 3e
       -0.25644687 -0.3182233 -0.12056421 0.3772993
000100 78 0d b7 be 4a 9a db be be 4e 0a 3e 10 89 df 3e
       -0.35752463 -0.4289115 0.135066 0.43659258
000110 e0 87 4e be 48 a2 0f bf 3d c8 0c bf 2f 44 5a 3d
       -0.2016902 -0.56106997 -0.5499304 0.05328768
000120 ea 4c b5 bd 83 88 a3 be f9 db 5a 3d c3 03 3b 3e
       -0.08852561 -0.31940088 0.05343244 0.18263154
000130 09 f3 b3 3e 7f 5d b3 3e 1b 7b 1c be cb 96 ff be
       0.3514636 0.3503227 -0.15281336 -0.49919733
000140 d8 53 e7 be 48 11 f5 3e da cd a6 3e 9f 65 30 3e
       -0.45181155 0.47864747 0.32578927 0.17226265
000150 0c 44 a9 be cc b6 a6 3e 9f 77 c0 3e 7c 87 d3 3e
       -0.33059728 0.32561338 0.37591264 0.41314304
000160 30 f5 d7 be 69 f4 14 be 59 1f e4 be 3e 95 e0 3e
       -0.4217925 -0.1454636 -0.44555166 0.43863863
000170 70 57 8c be cd 25 40 be 3a 36 9d 3e 77 c1 ac be
       -0.2741046 -0.1876442 0.30705434 -0.33741352
000180 f6 27 56 be 2f a8 45 be 4f 3e 18 be fa bf f1 be
       -0.20913681 -0.19302438 -0.14867519 -0.4721678
000190 27 e9 ce 3e 32 07 0f be 51 39 76 3e f4 fc b8 3e
       0.40412256 -0.13967589 0.24045302 0.36130488
0001a0 c1 84 12 3e f3 44 a4 bd e2 50 c6 3e 02 5c e3 3d
       0.14308454 -0.080209635 0.38733584 0.111015335
0001b0 4b 73 ce be 68 4c cc 3e 06 5e ec 3d 0a 03 06 bf
       -0.40322337 0.39902043 0.11541371 -0.5234839
0001c0 89 3b 9c be ee 98 db be b3 5c de 3e e3 d0 5d be
       -0.30514172 -0.42890114 0.434301 -0.21661715
0001d0 49 24 0a bf 80 a9 0b be 84 4a 34 3e e7 0c 32 3e
       -0.53961617 -0.13638878 0.1760655 0.17387734
0001e0 b8 8e e7 bd 0d 86 76 3e 7f 44 d8 3d 8d fa c1 bd
       -0.11306518 0.24074574 0.105599396 -0.09471617
0001f0 8c 5f 41 be d1 c1 01 bf 26 97 e1 be c4 13 32 3e
       -0.18884104 -0.50686365 -0.4406063 0.17390352

weight f4 [2, 128]
000000 f2 b3 1c 3c 60 86 0a bc 2b 2d 2e 3e a1 fb 20 3d
       0.009564387 -0.008454889 0.17009418 0.039302472
000010 29 eb 1d bc fd d9 dc 3c e6 c2 c1 bd 5b 84 83 3d
       -0.009638586 0.026959414 -0.09461002 0.06421729
000020 f7 3c 55 3c 74 78 48 be 6f fc c1 3d d6 61 98 bd
       0.013015023 -0.19577199 0.09471976 -0.07440536
000030 7a df d3 bd 03 b5 83 bd ab c7 1b bd 8c fb 2a bd
       -0.10345359 -0.064310096 -0.038032215 -0.0417438
000040 be 7a 83 bc 33 87 f7 3d 23 51 22 be 7f 42 82 3d
       -0.016049739 0.12086334 -0.15851264 0.063603394
000050 ee bf d3 3c 7a 26 96 bc eb 51 92 bc 03 1c 89 3a
       0.025848355 -0.018328894 -0.017861327 0.0010460619
000060 37 55 18 3e 89 20 f3 3d 75 4f 19 3e 38 0c c8 3d
       0.14876257 0.1187144 0.14971717 0.097679555
000070 e7 fc fc ba 7d 64 4d 3c 07 b5 f7 bd 9c 31 9b 3d
       -0.0019301445 0.012536165 -0.12095075 0.075778216
000080 dc 17 1f bd 1c 29 51 ba 4e 81 e3 bd 50 cd 22 3d
       -0.038841113 -0.0007978843 -0.11108647 0.039746583
000090 89 c9 e9 bc 7d 51 20 3d 98 8a 1b 3e ed af 09 bd
       -0.028538482 0.039140213 0.15189588 -0.03361504
0000a0 08 18 35 3e 65 dc 88 bd 3a 63 86 bb 68 4e 6e bc
       0.17684948 -0.06682662 -0.004101184 -0.014545061
0000b0 43 c3 0c 3e 6f aa ff 3c f5 d7 a5 3a 20 9d 53 be
       0.13746361 0.031209199 0.0012652861 -0.20665407
0000c0 0c f4 06 3e 9c 12 46 3e c7 56 a8 3d 0e d6 ee bd
       0.13179034 0.19343036 0.082196765 -0.116619214
0000d0 d4 ed 8d 3c b0 4b a7 3d 31 6b be 3c a0 20 be bd
       0.01732532 0.08168733 0.023244472 -0.092835665
0000e0 d0 65 0d 3e 9b 2a df bd fc 14 c6 3c 02 12 0f 3d
       0.1380837 -0.10896798 0.024179928 0.034929283
0000f0 1f 7c 38 bd 88 68 e5 3d d7 e8 28 bc 27 1a 8d 3d
       -0.045040246 0.112015784 -0.01030942 0.06889754
000100 3b 61 5e 3c 6d 18 92 bd 3e b6 2d 3d e5 02 e0 3d
       0.013572986 -0.07133565 0.042410128 0.10938052
000110 a9 71 82 3d 52 c6 fd 3c c5 f1 b1 bd b6 e4 1e bd
       0.06369335 0.030978356 -0.08688692 -0.038792334
000120 c2 a3 05 be 61 92 a0 bc 86 09 9f 3d b6 b5 16 bd
       -0.1305075 -0.019601049 0.07765488 -0.036794387
000130 5b 5b 33 bd 38 60 e0 3d b7 83 6b bd 1b 89 92 3d
       -0.043788295 0.10955852 -0.05749866 0.07155057
000140 4f cf 92 3d 88 d3 fd bd 2a cc ee 3d 44 8e 77 bd
       0.07168447 -0.12393862 0.11660035 -0.06043841
000150 b9 cf 26 be ba 61 1c bd 98 a4 c6 3c 8b 7a f6 bd
       -0.16290177 -0.038179137 0.024248406 -0.12035092
000160 7e 1b 5b 3d fc db 05 3d ff c3 9f bb fc 0f 8b 3d
       0.053493015 0.032680497 -0.0048756595 0.06790158
000170 ee 18 47 bc 2c 62 21 3e 4a a2 2b be 30 14 75 bc
       -0.01215194 0.15760106 -0.16761127 -0.014958426
000180 64 c0 07 be df 01 34 bd ac ca b1 3c 33 4b c7 bd
       -0.13256985 -0.043947097 0.021703087 -0.0973114
000190 34 77 e7 bd b6 07 d7 bd 1d 5a 21 3e 3e ee d4 3c
       -0.11302033 -0.104995176 0.15757032 0.025992509
0001a0 56 22 84 3b 72 40 23 3d 2b e3 f7 3d 6d 21 88 bd
       0.0040324135 0.03985638 0.12103876 -0.066470005
0001b0 17 24 1b 3d f2 7c 23 bd c2 fe ce bd a2 65 51 3c
       0.037876215 -0.03991408 -0.10107185 0.012780579
0001c0 42 98 cf bc 35 7a a6 3b ad d9 b6 3d 82 57 91 3d
       -0.025341157 0.005080486 0.08928237 0.07096769
0001d0 fe 94 0b bc 4e 84 56 bc 56 d0 c1 bc 86 51 de bd
       -0.008519409 -0.013093067 -0.023658913 -0.10855393
0001e0 94 c5 2b 3c 8a 5f 13 be 53 70 ff bd f9 93 2e bd
       0.010484118 -0.14391914 -0.12472596 -0.042621586
0001f0 17 ad 70 bd b5 03 fe bc dc 60 44 bd b3 eb 0a 3d
       -0.05875882 -0.031007627 -0.047943935 0.033916187
000200 f4 d3 04 be 43 f4 99 bb 02 34 e7 bd 3c 43 e2 bd
       -0.12971479 -0.0046983077 -0.112892166 -0.1104798
000210 60 21 4e 3a 5b 21 d4 3d a2 c4 c8 3d cc 12 44 bd
       0.00078632496 0.103579246 0.0980313 -0.04786949
000220 d8 35 9a 3b 91 18 fa 3d 4b 67 2a 3d 03 9a 3e bd
       0.0047061257 0.12211717 0.041602414 -0.046533596
000230 87 a7 ca 3d 58 a3 6c 3d 06 d3 dc bc 18 f4 e4 3b
       0.098952346 0.057772964 -0.026956093 0.006987106
000240 d5 6f 98 bc 79 c9 9c bd bc 49 b9 3d 01 dd f1 bd
       -0.018608013 -0.07655615 0.09047267 -0.11809731
000250 9d d3 31 bd 99 5e 72 3c da 87 a9 3d 4e f2 27 bd
       -0.0434147 0.014793062 0.08277865 -0.041002564
000260 3a 5b 63 bd fc 1c 46 bc 53 e1 46 be b1 fe 85 bd
       -0.055506922 -0.012091871 -0.19421892 -0.06542719
000270 50 9c a7 bd 53 4a 2e bb 17 cb ad 3c b1 4c d5 bd
       -0.08184111 -0.0026594594 0.021215005 -0.10415018
000280 b2 47 80 3d e8 98 08 bc 9b 6a 5d 3e b1 db 0a bd
       0.06263675 -0.008337237 0.21622698 -0.03390092
000290 47 f0 7f 3c e3 c4 16 3d 5f b9 63 bb 7a fc 29 bd
       0.015621251 0.03680886 -0.003474794 -0.041500546
0002a0 be 41 ab bd e1 df 96 3c 90 1e 40 bd d8 e6 a9 bc
       -0.08362149 0.0184173 -0.046904147 -0.020739958
0002b0 6e b9 97 bd 98 10 04 bd e1 43 35 ba 48 cb 2f 3e
       -0.07408415 -0.032242388 -0.0006914717 0.1716739
0002c0 fb 8b fb bd 96 a2 bf bd d6 12 57 bd 5c 4d d1 3d
       -0.122825585 -0.09357183 -0.052508198 0.10219833
0002d0 8b 24 02 3e 6a b2 cc bc 70 f0 04 3d b6 d4 75 bc
       0.12709253 -0.024987418 0.03245586 -0.0150043275
0002e0 f4 29 b6 bd b9 16 e9 3c 38 89 90 bb 0c 3a 63 bd
       -0.08894721 0.028453218 -0.004410889 -0.05547528
0002f0 0f ca c7 3c 79 8e 9f bd 97 64 50 bc 3d 83 88 bd
       0.024388341 -0.077908464 -0.012719295 -0.06665657
000300 b4 cd 78 bd ca bb ec 3c b6 2a d7 bd 63 7a dd 3a
       -0.06074305 0.028898139 -0.10506193 0.0016897436
000310 2e a6 c1 bd 5c c5 1f bc 7b 7d 3b 3d 50 43 a3 3c
       -0.094555244 -0.009751644 0.045773964 0.019929558
000320 f8 d4 19 3d aa eb 74 bb f4 04 60 3c 5a 2c 45 3d
       0.03755662 -0.0037371912 0.013673056 0.048138
000330 bf 96 b1 3d 17 b7 db bd c8 8f 1f 3e 3e 8a 8d 3d
       0.08671331 -0.10728281 0.15582192 0.06911133
000340 90 48 85 3b bf 22 9b 3d 90 9c 02 be 5c fe 8d 3d
       0.004067488 0.07574987 -0.12755036 0.06933281
000350 82 c5 99 3d 3c 3e 47 3c eb 21 c7 3d 0e 53 e0 bc
       0.07508375 0.012160834 0.09723266 -0.027383354
000360 80 bd b9 3a e6 07 f4 bd 91 69 3c 3d 17 e9 a3 bd
       0.0014170855 -0.11915569 0.045999113 -0.08003443
000370 ca 68 3b 3d 1b 62 7e bd 82 5b fd 3d 3b aa ac 3d
       0.04575423 -0.06210528 0.12370969 0.084309064
000380 00 25 55 3e aa 80 6f bd 78 60 3e bb 5c ed 8a bb
       0.20814896 -0.058472313 -0.00290492 -0.004239721
000390 55 5a fb 3c 40 b3 04 3e ef 01 9b bd d0 a5 8a bd
       0.030682722 0.12959003 -0.07568728 -0.067699075
0003a0 dc 18 50 bd ad 64 26 3d e8 2f 85 bd ab d0 08 3d
       -0.050804958 0.040623356 -0.06503278 0.033402126
0003b0 99 2b a5 3c dc bb c8 3d 19 d9 b7 bc 7e 8c 95 bc
       0.02016239 0.09801456 -0.022442387 -0.018255468
0003c0 19 26 67 3d 66 d4 45 bc 5d d7 14 be 83 56 03 3d
       0.056432817 -0.0120745655 -0.1453528 0.032064926
0003d0 56 81 b2 3c 64 58 02 3e c8 75 13 3d 33 f9 bc bc
       0.021790188 0.12729031 0.036000997 -0.023068046
0003e0 a6 51 4b 3c 53 ee 8e 3e be a4 8c bb 94 fa 4d 3e
       0.012409603 0.27916202 -0.0042920997 0.20115119
0003f0 0a 09 e9 3d 7d 11 00 3d ec cd 12 bc ad 0a ab 3d
       0.11378677 0.031266678 -0.008960228 0.083516456

bias f4 [2]
000000 26 04 b8 bd 98 cf c0 3b
       -0.08985166 0.005884122

weight f4 [128, 4]
000000 f5 cc 57 3d e7 1e 27 3e f5 5b 4f 3e 11 14 a8 3e
       0.052685697 0.16320382 0.20249923 0.3282781
000010 ba e6 cf 3e 1d 1f c3 3e 17 7f 08 3f cf 70 85 bd
       0.40605718 0.38109675 0.53318924 -0.06515657
000020 af cd 4c be 5c 3d a5 bd 8b 28 0d bc ff 10 50 be
       -0.20000337 -0.08068344 -0.008615623 -0.20318983
000030 6b 32 ee 3d c2 5c 2d 3e 8c a4 b9 3d 79 d1 d8 3d
       0.1163071 0.16929916 0.09064588 0.10586829
000040 98 f7 6b 3e 29 93 3d 3c 54 bc 8f be 1d 22 21 be
       0.23043668 0.01157073 -0.2807337 -0.1573567
000050 31 94 b3 3c 1f 1d 43 3d d4 cf 08 3f f9 6f e1 be
       0.02192125 0.047635194 0.5344212 -0.4403074
000060 2b fb 03 bf a7 86 c3 3e 2e 81 39 3f 1d 80 6d be
       -0.51555127 0.3818867 0.7246274 -0.23193403
000070 d9 01 b8 3d dd 4b 18 be de dd 16 40 33 11 1d 3e
       0.089847274 -0.1487269 2.3572917 0.15338592
000080 b9 dd e0 3e 6f ba 08 bf 98 34 33 bf 13 f9 83 3e
       0.4391916 -0.53409475 -0.70002127 0.25775966
000090 65 9f d2 3e 88 77 9d 3b 51 71 02 3f 2f c6 a1 be
       0.41137233 0.004805509 0.5095416 -0.31596515
0000a0 0a 2c b3 3e 56 16 f3 be e7 3f 0a 3e 36 41 a3 be
       0.34994537 -0.47477978 0.1350094 -0.3188569
0000b0 6d 64 a8 be 24 9b 34 3d 90 d6 bd bf 36 3a 39 be
       -0.3288912 0.044093266 -1.4831104 -0.18088612
0000c0 62 ea 39 bf de 74 ff be 47 70 a5 3f 6e 94 fc 3c
       -0.72623265 -0.4989385 1.2924889 0.030832496
0000d0 7b 2d 2a bd d0 fe a8 be 61 57 08 c0 3e eb 18 be
       -0.04154728 -0.33006907 -2.1303332 -0.14933488
0000e0 1b f5 ad 3e d9 35 4a 3e 6e 20 18 bf e0 ff 63 bc
       0.33976063 0.19747104 -0.59424484 -0.013915986
0000f0 34 7d fc 3d 9a 56 49 3c f5 0a ae be 45 b6 21 3e
       0.12328568 0.012288714 -0.33992735 0.15792187
000100 0e 84 e1 3e cd f7 db be 10 c2 0d bf d9 b8 82 3c
       0.44046062 -0.42962494 -0.5537424 0.015957283
000110 f0 bc a0 3e 94 0e 63 be 76 fa aa bd 05 97 57 3e
       0.31394148 -0.2217353 -0.08348553 0.21053703
000120 df de 2d bd 17 cc 6d 3d e3 8d 20 40 ea 7f 98 3e
       -0.042448875 0.058055963 2.50866 0.2978509
000130 bb 35 ff bd e4 84 48 3e 6d 54 13 40 9e 14 07 3f
       -0.1246142 0.19581944 2.302028 0.52765834
000140 5b c2 64 be 1f f8 d4 3d 78 30 f2 bf d3 9e f1 be
       -0.22339766 0.10398888 -1.8921041 -0.47191486
000150 38 e5 b7 3d 09 6a d4 be 10 5e c0 bf f1 45 a3 be
       0.08979267 -0.41487148 -1.5028706 -0.318893
000160 5f 3b 85 be 3f d5 ba 3d 62 51 38 be e6 ee 8e 3e
       -0.2602186 0.09122705 -0.17999795 0.2791664
000170 42 dc 90 be 09 6b e8 3e 3b 5c 0a 3f ac ed f7 bd
       -0.28293043 0.4539416 0.5404698 -0.12105879
000180 e9 5e 1f 3f 29 98 80 bd 57 7f 7d bf 98 a8 49 be
       0.62254196 -0.06279022 -0.9902243 -0.1969322
000190 68 e9 84 3d 03 38 25 be f1 32 03 c0 13 33 c3 be
       0.06489831 -0.16134648 -2.0499842 -0.38124904
0001a0 e8 00 a9 3d ba 73 b4 be 76 5a dc be 12 e0 92 3e
       0.08252126 -0.35244542 -0.43037766 0.28686577
0001b0 bf 80 bb be 1d 0e a2 be 07 0e 02 3f 12 1f 9f bd
       -0.36621663 -0.31651393 0.50802654 -0.07769598
0001c0 b2 21 91 3d 56 0c 18 be a4 22 f1 bf 0d 38 cd be
       0.07086505 -0.14848456 -1.8838696 -0.40081826
0001d0 20 03 01 be f5 fd 98 3e ef 69 04 3f 03 95 04 3c
       -0.12598848 0.29881254 0.5172414 0.008092168
0001e0 78 87 b7 3c ae 05 2f bd 5e 99 f1 bf 1e 37 71 be
       0.022403464 -0.042730026 -1.8874929 -0.23556182
0001f0 b3 a7 ba be a9 cb e8 3e db 52 16 3f ad d3 97 be
       -0.3645607 0.4546788 0.5872018 -0.29653683
000200 70 b7 31 be b0 17 86 3e 2d 49 ce 3f 86 dd f0 3e
       -0.17355132 0.26189947 1.6116081 0.4704401
000210 0f 04 1d 3f 23 c1 b2 bd 6c f4 a6 bf 1a d0 8b be
       0.6133432 -0.08728244 -1.3043342 -0.27307206
000220 1a 37 fb bd f1 33 9b 3d 06 6e 4d be f5 96 90 bb
       -0.12266369 0.075782664 -0.20061502 -0.0044125267
000230 2a 30 da be b5 16 06 3f 3a 33 64 be ad 00 dc 3e
       -0.4261487 0.523784 -0.22285166 0.42969266
000240 d0 2e 88 bc 66 15 ae bb f5 46 0d 40 bd 1d 48 3e
       -0.016623884 -0.0053126095 2.2074559 0.19542594
000250 f7 da f7 3e a6 21 a5 3e 3e 3b c6 be ac bd 9e 3e
       0.48409244 0.32252234 -0.38717073 0.31004083
000260 e1 50 b3 3c b6 a3 ef bd 2b f9 93 bd ed e9 a8 3e
       0.021889152 -0.11701147 -0.072252594 0.3299097
000270 e3 23 0c bf 1b dc cf 3d 17 aa ff 3f 04 77 c2 3e
       -0.5474226 0.10149404 1.9973782 0.37981427
000280 ed b8 98 3e 68 ef d1 bd 63 2b c5 be 93 dd a0 3e
       0.29828587 -0.10250741 -0.38509664 0.31419048
000290 7c a0 a0 bc 95 5c 9a 3e 03 ca 8b 3b c0 24 dc bd
       -0.019607775 0.3014876 0.004266025 -0.10749197
0002a0 c3 6d 96 3d aa 9b 93 be fc 73 d6 3c 45 bb 74 3e
       0.07345154 -0.288297 0.026178353 0.23899563
0002b0 f0 81 05 3c 9c 23 d5 bb 5a 6e ed 3e 91 78 c4 be
       0.008148655 -0.006504489 0.46373254 -0.38373235
0002c0 ba 0b d2 3e 66 ea e9 be 17 30 f2 be 1e 19 4e be
       0.41024572 -0.45686644 -0.47302315 -0.20126769
0002d0 24 23 76 3e f1 4b 72 be f4 67 c5 bf 4b 80 09 bf
       0.24036843 -0.23661782 -1.5422349 -0.53711385
0002e0 83 57 dc 3d 53 83 a5 bd 61 90 58 be 15 27 ad 3e
       0.10758879 -0.08081689 -0.21148826 0.3381888
0002f0 7c 99 05 3d f8 c0 a0 bd 52 c2 37 3e 2e 3d 36 be
       0.032617077 -0.07849306 0.17945221 -0.17796776
000300 fc be e6 bd 72 c8 74 3e c4 b5 dd 3f f5 d0 f3 3e
       -0.11266896 0.23904589 1.7321095 0.4762036
000310 ec b0 06 be 5a 70 ed bd 77 f6 41 3e bc 0b 8e be
       -0.13153428 -0.11593695 0.18941675 -0.27743328
000320 00 98 a3 bb 00 6e 4e bd 20 fc 37 bd b0 b3 cc bd
       -0.004992485 -0.050397873 -0.04491818 -0.0999521
000330 cf f4 c9 3e 97 bc f6 3e bb 48 da bd aa ff 8e 3e
       0.39444587 0.48190758 -0.106584035 0.2792943
000340 9e 17 e0 be de 04 ca be e4 3f 03 be 2f c7 a5 3c
       -0.43768018 -0.39456838 -0.12817341 0.02023658
000350 a1 50 98 be 64 e7 ef be 6a 5f 09 3f 70 90 41 3e
       -0.29749015 -0.46856225 0.53661215 0.18902755
000360 04 d1 77 bd ae 29 f8 be e0 3a af bf c6 d1 f0 be
       -0.060502067 -0.484693 -1.3689842 -0.47035044
000370 a1 d9 85 3d f8 ab 1f be 68 5c 0c c0 27 9e e3 be
       0.0653565 -0.15592945 -2.19314 -0.44456598
000380 cc 2e 7d be 5a 86 a5 3d 13 8f e3 be 5f 24 80 bc
       -0.24724883 0.08082266 -0.44445094 -0.015642343
000390 6c c6 c8 bd 3e 0b 5f be 9e 4d 7c 3e 90 c9 a2 be
       -0.09803471 -0.21781632 0.24638984 -0.31794405
0003a0 9d 37 e2 be a0 6e ea 3e 35 bd 17 3e d1 79 d0 3e
       -0.44183055 0.45787525 0.1481827 0.4071794
0003b0 80 fb 50 be 1f d1 63 be 4c 54 89 be 46 4c 8b 3d
       -0.2040844 -0.22247742 -0.26822126 0.068016574
0003c0 35 f3 d0 3e e7 bd 0b bf 7f 14 ae be 48 05 62 3e
       0.40810552 -0.54586643 -0.34000012 0.22072327
0003d0 e2 ea 14 bf f7 95 bb be 78 29 ea 3e 13 c2 8e be
       -0.581709 -0.36637852 0.45734763 -0.27882442
0003e0 76 ff b8 3d 96 bb a8 be 0c 48 8a 3e 8c ac d8 be
       0.090331 -0.32955617 0.27008092 -0.42319143
0003f0 fc 14 92 3e 10 49 d8 be 10 c0 d5 be 3c 27 63 3b
       0.28531635 -0.42243242 -0.41748095 0.0034660837

bias f4 [128]
000000 77 94 17 3f f2 ff 17 3e 3d f2 3d 3f 3d 0b 35 3f
       0.59210914 0.14843729 0.7419775 0.70720273
000010 6b 0e 57 3f 17 63 c1 3e 8e 4c 32 3f 8e d8 cf be
       0.84006375 0.37770912 0.69648063 -0.40594906
000020 c1 5d 11 be ff 2e 72 bd df b7 85 3e 0f 5f b2 be
       -0.1419592 -0.05912685 0.26116845 -0.3483815
000030 26 10 cd be 64 6c 25 be 79 7c 40 bf d7 33 e7 3e
       -0.40051383 -0.16154629 -0.7518993 0.45156738
000040 25 47 3b 3f dc 8a 28 3f d0 b2 f3 be 1e ef 0a bf
       0.7315543 0.6583688 -0.4759736 -0.54271114
000050 6d e6 ed be 82 4e 99 be 76 a6 43 3f d4 f5 21 3d
       -0.46464863 -0.2994271 0.76425874 0.03954108
000060 8e 29 41 be 1d 00 e2 be 51 8c 96 3e 87 bc 46 bf
       -0.18863508 -0.4414071 0.29403928 -0.7763142
000070 9c 9d dd be e7 9a 2e 3f 9c 8b b9 be 3a d1 21 3e
       -0.4328431 0.6820511 -0.36239326 0.1580247
000080 96 9e db be c7 65 fa be 00 d7 b4 3e ef 2a c2 3e
       -0.4289443 -0.48905775 0.35320282 0.3792338
000090 f3 bf ca be e1 8e 67 3e a4 5b c0 3e db e4 0f bf
       -0.3959957 0.22613098 0.37569916 -0.5620858
0000a0 b6 4e 55 3f d5 1d 53 3f b1 6e 47 3f bc 71 fd 3d
       0.8332323 0.82467395 0.77903277 0.12375209
0000b0 6a 40 e5 3e ac 62 02 bf ed 20 7a 3e cc 50 95 3e
       0.44775707 -0.5093181 0.24426623 0.29163206
0000c0 0b 88 e0 be 6d bc 29 3f fc 4b 69 be df c0 59 3e
       -0.43853793 0.6630314 -0.22782892 0.2126498
0000d0 82 9f 16 3e a6 d2 32 bf 31 b9 d9 be 45 ce fc be
       0.14709285 -0.69852674 -0.42524102 -0.4937612
0000e0 71 5b 28 3f fe f6 3b 3f 26 0c 22 3f 65 3b 7b 3d
       0.6576453 0.73423755 0.6329979 0.06133594
0000f0 8c 09 af 3e ef 4c 8f 3e 01 06 4a 3f 1e cb 51 3f
       0.3418697 0.27988383 0.7891541 0.8195056
000100 32 58 5a bd fa 83 d5 be c1 71 96 be 64 49 d0 be
       -0.053306766 -0.41702253 -0.29383662 -0.40680993
000110 e7 52 59 3f b2 f2 13 3f ad 3c 42 3f 3d c0 3c 3f
       0.84892124 0.577922 0.75873834 0.7373083
000120 45 18 b1 3e 17 84 00 bf 1e d2 51 3f cc 0b 56 3f
       0.3458883 -0.50201553 0.8196124 0.8361175
000130 9d 3b b3 3e 94 ed e6 bd d8 68 49 3f 28 51 a4 3e
       0.3500642 -0.11275783 0.78675604 0.32093167
000140 83 7f 06 3f b7 4e 1e 3f 8c 80 3c 3f 1c 8d 01 bf
       0.5253832 0.6183886 0.73633647 -0.5060594
000150 64 34 a5 be d0 79 2d 3f 13 26 b4 3e 4e 85 4b bf
       -0.32266533 0.67763996 0.35185298 -0.7950028
000160 6f b9 5a 3f 07 18 a3 3e 05 99 50 3f f8 67 89 be
       0.854392 0.3185427 0.8148349 -0.26837134
000170 61 68 10 3f f4 02 19 be bd 18 a0 be c9 23 53 3e
       0.5640927 -0.14942533 -0.31268874 0.2061912
000180 c5 42 a9 be 9e 3f ff 3e 49 ee 30 3e 8a 0a 0c 3f
       -0.33058754 0.49853224 0.17278399 0.5470358
000190 d3 03 f4 3e 90 a3 93 3e a2 3d 1c bd fe e0 17 bf
       0.47659168 0.28835726 -0.038144715 -0.59327686
0001a0 4d 2a d1 be 27 9b 37 bf 95 6f 23 3e 45 d2 f3 3e
       -0.40852585 -0.7172112 0.15960534 0.4762136
0001b0 e0 51 82 bc de d8 29 bf 2e 61 2f 3f 65 84 0c 3f
       -0.015908182 -0.6634654 0.6850766 0.5488952
0001c0 68 e1 17 3e fa 43 38 be 9e c6 0b 3f 44 2e 3b 3f
       0.1483208 -0.17994681 0.5459994 0.7311747
0001d0 51 fa 17 bf 4c b1 1e 3e 4f 99 ce 3e ad 77 c7 be
       -0.5936633 0.15497321 0.4035134 -0.38958493
0001e0 91 07 4c 3f 8d fc 92 3e a4 9a 16 3f d6 9c d4 be
       0.79699045 0.28708306 0.5882971 -0.41525906
0001f0 3f 95 b3 3e 59 88 c5 be d4 3b 12 bf 0a 39 0a 3f
       0.35074803 -0.38580588 -0.5712254 0.53993285

weight f4 [1, 128]
000000 c9 66 86 3e 8e bb 30 3e a5 4d b5 3e 4c 93 51 3e
       0.26250294 0.17259046 0.354108 0.20466346
000010 77 5d 96 3e 0c 6d 50 3e 3a 18 62 3e 32 10 87 bf
       0.29368183 0.20354098 0.22079554 -1.0551817
000020 e3 ad 04 3d 69 1f 56 3d 7c 00 4b 3e 44 f8 2c bf
       0.032392394 0.05227605 0.19824404 -0.67566323
000030 11 82 a2 be e0 f7 10 bf ad 25 0b bf 38 3a b1 3e
       -0.31739858 -0.5662823 -0.54354364 0.3461473
000040 ba ad 71 3e 67 1d 67 3e b3 36 e3 bf 2d be a7 bf
       0.23601428 0.2256981 -1.7751068 -1.3104912
000050 54 3d 25 bf 30 c5 0b bf 3b 19 9d 3e 3b ae b7 3d
       -0.64546704 -0.5459776 0.30683312 0.08968779
000060 bc 39 a6 be 4d e9 be bf 67 b6 fd 3d 7c 24 a8 be
       -0.32465923 -1.4914948 0.12388306 -0.32840335
000070 0a cc 94 bf ae 0d 54 3e dc b8 a9 bf 80 95 a6 3d
       -1.1624768 0.20708343 -1.325954 0.081339836
000080 d1 8b 69 bf b8 f9 e4 be 67 a7 75 3e 12 d1 9d 3e
       -0.9122897 -0.4472177 0.2398964 0.3082357
000090 21 20 a1 bf cb 2c 88 3e bd e9 17 3e 6a 6a 3d bf
       -1.258793 0.26596674 0.14835258 -0.739905
0000a0 70 1a 84 3e 0b a2 92 3e a6 0f 6e 3e b0 db a5 3d
       0.2580142 0.28639254 0.23248157 0.08098543
0000b0 62 f1 0e 3e e6 6b 26 bf 7c ec 86 3d 59 6c 7b 3d
       0.13959268 -0.6500839 0.065880746 0.061382625
0000c0 ff 91 99 bf 32 8d 95 3e ca 3e 6c 3d 10 c0 b0 3e
       -1.199768 0.29209286 0.057677068 0.34521532
0000d0 53 52 06 3e 09 81 7c be 4f b5 18 bf 70 ba a5 bf
       0.13117342 -0.24658598 -0.59651655 -1.2947521
0000e0 c1 28 bd 3e 2f 10 8b 3e 05 e6 6a 3e cc e1 52 3d
       0.36945155 0.27160785 0.22939308 0.051484868
0000f0 2e 98 36 3e b1 59 7a 3e f2 40 5a 3e fb b9 a7 3e
       0.1783149 0.24448277 0.21313837 0.3275908
000100 b1 6d 6e 3d 6c b5 ef bf 8d 9e 7f be b9 94 b2 bf
       0.05821008 -1.872724 -0.24962826 -1.3951637
000110 90 ce 90 3e d1 a8 a6 3e e4 18 56 3e 7a d0 8b 3e
       0.28282595 0.32550672 0.20907933 0.27307492
000120 5c e5 23 3e e2 b4 aa bf 32 77 7c 3e f0 8a 95 3e
       0.16005462 -1.3336451 0.24654844 0.29207563
000130 97 82 0e 3e 8a 0a 1a 3d ab ee a3 3e 8d c3 19 3e
       0.13917004 0.037607707 0.32018027 0.15016003
000140 46 80 6b 3e 6a bc 9d 3e 0e ab 95 3e 46 0b a4 be
       0.22998151 0.3080781 0.29232067 -0.3203985
000150 b0 a2 18 bf 2b 88 9d 3e 84 c7 fe 3d 65 24 18 bf
       -0.5962324 0.3076795 0.12440398 -0.59430534
000160 23 b9 98 3e 2b 3d 0d 3e 85 7d 9f 3e 4f bf f9 be
       0.29828748 0.13792865 0.3115045 -0.4877877
000170 ef ad 86 3e 2d 31 9d be 9f 3a bc bf ee 85 8b 3d
       0.26304576 -0.3070158 -1.470539 0.068126544
000180 09 0e b8 bf d4 5f 12 3e b5 23 05 3e 38 e3 89 3e
       -1.4379283 0.14294368 0.13001902 0.26931167
000190 bb 0d 99 3e 65 74 b9 3e 23 37 59 3d 62 2e 26 bf
       0.29893288 0.36221614 0.053031098 -0.64914525
0001a0 e3 c9 9b bf f5 bd 3b bf 1c f0 19 3e 61 af 92 3e
       -1.2170986 -0.73336726 0.15033 0.28649428
0001b0 8f dd a0 be 2b aa 3f bf 2e 6f 83 3e 5d cf 63 3e
       -0.31419036 -0.7486903 0.2567076 0.22247072
0001c0 80 10 7d 3d ad b8 10 bf ec af 54 3e 17 c4 5e 3e
       0.061783314 -0.5653179 0.20770234 0.2175449
0001d0 d8 14 69 3b cf b9 35 3e 32 3d 48 3e f1 1c e9 bf
       0.0035565402 0.17746662 0.19554594 -1.8211957
0001e0 25 91 ab 3e 93 ef 55 3d a1 1b 2b 3e 84 bb 43 bf
       0.33509174 0.05223043 0.16709758 -0.76458
0001f0 9b c6 b6 3e 63 98 95 bf d1 69 bd be 15 85 a5 3e
       0.356984 -1.168713 -0.36994794 0.32328096
