src/cartpole/results/CartPole-v1/train-a2c/20210405-225734/num_env24-num_episodes50000-learning_rate0.003-hidden_layers128-128.pt (torch, 11135 bytes, 7 tensors)

weight f4 [128, 4]
-0.05545097 0.01530964 -2.7508023 -0.37749606 -0.05837014 0.15921696 1.9709817 0.4304497
0.11473578 -0.12929438 -2.1415277 -0.2424136 0.20565757 -0.07352915 -1.4712343 0.012558134
-0.1627257 0.046834506 -0.55526257 -0.06266029 -0.14775376 0.18264936 0.05708171 0.25141013
0.10211582 -0.074125774 1.7411066 -0.18315762 -0.22924095 0.1345826 -0.33071122 0.43379176
-0.043566816 -0.09497173 -0.79999954 -0.3134561 -0.23522192 0.32949132 1.5583042 0.4165911
0.005178498 -0.23459977 -1.2803094 -0.60978717 0.10606239 0.035480645 0.32811183 0.33528873
0.088440016 0.035159115 0.25824627 0.18662412 0.008797091 -0.07875977 0.4320554 -0.1875208
0.045258105 -0.09679628 -0.24081537 -0.11093405 0.0026422942 0.08693966 -0.39464173 0.06482376
0.06131165 -0.028248467 -0.019345513 -0.035602 0.23829888 0.21478273 -1.700823 0.01881145
-0.14443645 0.18916072 1.7495965 0.36409503 0.18847403 -0.3375436 -1.0065182 -0.33171642
-0.62207574 -0.112221 0.88343906 -0.087306574 0.08529698 -0.10115506 -0.060414493 -0.20826551
0.21754895 -0.113992795 -0.028163506 0.044508863 -0.054161534 -0.014082888 -2.2605908 -0.438042
-0.11872919 -0.09654947 -1.5069072 -0.35694847 0.30443695 -0.01246092 -1.1101705 0.02459103
-0.3310601 -0.039258704 -1.3243134 -0.2483254 -0.0756366 0.083382025 -0.3159826 0.12075499
-0.12537995 0.10827327 0.36616376 -0.1182004 -0.01997282 0.048921127 -0.2410918 0.03925624
-0.042791057 0.0893411 -0.006442612 0.15625067 -0.18710311 -0.14592995 -0.98416716 -0.50376254
0.009879138 -0.0796677 0.23793805 0.056284733 -0.019443147 0.0223154 0.045421183 -0.0025861494
-0.025835386 0.025718644 2.4797816 0.3622299 0.1032544 -0.014810895 0.11224538 -0.046742003
-0.10508102 0.0035080176 0.48564252 -0.028705843 -0.02905642 -0.06856499 -0.8269832 -0.21698998
-0.46169344 -0.2903643 0.7593795 -0.15645751 -0.28646296 -0.48274216 -0.45511386 -0.32015762
0.060625754 -0.071821295 -1.9463702 -0.20499888 -0.012776202 0.038629625 -0.23816317 0.16449192
0.0046289526 -0.053737532 0.088105895 -0.11254701 0.07718493 -0.00095127977 -0.69824797 0.053335045
0.09904972 -0.171994 -0.0614364 -0.2416745 0.046299513 -0.1291929 0.3364161 0.014241043
-0.029768001 0.0006697589 -0.38559714 -0.088906705 -0.39486343 0.3912572 1.6577446 0.27402636
-0.23036604 0.00940061 -0.37763095 -0.095246814 -0.10092677 0.1427523 -0.21687484 0.047527608
-0.014132765 0.0828289 -2.726461 -0.4491478 -0.24557666 0.30398482 0.5149256 0.46319106
0.1074224 -0.0063221054 -0.06416376 -0.07635555 -0.04013599 -0.010322625 -0.74176985 0.023443306
0.030083269 -0.1292226 0.31303772 -0.25752574 -0.24531293 0.32306334 1.6305885 0.268285
-0.25025365 0.19176807 -1.7003095 0.1369331 -0.05842875 0.094368465 0.6342701 0.18440154
-0.05704477 0.005820708 -0.44566318 0.02287642 0.1715433 0.08822042 -1.8453842 -0.33672497
-0.11594702 0.18209074 0.035041574 0.1199516 0.15186764 -0.41094935 -0.80251056 -0.84527487
-0.0010554658 0.0070665013 -0.112102926 0.062364925 0.1321449 -0.20266858 -1.4052386 -0.1389666
00000000: 8e20 63bd 49d5 7a3c 250d 30c0 2a47 c1be
00000010: 8715 6fbd c509 233e 2149 fc3f e763 dc3e
00000020: 98fa ea3d bf65 04be ca0e 09c0 453b 78be
00000030: e697 523e 7396 96bd 6851 bcbf a2c0 4d3c
00000040: 91a1 26be 8ad5 3f3d b025 0ebf 0a54 80bd
00000050: c34c 17be 6f08 3b3e 83ce 693d d4b8 803e
00000060: 1922 d13d 41cf 97bd 95dc de3f ac8d 3bbe
00000070: 24be 6abe 05d0 093e fb52 a9be f419 de3e
00000080: 1e73 32bd 8a80 c2bd c5cc 4cbf 517d a0be
00000090: 04de 70be 16b3 a83e 8376 c73f 6e4b d53e
000000a0: 64b0 a93b ec3a 70be 2ee1 a3bf 031b 1cbf
000000b0: 3d37 d93d 2754 113d 46fe a73e f7aa ab3e
000000c0: 0a20 b53d 0103 103d db38 843e 651a 3f3e
000000d0: ad21 103c cd4c a1bd 5e36 dd3e 7405 40be
000000e0: 9060 393d 213d c6bd 4e98 76be 6431 e3bd
000000f0: 572a 2d3b 6c0d b23d 7b0e cabe 52c2 843d
00000100: ed21 7b3d 5469 e7bc 7b7a 9ebc 67d3 11bd
00000110: 9f04 743e 01f0 5b3e 91b4 d9bf 781a 9a3c
00000120: 26e7 13be 59b3 413e c7f2 df3f aa6a ba3e
00000130: 56ff 403e 84d2 acbe 97d5 80bf bcd6 a9be
00000140: 5b40 1fbf 20d4 e5bd 1029 623f cacd b2bd
00000150: 2fb0 ae3d 622a cfbd 3075 77bd 8e43 55be
00000160: 27c5 5e3e 0e75 e9bd 27b7 e6bc ed4e 363d
00000170: 7cd8 5dbd eabb 66bc 85ad 10c0 0b47 e0be
00000180: 4a28 f3bd bbbb c5bd 56e2 c0bf f3c1 b6be
00000190: 29df 9b3e e328 4cbc 111a 8ebf 2173 c93c
000001a0: b680 a9be bccd 20bd 1a83 a9bf 0349 7ebe
000001b0: 5de7 9abd 32c4 aa3d 79c8 a1be 644e f73d
000001c0: 9a63 00be 60be dd3d d179 bb3e 0d13 f2bd
000001d0: 0a9e a3bc 8561 483d c5e0 76be 27cb 203d
000001e0: ad45 2fbd 77f8 b63d 8c1c d3bb 2d00 203e
000001f0: f597 3fbe a96e 15be 61f2 7bbf 95f6 00bf
00000200: 1cdc 213c d228 a3bd 08a6 733e d28a 663d
00000210: 3c47 9fbc c9ce b63c 900b 3a3d 637c 29bb
00000220: bba4 d3bc e8af d23c beb4 1e40 3376 b93e
00000230: 0b77 d33d 65a9 72bc e8e0 e53d 8b74 3fbd
00000240: b834 d7bd c5e6 653b 23a6 f83e 8428 ebbc
00000250: bb07 eebc cd6b 8cbd 2cb5 53bf 9f32 5ebe
00000260: 1563 ecbe a1aa 94be b266 423f 6636 20be
00000270: 46ab 92be fb29 f7be af04 e9be b3eb a3be
00000280: b652 783d 0b17 93bd a922 f9bf 3aeb 51be
00000290: 4653 51bc 193a 1e3d 0ce1 73be 9270 283e
000002a0: 78ae 973b e31b 5cbd dd70 b43d 0c7f e6bd
000002b0: 2213 9e3d 4e5f 79ba 61c0 32bf d975 5a3d
000002c0: 94da ca3d 321f 30be bca4 7bbd 8579 77be
000002d0: 8fa4 3d3d 254b 04be bb3e ac3e 4353 693c
000002e0: 06dc f3bc c292 2f3a fd6c c5be b814 b6bd
000002f0: 8a2b cabe dd52 c83e fa30 d43f 2f4d 8c3e
00000300: 13e5 6bbe 0405 1a3c d858 c1be c310 c3bd
00000310: b2b2 cebd a92d 123e 7014 5ebe 4fac 423d
00000320: 1d8d 67bc 33a2 a93d 567e 2ec0 b3f6 e5be
00000330: 7378 7bbe e6a3 9b3e 2ad2 033f 6127 ed3e
00000340: 4600 dc3d aa29 cfbb 4a68 83bd 4c60 9cbd
00000350: a365 24bd 3a20 29bc a1e4 3dbf 2d0c c03c
00000360: 3071 f63c ee52 04be 7b46 a03e 6ada 83be
00000370: 5033 7bbe 8f68 a53e 20b7 d03f a75c 893e
00000380: 3f21 80be d95e 443e bea3 d9bf 3138 0c3e
00000390: fc52 6fbd 4144 c13d 865f 223f c2d3 3c3e
000003a0: c7a7 69bd a3bb be3b f72d e4be 5467 bb3c
000003b0: 0ca9 2f3e e8ac b43d 8d35 ecbf 3767 acbe
000003c0: a275 edbd ff75 3a3e c187 0f3d 2fa9 f53d
000003d0: 3183 1b3e f467 d2be 5571 4dbf ef63 58bf
000003e0: 8e57 8aba 1c8e e73b 3896 e5bd 5d72 7f3d
000003f0: fe50 073e 5a88 4fbe dcde b3bf 434d 0ebe

bias f4 [128]
-0.32851702 -0.35340604 -0.20013261 -0.24590018 -0.45322114 -0.3409196 0.03425836 -0.074510396
-0.2149057 -0.35523903 -0.28041166 -0.67142415 -0.5459382 -0.35077557 -0.223204 -0.28220272
-0.22260495 -0.46335864 0.4387507 0.24810234 -0.6322306 -0.4269575 -0.6978707 -0.327546
-0.24817482 -0.58125377 -0.25087035 -0.19909959 -0.5530533 -0.07540821 -0.29221958 -0.47697133
-0.2557396 -0.07508516 -0.36303565 -0.27218547 -0.36885133 -0.14985144 -0.5635409 -0.32253316
0.44217616 -0.3563189 -0.18700944 -0.3676699 -0.34177276 -0.23332232 -0.19542953 -0.20822911
-0.69858104 -0.40849653 -0.22035757 -0.0109730605 -0.38504 -0.13657665 -0.42892691 -0.27159348
0.2657279 -0.0068858718 -0.10567439 -0.24827057 -0.32707915 -0.42125553 -0.13915427 0.26611492
-0.51838905 -0.5930272 -0.2632943 0.1684242 -0.5077875 -0.72191375 -0.6698162 -0.225479
-0.24894856 -0.34546882 -0.22346814 -0.20929499 0.00043192803 0.2388471 -0.20170692 -0.5235823
-0.45181155 0.1343352 0.36236325 -0.3012724 -0.75419265 -0.215146 -0.23372205 -0.21998656
-0.4217925 -0.39155993 -0.6584064 0.12350176 -0.4687121 -0.30266067 0.14358298 -0.6083388
-0.46398383 -0.27899155 -0.34327215 -0.6883181 0.063848354 -0.37699324 -0.09983477 -0.14580402
-0.1623006 -0.22542691 0.29152077 -0.3119554 -0.31949016 0.05968557 -0.2450383 -0.72260904
-0.4096911 -0.60609585 0.28134772 -0.39444765 -0.6294353 -0.3353558 -0.23374915 -0.31939793
-0.314588 0.27604622 -0.20462063 -0.46113938 -0.41594106 -0.6654602 -0.78623295 -0.2418755
00000000: 6233 a8be a3f1 b4be 90ef 4cbe 42cd 7bbe
00000010: 9a0c e8be 048d aebe 7e52 0c3d e898 98bd
00000020: 3d10 5cbe e4e1 b5be 1e92 8fbe 74e2 2bbf
00000030: 9bc2 0bbf db98 b3be 978f 64be e07c 90be
00000040: 8df2 63be 583d edbe efa3 e03e 8a0e 7e3e
00000050: ddd9 21bf 2c9a dabe a7a7 32bf 1cb4 a7be
00000060: 8a21 7ebe 0ccd 14bf 1472 80be c3e0 4bbe
00000070: e794 0dbf 9f6f 9abd ce9d 95be 9635 f4be
00000080: 4df0 82be 40c6 99bd cfdf b9be e55b 8bbe
00000090: 15da bcbe a872 19be 3744 10bf 1123 a5be
000000a0: ea64 e23e 6e6f b6be 677f 3fbe 3b3f bcbe
000000b0: d7fc aebe 0cec 6ebe ae1e 48be 033a 55be
000000c0: 35d6 32bf 7526 d1be 6aa5 61be 5ac8 33bc
000000d0: f623 c5be c0da 0bbe 4f9c dbbe 4d0e 8bbe
000000e0: 7d0d 883e e1a2 e1bb d16b d8bd a43a 7ebe
000000f0: eb76 a7be ceae d7be 757e 0ebe 3740 883e
00000100: 25b5 04bf a1d0 17bf 83ce 86be 6577 2c3e
00000110: 5dfe 01bf 57cf 38bf 1379 2bbf f8e3 66be
00000120: 5fec 7ebe 4ae1 b0be d5d4 64be 6d51 56be
00000130: 6674 e239 5694 743e 428c 4ebe 7d09 06bf
00000140: d853 e7be 2b8f 093e ad87 b93e 6040 9abe
00000150: c512 41bf 3c4f 5cbe d554 6fbe 2844 61be
00000160: 30f5 d7be 8b7a c8be 528d 28bf 7eee fc3d
00000170: 08fb efbe 57f6 9abe 6b07 133e 17bc 1bbf
00000180: 4a8f edbe fbd7 8ebe 5ec1 afbe 9d35 30bf
00000190: edc2 823d 4205 c1be 2c76 ccbd a64d 15be
000001a0: 2132 26be 50d6 66be 3642 953e 9eb8 9fbe
000001b0: 3794 a3be db78 743d 52eb 7abe e8fc 38bf
000001c0: 08c3 d1be 1929 1bbf cf0c 903e 0bf5 c9be
000001d0: ac22 21bf c1b3 abbe f05b 6fbe 2088 a3be
000001e0: ae11 a1be ee55 8d3e 1288 51be 761a ecbe
000001f0: 3af6 d4be 9a5b 2abf 9046 49bf 36ae 77be

weight f4 [2, 128]
0.71448284 -0.5414252 0.65768486 0.06273528 0.004123372 0.044295836 -0.16243315 0.047206733
0.038931493 -0.24525112 0.21510574 -0.10721151 0.02284521 0.020418325 -0.034830794 -0.020308405
-0.02061168 0.16103804 -0.12227814 -0.06744023 -0.18368994 -0.00820332 0.12376597 0.58345443
0.20091324 0.09026504 -0.01932126 0.010138985 -0.04697288 -0.00020049464 -0.092832625 0.016698359
0.005344936 -0.0055917054 -0.66908896 0.0036886244 -0.0152283115 0.057353858 -0.14118618 0.00013897638
0.15737396 -0.046222657 -0.022602987 -0.042289764 0.020651568 -0.0042444635 -0.009008843 -0.20341438
0.053827424 0.07400256 0.7386106 -0.007585681 0.079006754 0.028079338 0.03730418 -0.3229137
0.130585 -0.043039847 0.008550538 0.22516495 -0.0023085314 0.13763288 -0.02996002 -0.0052596554
-0.017927667 -0.035599858 0.40289173 0.065308236 -0.008600261 0.05483494 0.026258754 -0.060340982
-0.0070265178 -0.0006942735 0.08101536 -0.024573172 -0.009776096 0.04853544 -0.037582774 0.077689216
0.07168447 -0.06824967 0.029250052 -0.0076249554 -0.051736213 -0.20308027 0.05653224 -0.07915793
0.053493015 -0.11324822 0.008325377 0.006899328 -0.016329316 0.08342852 -0.1223755 0.0689643
-0.6257297 -0.07230565 0.023054264 -0.033901878 -0.045778904 -0.6639872 0.04304909 -0.0061486447
-0.023906011 0.047432624 -0.014466859 -0.023759682 0.40207505 -0.12596188 -0.14792971 0.024986718
0.008263258 0.14185241 0.084766835 0.06290458 0.009565427 -0.6286009 -0.0023439478 -0.130357
0.032221034 -0.016619967 -0.15832752 0.16501781 -0.77319735 -0.039155055 0.064694375 0.050754294
-0.83463275 0.52827203 -0.60048306 -0.13391237 -0.0129755875 0.08624259 0.1658543 -0.030859033
-0.021210248 0.17159645 -0.078783065 -0.013727615 -0.027346577 -0.026955519 -0.030157326 -0.014448461
-0.014046194 -0.116730705 0.05423774 0.012945909 0.1661237 0.004667498 -0.0588484 -0.62341076
-0.107658096 0.016357023 -0.025181059 0.022113174 -0.03679817 0.010077266 -0.0069033196 -0.045070354
0.018450713 -0.003543392 0.7742287 0.0021570772 0.00231096 0.018595101 0.28960663 -0.07525438
-0.06414594 -0.002186773 -0.028402425 0.007004542 0.042728662 0.0032112417 0.009582637 0.16843396
-0.044863034 0.025856202 -0.708922 -0.00683526 0.06541125 0.028620703 0.018396273 0.21507278
-0.08144739 -0.037475105 0.011218257 -0.24571069 -0.018343482 -0.10352594 0.006931083 0.00750059
-0.029242625 -0.0068375263 -0.4655441 0.04576128 -0.02226148 -0.03360837 -0.06737189 0.04147835
-0.08592416 -0.02264404 0.010311828 0.03591663 0.052701723 -0.046259888 0.13590552 0.06297265
0.004067488 0.020061504 -0.0401995 0.016519375 -0.036081776 0.17706184 0.06494854 -0.06857567
0.0014170855 0.026772698 0.03279783 -0.019032035 0.049931183 0.0120678935 0.07847373 0.00038652658
0.70130837 -0.03011376 -0.0042560752 -0.06764971 -0.036559377 0.688582 0.03883362 -0.03555822
-0.022866791 0.033047184 0.07047289 -0.009308495 -0.3440367 0.18406145 0.024415538 -0.030461477
0.022828389 -0.1488466 -0.14083652 0.040128086 0.0037050871 0.7427979 0.014685983 -0.0012648897
-0.009327282 0.15186432 0.02930866 -0.0064877765 0.82822526 0.0394141 -0.12159851 0.06667854
00000000: 59e8 363f d89a 0abf 095e 283f 5b7b 803d
00000010: 5a1d 873b 8d6f 353d e054 26be d95b 413d
00000020: a176 1f3d 1c23 7bbe ae44 5c3e b591 dbbd
00000030: e125 bb3c 5544 a73c bcaa 0ebd d05d a6bc
00000040: d3d9 a8bc 28e7 243e f66c fabd 1a1e 8abd
00000050: 3719 3cbe 3867 06bc 0379 fd3d 455d 153f
00000060: 33bc 4d3e e1dc b83d 9e47 9ebc fc1d 263c
00000070: a266 40bd df3b 52b9 081f bebd ffca 883c
00000080: 9324 af3b a03a b7bb 6a49 2bbf d9bc 713b
00000090: 2b80 79bc e1eb 6a3d 1c93 10be 30ba 1139
000000a0: a426 213e f853 3dbd e629 b9bc 0838 2dbd
000000b0: 7a2d a93c 2415 8bbb d499 13bc dc4b 50be
000000c0: 257a 5c3d a78e 973d 9615 3d3f 4e91 f8bb
000000d0: 4bce a13d a406 e63c 45cc 183d f254 a5be
000000e0: 13b8 053e 8d4a 30bd 8e17 0c3c a491 663e
000000f0: bb4a 17bb a2ef 0c3e b76e f5bc 3059 acbb
00000100: 0bdd 92bc 28d1 11bd d347 ce3e 53c0 853d
00000110: 1ce8 0cbc 9a9a 603d 991c d73c 1b28 77bd
00000120: b43e e6bb e8ff 35ba 62eb a53d ad4d c9bc
00000130: eb2b 20bc 19cd 463d 65f0 19bd 861b 9f3d
00000140: 4fcf 923d 7cc6 8bbd ce9d ef3c c3da f9bb
00000150: 5ae9 53bd 46f4 4fbe 5a8e 673d 8e1d a2bd
00000160: 7e1b 5b3d afee e7bd 2967 083c c213 e23b
00000170: 0fc5 85bc 92dc aa3d 02a0 fabd 283d 8d3d
00000180: d22f 20bf fc14 94bd 4cdc bc3c b2dc 0abd
00000190: a982 3bbd 11fb 29bf 3e54 303d 927a c9bb
000001a0: 8ad6 c3bc b648 423d 6806 6dbc aaa3 c2bc
000001b0: c8dc cd3e 27fc 00be e37a 17be f2b0 cc3c
000001c0: 9e62 073c c241 113e 3c9a ad3d 1ed4 803d
000001d0: 4fb8 1c3c fdeb 20bf eb9c 19bb 4e7c 05be
000001e0: 34fa 033d 9926 88bc 9c20 22be 6efa 283e
000001f0: 43f0 45bf 0d61 20bd 7c7e 843d bce3 4f3d
00000200: 7eaa 55bf d63c 073f 42b9 19bf 5320 09be
00000210: 8f97 54bc f49f b03d b6d5 293e 15cc fcbc
00000220: 1dc1 adbc fbb6 2f3e 0459 a1bd cae9 60bc
00000230: ee05 e0bc d2d1 dcbc 7f0c f7bc 3db9 6cbc
00000240: 0222 66bc 8210 efbd 6428 5e3d 141b 543c
00000250: 551c 2a3e d0f1 983b 050b 71bd d997 1fbf
00000260: d97b dcbd 2aff 853c 8248 cebc b026 b53c
00000270: aeb9 16bd 1e1b 253c 3e35 e2bb b19b 38bd
00000280: f325 973c 4138 68bb da33 463f c05d 0d3b
00000290: 7a73 173b c154 983c 5247 943e f81e 9abd
000002a0: f25e 83bd f74f 0fbb 34ac e8bc 5b86 e53b
000002b0: 4004 2f3d b273 523b 7e00 1d3c f479 2c3e
000002c0: 4dc2 37bd 63d0 d33c ea7b 35bf 51fa dfbb
000002d0: 55f6 853d f775 ea3c c8b3 963c 0a3c 5c3e
000002e0: e4cd a6bd 7f7f 19bd c8cc 373c 959b 7bbe
000002f0: 1245 96bc 6805 d4bd 231e e33b 82c7 f53b
00000300: 3b8e efbc 540d e0bb cc5b eebe 2e70 3b3d
00000310: b55d b6bc eea8 09bd 46fa 89bd 34e5 293d
00000320: 02f9 afbd fe7f b9bc f1f2 283c 511d 133d
00000330: c3dd 573d 027b 3dbd d12a 0b3e cef7 803d
00000340: 9048 853b 0658 a43c 3ba8 24bd a453 873c
00000350: 7cca 13bd b34f 353e bd03 853d 6771 8cbd
00000360: 80bd b93a 6b52 db3c 0457 063d 12e9 9bbc
00000370: a484 4c3d 6ab8 453c d6b6 a03d b8a6 ca39
00000380: f288 333f 22b1 f6bc 8c76 8bbb ee8b 8abd
00000390: 49bf 15bd e946 303f 0010 1f3d 7fa5 11bd
000003a0: 2353 bbbc 7c5c 073d 1754 903d a882 18bc
000003b0: 9425 b0be 9b7a 3c3e 1803 c83c 598a f9bc
000003c0: 9a02 bb3c 3e6b 18be 7337 10be 595d 243d
000003d0: 0cd1 723b 0128 3e3f 7a9d 703c a8ca a5ba
000003e0: 75d1 18bc 5282 1b3e b718 f03c 6a97 d4bb
000003f0: 9206 543f ae70 213d a408 f9bd c28e 883d

bias f4 [2]
-0.11680197 0.032834917
00000000: df35 efbd e87d 063d

weight f4 [128, 4]
0.02659421 0.20876116 0.25563744 0.3337231 0.13797426 0.018130787 0.5015694 -0.05289457
-0.14335753 -0.058508266 -0.0445681 -0.17705028 0.10300728 0.11879281 0.0078770155 0.16236119
0.22902487 0.0068455455 -0.27584192 -0.095956266 0.010489491 -0.083713226 0.5891994 -0.22118847
-0.41256312 0.3136523 0.6835759 -0.081754826 0.033315547 -0.040506024 3.416095 0.14429808
0.28534663 -0.2224453 -0.9936915 -0.16793466 0.15516081 -0.26154473 0.13065055 -0.51938605
0.33422944 -0.30611044 -0.02420575 -0.34975535 -0.1490619 0.009653453 -0.12059618 0.00032996302
-0.13396202 -0.5734567 -0.16925175 -0.45542562 -0.12369856 -0.17618513 -2.779882 -0.33975983
0.7176019 0.24524419 0.11792371 0.11819406 0.119691245 0.016885474 -0.40020204 0.15988259
0.43201703 -0.38391417 -0.6410127 -0.03263815 0.21206397 -0.13577577 -0.0595236 0.13762982
-0.0077602854 7.67523e-05 3.6113133 0.23089331 -0.019624935 0.018109243 3.4919746 0.297317
-0.011131218 0.017774176 -3.1475396 -0.22813341 0.011894256 -0.03877276 -2.568256 -0.3420213
-0.26857695 0.14311965 -0.21092336 0.22860412 -0.15735175 0.12899165 0.7751818 0.14494506
0.104821116 -0.12979223 0.091348775 -0.048059992 0.0033810097 0.02093708 -3.023225 -0.2850455
0.082898736 -0.13528112 -0.39538231 0.11147799 -0.39257407 -0.38079572 -1.18825 -0.37648743
0.0015283439 0.013111677 -2.9893389 -0.25095785 -0.10752051 0.22075555 0.34065574 0.05587843
-0.017066924 0.02996138 -2.8715532 -0.17951581 -0.12933625 0.104854375 0.74034625 0.0766875
-0.0272906 0.030299453 2.8810558 0.32500422 -0.013673723 0.008038267 -3.0809505 -0.20823716
-0.07785768 0.05497988 -0.19032802 0.07259674 -0.4463 0.54195714 -0.16491707 0.46049112
-0.0034235585 -0.016748542 3.1778717 0.15509163 0.051919363 0.03692182 -0.3886708 0.20837127
-0.011590923 -0.0061467243 -0.105444014 0.049586695 -0.6060517 -0.016645746 1.5466682 0.11654111
0.2528559 -0.05407747 -0.39029193 0.29457834 -0.010806451 0.27792147 0.0060061524 -0.017682467
0.031008024 -0.2019889 0.03871019 0.18473132 0.37589762 -0.4390848 -0.009245682 -0.4877106
0.28660023 -0.5010181 -0.5460274 -0.2248732 -0.022072246 -0.3863986 -2.042237 -0.6278741
-0.080477774 0.05947226 -0.13875403 0.12821007 0.09279326 -0.19988336 0.07812222 -0.21416618
0.42787606 0.34490454 1.3239406 0.45184454 -0.085840635 -0.117811926 0.16781677 -0.186495
-0.004992485 -0.050397873 -0.04491818 -0.0999521 0.17179775 0.19850722 -0.09368341 0.24589378
-0.0891355 -0.064668305 -0.20068808 -0.08813523 -0.4568598 -0.3418422 0.33926556 -0.04963099
-0.32749945 -0.28312576 0.08567157 -0.19876903 0.012861981 0.013134619 -3.0895288 -0.32576066
-0.20411591 0.10662582 -0.4602953 0.012539395 -0.042297084 -0.21370444 0.20437789 -0.2827691
-0.3391823 0.41553488 0.012675237 0.431336 0.0074619167 -0.04228082 0.031954627 -0.08151211
0.26007912 -0.4844033 -0.4801823 -0.0024097846 -0.50017256 -0.41548377 0.13180149 -0.21768495
0.10938421 -0.38335854 0.1425374 -0.38123474 0.3480324 -0.31497192 -0.46378124 -0.057271365
00000000: 1adc d93c 7cc5 553e e9e2 823e c1dd aa3e
00000010: 2049 0d3e 0487 943c da66 003f faa7 58bd
00000020: 51cc 12be 5da6 6fbd 0a8d 36bd ab4c 35be
00000030: 7bf5 d23d a549 f33d 990e 013c 0342 263e
00000040: 7f85 6a3e 9950 e03b 273b 8dbe b884 c4bd
00000050: 1ddc 2b3c d771 abbd c6d5 163f 3b7f 62be
00000060: 793b d3be 0997 a03e d5fe 2e3f 136f a7bd
00000070: e275 083d a5e9 25bd 4da1 5a40 e0c2 133e
00000080: f418 923e b3c8 63be 9162 7ebf 10f7 2bbe
00000090: 7ae2 1e3e 31e9 85be 42c9 053e 7cf6 04bf
000000a0: 1f20 ab3e 82ba 9cbe 234b c6bc 2213 b3be
000000b0: afa3 18be 8429 1e3c 21fb f6bd e3fe ac39
000000c0: 572d 09be 0fce 12bf 5550 2dbe 8c2d e9be
000000d0: ac55 fdbd e069 34be 96e9 31c0 00f5 adbe
000000e0: c2b4 373f 4b21 7b3e fc81 f13d ba0f f23d
000000f0: af20 f53d 6853 8a3c 48e7 ccbe 43b8 233e
00000100: 5631 dd3e 6690 c4be 6919 24bf 95af 05bd
00000110: 4c27 593e ce08 0bbe 05cf 73bd d5ee 0c3e
00000120: fe49 febb 14f6 a038 c21f 6740 4c6f 6c3e
00000130: 79c4 a0bc d659 943c 837c 5f40 ef39 983e
00000140: b65f 36bc 269b 913c 4a71 49c0 ce9b 69be
00000150: 20e0 423c 30d0 1ebd 4e5e 24c0 6a1d afbe
00000160: eb82 89be f58d 123e 4bfc 57be 3317 6a3e
00000170: d120 21be 6316 043e 5072 463f 7a6c 143e
00000180: 74ac d63d 41e8 04be 1115 bb3d 8eda 44bd
00000190: ee93 5d3b 3d84 ab3c 857c 41c0 7cf1 91be
000001a0: d0c6 a93d 2287 0abe 8d6f cabe 934e e43d
000001b0: 78ff c8be a8f7 c2be 9318 98bf f6c2 c0be
000001c0: b652 c83a 5cd2 563c 5451 3fc0 8c7d 80be
000001d0: b733 dcbd be0d 623e 6e6a ae3e c8e0 643d
000001e0: efcf 8bbc 9171 f53c 87c7 37c0 fed2 37be
000001f0: b970 04be e4bd d63d 5587 3d3f 560e 9d3d
00000200: 8990 dfbc 8f36 f83c 3863 3840 f466 a63e
00000210: c007 60bc efb2 033c 4b2e 45c0 1f3c 55be
00000220: d973 9fbd 9532 613d 59e5 42be 9aad 943d
00000230: 6f81 e4be b4bd 0a3f 05e0 28be 7ec5 eb3e
00000240: c85d 60bb 3d34 89bc 4062 4b40 57d0 1e3e
00000250: 66a9 543d 563b 173d dcff c6be 475f 553e
00000260: dbe7 3dbc 766a c9bb 08f3 d7bd 6b1b 4b3d
00000270: 3426 1bbf a95c 88bc 39f9 c53f 1bad ee3d
00000280: 5476 813e 5680 5dbd 58d4 c7be f9d2 963e
00000290: 8a0d 31bc b94b 8e3e 42cf c43b d2da 90bc
000002a0: 8a04 fe3c 2ed6 4ebe 948e 1e3d 352a 3d3e
000002b0: a775 c03e b9cf e0be 337b 17bc 34b5 f9be
000002c0: 44bd 923e b942 00bf 74c8 0bbf 2945 66be
000002d0: dbd0 b4bc 0ad6 c5be 03b4 02c0 5bbc 20bf
000002e0: 88d1 a4bd 2f99 733d 8915 0ebe 8049 033e
000002f0: 650a be3d 39ae 4cbe 8bfe 9f3d 614e 5bbe
00000300: 9212 db3e 5497 b03e e376 a93f 2b58 e73e
00000310: 37cd afbd 6147 f1bd 29d8 2b3e 8cf8 3ebe
00000320: 0098 a3bb 006e 4ebd 20fc 37bd b0b3 ccbd
00000330: c0eb 2f3e 7a45 4b3e 16dd bfbd 94cb 7b3e
00000340: ac8c b6bd d170 84bd 2d81 4dbe 3e80 b4bd
00000350: 87e9 e9be f105 afbe 37b4 ad3e dd49 4bbd
00000360: 02ae a7be dcf5 90be 9374 af3d 1c8a 4bbe
00000370: 0fbb 523c 9632 573c d7ba 45c0 1aca a6be
00000380: c303 51be a35e da3d d3ab ebbe 0972 4d3c
00000390: b53f 2dbd 56d5 5abe 7048 513e 1dc7 90be
000003a0: 4da9 adbe fdc0 d43e ccab 4f3c 12d8 dc3e
000003b0: 1883 f43b a72e 2dbd dbe2 023d d2ef a6bd
000003c0: 1729 853e b603 f8be 74da f5be 7aed 1dbb
000003d0: 4f0b 00bf 4aba d4be f8f6 063e cee8 5ebe
000003e0: d404 e03d 9247 c4be 53f5 113e 3331 c3be
000003f0: 4d31 b23e 0044 a1be bc74 edbe 6195 6abd

bias f4 [128]
0.67340815 -0.2907225 0.87666667 0.70509195 0.9493729 0.3071705 0.76129615 -0.666946
-0.4507255 -0.39194748 -0.19401531 -0.4717817 -0.58110034 -0.29440606 -1.5977985 0.54370314
0.767084 0.77097243 -0.7387239 -0.74244773 -0.6276289 -0.51191 0.84548753 -0.24171539
-0.43672955 -0.60843694 0.11206457 -0.91407615 -0.5957692 0.6918871 -0.5593819 -0.20853196
-0.64720327 -0.5912671 0.20038694 0.30187252 -0.6292803 -0.089052394 0.07786256 -1.0289629
0.9419857 0.9327381 0.85669845 -0.19108753 0.3129155 -0.57665044 -0.19755512 -0.33270693
-0.9596925 0.7634378 -0.22782892 0.103796355 -0.18826465 -1.2505083 -1.0162421 -0.6380565
0.7974665 0.81256753 0.7219625 -0.1566566 0.1560155 0.1899546 0.79277194 0.945286
-0.4190895 -0.52310956 -0.46077618 -0.48707968 0.9540822 0.6606882 0.7957008 0.85008377
0.078644596 -0.72109514 0.8598974 0.9575053 0.10614705 -1.0303357 0.9047477 0.0049977032
0.5658911 0.6923724 0.8049898 -1.184815 -0.6254552 0.82491297 -0.040057622 -1.4018
0.9851894 -0.027749319 0.9398134 -0.6286611 0.60412943 -0.20896897 -0.4329097 -0.16768532
-0.5310541 0.3210617 -0.22589049 0.9126575 0.61133677 0.4456645 -0.22553773 -0.94697946
-0.64613837 -1.3169223 0.011270437 0.52899384 -0.6052602 -1.1480976 0.720677 0.5291043
-0.32416567 -0.602359 0.54798746 0.7454238 -0.66556776 -0.002014632 0.28832117 -0.6437325
0.9201123 -0.1487513 0.5669586 -0.36623558 0.3232288 -0.5859359 -0.78940874 0.63836735
00000000: 7a64 2c3f 94d9 94be 3a6d 603f e880 343f
00000010: 1a0a 733f 7445 9d3e 4ee4 423f f9bc 2abf
00000020: 7ec5 e6be 57ad c8be f3ab 46be 5f8d f1be
00000030: fec2 14bf 64bc 96be a984 ccbf 2130 0b3f
00000040: 9e5f 443f 735e 453f 021d 3dbf 0e11 3ebf
00000050: 4aac 20bf 890c 03bf df71 583f 3d84 77be
00000060: 049b dfbe 86c2 1bbf 1c82 e53d e500 6abf
00000070: 5584 18bf 831f 313f a733 0fbf 6789 55be
00000080: 1daf 25bf 485d 17bf 3c32 4d3e 098f 9a3e
00000090: 8418 21bf 1a61 b6bd 6876 9f3d 0eb5 83bf
000000a0: fa25 713f edc7 6e3f 9750 5b3f 73ac 43be
000000b0: 7636 a03e 5d9f 13bf e44b 4abe 9058 aabe
000000c0: 68ae 75bf a970 433f fc4b 69be 2f93 d43d
000000d0: 73c8 40be a810 a0bf 3914 82bf ac57 23bf
000000e0: c426 4c3f 6d04 503f 89d2 383f 966a 20be
000000f0: 87c2 1f3e 7583 423e 1af3 4a3f 43fe 713f
00000100: e692 d6be 82ea 05bf dbea ebbe 8262 f9be
00000110: bb3e 743f dd22 293f 0cb3 4b3f 179f 593f
00000120: 6b10 a13d b199 38bf 3c22 5c3f 111f 753f
00000130: a063 d93d 0ae2 83bf 8c9d 673f c6c3 a33b
00000140: 3dde 103f 513f 313f d013 4e3f 05a8 97bf
00000150: d51d 20bf 7f2d 533f 7613 24bd 2f6e b3bf
00000160: 5f35 7c3f 8a52 e3bc 9c97 703f efef 20bf
00000170: 3aa8 1a3f f6fb 55be 57a6 ddbe b3b5 2bbe
00000180: 29f3 07bf 3362 a43e d64f 67be eca3 693f
00000190: 9180 1c3f 232e e43e 5df3 66be 3f6d 72bf
000001a0: 5369 25bf e990 a8bf a4a7 383c 246c 073f
000001b0: 55f2 1abf ddf4 92bf 4a7e 383f 6173 073f
000001c0: 0bf9 a5be 3334 1abf e848 0c3f 18d4 3e3f
000001d0: a662 2abf eb07 04bb d59e 933e a7cb 24bf
000001e0: 7b8c 6b3f 4352 18be 3324 113f 3b83 bbbe
000001f0: 3f7e a53e e5ff 15bf b116 4abf 0b6c 233f

weight f4 [1, 128]
0.2409446 -0.040789094 0.37895253 0.21076714 0.3346267 0.044258945 0.23282295 -2.8547418
0.014374951 -0.011077166 0.031214206 -0.04642027 -0.16110961 -0.8500713 -3.043068 0.2559416
0.23476835 0.23159747 -3.8577776 -3.163989 -1.9227495 -1.4437621 0.34802243 0.0027039961
0.049034357 -2.4992747 0.016586406 -0.9553562 -2.7696407 0.19282539 -2.748591 0.00061241013
-2.4548001 -3.2501411 0.01975058 0.20256136 -3.4002416 -0.017880162 0.0074311607 -1.1265436
0.3075448 0.32544497 0.24472368 0.18097071 0.06930806 -0.5289149 0.0032802874 -0.020356584
-1.4541137 0.28173706 0.057677068 0.03734853 -0.011342974 -0.94281137 -0.68957347 -2.2468452
0.37792695 0.27818146 0.22599435 -0.0198412 0.053981196 0.11158555 0.21023253 0.3773559
-0.006388619 -2.4070191 -0.3106322 -0.6162484 0.32209715 0.28271043 0.21179992 0.28687873
0.043614224 -3.0348077 0.26020673 0.3485039 0.03928032 -0.89390594 0.33999062 0.017228909
0.1592654 0.30271614 0.29356802 -0.9585276 -1.9316814 0.3249679 0.022233468 -1.8771808
0.3381861 -0.011800913 0.37558195 -0.53046095 0.22431456 -0.31751767 -1.0712206 -0.028693557
-2.7062447 0.06541579 -0.0175629 0.37467843 0.23244639 0.18174753 -0.009576888 -0.75190955
-2.9015799 -2.1507869 0.0056465436 0.18513381 -2.7997599 -1.6356074 0.25568315 0.15027018
0.0035305377 -1.0855732 0.1455068 0.2297771 0.018890863 0.017177591 0.09120602 -3.7733939
0.3602197 0.0027841988 0.13571574 0.0041015837 0.15467933 -2.2590525 -0.8545638 0.26743466
00000000: 2eba 763e 7712 27bd 1106 c23e 57d3 573e
00000010: 3154 ab3e de48 353d 2469 6e3e 17b4 36c0
00000020: ea84 6b3c 007d 35bc efb4 ff3c 2e23 3ebd
00000030: ebf9 24be 469e 59bf a0c1 42c0 c70a 833e
00000040: 1d67 703e e327 6d3e d4e5 76c0 cc7e 4ac0
00000050: a81c f6bf 32cd b8bf ff2f b23e 8735 313b
00000060: 40d8 483d 1ef4 1fc0 37e0 873c 3992 74bf
00000070: cb41 31c0 0574 453e eae8 2fc0 268a 203a
00000080: 721b 1dc0 5002 50c0 f8cb a13c 3f6c 4f3e
00000090: 8f9d 59c0 6b79 92bc 1881 f33b 9532 90bf
000000a0: 8376 9d3e b9a0 a63e d898 7a3e 6350 393e
000000b0: 62f1 8d3d f866 07bf 17fa 563b dac2 a6bc
000000c0: 6620 babf d73f 903e ca3e 6c3d c6fa 183d
000000d0: e2d7 39bc 165c 71bf e387 30bf 50cc 0fc0
000000e0: a47f c13e cd6d 8e3e 106b 673e 038a a2bc
000000f0: 631b 5d3d f786 e43d 3247 573e cb34 c13e
00000100: 9f57 d1bb 9a0c 1ac0 2f0b 9fbe 75c2 1dbf
00000110: ebe9 a43e 6cbf 903e 14e2 583e c5e1 923e
00000120: d4a4 323d 4a3a 42c0 d139 853e 1a6f b23e
00000130: 67e4 203d 05d7 64bf 4013 ae3e a423 8d3c
00000140: 7816 233e 9cfd 9a3e 8c4e 963e 1162 75bf
00000150: 5641 f7bf 3162 a63e f622 b63c 7647 f0bf
00000160: ba26 ad3e 9e58 41bc 474c c03e 4acc 07bf
00000170: b7b2 653e ad91 a2be c21d 89bf c00e ebbc
00000180: 1d33 2dc0 b7f8 853d 12e0 8fbc dad5 bf3e
00000190: 6d06 6e3e 061c 3a3e 61e8 1cbc 257d 40bf
000001a0: 7cb3 39c0 7ea6 09c0 a406 b93b b893 3d3e
000001b0: 442f 33c0 955b d1bf e7e8 823e 6de0 193e
000001c0: 9860 673b 10f4 8abf bcff 143e b04a 6b3e
000001d0: 03c1 9a3c 05b8 8c3c 39ca ba3d 497f 71c0
000001e0: b76e b83e 1b77 363b 11f9 0a3e 9466 863b
000001f0: 4264 1e3e 5194 10c0 b1c4 5abf 32ed 883e
