src/cartpole/results/CartPole-v1/train-a2c/20210405-225734/num_env12-num_episodes100000-learning_rate0.002-hidden_layers32-32.pt (torch, 6143 bytes, 7 tensors)

weight f4 [32, 4]
000000 3a 90 75 bd 83 91 f4 3b cf e0 17 c0 e9 c4 a6 be
       -0.059952 0.0074636354 -2.3730962 -0.32572106
000010 44 e5 40 bd 84 98 6c 3e 02 82 63 bd bc b6 9d 3e
       -0.047093645 0.23105055 -0.055543907 0.30803478
000020 cf a6 3c bb 6a 57 d6 bb 80 d4 13 c0 70 40 76 be
       -0.002878595 -0.0065411823 -2.309845 -0.24048018
000030 88 fa 98 be 71 de 18 be e7 3b c8 3f e6 fa ad 3e
       -0.2987864 -0.14928605 1.5643281 0.33980483
000040 68 d8 7b bd 5d 27 29 3d 2e e9 13 c0 87 96 8c be
       -0.061485678 0.041297305 -2.3111072 -0.27458593
000050 ba 98 18 3d 71 12 2e 3e 32 a8 72 3f 08 68 df 3e
       0.037255026 0.16999222 0.94787896 0.43634057
000060 62 36 68 3d 32 74 93 3d 64 d7 5b bf 18 7b 6b be
       0.05669249 0.07199897 -0.85875535 -0.22996175
000070 79 15 e4 bd 37 41 39 3e 57 d0 23 40 46 46 28 3f
       -0.11136908 0.18091284 2.559591 0.6573223
000080 a2 16 b2 3d 67 92 c9 bd 1c 2f ee bf 3f 23 ef be
       0.08695723 -0.09842377 -1.8608127 -0.46706578
000090 ba 08 80 be f0 c1 db 3e 6a ec d5 3f 85 8e 6b 3e
       -0.25006658 0.429214 1.6712773 0.23003586
0000a0 23 7a fd 3d 1d a3 04 be d2 7e 95 bf 05 bf 9e be
       0.12376811 -0.12952848 -1.1679327 -0.3100511
0000b0 0d 25 45 be 7c 7e 01 be c6 ed ba 3f 86 dd c5 3e
       -0.19252415 -0.12645906 1.4603813 0.3864557
0000c0 ae 95 08 be eb 19 0f 3e 61 70 90 3f 37 42 f9 3e
       -0.13338348 0.1397473 1.1284295 0.4868333
0000d0 28 96 b1 3d 2b 61 ad bd a2 2c 23 bf ff e3 b0 bd
       0.08671218 -0.08465799 -0.6373998 -0.08637237
0000e0 76 1b a6 3d ad b9 af bd f7 76 12 3f 71 81 43 be
       0.081107065 -0.08580337 0.57212776 -0.19092347
0000f0 16 8c 73 3d bf fe 94 3d 18 c4 88 3f cc 0b e5 3e
       0.05945977 0.072751515 1.0684843 0.44735563
000100 fd 3a 02 3f 4a 38 a2 3d c7 44 90 3f f1 c8 8f 3e
       0.5087126 0.079208925 1.1270989 0.28082994
000110 49 55 6b 3c 78 85 01 3e cd f4 27 bf f3 69 54 3c
       0.014363595 0.1264857 -0.6560791 0.012964713
000120 dd ee d4 3d 64 b8 62 3e dd 5e e8 3e 63 9e cd 3e
       0.10397122 0.22140652 0.45384875 0.40159902
000130 06 19 9d 3d 6d 09 d2 be b9 2d d8 3f 24 04 4f 3d
       0.076707885 -0.41022816 1.6888953 0.05054106
000140 7a a7 50 be 57 5c 33 3e 1e 42 ae 3e 61 1e e9 bd
       -0.20376387 0.17515694 0.34034818 -0.113827474
000150 bc 3b ab 3d 74 64 ce bd bc 3e 91 bd 97 02 59 be
       0.08361003 -0.10077754 -0.07092044 -0.21192394
000160 b0 3e dc 3d fc 0b 9d bd 87 17 29 3e 60 ac 13 3d
       0.10754144 -0.076683015 0.16512881 0.03605306
000170 b3 c3 41 bb 93 f2 98 bd 84 8e 26 c0 d4 b1 c7 be
       -0.0029566109 -0.07468142 -2.6024485 -0.3900286
000180 83 8b 56 bc 27 2d ea bb 5c c6 10 c0 36 de 94 be
       -0.013094786 -0.007146496 -2.262107 -0.29075783
000190 e9 99 29 3c 13 b8 8b 3e ea 78 98 bf de 16 e5 3a
       0.010351636 0.27288875 -1.19119 0.0017478128
0001a0 e5 24 5c be a7 19 63 3e 18 55 3a bf d4 79 2c 3d
       -0.21498449 0.22177754 -0.7278609 0.04210837
0001b0 35 11 2d 3d 8b ee 21 3e 1c 48 8b be 83 4d 5b 3e
       0.042252738 0.15813653 -0.27203453 0.21416287
0001c0 6e ad 6c bd 93 c8 06 3e 51 f0 54 3f 01 ec 8a 3d
       -0.057782583 0.1316245 0.83179194 0.067832954
0001d0 36 2b cc bd 50 35 24 3d 4f ef e8 bc c2 e0 1f 3e
       -0.09969179 0.040089905 -0.028434424 0.15613082
0001e0 14 66 bb 3d 9a b8 11 3e 1e 17 1f 3f df 47 8e 3e
       0.09150329 0.14230576 0.6214465 0.27789208
0001f0 7d bf a4 be 0a b9 79 be 62 68 c2 bf 23 94 aa be
       -0.32177344 -0.24386993 -1.5188105 -0.33316144

bias f4 [32]
000000 19 6c c5 be 52 95 fe be e8 2e b1 be 8d 1c 79 be
       -0.38559034 -0.49723297 -0.346061 -0.24327298
000010 4e e4 b7 be 0b b9 a2 3e bb 25 a9 3e 30 27 99 be
       -0.3591637 0.31781802 0.330366 -0.2991271
000020 84 dd c8 be 84 a3 81 3e 85 c5 c6 3e 1d ab b6 bd
       -0.39231503 0.25320065 0.3882257 -0.08919356
000030 84 38 10 be 29 6b a1 bd 42 18 01 be b1 b3 3e be
       -0.14084059 -0.07881767 -0.1260691 -0.18623234
000040 f8 99 6b be c3 d1 ff be ac 1e a0 3d 2b fc 3d be
       -0.23007953 -0.49964723 0.0781835 -0.18553226
000050 91 ee 06 bf 56 75 cc be ab 4d 37 bf be d0 da be
       -0.52707773 -0.3993327 -0.71602887 -0.42737383
000060 2f ea bd be ad 38 f4 3e ab fb b0 3c f5 0d 10 bf
       -0.3709273 0.4769949 0.02160438 -0.56271297
000070 e9 ec 9b be bf 64 e8 be e1 66 6c be 73 a0 ef bd
       -0.30454186 -0.45389363 -0.2308612 -0.11700525

weight f4 [2, 32]
000000 cd 3f 66 3f 64 b1 84 bc 6b d2 e0 3f ce 06 92 be
       0.899411 -0.016197868 1.7564214 -0.28520817
000010 9d 34 1e 3f 5f c9 85 3c 79 20 2d bd a7 b8 74 bf
       0.6179903 0.016331373 -0.042267296 -0.9559426
000020 99 81 a2 3e 72 dd 83 be 20 0b 63 3e 04 1d 3f be
       0.317395 -0.25754887 0.22172213 -0.18663412
000030 c3 e9 7c be 64 a6 a8 3d 7d 8c d2 bd 62 cc 3b bd
       -0.24698548 0.082348615 -0.10280702 -0.04584921
000040 19 6c 82 be c6 06 07 bc fc f5 b7 3d 68 74 84 be
       -0.25473097 -0.008241361 0.08982465 -0.2587006
000050 9a 22 91 3c 51 ca 5e bd 29 f1 7f 3d 76 ec 7d 3f
       0.017716695 -0.054392163 0.062485848 0.99188936
000060 5f 07 b3 3f d4 78 3c 3e dc 14 a8 3d 0c c9 92 bd
       1.3986624 0.18405467 0.082071036 -0.07167253
000070 6a 72 8c bd 15 9e 89 3e 2c 14 a3 3d c8 c6 6d 3e
       -0.0685776 0.2687842 0.07962832 0.2322036
000080 ad 71 87 bf c8 1b 2e bc e7 89 02 c0 62 6c 10 3d
       -1.0581566 -0.010626741 -2.039667 0.035259612
000090 27 a8 3f bf 7d ec 3d 3d 57 d2 12 be fc 63 82 3f
       -0.74865955 0.04636811 -0.14338051 1.0186763
0000a0 cb 29 f0 be a6 19 b8 3e e2 af 4c be e3 dc df bb
       -0.46906886 0.35957068 -0.19988969 -0.0068317517
0000b0 cc a1 9b 3e 08 de d7 3d e3 50 f6 bd 8d 15 9d 3e
       0.3039688 0.10540396 -0.12027147 0.30680504
0000c0 f5 b4 98 3e 0e ca 45 bd 89 b2 4d 3d e2 b0 a5 3d
       0.2982556 -0.048288397 0.050219093 0.08090378
0000d0 14 f4 bf 3c c8 4b bc bc 68 05 80 3d 46 84 6b bf
       0.023431815 -0.022985354 0.06251031 -0.9199871
0000e0 0a db b9 bf de 6b 5b be 68 cd 94 3c 2d 2a df bd
       -1.451997 -0.21427867 0.018164352 -0.10896716
0000f0 29 e6 b7 bd 14 dd f5 3a 66 27 ff 3d 94 95 d9 bd
       -0.089794464 0.0018757903 0.124586865 -0.10624233

bias f4 [2]
000000 c2 ea 0c be df 6e 93 3d
       -0.13761428 0.07198881

weight f4 [32, 4]
000000 be 96 36 be d5 3e b4 bd 91 6a 66 be b8 ac 00 be
       -0.17830941 -0.08801047 -0.2250159 -0.12565887
000010 ab 81 f0 bc dd 9d a0 3e d1 ad c2 bc 45 ec c0 3e
       -0.029358706 0.3137044 -0.023764523 0.3768026
000020 1e 2f b4 3c 20 65 98 3c 32 ad 4b c0 51 a3 a6 be
       0.021995123 0.018602908 -3.182446 -0.32546476
000030 7f 4f 3e be 75 ae 74 3d 3f 52 f8 3d 08 4a bb 3e
       -0.18585013 0.059736688 0.12125062 0.3657992
000040 99 f7 bc bd 44 9d c8 3d bb ba 89 3f 95 ad 1a be
       -0.09226913 0.09795621 1.0760111 -0.15105279
000050 a0 a7 ba 3e a9 bd e5 be 59 05 eb bd b6 3d 2a be
       0.36456013 -0.44871262 -0.11475629 -0.16625103
000060 07 d6 0a 3c 25 2d 06 3c f9 60 75 c0 bf 41 a4 be
       0.00847388 0.008189474 -3.8340437 -0.3208141
000070 40 31 28 bf b0 7e 94 be 20 aa 3f 3f 45 d2 b0 bc
       -0.6570015 -0.29002905 0.74868965 -0.02158464
000080 25 84 c6 bb 80 55 9d 3c ce 24 8d 40 3d 64 08 3f
       -0.0060582333 0.019205809 4.4107428 0.5327795
000090 f3 7b 30 3e 0c 1b 23 3e 5c 75 78 3e 80 a9 89 bd
       0.17234783 0.15928286 0.24263519 -0.06721783
0000a0 93 7f b7 bd 4a 27 10 3e 6b 14 a2 3e 97 47 25 3d
       -0.0895988 0.14077488 0.31656203 0.040351477
0000b0 39 b5 21 be 60 52 66 be 09 77 18 bf da bf 79 bb
       -0.15791787 -0.22492361 -0.59556633 -0.0038108737
0000c0 6d 26 5d bd 57 9c 9f be 90 6d e6 3e af bd cd be
       -0.053991724 -0.31173965 0.45005465 -0.4018378
0000d0 c3 b4 dd 3d ee 79 f7 3c 2a 3e bd 3f 5b c5 be 3e
       0.10825493 0.030209508 1.4784596 0.37259945
0000e0 8f 7a c5 be ab 90 ec 3e 23 37 5d bc 26 5b ce 3e
       -0.38570067 0.46204123 -0.013501915 0.40303916
0000f0 b4 5c 62 be 89 35 08 3e cc 38 bc bc 36 55 85 bd
       -0.22105676 0.13301672 -0.022976302 -0.06510393
000100 79 66 d7 be 4c d5 64 be d1 54 19 3f a0 f2 51 3e
       -0.42070368 -0.22346991 0.59895045 0.2050271
000110 46 8d 74 ba a7 1c 9a be 64 07 8e 3e e8 d3 dc be
       -0.0009328913 -0.30099985 0.27740014 -0.43130422
000120 02 6d 55 3e cc de fd bd ec 5d 1c bf 5f 1f a2 3c
       0.20842364 -0.12396011 -0.61080813 0.01979035
000130 97 78 8e be 18 b2 a6 bc c2 31 2c c0 28 40 8b be
       -0.27826378 -0.020348594 -2.690537 -0.27197385
000140 ca a4 04 bc d2 0f 01 3e d6 a9 3e 3e 0b fc ad 3b
       -0.008095929 0.12603691 0.18619475 0.005309587
000150 b3 2e 04 be 4d fb 2f 3e d9 f5 d7 3d b3 12 97 3e
       -0.1290844 0.17185707 0.105449386 0.29506454
000160 ef 36 c9 3d 7e b3 55 3e 8b f9 98 be 1d a1 03 bc
       0.09824931 0.20869252 -0.29877886 -0.008034018
000170 d4 3d 7c 3e 9e e3 cf 3c aa 1c 43 bd 0f 0d f2 bc
       0.2463296 0.025377091 -0.047634758 -0.029547242
000180 84 75 94 be d4 8a 35 3e 92 65 61 3e 71 95 68 3e
       -0.28995907 0.1772874 0.22011402 0.22713257
000190 8a 60 8c 3e bb 4a 3e bd a4 6f 23 3e c3 a9 83 be
       0.27417403 -0.046457987 0.15960556 -0.25715455
0001a0 e6 77 21 be df 27 82 be 14 e7 bb 3e 15 07 0f 3e
       -0.15768394 -0.25421044 0.36699736 0.13967545
0001b0 5e 0d 6c be c4 13 5d 3e 71 0b 7a 3e e0 c2 bd 3e
       -0.23051974 0.21589571 0.24418427 0.3706274
0001c0 a4 38 a6 3d fb a7 9c 3d 1f a0 7d 3e 24 46 1d 3d
       0.08116272 0.07649227 0.24768113 0.03839697
0001d0 38 56 5a 3e 5b 69 33 3e 21 b9 cd be 20 fe 99 3e
       0.21321952 0.17520659 -0.40180305 0.30076694
0001e0 f4 c2 32 3e eb 61 14 3e 9b 9d c0 be 89 d2 cf 3d
       0.17457181 0.14490478 -0.37620243 0.10147578
0001f0 b3 91 02 be 5e 05 b7 3e 8e a1 55 be 1c e4 dc 3d
       -0.12750892 0.35746282 -0.2086241 0.10785696

bias f4 [32]
000000 78 4c 51 3f a6 f1 64 3f 73 de 26 bf 48 99 6d 3f
       0.8175731 0.89431226 -0.6518318 0.92812014
000010 fb ed 97 3e ae 9e 51 3f 9a 05 44 bf ea e4 b5 bf
       0.29673752 0.8188275 -0.7657105 -1.4210484
000020 81 97 5c bf 47 dc 8b 3f 34 b1 6a 3f e3 98 94 3f
       -0.86168677 1.0926598 0.9167664 1.1609157
000030 cb b5 64 3f 5f e7 b7 bd 53 74 27 3e 1c ce 47 3f
       0.89339894 -0.089796774 0.16352968 0.7804887
000040 28 bb 21 bf 43 6c 7f 3f 4f 3f 02 bc a0 ec 1f bf
       -0.631762 0.9977457 -0.007949664 -0.62470436
000050 75 35 11 bf 7f da 17 bf cd 88 81 3f 7b 1a 88 3f
       -0.56722194 -0.59317774 1.0119873 1.0633081
000060 88 78 4b 3f da 06 8b 3f 60 e4 99 3f ef a4 33 3f
       0.7948079 1.0861466 1.202282 0.70173544
000070 1b 00 dc 3e 34 93 8a 3f 16 c0 5b 3f 5a 8f 94 3f
       0.4296883 1.0826173 0.85839975 1.1606247

weight f4 [1, 32]
000000 51 09 27 3f 0b 87 13 3f 25 ed 05 c0 a5 9d 0e 3f
       0.6524859 0.57627934 -2.0925992 0.55709296
000010 6b bb 20 3d 45 04 08 3f 83 ca b8 c0 d6 09 02 c0
       0.039241236 0.53131515 -5.7747207 -2.0318503
000020 ac ca 7c c0 9e 3d 18 3f f0 1c 1f 3f 04 36 fa 3e
       -3.94987 0.5946902 0.6215353 0.48869336
000030 77 76 c0 3e 83 4c 7e be 01 1a a5 3d c3 4b 12 3f
       0.37590382 -0.24833874 0.080616005 0.57146853
000040 bd a9 bf be f4 c7 2b 3f 2a 3f c7 bc d9 05 a6 bf
       -0.37434188 0.6710198 -0.024322111 -1.2970535
000050 4a fc a2 3d c0 1c 7d 3d 05 11 d0 3e 6a 78 15 3f
       0.079582766 0.061794996 0.40637985 0.5838686
000060 69 5e 9e 3e c4 99 f9 3e d5 79 18 3f 39 c3 83 3e
       0.30931404 0.48750126 0.595609 0.2573488
000070 a6 ef a3 3d 3e 18 cf 3e a1 64 f2 3e bf a1 eb 3e
       0.08004694 0.40448183 0.473424 0.4602184
