src/cartpole/results/CartPole-v1/train-a2c/20210405-225734/num_env6-num_episodes100000-learning_rate0.002-hidden_layers64-64.pt (torch, 7807 bytes, 7 tensors)

weight f4 [64, 4]
00000000: 57b6 24bc a712 00bd 8e53 30c0 9a14 99be
00000010: c9c5 02be f34b c43d d607 383f 19d2 c13d
00000020: 3006 3dbd 6d99 893d 5bf9 d4bd 985d 03bd
00000030: 20c7 40be 66bc 093c a94e 02be ab01 1abe
00000040: ad23 84bd 2fcd 7cbc 60ae 0ec0 0f94 76be
00000050: ba8f 04bd 3b48 0c3e ea90 923f 8cb6 943e
00000060: 7019 843d f739 59be 63cd 603e c0da 9dbe
00000070: 90fa 92bd aa16 053e fab1 823d 01b9 173e
00000080: ddaa 3abe 1869 8f3d ed3e 84bf 912f a1be
00000090: 3020 cbbd c1cd 243e 8139 0a40 655b 0c3f
000000a0: 355c 303d 251e d4bd c06d 02c0 47f6 cdbe
000000b0: 9662 c1bd d88a 85be 6369 933f f418 7c3e
000000c0: 7339 61bd 30bb ef3c e8b0 4e3f 2e99 7bbd
000000d0: 0419 e93d 8335 2dbd 6700 abbf 3c87 2dbe
000000e0: 98cb 833d 4fa3 80be 83a8 8fbe 0008 77be
000000f0: 36c1 643e a7bb d63c 67d4 1e3f 59bf 223e
00000100: a9c9 b53e dc4e 54be 64a0 2dbd 580b 7c3e
00000110: f138 033e 504d 993e 07ae cbbf 64a5 8f3d
00000120: 1768 77bd e007 303e ff6a 2340 aa41 223f
00000130: 20bf b63d cdb5 2fbe 04e7 603e e9e7 06bf
00000140: b2f1 0fbe d6fe af3d eeee 433f 0ea8 9f3d
00000150: 16ae 1e3d af5f 71bd c2dd fabf ed38 a4be
00000160: 2611 593e dc67 f6bd 195a 0b40 f882 bc3e
00000170: 6c99 5cbc 90bf 053d 171a 8abf b292 333d
00000180: df99 d93d e30b 4ebd d3b1 c2bf 3c42 5fbe
00000190: 9999 90bd 020b 90bc 6177 05c0 5d28 6dbe
000001a0: 424c 81be 8b55 063d fa11 02c0 ce66 a3be
000001b0: 678d ce3c 8f80 493e 6616 0fbf 2cf6 d53d
000001c0: 8f28 90be 1428 763e 3c5f 2f3f 919d e9bc
000001d0: c9af 043e 13e0 2cbb b6b1 543f d142 21bd
000001e0: 03d9 043e 0fdd 823c 070d 87be e0f6 ac3c
000001f0: 1e29 20be 0459 fd3d d12f 49bf 1845 2ebe
00000200: 699e 7f3d dfd1 06be e6f9 a5be 0c4e 0dbe
00000210: b1c4 163e 9650 2a3c 93f1 f13f 62ab 4d3e
00000220: b52d e03d 62df 5dba 82de 0240 3b11 623e
00000230: d065 a03e e974 dfbb b4a0 f73f 2a2e 0e3e
00000240: 547c 47be 2aa6 99bc a135 b23f 7d5b 1ebe
00000250: 52c6 47be 0ed9 4dbe af20 adbf de4f b3be
00000260: 542f f9bc c2f8 a9bc e5bd eb3e 2497 47be
00000270: ed29 5a3e e06a 79be a778 b2bf 8878 0bbf
00000280: f063 09bc e94d 1abc 808c 3abd cece 64bd
00000290: c9ae 52bd c52b 143d ea45 81be 8a25 243e
000002a0: 85bb 64be 7c6c 9bbc 122c c93f cbf1 54be
000002b0: 04e3 ef3d 75ea f03d f477 c3be a381 cf3d
000002c0: dc2d db3d 30cd c0bc ed83 d5bf 2bd9 d5be
000002d0: b419 283e 7fe2 febb 1f6f 8e3f 6574 1bbd
000002e0: 457e 0c3c 4522 51bd 7212 07c0 41ea 6fbe
000002f0: 1fa2 97be 9f5c 0b3e 915c a23f 9ab0 053e
00000300: 66aa 8ebd 2b94 533d dcca c6be 6037 16bc
00000310: f7d0 20be 0b36 dd3d 19d7 83be bf90 443e
00000320: 7a3e 4abd f418 eabc b1e9 0bc0 9379 3dbe
00000330: 78b4 46bc fb2b d13e 6e85 34bf 8b80 da3e
00000340: 7f18 213d 02b2 87bd 9634 a83f 668e 9dbe
00000350: 8dc7 9f3c c67e 74bd 4e88 8ebb 90cf 79bd
00000360: cbc3 8fbe 2785 473d 3337 ea3e 569c d1be
00000370: c2b3 ebbd 0561 5d3e bfe0 0bbe 77a1 543e
00000380: dd43 d9be d299 a13e c2a4 a3bf a3d9 a33d
00000390: 8fa3 b93b be94 043e e665 62be 4f71 3e3e
000003a0: c3e3 70bd 2283 923d 8b63 03bf 6f20 9b3d
000003b0: 6403 403e acde 3ebe 310f 923f 0567 8dbe
000003c0: e951 74bd 6f62 a73d c3c8 afbf 2396 0a3d
000003d0: a773 093f 35a4 a8be 2406 843d c341 89be
000003e0: b8f5 22bd 2b31 033e bb1e 89bf c61c 253d
000003f0: b511 843e dc24 2dbe 529b 9bbf bb87 91bd
-0.010053239 -0.03126779 -2.7550998 -0.2989853 -0.12770762 0.09584799 0.71886957 0.09463901
-0.04614848 0.06718717 -0.10399123 -0.03207168 -0.1882596 0.008406734 -0.12725319 -0.15039699
-0.06452117 -0.015429779 -2.229393 -0.24079917 -0.03236363 0.13699429 1.1450474 0.29045522
0.06450164 -0.21213518 0.21953349 -0.30830956 -0.07176697 0.12996927 0.063816026 0.14816667
-0.18229242 0.07002467 -1.0331703 -0.31481603 -0.09918249 0.16094114 2.1597598 0.54826957
0.043056685 -0.10357312 -2.0379486 -0.40226957 -0.09442632 -0.26082492 1.1516536 0.24618894
-0.05498643 0.029264063 0.8073869 -0.06142538 0.113817245 -0.04228736 -1.3359498 -0.16946119
0.06435317 -0.25124595 -0.28058252 -0.24124146 0.22339329 0.026212526 0.6204285 0.15893306
0.35505417 -0.20733207 -0.04238929 0.24613702 0.1281469 0.29941797 -1.5912484 0.07013968
-0.060402002 0.17190504 2.5534055 0.63381445 0.08923173 -0.17159195 0.21963125 -0.52697617
-0.14057043 0.08593528 0.7653645 0.07795726 0.03874024 -0.05892914 -1.9598925 -0.3207468
0.21197948 -0.12031528 2.1773741 0.3681867 -0.013464313 0.03265339 -1.0789212 0.04384107
0.10625052 -0.050304305 -1.5210518 -0.2180261 -0.070605464 -0.017583374 -2.0854113 -0.23159929
-0.25253493 0.032796424 -2.0323472 -0.3191437 0.02521391 0.19677947 -0.5589355 0.10447344
-0.28155944 0.24038726 0.6850469 -0.028517516 0.12957682 -0.0026378676 0.83083665 -0.03937036
0.12973408 0.01597455 -0.26377127 0.021113813 -0.15640685 0.12370494 -0.7858859 -0.17018545
0.06240693 -0.13165997 -0.3241722 -0.13799304 0.1472347 0.01039519 1.8901848 0.20084909
0.10946218 -0.00084637676 2.0448308 0.22076885 0.31327677 -0.0068193567 1.9345918 0.13884798
-0.19481021 -0.018755991 1.3922616 -0.15464588 -0.19509247 -0.20102331 -1.3525599 -0.3502187
-0.030418076 -0.0207485 0.46043316 -0.1949125 0.21305056 -0.24357176 -1.394307 -0.5448079
-0.008385643 -0.009417989 -0.045544147 -0.055861287 -0.05143622 0.036174554 -0.25248653 0.16029945
-0.22337158 -0.018972628 1.5716574 -0.20795362 0.11713222 0.11763469 -0.38177454 0.10132148
0.10702106 -0.023535341 -1.6680886 -0.4176725 0.16416055 -0.0077784653 1.1127661 -0.0379528
0.008575027 -0.051058073 -2.1105008 -0.23429205 -0.29615876 0.13609551 1.2684499 0.1305565
-0.06966095 0.051654976 -0.38826644 -0.009168476 -0.15704714 0.108013235 -0.25750044 0.19195841
-0.04937599 -0.028576352 -2.1861384 -0.18503408 -0.012127988 0.40853867 -0.705161 0.42676196
0.039330002 -0.06625749 1.3141048 -0.30772704 0.019504333 -0.059691213 -0.004349745 -0.060988963
-0.28079066 0.04871097 0.4574524 -0.40939587 -0.115088955 0.21619041 -0.13659953 0.20764719
-0.42434588 0.31562668 -1.2784655 0.08000495 0.0056652497 0.12947366 -0.22109184 0.18597911
-0.05881096 0.07153918 -0.51323766 0.075745456 0.18751293 -0.1863963 1.1410886 -0.2761766
-0.059648428 0.081730716 -1.3733143 0.033834588 0.53692096 -0.3293778 0.06446484 -0.26807985
-0.039785117 0.12811725 -1.0712503 0.040310644 0.2579476 -0.16908592 -1.2156775 -0.07105967

bias f4 [64]
00000000: 38fc ebbe 62d5 0e3c 74bb 99be a946 30bf
00000010: 22a3 cebe 7df5 a1be 9b72 56be e864 7abe
00000020: 46b7 55bd 2330 d7be 9401 a7be 4981 ab3b
00000030: 4e45 8cbd a077 85be d1c0 0cbf 9356 bebe
00000040: 6ddc 24bf f399 0bbe d935 e3be 8a85 0abf
00000050: 7f01 d0be e6f7 c4be eb2f 8fbe 2c79 663c
00000060: 405f 82be 1dea b7be c54c c6be 9a30 a0be
00000070: 6ce3 bbbe 8838 9ebd fdd7 c9be 3a1c 9cbe
00000080: 2aa6 cebe c2d4 72be 2155 89be e1da 49be
00000090: d0cd e63c 76bb c7bd a255 e0be ed6b c6be
000000a0: da1f 04be 8669 cbbe b1af c83a 9e06 03bf
000000b0: 5fac c7be 4b40 c5bd 2cc6 8dbe cd25 9f3e
000000c0: 83ee 99be f05a 0bbf 8838 b3be 0e79 eebd
000000d0: f60a 873d cb4f 63be 73f6 23bf b44e c9be
000000e0: e5a8 413e 885a f1be 37b7 47be e77e ff3c
000000f0: 76fc a7be 757a afbe efea dfbd 5d15 97bd
-0.46090865 0.008717867 -0.30025828 -0.6885782 -0.40358835 -0.31632605 -0.20942156 -0.24452555
-0.052176736 -0.42028913 -0.32618392 0.005233918 -0.06849156 -0.2606783 -0.54981714 -0.37175426
-0.64398843 -0.13632946 -0.4437702 -0.54110014 -0.4062614 -0.38470381 -0.27966246 0.014066976
-0.25463295 -0.35920802 -0.38730446 -0.3128708 -0.36696947 -0.07725626 -0.39422598 -0.30490285
-0.40361148 -0.23713973 -0.2682276 -0.19712402 0.02817431 -0.09752552 -0.43815333 -0.38754216
-0.12902775 -0.39728945 0.0015311149 -0.5118197 -0.38998696 -0.096314035 -0.27690256 0.31083527
-0.30064783 -0.54435635 -0.35004067 -0.11644183 0.065938875 -0.22198407 -0.64047927 -0.39317858
0.18912084 -0.47139382 -0.19503485 0.031188441 -0.328098 -0.34273115 -0.10933482 -0.073771216

weight f4 [2, 64]
00000000: 3cc9 8b3f 1bde 923d 35c0 4f3c 8e31 c33d
00000010: cb7c 753f 0332 60bd bf51 8e3c 02f0 a63c
00000020: 861b 103c 6c4c 59bf c0f8 153f 4e44 cfbd
00000030: f80b a43d 50bd 4e3e b8a4 62bd 9b2b 6d3d
00000040: 5721 673e ef46 513e 54f8 80bf f552 373e
00000050: fd03 2a3c 7f18 6d3f f88e 87be e763 c13d
00000060: e187 663e 1f6d 153f c46b 523e 860c 38bc
00000070: 3e75 273c 0011 fdbc 13d9 98bd 2e38 8f3d
00000080: 399d 86bc 9bea 58bf 4d06 0cbf 4ad1 12be
00000090: 935c b9bd 0ffa 523d d711 083c 3dfe 6b3e
000000a0: bb0d 15bc ef19 fbbd 12f5 0cbe 36e5 863c
000000b0: cd1a fc3e e12b 3dbd 1d38 843f 686c f8bd
000000c0: a08c 743d 36c1 5fbd 5751 643f 58f4 c23d
000000d0: ed57 3fbe 4827 e0bd eb6a ddbc 6cce 9dbd
000000e0: 53d1 4f3e 922e b83c 2e44 dc3c 2d74 a03c
000000f0: ab68 3e3d f5d2 bdbd a2f3 90bc 4c4a eb3d
00000100: 0628 85bf b103 8d3d cfe3 3cbd b7e9 febb
00000110: 4587 6abf 20cf 683e f64c 903d 2b22 09bd
00000120: 3112 abbc 8ac6 373f 0e1d 49bf eafc 9e3d
00000130: 53ab 083e d30d 0cbe d4c6 d3bd 136f b33d
00000140: 2876 52bd c29f 8fbd 0d68 873f eaed 053d
00000150: b8f7 453c 524f 88bf bf5b f93e 8e77 903d
00000160: 571b b1be 3d56 cdbe 1b4e 5dbe 71e2 743d
00000170: 48ee 8f3c 904a 933d 71e3 6bbd 400f 66bc
00000180: 8bcd 23bd 6c33 5f3f 4ec5 143f e1d3 9f3e
00000190: 9625 603d 2dbc 8abd 48b2 b6bd 4bb5 11be
000001a0: c3b7 5cbc aa6b ebbd 0c34 743c 1dea 2ebc
000001b0: 59c9 f4be 8280 553e 61c3 82bf eeec 653d
000001c0: 2361 1fbd 0b9b 2e3d b836 87bf 28d2 59bd
000001d0: 320d f53d 40ce 3fbd 908f 01bd 8cf3 dbbd
000001e0: 0496 61be 4b60 2abd a782 183d c5d8 243e
000001f0: ffbd 5bbd 7d87 283e dbe3 b93c d588 073d
1.0920787 0.071712695 0.012680103 0.09530936 0.95893544 -0.054735195 0.017372964 0.020378117
0.008795625 -0.84882236 0.5858269 -0.1012045 0.08010095 0.20189404 -0.05533287 0.057902914
0.22571312 0.20437215 -1.0075784 0.1790274 0.010376927 0.92615503 -0.26476264 0.09442883
0.22512771 0.5836963 0.20548922 -0.011233455 0.010220824 -0.030891895 -0.074632786 0.06993137
-0.016432391 -0.8473298 -0.54697114 -0.1433765 -0.0905086 0.051508006 0.008305035 0.23046203
-0.009097512 -0.12260806 -0.13765362 0.016466718 0.49239197 -0.046184424 1.0329624 -0.12130052
0.059704423 -0.05462762 0.89186615 0.09519261 -0.18685885 -0.10944992 -0.027028522 -0.077053875
0.20294695 0.022483144 0.02688798 0.019586647 0.046486538 -0.092687525 -0.017694298 0.114887804
-1.0402839 0.0688547 -0.046115693 -0.007779326 -0.91612655 0.22735262 0.07045929 -0.03347985
-0.020882698 0.7178732 -0.7855996 0.07763083 0.13346605 -0.13677149 -0.10340658 0.0876142
-0.051382214 -0.07012893 1.0578629 0.032697596 0.0120829865 -1.0649207 0.4870281 0.07054053
-0.3459117 -0.40104857 -0.21611826 0.059786264 0.017569676 0.07191956 -0.057589952 -0.014041722
-0.039990943 0.8718784 0.58113563 0.31216338 0.054723345 -0.06774173 -0.08920723 -0.14229314
-0.013471547 -0.11495145 0.014904987 -0.010675934 -0.47809866 0.20849803 -1.0215875 0.056134157
-0.038910996 0.04262833 -1.0563574 -0.053178936 0.119654074 -0.046827555 -0.031631052 -0.10739812
-0.22029883 -0.04159574 0.037233975 0.16098316 -0.05364799 0.16457935 0.022691658 0.033089478

bias f4 [2]
00000000: 26af 06bd dbd2 97bd
-0.03288188 -0.07413264

weight f4 [64, 4]
00000000: b6e5 b63d 78af 383d 0219 f43e f643 853e
00000010: 553c 8dbe aa68 a83e 8aed 653d 06c9 803e
00000020: 13d2 90be f714 41bc 63d4 cc3d b203 f03b
00000030: 6f6e 0b3e 5076 94be d3f0 f63d d82d ef3d
00000040: 213b 233e 6fab 94be 91d2 d6be dd64 20be
00000050: 45d8 ca3e 47cb 833e b503 143f fbee 613e
00000060: 69c8 703e 4a4b ffbd d088 59bf bdc6 69be
00000070: 9f30 78bd b640 803c a78e 31c0 0d5a 2abe
00000080: 2607 c5be f27b 913e 8278 b9bd cbf5 9f3e
00000090: c854 293e c98d 6a3e 1d0b 64bf a808 20bd
000000a0: bad2 0bbd cced 323c 41cc 0dc0 b086 31be
000000b0: a56e 8d3e 6765 4bbe 1e24 aebe f91a 48be
000000c0: de44 b53d 1248 813e 8db8 08bf 0902 973e
000000d0: 628b f43d 1605 e23d d359 e93e ef6a 27be
000000e0: b1b0 c33d 4292 273e 86e9 3abe b8e2 c83d
000000f0: 2afa 1cbd d332 623c ee87 29c0 7833 2dbe
00000100: 947b e53a dad4 973c fc38 50be b887 c63d
00000110: 0927 cd3d ca7b 5abd accf 2240 741a c73d
00000120: 3d33 973e c254 50bc be2a 943d 9fe9 3ebd
00000130: ef0a 9f3e e98d 64be 58ba 873c 1f60 70be
00000140: 3ab0 333e f7a9 da3d c215 57be 7cbb 0fbe
00000150: 23e3 dbbe 86b8 bfbd f600 06be fecb 03bc
00000160: d013 16be 303b eb3d 1d9d 98be 9551 383d
00000170: 1d16 57bd 4a19 933d b909 27be b5b8 003e
00000180: 9dce b73b 0f48 b53d 911b f03f 4b87 b63e
00000190: 0b9d b7bd 3fc6 6abe 08e9 023f ad18 c3be
000001a0: 92bb e93c d848 2bbd 63bc dbbd 2f81 06bd
000001b0: b0ce a43e 52df f2bd 0853 ddbf 30dd 6fbe
000001c0: 561c 6ebd b557 873d 5c62 1f40 9076 ae3e
000001d0: a942 b1bd 6cf1 ebbc bd42 ac3e da6b 0a3e
000001e0: c2b5 01bd b049 3dbc 9688 9b3e 7604 87be
000001f0: ba59 3dbe 33e3 3d3e b527 90bf 64dc bdbe
00000200: da32 debd 7e22 3e3e 3ddd 7d3e 3190 fbbd
00000210: 64da 49be a1dd 10bd 638e f7bf 2c4d 13be
00000220: 86c0 b23c cd3e a5bc 0490 5040 80a8 5f3e
00000230: 51cc 143c e9d1 41be ab35 aebe 9083 873e
00000240: 4ca5 ee3d bc4b 393e b522 f2be 978a bb3e
00000250: 61eb 773e e1c4 fb3d d6f3 7abf 9231 9f3d
00000260: f936 e0be 909f 7d3e 44cc 07bd f2b2 f4bb
00000270: 7a0d 913e bc03 52be 0aa7 92be 73db f6bd
00000280: 1b99 5c3d 61d5 9bbe 8c7f bf3e fe48 a2be
00000290: 63ab 2d3e ebee a23b dff1 c03e 50d3 19bd
000002a0: 526f 943d fe9e c63b abe4 68be 19bb 393e
000002b0: fc1d 9abc 820b 4fbd 5e26 11c0 9c2c 96be
000002c0: 7205 f33e 16ce 8f3c ce44 fd3e 737b 1ebc
000002d0: aada 2b3e adeb f73c 3f6a 263e 713a ed3c
000002e0: c344 0f3e 4a4b 89be 8e87 ffbd d0dd a8be
000002f0: 3c28 a5be ab8f 653e 6081 adbe 6d51 b53c
00000300: a0fa a23d 4709 2b3d 84a1 ccbe 2945 a03e
00000310: 331c a2be bcc0 5a3e 3169 6dbe cf25 a13d
00000320: 71c2 e83d 6fed 5cbe 3cdc 363f 110e 8ebe
00000330: e729 5abe 32f6 dd3b 68e1 16bc abfb 6f3e
00000340: 6587 77be 7ff1 303e e4af 913e ed3a 343d
00000350: 7ea1 db3e c828 fcbd 8385 1040 e08a 873e
00000360: 3af6 11be 3400 a03e 7b62 5dbe fda7 a43e
00000370: e86e adbe 005b 6e3d 4b70 f5bd bf49 723d
00000380: 7d18 c13d e1b5 d83e 6921 a83e 70ee d83c
00000390: fb3c a53e 8d84 47be dced df3e ae6c a4be
000003a0: d073 12bd 0e79 e0bc 6ae3 4f3e cf8e 8c3e
000003b0: 183f 933d e782 d0bd 2c07 1440 0f52 f13d
000003c0: 4e9c 8a3d 8964 4fbd bcbb 703d be17 78bb
000003d0: c86c c33d 674f ccbe e53b a13e 503d e4be
000003e0: e6e6 913d b40c 053d 16ca 8dbe 0c6e 053e
000003f0: 090e e6be 33fb 4abe d92f c0be 7811 0fbe
0.08930533 0.045089215 0.4767533 0.26028413 -0.27585092 0.32892352 0.056134738 0.2515337
-0.28285274 -0.011784784 0.10001447 0.0073246593 0.13616346 -0.28996515 0.12057652 0.11678666
0.15940525 -0.29037043 -0.41957524 -0.15663476 0.39618126 0.25741026 0.57818156 0.2206382
0.2351395 -0.12465532 -0.84974384 -0.22829719 -0.060593244 0.015655857 -2.7743318 -0.16635914
-0.38482016 0.28414875 -0.09056188 0.31242213 0.16536248 0.22905649 -0.8907946 -0.039070755
-0.03413651 0.010920953 -2.2155917 -0.17336535 0.27623478 -0.198629 -0.3401193 -0.19541539
0.08851026 0.25250298 -0.534066 0.2949374 0.11940648 0.11036126 0.45576343 -0.16349386
0.095551856 0.16364387 -0.18253145 0.09808868 -0.038324513 0.013806063 -2.6489215 -0.16914165
0.0017508143 0.018534113 -0.20334238 0.09693855 0.10017211 -0.05334071 2.5439253 0.097218424
0.2953128 -0.01271552 0.07234715 -0.046609517 0.3106303 -0.2231976 0.016568348 -0.23474167
0.17547694 0.106769495 -0.21004394 -0.14036363 -0.4294673 -0.09361367 -0.13086304 -0.008044241
-0.14655995 0.114858985 -0.29807368 0.044999678 -0.052511323 0.07182558 -0.16312303 0.1257046
0.005609347 0.08851635 1.8758413 0.35650095 -0.089655004 -0.22927187 0.5113683 -0.38104764
0.028531823 -0.041817516 -0.10729291 -0.032838043 0.3218894 -0.11859001 -1.7290964 -0.2342422
-0.058132492 0.06608526 2.4903784 0.3407483 -0.086552925 -0.028801642 0.33644667 0.13517705
-0.03166748 -0.011553213 0.30377644 -0.2637059 -0.18491259 0.18543701 -1.1262118 -0.37082207
-0.10849543 0.18567845 0.24791427 -0.12283362 -0.19712216 -0.03536761 -1.9340328 -0.14384907
0.021820318 -0.020171547 3.25879 0.21841621 0.009081916 -0.1892773 -0.3402532 0.26467562
0.116526216 0.18095297 -0.47292104 0.36629173 0.24210884 0.12293411 -0.98028314 0.07773127
-0.4379194 0.247679 -0.033153787 -0.007467621 0.28330594 -0.20509237 -0.28643066 -0.12053575
0.05385695 -0.30436233 0.37401998 -0.31696314 0.1695991 0.004972329 0.37684533 -0.03755504
0.07247795 0.006061434 -0.2274348 0.18137778 -0.018813126 -0.050548084 -2.2679667 -0.2933091
0.47465092 0.017554324 0.49466556 -0.009672987 0.16782632 0.030263746 0.16251467 0.028958531
0.13991074 -0.26815253 -0.12477027 -0.3298173 -0.3225726 0.22418086 -0.33887768 0.022133553
0.07957959 0.041756894 -0.39966977 0.31302765 -0.3166214 0.21362585 -0.23184659 0.078685395
0.11365212 -0.21574949 0.714298 -0.27745107 -0.21305047 0.0067737335 -0.0092090145 0.23435847
-0.24172743 0.17279623 0.28454506 0.04400151 0.42896646 -0.12312466 2.258149 0.2647314
-0.14254084 0.31250155 -0.21619599 0.32159415 -0.33873677 0.058192253 -0.11984309 0.05915236
0.09428499 0.42326263 0.3283799 0.026480883 0.32273087 -0.19484158 0.4373616 -0.32114166
-0.03575498 -0.027401473 0.20301595 0.27452704 0.071897686 -0.10181218 2.3129377 0.117832296
0.06768094 -0.050632987 0.058772787 -0.0037855948 0.09542233 -0.3990433 0.31491008 -0.44578028
0.071241185 0.032482818 -0.27693242 0.13030261 -0.44932583 -0.19822387 -0.37536505 -0.13971508

bias f4 [64]
00000000: c34e 0d3f 1f74 223f bf94 823e cb8c 6a3f
00000010: 5b83 153f a86f 62bf 1fce 1abf 4d34 16bf
00000020: 238e 813f c9a2 b7bd e49b febe 1122 403f
00000030: 3f7f 7d3f f3ed 883f e664 503f ffbf 0fbf
00000040: 1204 64be e0a8 edbe fbf5 0cbf 1101 463f
00000050: 8a8f 953f bbef 76bf dedf 553f 92df 71be
00000060: f5aa 0abf 9093 6d3f 42e7 97be 8ddc 8cbe
00000070: ffa2 20bf 66ff 753f 6a1c 6e3e 7b3b 2cbf
00000080: 7eee 453f faef dabe a684 2bbf dfed ee3e
00000090: 98e4 723f 844a 28bf dfbb 6c3f 4ff9 813f
000000a0: e670 453f 5d79 a2be 5228 a93e b037 17bf
000000b0: 61fc 6abf 70c9 293f fa1f 613f 3d42 773f
000000c0: 85ae 223f f046 4e3f 1dbd ba3e c69d 663f
000000d0: b858 803e 0d19 acbe 0f27 2d3f 5110 5f3f
000000e0: 4950 29bf 8bd1 753f 7258 423f 1d83 d8be
000000f0: a545 86bd 06a7 7a3f cac8 dabe 8ba0 6fbf
0.55198306 0.63458437 0.2550411 0.91621083 0.5840356 -0.88451624 -0.60470766 -0.58673555
1.0121502 -0.08966596 -0.4972831 0.7505198 0.9902229 1.0697616 0.8140396 -0.5615234
-0.22267178 -0.46417904 -0.55062836 0.7734538 1.168443 -0.9645955 0.8354472 -0.23620442
-0.5416711 0.9280329 -0.29668623 -0.27512017 -0.6274871 0.9609283 0.23253027 -0.6727826
0.77317035 -0.42761213 -0.6699928 0.46665856 0.94880056 -0.657387 0.9247417 1.0154208
0.77125394 -0.31733218 0.33038574 -0.5906935 -0.9179135 0.66322994 0.8793942 0.96585447
0.63547546 0.8057699 0.36472407 0.90084493 0.25067687 -0.33612862 0.67637724 0.8713427
-0.6613813 0.9602286 0.75916207 -0.42287531 -0.065562524 0.9791111 -0.42731315 -0.93604344

weight f4 [1, 64]
00000000: 1dfc 563e 4e83 263e 2dd3 273d 9c67 c23e
00000010: 5a2a c53e dd7d ffbe 60d4 9b3d 5708 56c0
00000020: de66 003f 4b6d 82bd 55fb 37c0 396c e03e
00000030: 670d bb3e 211a da3e 3d3f 8c3e 2f57 64c0
00000040: 7f9c d8bc 2bb9 15c0 5cf3 b5bd b5cc dc3e
00000050: 038c c03e e614 65bf 8a6c f73e b455 98bc
00000060: 5d42 50bf 592d a13e df29 11bb 30a4 0ebe
00000070: 4052 bbbf 8f12 ba3e 7bdf e73c 2332 e9bd
00000080: 2968 933e cad0 1abf fb92 56c0 0d76 d23d
00000090: 8cfd f23e 7cf2 0abe 028d c03e fc14 d03e
000000a0: 907b 9f3e b483 f0bc 6f8e b53c 8f27 b0bf
000000b0: 3ffb 26bf a92d ff3e b534 a93e a017 f83e
000000c0: 5093 443e 04d6 c83e 7bfe 1a3e 4288 8a3e
000000d0: 527e 293d 24e9 84be b1a2 ac3e 2e41 b63e
000000e0: da1e bfbd e04a b73e 0f2a ab3e 3731 15bf
000000f0: 8be2 fa3a 7b3e c43e 53c5 ffbc 226f 84bf
0.20994611 0.16261026 0.040972877 0.37969673 0.38508874 -0.49900714 0.07608867 -3.344259
0.5015696 -0.06368502 -2.874715 0.43832567 0.36533663 0.4259806 0.27391997 -3.5678213
-0.02644181 -2.3394268 -0.08884308 0.4312493 0.3760682 -0.89485013 0.48324996 -0.018595554
-0.8135126 0.3147991 -0.0022150201 -0.1392982 -1.4634476 0.36342284 0.028304806 -0.11386516
0.28790405 -0.60474837 -3.352721 0.10276423 0.47459066 -0.13569063 0.3760758 0.4064101
0.31148958 -0.029359676 0.022162644 -1.3762072 -0.6522712 0.49839523 0.33048025 0.48455524
0.1919682 0.3922578 0.15136139 0.2705708 0.041380234 -0.25959122 0.33717874 0.35596603
-0.09332056 0.35799313 0.33430526 -0.5827822 0.0019141001 0.3832892 -0.031222021 -1.0346415
