src/cartpole/results/CartPole-v1/train-a2c/20210405-225734/num_env12-num_episodes50000-learning_rate0.003-hidden_layers64-64.pt (torch, 7807 bytes, 7 tensors)

weight f4 [64, 4]
00000000: 73a2 2b3c 49f5 ab3d 71c3 e6be eccd 4cbe
00000010: ad2a 28be 9215 db3d 3a1a 8f3f 4c46 cb3e
00000020: 0212 b3bd c00b 0f3e c85f e9bd 4353 ca3d
00000030: bd34 21be 91af 8abd db92 203e 4702 bcbd
00000040: 4106 09bd dd4c b03d 82c7 02c0 1895 cabe
00000050: 6203 cfbc 2314 ef3d 503e cf3e 34a4 8f3e
00000060: effa 653d 69ee 0cbe 9189 663c 3f8f 41be
00000070: d79e 80be f0f6 fa3d e7cb 5ebd 22b3 273e
00000080: 4b93 8abe f13b f7bc 2d73 8abf 09da 05bf
00000090: 04bc c0be e30c c63e 1ccd b03f ed46 923e
000000a0: a8d3 4c3e 4e13 58be 39d6 02c0 e8a4 23bf
000000b0: 6337 c3be f976 98be 8068 9f3f 79cb b73e
000000c0: b202 02be b427 ac3d f1c2 a53f 2d7e a33e
000000d0: 3014 963d 5163 48be 46d2 87be 53cc 35be
000000e0: 3eb3 393d b73d e8be 1292 cfbf 9272 fabe
000000f0: 0bbd a93d 57c5 363e f0f5 553e 09a3 533e
00000100: 71b1 193e 0777 9bbd ee2a 813c ea6d 3cbc
00000110: 7789 8d3e 1c13 823e 9ffe bcbf a09d 3ebe
00000120: e743 43be c790 9b3e 3b0a 0040 b4f3 433f
00000130: 470d 033e 55d6 a8be f146 2b3e ae5b 93be
00000140: 221f a3be 2179 e63d 76bf 503f 9b7c 593d
00000150: 8084 d13c f9f6 10be 8254 55bd 5f2e 44be
00000160: b4f2 fd3b 83a0 99bb d1e8 2840 af59 d03e
00000170: 672b 8e3d b06c c5ba 768e b4bf cbb8 22be
00000180: 607b b03d 5278 933d d5ee afbf bf5a 36be
00000190: 9d1f ecbc 4f53 a13d 1a3b 0bbf 1860 0dbe
000001a0: 4e38 bd39 ccce b93d 4210 24c0 b87e ccbe
000001b0: 9bcf b6bc 178a 603d 69cf 01bf 533a cd3d
000001c0: 74f5 41be ae2f 503e d0db 353f 5922 91bc
000001d0: f60a 3bbd 4fd1 d83b 1f68 a63f e0b1 853e
000001e0: fe49 22bc 050b 57bd 1795 de3f 78d4 b53e
000001f0: 18dc 40be 6d77 cfbd e940 8cbf 955d 94be
00000200: 7e7c 90bc e08c bbbd 7a7c 913e 69e6 1bbd
00000210: b4f3 6fbe 91e3 503e 2ad2 9c3f 9777 d0bd
00000220: 9445 37bd 31cf fe3d 5f41 0840 d99c 043f
00000230: 3a96 753d 6185 babc e22a c53f 1486 4e3e
00000240: 9481 99be 824a f2bb 3120 de3f c07b 0e3e
00000250: 12b3 fdbd 6a8c b7be 6c0d dcbf 1bb4 e2be
00000260: b759 bcbc 6152 8a3b 69aa 9b3e bdd0 2ebe
00000270: 980e 003e 5bbf 8bbe 2126 b1bd 57f1 83be
00000280: 0e2e 2b3d 9966 57bd 5c6b b4be a816 bbbd
00000290: a1ab 44bd 8ebf ce3c 1e5a 14be af88 383e
000002a0: 55a0 68be 261e 643c 6454 cd3f 8ba0 533e
000002b0: 00d4 2a3d 7274 a03d 27c3 92be e07d d23e
000002c0: ca20 343e f1fb 34be 4354 edbf 4a89 05bf
000002d0: b0d7 a7bc 127d 343a 0876 0740 d6b2 863e
000002e0: dca8 9abc 0b61 eabc e07b 97bf 8a41 60be
000002f0: 2975 99be 2386 613e 285c ae3f 916a dd3e
00000300: ef31 d2bb 8658 9b3c d7fe 72be fa96 30bd
00000310: 9dd3 02bf c9e3 b83e 360c 4ebf 78d5 55bd
00000320: b72c 133d 87cf cfbd 3526 1ac0 5a44 7dbe
00000330: 2a4d a7be f732 c13e a651 d5be 6dfb aa3e
00000340: c27e d73c e8c5 2e3c f934 853f a503 f33c
00000350: 10a6 233d a7b7 dbbc afb6 8c3d d816 793b
00000360: 5973 09bd 5276 74bc dc6c bf3e b002 a3be
00000370: 40ad 08be 657a 343e 77af 3e3d 94ea 4f3e
00000380: 8af2 d4be 46b7 863e 2a83 91bf c155 b8bd
00000390: 45b1 babd 0c4c c53d 7681 24bd f1aa 703e
000003a0: 2665 60be 20c1 0d3e 67de 94be c100 bfbd
000003b0: 1b72 b73c ca4c f4bc 4247 da3f e7cf 053e
000003c0: 1cc4 8dbd e3ea 4e3e 4869 adbe b5f9 c13d
000003d0: 1aa3 8a3e 3947 babe 9669 813e 9ea3 c3be
000003e0: 5876 42bd 3fa5 dfbc 6bb7 86bf 1b75 99bb
000003f0: 6bbb a43e 602f 23be c986 adbf 0cbc 2ebe
0.010475743 0.08396394 -0.45070985 -0.20000428 -0.1642253 0.106974736 1.1179879 0.3970207
-0.08743669 0.13969326 -0.11395222 0.09879162 -0.15742774 -0.06771768 0.15681021 -0.09180122
-0.03345323 0.086084105 -2.043427 -0.39566875 -0.025270168 0.11673763 0.40477228 0.28054965
0.056147512 -0.13762821 0.014070884 -0.189023 -0.25121185 0.12254131 -0.054393675 0.16376927
-0.270655 -0.03017995 -1.0816399 -0.5228582 -0.37643445 0.38681707 1.3812594 0.28569737
0.20002615 -0.21101114 -2.044325 -0.639235 -0.38128194 -0.2977827 1.2453766 0.35897425
-0.1269634 0.0840601 1.2950116 0.31932202 0.07328069 -0.19569136 -0.26527613 -0.17753725
0.045336954 -0.45359585 -1.6216452 -0.48915535 0.0828801 0.17848717 0.20894599 0.20667662
0.15009095 -0.07591062 0.01576754 -0.011500815 0.2764394 0.25405204 -1.4765204 -0.18614817
-0.19068871 0.30383894 2.0006244 0.76543736 0.12798034 -0.32976022 0.16726281 -0.28780884
-0.3185969 0.11253572 0.81542146 0.05309735 0.025575876 -0.14156713 -0.052082546 -0.19158314
0.0077498797 -0.004688324 2.63921 0.40693423 0.06941872 -0.0015062299 -1.4105976 -0.15890805
0.08617282 0.07200684 -1.3744761 -0.17808054 -0.028823668 0.07877218 -0.54387057 -0.13806188
0.0003609084 0.090726465 -2.5634923 -0.3994043 -0.02231579 0.054819193 -0.5070711 0.1002089
-0.18941289 0.20330688 0.7103853 -0.017716574 -0.04566475 0.0066167484 1.3000525 0.2611227
-0.009905336 -0.052500743 1.7389249 0.35513663 -0.18833959 -0.101302005 -1.0957309 -0.28977647
-0.017637488 -0.09157729 0.2841528 -0.038061533 -0.23432809 0.2039931 1.2251637 -0.1017906
-0.04474409 0.124418624 2.12899 0.5180183 0.05995772 -0.022768678 1.5403712 0.20168334
-0.29981673 -0.007394136 1.7353574 0.13914394 -0.123876706 -0.35849315 -1.7191596 -0.44278035
-0.022991998 0.004221246 0.3040345 -0.17071815 0.12505567 -0.2729443 -0.08649851 -0.25770065
0.041791968 -0.05258808 -0.3523816 -0.09135181 -0.04801524 0.025237825 -0.14487502 0.1802089
-0.22717412 0.013923204 1.6041379 0.20666711 0.041706085 0.0783471 -0.28664514 0.4111166
0.17590633 -0.17674233 -1.854134 -0.5216261 -0.02048859 0.0006885092 2.116579 0.26308316
-0.018879347 -0.028610727 -1.1834679 -0.21900001 -0.299722 0.22023825 1.3621874 0.43245366
-0.006414644 0.01896311 -0.23730026 -0.043112732 -0.51104146 0.36111286 -0.8048738 -0.052205533
0.035931315 -0.101470046 -2.408582 -0.24733105 -0.3267606 0.37734196 -0.41663855 0.33394948
0.02630556 0.010667302 1.0406791 0.029664824 0.03995329 -0.02682097 0.06870782 0.0038008
-0.03355727 -0.014920788 0.3738774 -0.31837988 -0.1334734 0.17624815 0.046554055 0.20304328
-0.41591293 0.26311702 -1.1368153 -0.09000731 -0.09115843 0.096336454 -0.040162526 0.23502709
-0.21913585 0.13843203 -0.2907593 -0.09326316 0.022393277 -0.029821772 1.7052996 0.1306759
-0.069221705 0.2020679 -0.33869386 0.09471456 0.27077562 -0.36382464 0.25275868 -0.38210768
-0.047476143 -0.027300475 -1.0524725 -0.0046831495 0.3217424 -0.15936041 -1.3556758 -0.17063922

bias f4 [64]
00000000: cf85 26bf 1ada a93e 8191 7bbe 84a2 19bf
00000010: 629e a8be 0dae 1fbe 670f 68be 1e0f 9ebe
00000020: ae6c 4a3e ae47 ce3c 86ea a3be 0780 3e3e
00000030: 003b 903e 0272 78be 5e0b 91be 562d 20bf
00000040: 05f2 16bf 83df 59be 439e 00bf 3b59 1fbf
00000050: 974a c4be 3095 bebe 278f a7be 06ce 973e
00000060: 4642 933e bc5e f7be ea3b bebe 99d3 19be
00000070: 2dd7 84be 01e7 63be da78 b1be 1dcb f6bd
00000080: 56a5 99be e5ca 5abe 615e d6be fbdd 87be
00000090: f45b b13d 6c8a 8dbe 028d d7be e5de 04bf
000000a0: 03e0 98bd e970 d8be ef5e 51be 3313 0ebf
000000b0: 7f2a 8abe 04ab a1be 8810 73be e3b2 c43e
000000c0: 0d0a 14be 3f22 35be f26d 9fbe 59b0 d1bd
000000d0: 4469 cdbd e0f7 0cbe f0bc 3bbf 9c09 cbbe
000000e0: 4639 e73d 9097 adbe dafe 4abe 25ad 7abe
000000f0: f8d1 adbe e1f5 d8be c291 d6bd f48e dc3d
-0.65047926 0.3317421 -0.24567224 -0.60013604 -0.32933336 -0.15593739 -0.22662126 -0.30870908
0.1976802 0.025180664 -0.32014865 0.18603526 0.28170013 -0.2426224 -0.28328985 -0.6256918
-0.5896304 -0.21276669 -0.5024149 -0.6224553 -0.38338158 -0.37223196 -0.32726404 0.2964937
0.287615 -0.48314464 -0.37155086 -0.15022124 -0.25945416 -0.2225609 -0.34662515 -0.120504595
-0.30008954 -0.2136646 -0.4186888 -0.26536545 0.08660117 -0.2764467 -0.42099768 -0.5190261
-0.07464602 -0.42273644 -0.2044637 -0.55498046 -0.26985547 -0.31575787 -0.23736775 0.3841773
-0.14456959 -0.17688845 -0.3113857 -0.10238714 -0.100298434 -0.13766432 -0.7333517 -0.3965577
0.11290221 -0.33904696 -0.1982378 -0.24480112 -0.33949256 -0.4237509 -0.1047702 0.10769454

weight f4 [2, 64]
00000000: b06d 0bbd 55fd bfbc d6e4 68bc 12f8 353d
00000010: 5d14 9e3e 621d be3d 991b 613d 8425 10bd
00000020: 67c2 c73d 81bf 4dbe d5ec 193f 57d8 49be
00000030: 55f9 8e3d 2d53 393d 1d03 7f3e 2ab5 013d
00000040: f17b 153d 1540 763e 0319 20bf 06af 183e
00000050: e604 5abd 00c5 30bd b761 13bf 6994 063e
00000060: 322b 1f3d c355 e83d ae64 933e 9aa6 c23c
00000070: 06c4 863b 19ae 86bd 5e0c a2be 8d98 883d
00000080: 3a95 d0bc cfbf 49bd bfe4 b4be 094b b83c
00000090: 783b bfbd 5b97 873e 6af7 0cbd 94b4 413c
000000a0: 14c1 58bb c357 37be 3124 02be c8c9 df3d
000000b0: efee 0c3f b43c 16bf a2a6 9a3d a393 52be
000000c0: 96f2 a53c 3e7f d13a 1c6f f43e 39cb c63b
000000d0: e472 a4bd 0f17 8fbd 1a04 413c 9765 c8bd
000000e0: a425 e83d 9e26 0cbd 0a31 bbbb ab41 32be
000000f0: 2ae8 fdbc 78a6 783c 9669 e03c bfc9 143e
00000100: adc9 af3d bdf0 273e 3975 9dbc 1c8d 303d
00000110: 3c29 88be c867 a33d 5ca7 063d 13f6 b43c
00000120: 8d83 e0bd 7f4f 8f3d 1711 4dbf 97b4 313e
00000130: d734 133e 66d4 a23c ddc7 d0be dc2a e93d
00000140: 2225 0d3e 4a92 d9bd 45f8 2c3f 0d3f 803d
00000150: 0c02 9b3d 31cc c3bd 2b48 4c3f bf64 093d
00000160: 9479 23be 94b9 8d3d d6d5 98be 7317 cb3c
00000170: 8df8 c13c 2cb4 da3d 67b3 3c3e ee0d 31bc
00000180: cda2 fdbc 2226 973d cb62 c63e 5ccd 153e
00000190: 9ce2 6b3d 24e7 8fbe a768 3ebd cc5a 9c3d
000001a0: 71ca 9dbc edab 6fbd 8f42 8e3b cfed d3bd
000001b0: 2646 09bf 29ca 3f3f 725b 83bd 4dd9 0f3e
000001c0: 9590 0c3a 15c9 5ebc 9853 24bf 693d 133d
000001d0: 7c7d 563c 50f7 b0bd 4e43 90bd 5b5c b1bd
000001e0: 86d7 05be 8d76 773c 4f05 8f3d 8e94 b53e
000001f0: fc3c c33c 314d 683d 8579 b7bc 3457 2f3b
-0.034040153 -0.023436228 -0.014214715 0.04442603 0.3087491 0.09282948 0.05495796 -0.035192028
0.09753876 -0.20092584 0.60127 -0.19711433 0.0698115 0.04524534 0.24903531 0.031666912
0.036495153 0.24047883 -0.62538165 0.14910516 -0.053227328 -0.043156624 -0.57570976 0.13142551
0.038859554 0.11344483 0.2878775 0.023761082 0.0041127233 -0.06576175 -0.3165006 0.06669722
-0.025461782 -0.04925519 -0.3533077 0.022496717 -0.09337515 0.26482663 -0.03441564 0.011822838
-0.0033074068 -0.17904572 -0.12709118 0.109271586 0.55052084 -0.58686376 0.07551314 -0.20564131
0.020257276 0.0015983356 0.4774102 0.0060667065 -0.08029726 -0.0698682 0.011780763 -0.09785002
0.113353044 -0.034216516 -0.005712633 -0.17407863 -0.030994494 0.015176408 0.027394097 0.14530085
0.085833885 0.16400428 -0.019220935 0.043103322 -0.2659396 0.07978779 0.03287445 0.022089994
-0.10962591 0.069975846 -0.801042 0.17354046 0.14375626 0.01987667 -0.40777484 0.11385128
0.13783696 -0.106236055 0.6756633 0.06262026 0.0756875 -0.09560431 0.7979762 0.033543345
-0.15964347 0.06920162 -0.29850644 0.024791455 0.023678089 0.10678896 0.18427812 -0.010806544
-0.030961419 0.0738032 0.38747248 0.1462912 0.05758916 -0.28106034 -0.046486523 0.07634506
-0.01926157 -0.05851357 0.0043414305 -0.10348093 -0.53622663 0.74917847 -0.06413926 0.14047737
0.00053621206 -0.013597746 -0.64190054 0.035947237 0.013091441 -0.08640921 -0.07044087 -0.086601935
-0.13070497 0.015103948 0.069834344 0.354649 0.02383279 0.05671424 -0.022396812 0.0026754858

bias f4 [2]
00000000: 0810 b7bb 6ab9 cfbd
-0.005586628 -0.10142787

weight f4 [64, 4]
00000000: 4ba1 c43d cff9 c33d 9b53 e03e 82a2 323e
00000010: 2751 91be c208 d83e daa8 663e 34a1 5c3e
00000020: 188e 1abf a0c4 34be b4de 343c 4265 fabc
00000030: 335c d03d 7c99 a1be a02d afba a043 eb3d
00000040: 4db5 153e ac80 9dbe 0bc1 cebe 5f40 d2bd
00000050: a30f f93e a4ed 8f3e 4287 1d3d 42b9 463e
00000060: 920d 883e 721d 9bbe beb0 9dbf c99a 32bd
00000070: 765c 8fbc 59ef 70bc bf8b 5ac0 a284 8ebe
00000080: aa55 c9be 9bc2 853e aaa3 11be 5324 993e
00000090: d295 e73e 82f5 803c 8af9 acbf a676 57be
000000a0: dabf 473c 9b50 51bd 4df8 1fc0 06f6 a0be
000000b0: 8e5e 913e cddf 82be e81c b1be 309b 42be
000000c0: adf9 ea3d a29a 783e cdf1 14bf 854a 8d3e
000000d0: 3ce4 013e 5cc3 a33d a7dc cc3e d668 53be
000000e0: 2ac1 633d b120 413e c34a bbbd 69c7 9f3d
000000f0: 595a 19bd 31f2 023c ba67 4dc0 8a48 74be
00000100: 2b88 e53d 0959 8dbc 9b41 2040 dbd8 233e
00000110: 28e9 e53d a006 89bd 6afc 4f40 6323 153e
00000120: 06a5 a63e 1940 e0be 93fe 7fbf 70c1 49be
00000130: 6aa8 a73e 2f26 95be d3a1 dfbc dacb 75be
00000140: af5d 553e 3580 bd3d 813a 2ebe 896b 1bbe
00000150: cc80 b8bc 72e2 79bd 1a53 3dc0 37d6 8bbe
00000160: 59fa 29be c21b ab3d 1f7d b3be 9b10 293d
00000170: 9a1d 7ebd f32c b33d ce73 9dbe d7d5 2a3e
00000180: 37e5 c0bd 5304 113e 19b7 2a40 1905 f43e
00000190: 21e7 fabd 2fc4 64be a998 143f 9c04 c0be
000001a0: 4ce0 063d a7e5 b1bd 3b1f 08be 7f1f 92bd
000001b0: 9626 3ebd 3e1b 78be 4fc2 16c0 12ff 8ebe
000001c0: 6785 3bbe bfc7 5b3e 0124 2040 5b46 2e3f
000001d0: 658f f6bd 1f43 46bd 487b 9f3e 4ca7 003e
000001e0: 96f4 473c 3e83 813c 19ae 093f 9e82 2abe
000001f0: c49b b9be d761 823d 29ad 03c0 f8f1 bbbe
00000200: 6327 c5bd 933f 883e 4916 c13e 8990 19be
00000210: 6c4a ccb9 c626 05bd cc21 46c0 bf18 8abe
00000220: 7328 c03c 2b05 3e3d d2fd 7740 9b19 b33e
00000230: 73b7 f53d 24fd 31be 478a 19bf edbe c43e
00000240: db59 ea3d 803a 1d3e 25e4 04bf 453e be3e
00000250: 3574 053f 3d6c 573e 8aa4 e2bf 1230 4abe
00000260: 6920 d8be 9147 933e 5ea7 733d 3e41 a8bc
00000270: 68a0 813e 82d7 7ebe 9061 b2be 5957 f8bd
00000280: b4d3 273d 8c78 8abe fdb2 dd3e b231 a8be
00000290: f0b4 053e b84e e3bc 4344 4440 570e 493e
000002a0: 7b05 993d 65ba 16bd c253 c1be b141 993e
000002b0: d686 f13d d515 35be 3237 1fc0 7b86 03bf
000002c0: ac7c 343e 2e71 85be 44c0 d43f 4ee0 8a3e
000002d0: d6ee 273e 9155 313c cf70 303e c98e f13b
000002e0: 18ba b63d 4b16 93be 5098 cbbd 852c a6be
000002f0: 335c b3be 8e8a 4f3e f60e c6be d78b 493c
00000300: 6317 823d 2bbc 343d 61cb e8be 5e12 a03e
00000310: e3c3 b9be ced4 8a3e e3fb f6bd f5c0 5d3d
00000320: f7cc 193e c0e3 68be acda 303f 550c 92be
00000330: dfab 5abe e43d e6bb c320 05bc 1a0d 703e
00000340: 78aa 7bbe 88a6 623e 941d dc3e 3038 4e3d
00000350: b140 eb3e 148e a5bd c474 3a40 f843 453e
00000360: 98ac 02be abc0 a83e 4242 4ebe 5e57 a93e
00000370: 0239 a3be a0a4 4f3d 929e 0abe 80a3 973d
00000380: d41a ba3d de50 ea3c 8a0a 19c0 6594 acbe
00000390: d5d9 7a3e 50a7 53be 83b9 f63e c22e adbe
000003a0: c9f6 87bd 54b5 243b 9dfe f83d 1e41 763e
000003b0: 1bf7 aabe c0b7 92be ab9e 0040 3b7e 8cbc
000003c0: 8678 d83d 26ef 23be 0839 a8be 860c aa3d
000003d0: d5c1 c13d 8168 d3be cc70 943e ec98 e2be
000003e0: 754d 9d3d b9a8 1f3d 1854 95be 8734 0a3e
000003f0: c719 debe 1b48 c33c 3c49 f3bf 789a 70bd
0.09601077 0.095691316 0.43813786 0.17444804 -0.28382227 0.42194182 0.2252535 0.21545869
-0.6037307 -0.17653131 0.011039425 -0.030565862 0.101738356 -0.31562412 -0.0013365038 0.11487508
0.14619942 -0.3076223 -0.40381655 -0.10266184 0.48644742 0.28110993 0.03845907 0.19406608
0.26572853 -0.30295902 -1.2319562 -0.043604646 -0.017500143 -0.014705502 -3.4147794 -0.27835566
-0.3932317 0.26125035 -0.14222589 0.29910526 0.4523149 0.015742067 -1.3513653 -0.21041355
0.012191737 -0.051102262 -2.49953 -0.314377 0.28392452 -0.2556137 -0.34592366 -0.19004512
0.11473403 0.24277738 -0.5818146 0.27595916 0.12684721 0.07996246 0.40012094 -0.2064546
0.055604137 0.18860127 -0.09145119 0.07801706 -0.037439678 0.007992313 -3.209456 -0.23855796
0.112076126 -0.01725437 2.5040042 0.16000693 0.11226112 -0.06690717 3.2497811 0.1456428
0.32547778 -0.43798903 -0.99997824 -0.19702697 0.32745677 -0.29130694 -0.027298843 -0.24003544
0.20836519 0.09252969 -0.17014505 -0.1517774 -0.022522353 -0.06100697 -2.958197 -0.2731187
-0.16599406 0.08354904 -0.35056397 0.0412756 -0.06203995 0.08748808 -0.30752414 0.16683136
-0.09418719 0.14161806 2.6674254 0.4766014 -0.122511156 -0.22340463 0.5804544 -0.37503517
0.03292875 -0.08686381 -0.13293163 -0.07134914 -0.046423517 -0.24229142 -2.3556097 -0.27928978
-0.18312608 0.21462916 2.5021975 0.68076104 -0.12039069 -0.048403855 0.31148744 0.12563819
0.01220431 0.015809651 0.53781277 -0.16651389 -0.36251652 0.06366318 -2.0574439 -0.36708045
-0.09626653 0.26611003 0.37712315 -0.14996542 -0.0003896536 -0.03250768 -3.0958128 -0.26972005
0.023456788 0.046391647 3.874867 0.34980473 0.11997881 -0.17381722 -0.5997662 0.38426915
0.1144292 0.15354347 -0.5191062 0.37156883 0.5213044 0.21037383 -1.7706463 -0.197449
-0.42212227 0.28765538 0.059485786 -0.020538922 0.25317693 -0.24886897 -0.3484006 -0.12126035
0.04097338 -0.27045095 0.4330062 -0.32850415 0.13057303 -0.027747497 3.0666664 0.19634376
0.074717484 -0.036798853 -0.37759215 0.2993293 0.11793296 -0.1768411 -2.4877439 -0.51377076
0.17625684 -0.26062912 1.6621175 0.27124256 0.16399702 0.010823623 0.17230533 0.0073717576
0.08922213 -0.28727946 -0.09941161 -0.3245584 -0.3503128 0.20267698 -0.3868329 0.012301407
0.06352117 0.044124763 -0.45467666 0.31264013 -0.36282262 0.27115482 -0.12059762 0.054139096
0.15019594 -0.2274313 0.69083667 -0.28525034 -0.21354626 -0.007026421 -0.008125487 0.23442498
-0.24576747 0.22133839 0.42991316 0.050346553 0.45947793 -0.0808374 2.9133768 0.1926421
-0.12761152 0.32959494 -0.20142463 0.33074468 -0.3187943 0.050694108 -0.13537052 0.07404232
0.09087148 0.028603014 -2.3912683 -0.33706966 0.24497159 -0.20669293 0.4818841 -0.33824736
-0.066388674 0.0025132494 0.12157939 0.24048278 -0.33391652 -0.28655815 2.0096843 -0.017150035
0.10569863 -0.16009197 -0.3285601 0.0830317 0.09460799 -0.41290668 0.28992307 -0.44257295
0.076807894 0.038979266 -0.2916572 0.134966 -0.43379042 0.023838094 -1.9006724 -0.058741063

bias f4 [64]
00000000: f21f 3a3f ab43 153f 40a4 dd3d 8ecb 6a3f
00000010: 7d95 193f d6ab 8ebf d8dd e7be 4597 30bf
00000020: 176e 833f a0c4 2ebf 09a2 0fbf 79c8 403f
00000030: 009b 7a3f c250 873f d405 4c3f 1357 20bf
00000040: c56b e4be cdcb 04bf 4d9e 6abe c465 433f
00000050: a1f8 933f d8da 15bf 890e 583f a1b3 3bbe
00000060: ed4a 31bf 190c 693f c846 7bbe 6c2b 9abe
00000070: 43ae 4dbf 8a33 713f 3be2 083e 26a5 b8be
00000080: 9c24 473f 1834 21bf f1fd 45bf 0ecd fa3e
00000090: 6bd9 733f cc85 83bd fc70 6c3f 0ee7 813f
000000a0: 7b57 423f 5139 0dbf 8392 0b3e bc74 23bf
000000b0: 20a8 33bf 4c9a 2c3f b81c 5c3f 0bbf 783f
000000c0: 9a27 163f b365 473f 88da d13e b061 613f
000000d0: ab29 a43e 88bf 08bf 2fc5 213f 90c9 593f
000000e0: b3ed 3dbf d040 713f 6467 473f 91f6 40bf
000000f0: a13c a2bd 97dc 783f 5bde d7be d1b6 21bf
0.72704995 0.5830638 0.10822344 0.9171685 0.59993726 -1.114619 -0.4528644 -0.6898082
1.0267972 -0.68268776 -0.5610662 0.75305897 0.9789276 1.057152 0.79696393 -0.62632865
-0.44613472 -0.51873475 -0.2291195 0.7632716 1.156025 -0.58537054 0.8439718 -0.18330242
-0.6925495 0.91034085 -0.2453872 -0.30111253 -0.8034403 0.9421927 0.1336755 -0.36063498
0.77790236 -0.62970114 -0.7734061 0.4898457 0.9525363 -0.06422004 0.923599 1.0148637
0.75914735 -0.5516558 0.13630109 -0.6385 -0.70178413 0.6742294 0.8598132 0.9716651
0.5865418 0.77889556 0.4098704 0.88039684 0.3206304 -0.53417253 0.63191503 0.85073185
-0.74190825 0.9423952 0.77892137 -0.7537623 -0.0792172 0.97211593 -0.4216183 -0.6316958

weight f4 [1, 64]
00000000: edbe c63e a9a4 203e af76 ef3d df59 c03e
00000010: 563f b43e f1b1 89bf 7293 df3c 4851 32c0
00000020: 6a9f 003f 3604 ffbe 7b56 eebf 1f6b df3e
00000030: 16d9 b83e c8ee de3e 5832 8b3e 7ad2 24c0
00000040: 83db 01c0 c398 38c0 0de2 b83d 1e57 d73e
00000050: 5cb5 c73e 9e07 fbbf 80b3 f33e bdd9 3a3b
00000060: 9331 a9bf b17d 993e fee9 3fbd 99e5 d3be
00000070: 71b6 b2bf 068b b53e 1a33 393c 39ea 81be
00000080: d764 983e e46b 1fc0 ed65 3cc0 6857 033e
00000090: 49ad f03e aedc 27be 7029 c63e 36e6 cc3e
000000a0: 2c9c 993e 0f6f 0ec0 64a5 013c 89b7 bcbf
000000b0: 355c b5be c7e9 f53e f27f a73e b35b f83e
000000c0: 0d3d 283e 975e c33e aaee 333e 5fd7 863e
000000d0: 47b7 ce3d cdfe 60bf 8765 9a3e 4acb a93e
000000e0: 0650 3fbf 0b39 b83e a527 a83e 31e2 2fbf
000000f0: a1a2 e23b f92e c13e 3f4c ecbc c59c 31bf
0.3881754 0.15687813 0.11692559 0.37568566 0.3520457 -1.0757428 0.027291987 -2.786211
0.50243247 -0.498079 -1.8620142 0.43636414 0.36103123 0.4354155 0.27186847 -2.5753465
-2.029023 -2.8843238 0.09027491 0.42058653 0.39005554 -1.96117 0.47597885 0.002851113
-1.3218254 0.29978707 -0.04685401 -0.41386107 -1.3961927 0.3545763 0.0113036875 -0.2537401
0.29764435 -2.4909601 -2.943721 0.12826312 0.47007206 -0.16392776 0.3870349 0.40019387
0.30001962 -2.2255285 0.007912967 -1.474351 -0.3542191 0.4802992 0.32714802 0.4850746
0.16429539 0.38158104 0.17571512 0.2633619 0.10093551 -0.87888795 0.30155584 0.3316291
-0.7473148 0.3598102 0.32842746 -0.68704516 0.0069163595 0.3773115 -0.02884495 -0.69379836
