src/cartpole/results/CartPole-v0/train-a2c/20210407-190232/num_env6-num_episodes100000-learning_rate0.001-hidden_layers32-32-value_coefficient0.5.pt (torch, 6143 bytes, 7 tensors)

weight f4 [32, 4]
000000 74 22 b9 3c 30 47 70 3e 9c df bd bf 1d 91 de be
       0.022599436 0.23464656 -1.4833865 -0.43470088
000010 6f 15 84 be d9 c4 9b 3d 8c 44 c5 3f 2f d8 23 3f
       -0.25797603 0.07605905 1.5411544 0.64001745
000020 b7 51 d0 bd 73 83 54 3d 6b 6c 89 bf df 33 5a bd
       -0.10171836 0.051883172 -1.0736212 -0.053272124
000030 bb b8 08 bf 5b 47 d2 be 7e ea 6e 3f a6 e9 a0 3e
       -0.53406876 -0.41070065 0.93326557 0.3142826
000040 f5 03 39 3e 9d 29 70 3e e2 2b bf bf 75 28 9c be
       0.18067916 0.23453374 -1.4935267 -0.30499616
000050 60 e2 44 3e 46 24 ad 3e 84 83 60 3f 3f b6 db 3e
       0.1922698 0.33816737 0.87700677 0.4291248
000060 02 9d d9 bc 32 af 2c bd 22 80 44 bf ca c5 e3 be
       -0.026564125 -0.042159267 -0.76758015 -0.4448684
000070 15 77 3b be 26 c2 07 3e 4d 36 91 3f 00 a9 dd 3e
       -0.18307145 0.13257656 1.1344696 0.43293
000080 c1 0f b1 be ae 40 61 be 2f 0f 9f bf 51 b3 df be
       -0.34582332 -0.2199733 -1.2426509 -0.43691495
000090 38 ba 5b be 9f b6 d9 3e 5b a5 9b 3f 10 c4 57 3e
       -0.21457756 0.4252214 1.2159837 0.21070886
0000a0 49 16 bc bc c7 88 b8 be 98 86 67 bf fc ea c2 be
       -0.022959845 -0.36041853 -0.9043975 -0.38069904
0000b0 b1 76 8c be 0d c1 86 be 0f 01 8a 3f 4c 5c 71 3e
       -0.27434304 -0.2631916 1.0781573 0.23570365
0000c0 7e 30 27 be 9b c0 4c 3e 6b f2 22 bf b5 cd 97 3e
       -0.16327092 0.19995348 -0.6365115 0.2964913
0000d0 e7 94 bc 3d b0 a4 6f bd b7 ca 1c bf 5c cd 53 be
       0.09208088 -0.058506668 -0.6124682 -0.20683807
0000e0 ec d1 23 3d 95 86 5c be 46 b1 4c bf 99 69 57 be
       0.03999512 -0.21535714 -0.79958 -0.21036376
0000f0 31 69 63 3d 41 23 e5 bb c7 f8 bb bf 93 8d 5b 3e
       0.05552024 -0.006992728 -1.4685296 0.21440725
000100 c0 0c d4 3e 2b cd 4e bd 66 cc 7c 3f 51 c8 bf 3e
       0.41415977 -0.050488632 0.9874939 0.37457517
000110 f9 04 82 3e eb 17 81 3e b1 16 04 be e2 10 9c bb
       0.2539442 0.2521356 -0.12899281 -0.004762755
000120 fd 80 ab 3e d8 33 b5 3e 4b 2e 50 3f 74 74 a6 3e
       0.33496848 0.35391116 0.8132064 0.32510722
000130 d6 cf 82 3b 27 0c e1 be d7 b3 45 bf 70 c7 af be
       0.003992061 -0.43954584 -0.7722754 -0.34331846
000140 6d c7 fc be 88 2c c9 3e e9 b5 c0 be 5d 4c e3 be
       -0.493709 0.39291787 -0.37638786 -0.44394198
000150 82 ac a1 3d c4 2e d3 bd bb f7 80 bd 01 9d 56 be
       0.078942314 -0.10311654 -0.06297251 -0.2095833
000160 85 fb 47 3e 52 4b 4a be 23 0b a7 3e 51 cf 13 3e
       0.19529541 -0.19755295 0.32625684 0.14434554
000170 db 64 7a 3e 13 02 cd bc b4 fc fb bf 1e 93 ee be
       0.24452536 -0.025025403 -1.9686494 -0.46596617
000180 89 18 cb 3d 0e 86 82 bd 76 95 b4 bf 61 0f c0 be
       0.09916789 -0.06373225 -1.4108112 -0.37511733
000190 ab e2 cc 3e 0b ca 6e 3e 21 98 9e bf 43 fa f8 bd
       0.40016684 0.23319261 -1.2390176 -0.12157109
0001a0 7f 97 0d bf bc db 95 3d d6 21 37 bf 38 bd 65 be
       -0.5530929 0.07317302 -0.71536005 -0.22435462
0001b0 0b 56 2b 3c 43 71 b8 3d a6 1b 79 be 48 5a 89 3e
       0.010457526 0.09005978 -0.24326953 0.26826692
0001c0 6e bc 67 be 76 a7 6d 3e 07 83 91 3f ce 9a 5b be
       -0.22630474 0.23208413 1.1368111 -0.21445772
0001d0 13 21 c5 bd b2 ba 50 3d 33 c4 6d 3d 26 c8 bc 3d
       -0.09625449 0.050959297 0.05804844 0.09217863
0001e0 e1 a7 cc 3d a9 66 41 3d 51 6f 14 be d4 2e 3c 3e
       0.09992958 0.047217045 -0.14495589 0.18377239
0001f0 81 29 bc be f1 ad 59 be cc 0a 95 bf 52 e8 d1 be
       -0.36750415 -0.2125776 -1.164392 -0.4099756

bias f4 [32]
000000 8d 8d d5 bd 77 28 79 be 08 eb d5 bd e7 7b cb 3d
       -0.10427389 -0.24331842 -0.10445219 0.09935742
000010 44 bf 44 be 9c 44 b1 3e f5 51 f5 3e 06 41 3a be
       -0.19213587 0.34622657 0.4791409 -0.18188867
000020 77 2a 3b be 8f 32 92 3e ce 70 89 3e 8f df a3 3e
       -0.18277918 0.28554198 0.26843876 0.320065
000030 d4 11 9a 3e d0 ec 5a 3e 4a 8b 1c 3e 36 39 ae 3d
       0.30091727 0.213794 0.1528751 0.08507006
000040 26 05 63 be a2 b2 ef be ab e4 4c 3e b4 d4 c5 bd
       -0.22169933 -0.46815974 0.20009105 -0.096597105
000050 4b 82 a5 be 1a bb cd be a7 b6 13 bf a2 08 81 be
       -0.32325968 -0.4018181 -0.5770058 -0.252019
000060 c3 dd 2b be eb a5 c6 3e c6 bc 67 3d 4c e9 01 bf
       -0.16783814 0.3879846 0.056576513 -0.5074661
000070 29 cf 0f 3e 89 49 d5 be e1 06 93 be c3 5a 43 be
       0.14043869 -0.41657665 -0.28716186 -0.19077592

weight f4 [2, 32]
000000 02 b8 37 3e 76 70 ea be de 6d c7 3d d9 f5 8c be
       0.17941287 -0.45788926 0.097377524 -0.27531317
000010 29 48 1a 3e e9 2c 95 be fa e1 1a ba 96 89 1f be
       0.1506659 -0.29135826 -0.0005908307 -0.15579829
000020 bf 01 20 3e 16 4e 8c be a3 89 8c 3e 61 ad 68 be
       0.15625666 -0.27403325 0.27448758 -0.22722389
000030 2d 9f 98 3d ad 7c d7 3d c6 e8 df bd 86 3a e8 3e
       0.07452235 0.10521827 -0.1093307 0.4535715
000040 02 1e 70 be b0 c3 49 bd cf 0a 25 3d d0 90 2c 3c
       -0.23448947 -0.049258888 0.04029351 0.010532573
000050 23 b0 81 3d 1b be 20 bd fe 98 c3 bc 0c 1a cc 3e
       0.063324235 -0.0392438 -0.023876663 0.39863622
000060 2b 48 b6 3e c7 33 40 3e 02 6c 06 3e 73 f5 a9 bd
       0.35601935 0.18769751 0.13127139 -0.08298769
000070 3f 2e f3 bd a8 c9 c9 3d 40 39 ea 3d d3 33 81 3e
       -0.11874055 0.09852916 0.11436701 0.2523485
000080 e5 22 ad be 7e b4 dc 3e 0c e1 c2 be 40 cc cf 3c
       -0.33815685 0.43106455 -0.38062322 0.025365949
000090 5f 0b 90 be e2 46 b5 3e 09 80 3d be 36 c7 5f 3e
       -0.28133675 0.35405642 -0.18505873 0.21853337
0000a0 34 a9 9d be 8c 8a c0 3e 1b 5c 81 be 42 46 0a 3d
       -0.30793154 0.37605703 -0.25265583 0.03375841
0000b0 ad ae 8f bc 6a 07 a9 3d 51 f5 e8 bd 7e 3d 45 be
       -0.017539347 0.08253367 -0.113749154 -0.19261739
0000c0 be 57 8e 3e a8 3f ee bb de 49 cc 3d d2 d9 40 be
       0.27801317 -0.007270772 0.099750265 -0.18833092
0000d0 06 aa b5 bc 1c 32 1c bd 54 72 18 3e df 49 a7 be
       -0.0221758 -0.038133726 0.14887363 -0.32673547
0000e0 9c 96 d1 be be 26 5f be 22 3e fe bc c5 fd c7 bd
       -0.40935218 -0.21792123 -0.031035487 -0.097651996
0000f0 88 54 22 bd 05 43 30 3e 8b 02 b8 3d dd 6b 01 be
       -0.039631397 0.17213066 0.0898486 -0.12638803

bias f4 [2]
000000 f1 08 25 be cb aa c3 3d
       -0.16116692 0.095540605

weight f4 [32, 4]
000000 5b 76 2e be d9 ac f8 bd 2d 2d 61 be 1b f2 05 be
       -0.17037337 -0.12142343 -0.2198989 -0.13080637
000010 20 6c 18 bc 22 9d a3 3e ac b4 14 3c 99 fb cd 3e
       -0.009303123 0.3195582 0.009076279 0.40231016
000020 56 15 a9 3e 19 81 9e be 65 74 00 c0 6d 02 13 bf
       0.3302409 -0.3095787 -2.0071042 -0.57425576
000030 6e 02 55 be de fd 89 3d b7 ab b2 3d ad 0d a4 3e
       -0.20801708 0.067378744 0.08724158 0.32041684
000040 e3 bb bf 3d 47 fe 2d bd f3 c7 13 3f c7 a5 f2 be
       0.093620084 -0.042478826 0.57726973 -0.47392103
000050 7e 3c be 3e 2f fc fe be 9f 18 af bd be 55 0d be
       0.37155527 -0.49801776 -0.08549618 -0.1380224
000060 18 c2 2e be 66 d6 e9 bd 47 55 9e bf 86 af 4d be
       -0.17066228 -0.114178464 -1.2369775 -0.20086488
000070 ef cf f0 be 9b 53 06 be 0b a7 a9 3f 5f 07 22 3f
       -0.4703364 -0.1311783 1.3254102 0.632925
000080 40 90 22 be d8 ff 14 3e fa ab 24 40 5d b7 fa 3e
       -0.1587534 0.14550722 2.5729966 0.4896802
000090 c0 68 35 3e 1a e3 59 3e 60 e5 34 3e 53 39 1e be
       0.1771574 0.21278039 0.17665625 -0.15451555
0000a0 15 d6 ec bd d7 bd bd 3d 91 05 aa 3e 63 21 6b 3d
       -0.115642704 0.09264725 0.33207372 0.057404887
0000b0 f4 d7 35 be 12 d1 80 be ad e1 0b bf b5 fd 4b 3c
       -0.17758161 -0.25159508 -0.5464123 0.012450625
0000c0 74 46 6b bd 3b 0d d3 be c2 d4 df 3e 2a 78 b2 be
       -0.057440236 -0.41221032 0.4371701 -0.34857303
0000d0 ed 9d 1d 3d 81 14 66 3b bc 03 1e 3f 60 25 9d be
       0.038480688 0.0035107436 0.6172445 -0.30692577
0000e0 ba b8 b3 be c5 79 9e 3e f9 17 08 be 69 43 ac 3e
       -0.35101873 0.30952278 -0.13290395 0.3364518
0000f0 58 e6 18 be ea b9 19 3e 62 a0 07 be 24 41 03 be
       -0.14931619 0.15012327 -0.13244775 -0.12817818
000100 9a a1 ce be 88 18 f6 3d 8a 76 35 bf 80 92 c5 bd
       -0.40357667 0.12016398 -0.70884 -0.09647083
000110 4b 4b b8 bc 76 76 ad be f3 c7 8e 3e 67 26 db be
       -0.02249684 -0.3387944 0.27886924 -0.42802736
000120 9a df 3d 3e ec b9 11 be 3d 7e 97 3f 70 3a 0d 3e
       0.18542328 -0.1423108 1.18354 0.13791823
000130 33 2d 27 3d ec ad d7 bd 9b b7 19 c0 8c 10 ac be
       0.04081459 -0.1053122 -2.4018314 -0.33606374
000140 57 c0 5b 3c f4 c8 12 3e 15 f6 44 3e 43 6f 3b bc
       0.013412557 0.1433447 0.19234498 -0.011440101
000150 54 3e db be f6 ec ae bd bb ab 12 3f 18 2b 08 3f
       -0.4282099 -0.085412905 0.5729329 0.53190756
000160 d1 e7 16 3e da 61 6d 3e 1b 1f 8c be 04 84 03 bd
       0.14736868 0.23181859 -0.27367482 -0.03210832
000170 27 fd 69 3e 2c d3 95 bc ce ce 1a bd ba 1c 88 bc
       0.22850476 -0.018289171 -0.03779488 -0.01661526
000180 a2 f7 8f be 76 0b c5 3d ab 17 42 3e a7 1a 85 3e
       -0.28118616 0.096213266 0.18954341 0.25996897
000190 24 38 94 3e 0b 48 ca bb 95 2b 45 3e 76 f3 9a be
       0.28949082 -0.006173139 0.19254906 -0.3026387
0001a0 a0 f3 2b be 75 0b 90 be 36 3a 93 3e ad 45 ee 3d
       -0.16792154 -0.2813374 0.2875535 0.11634383
0001b0 ca 54 5b be 39 0b 22 3e 49 54 0a 3e 7e 48 bb 3e
       -0.21419063 0.15824594 0.13508715 0.36578745
0001c0 b2 db a1 3e b6 99 04 3e 70 3f 15 3c d8 a1 dc bc
       0.31612927 0.12949261 0.009109363 -0.026932642
0001d0 61 52 97 3e 30 0a 37 3e c0 07 b8 be 87 cd b5 3e
       0.29555038 0.1787498 -0.35943413 0.35508367
0001e0 70 89 3d 3e f0 c8 30 3e 0b 8b b3 be 04 a7 a4 3d
       0.1850946 0.17264152 -0.3506702 0.08039668
0001f0 5c e5 2a be 64 c5 ab 3e 9a 46 19 be c1 a4 e8 3d
       -0.16689056 0.33549035 -0.14968339 0.11359549

bias f4 [32]
000000 5b 51 43 3f 89 f4 55 3f 5e 8e 29 bf f3 f0 64 3f
       0.76296014 0.83576256 -0.6623286 0.8943016
000010 fa 6f 9b 3e f8 95 50 3f 84 ec 05 be f0 43 af be
       0.3035887 0.81478834 -0.13078505 -0.3423152
000020 a4 c7 11 bf d7 76 85 3f 38 4f 5f 3f 6d 53 95 3f
       -0.5694525 1.0426892 0.87230253 1.1666085
000030 83 ed 60 3f 3c 02 b3 bc 3f 59 ce 3e 8e f2 36 3f
       0.87862414 -0.021851651 0.40302464 0.7146386
000040 f1 48 99 be 86 64 71 3f ef c4 58 be e4 2a 01 bf
       -0.29938462 0.9429401 -0.21168874 -0.5045607
000050 2c 41 0d bf a3 5c 90 be 10 37 7e 3f 19 a4 82 3f
       -0.5517757 -0.28195676 0.9930277 1.0206329
000060 0b d0 4c 3f 11 45 88 3f f9 69 92 3f 81 1a 39 3f
       0.8000495 1.0646077 1.143859 0.72306067
000070 d1 d5 d3 3e 7d 85 88 3f f4 a1 53 3f f2 48 94 3f
       0.41374066 1.0665737 0.82668996 1.1584761

weight f4 [1, 32]
000000 7c 2b 35 3f 22 a4 18 3f 18 ea b7 bf 17 89 11 3f
       0.70769477 0.59625447 -1.4368315 0.5684981
000010 65 70 c7 3d 10 3a 1c 3f 9c 1b 92 be 39 a8 db be
       0.097382344 0.61026096 -0.2853669 -0.4290178
000020 8e 29 eb bf dd 74 12 3f c4 84 22 3f 7e 82 04 3f
       -1.8372056 0.5720957 0.63483834 0.51761615
000030 01 43 cb 3e 96 d3 31 3d 26 fa 3b 3e 5b 46 0f 3f
       0.39699557 0.043414675 0.18357143 0.5596673
000040 c3 57 65 be d6 ce 32 3f b5 67 6f be 2b 9a cb bf
       -0.2239676 0.69846857 -0.23379405 -1.5906423
000050 bc 0c de 3d 01 15 c4 3e 22 27 dc 3e a1 e1 1c 3f
       0.10842273 0.38297275 0.42998606 0.6128178
000060 9a ff a1 3e 89 c9 ff 3e 44 65 16 3f 5f ea 88 3e
       0.3164032 0.49958447 0.5874827 0.2674131
000070 b0 8d 25 3e 06 b0 dd 3e 68 24 09 3f da f8 eb 3e
       0.1616733 0.43298358 0.53571177 0.46088296
