src/cartpole/results/CartPole-v0/train-a2c/20210407-190232/num_env6-num_episodes100000-learning_rate0.003-hidden_layers128-128-value_coefficient0.5.pt (torch, 11135 bytes, 7 tensors)

weight f4 [128, 4]
0.040787812 -0.006522578 -3.0622425 -0.41203156 -0.13989834 0.06660992 2.197688 0.5063638
0.07885474 -0.07410509 -1.6612608 -0.099054776 0.0039776973 0.009303698 -1.1728306 -0.067962304
-0.043212894 0.07686024 -0.6273381 -0.13147675 -0.015395489 0.21099181 1.8920273 0.38061902
0.09436289 -0.11990767 1.8304214 0.34594032 -0.13556726 0.14446759 -0.11701136 0.12189881
0.2905063 -0.080665566 -0.71614146 -0.21213464 -0.2536273 0.267979 1.1677507 0.16657576
0.09540285 -0.2179062 -0.36131328 -0.35099027 0.018905431 0.06437405 0.52901953 0.30014828
0.058880206 0.15593444 2.971996 0.43584535 0.063587666 -0.08713415 0.34931746 -0.19499142
0.123898804 -0.10323033 -0.42468295 -0.13769531 -0.0028645366 0.07426499 -0.48753744 0.019843902
0.019826315 -0.071608834 0.0024816915 -0.0314628 -0.04578567 0.08403309 -2.895258 -0.2748852
-0.054346804 0.007360318 1.159377 0.34859467 0.14096181 -0.18630576 -0.9114723 -0.35453907
-0.27228105 0.112849 0.5199181 -0.056565702 0.07448474 -0.10062952 -0.068809986 -0.21357687
0.08292126 -0.039421715 0.10752007 -0.0064404802 -0.06297392 -0.18745197 -2.6673036 -0.2465159
0.11848767 0.03993034 -2.741586 -0.4120897 -0.013960769 -0.08063638 -0.97105473 -0.10235298
-0.18978949 -0.04773709 -0.47867802 -0.3161604 -0.03055028 0.072872944 -0.0374761 0.0921769
0.028380157 0.12220409 -0.45556393 -0.14122036 0.087445125 0.082378246 -0.06054555 0.1899588
-0.011953683 0.043633804 -0.06609459 0.10444875 -0.08415857 -0.01457647 -0.10892527 -0.3447677
-0.012504699 0.012837761 0.5138476 -0.06927531 0.0059353737 -0.030222574 -0.08106525 -0.0013002387
0.009666224 -0.00069972576 0.532379 0.26059964 0.16873628 0.0022198344 0.097381644 0.05267638
-0.15503916 0.035876878 0.46000755 0.07096279 0.03790954 -0.06947095 -0.37911937 -0.1156791
-0.052630614 -0.047835343 0.07914019 -0.24908929 0.107371 -0.21132937 -0.065300465 -0.29050288
-0.27771297 0.055478767 -0.8630767 -0.36114916 -0.05046514 0.042986594 -0.24419062 0.15178879
-0.06305608 -0.071450144 0.29615265 -0.11770739 0.10859784 0.03797669 -0.6534213 0.1188025
-0.11027551 -0.5313219 -0.029236205 -0.21704592 0.03778161 -0.0043245465 0.14062175 0.03042872
-0.036838803 0.05143043 -0.010967234 -0.013511907 -0.11924569 0.27619243 1.8266163 0.61166996
-0.1323593 0.042022347 -0.60945934 -0.15934968 -0.12061469 0.22194563 -0.14499187 0.10725612
-0.016283363 -0.010006338 -3.1502655 -0.44671002 -0.2712832 0.31471512 0.24738097 0.17985438
0.02587249 0.025543934 0.009095784 -0.07876783 -0.024625381 0.015266453 -0.6005516 -0.025240825
0.14053735 -0.15446702 0.47368342 -0.26445898 -0.06408247 0.097604044 0.7632308 0.119358815
-0.30404356 0.31462738 -1.2088368 0.061046552 -0.17340627 0.08252497 0.13550554 -0.0004427693
0.010598597 -0.010401191 0.04747673 -0.045346808 0.029228967 -0.035323635 -0.26274318 -0.19327006
-0.1270321 0.12120492 -0.1165612 0.25839227 0.2009946 -0.30117875 -0.73347825 -0.53438795
0.00546881 -0.0035579687 -0.11512032 0.033524804 0.21707393 -0.14510502 -0.97486 -0.07361931
00000000: 1f11 273d 5abb d5bb c8fb 43c0 cdf5 d2be
00000010: 8341 0fbe c86a 883d eca6 0c40 0fa1 013f
00000020: 987e a13d 69c4 97bd 32a4 d4bf 3bdd cabd
00000030: 5857 823b 8a6e 183c 501f 96bf d22f 8bbd
00000040: 0100 31bd e768 9d3d 3b99 20bf d7a1 06be
00000050: 5c3d 7cbc 3d0e 583e f32d f23f 7fe0 c23e
00000060: 5541 c13d 2792 f5bd 404b ea3f 171f b13e
00000070: 25d2 0abe 50ef 133e a7a3 efbd 15a6 f93d
00000080: 3ebd 943e fd33 a5bd 0c55 37bf d339 59be
00000090: 70db 81be 8b34 893e db78 953f d692 2a3e
000000a0: 9262 c33d ce22 5fbe 0efe b8be ffb4 b3be
000000b0: 90df 9a3c 8bd6 833d d36d 073f 09ad 993e
000000c0: 5f2c 713d 47ad 1f3e 2f35 3e40 1f27 df3e
000000d0: 403a 823d 6473 b2bd bdd9 b23e d5ab 47be
000000e0: a8be fd3d 6c6a d3bd 0b70 d9be 0000 0dbe
000000f0: f3ba 3bbb 3e18 983d 829e f9be ae8f a23c
00000100: cc6a a23c a7a7 92bd e0a3 223b 23df 00bd
00000110: c189 3bbd 8a19 ac3d e84b 39c0 c1bd 8cbe
00000120: c19a 5ebd d32e f13b 7766 943f 007b b23e
00000130: 4b58 103e f0c6 3ebe 4056 69bf 2586 b5be
00000140: 6c68 8bbe 601d e73d 5a19 053f 70b1 67bd
00000150: 758b 983d da16 cebd 40ec 8cbd e5b3 5abe
00000160: 9fd2 a93d aa78 21bd 7c33 dc3d aa0a d3bb
00000170: 78f8 80bd 69f3 3fbe 1ab5 2ac0 aa6e 7cbe
00000180: aaa9 f23d ff8d 233d 2576 2fc0 6cfd d2be
00000190: b6bb 64bc b024 a5bd 0b97 78bf 709e d1bd
000001a0: 2d58 42be f887 43bd 4915 f5be c7df a1be
000001b0: 9544 fabc 693e 953d 8a80 19bd 3ec7 bc3d
000001c0: 817d e83c 2346 fa3d ad3f e9be 129c 10be
000001d0: 6e16 b33d edb5 a83d 9cfe 77bd 8f84 423e
000001e0: 61d9 43bc 5cb9 323d 9a5c 87bd 3ae9 d53d
000001f0: 545b acbd 25d2 6ebc 3614 dfbd 6485 b0be
00000200: 82e0 4cbc 7955 523c 848b 033f 37e0 8dbd
00000210: 867d c23b 5595 f7bc 8a05 a6bd c56c aaba
00000220: 155f 1e3c cd6d 37ba fd49 083f 516d 853e
00000230: 34c9 2c3e a47a 113b 0770 c73d 30c3 573d
00000240: 96c2 1ebe a2f3 123d 1c86 eb3e f054 913d
00000250: 0947 1b3d c946 8ebd ef1b c2be 2ae9 ecbd
00000260: 3393 57bd feee 43bd 4014 a23d 4311 7fbe
00000270: 54e5 db3d ba66 58be 40bc 85bd cbbc 94be
00000280: 6530 8ebe b43d 633d 98f2 5cbf 8be8 b8be
00000290: 89b4 4ebd b612 303d 1b0d 7abe 856e 1b3e
000002a0: 8c23 81bd 7454 92bd 52a1 973e 9210 f1bd
000002b0: 8b68 de3d 728d 1b3d 9e46 27bf ba4e f33d
000002c0: 20d8 e1bd b604 08bf c480 efbc 4941 5ebe
000002d0: e4c0 1a3d edb4 8dbb 26ff 0f3e a745 f93c
000002e0: 49e4 16bd b7a8 523d eaaf 33bc 0c61 5dbc
000002f0: 1637 f4bd 1869 8d3e 90ce e93f 6796 1c3f
00000300: 3289 07be a01f 2c3d 8705 1cbf 902c 23be
00000310: d604 f7bd b745 633e c078 14be 19a9 db3d
00000320: b064 85bc a0f1 23bc f39d 49c0 2db7 e4be
00000330: a2e5 8abe 5722 a13e 7051 7d3e bf2b 383e
00000340: 8bf2 d33c 8341 d13c 7c06 153c 0751 a1bd
00000350: 2bbb c9bc 2520 7a3c c0bd 19bf d9c5 cebc
00000360: 06e9 0f3e 9a2c 1ebe a286 f23e 2b67 87be
00000370: ac3d 83bd a1e4 c73d 1863 433f 6572 f43d
00000380: 99ab 9bbe d716 a13e 2abb 9abf f30b 7a3d
00000390: 6a91 31be da02 a93d f7c1 0a3e 7d23 e8b9
000003a0: bda5 2d3c c269 2abc f676 423d 93bd 39bd
000003b0: 9671 ef3c 84af 10bd 4686 86be 96e8 45be
000003c0: b414 02be 493a f83d a3b7 eebd fe4b 843e
000003d0: 87d1 4d3e 1a34 9abe 3bc5 3bbf a6cd 08bf
000003e0: b433 b33b cf2c 69bb 34c4 ebbd 4e51 093d
000003f0: a148 5e3e 6996 14be 6d90 79bf b9c5 96bd

bias f4 [128]
-0.4882403 -0.42213 -0.3740027 -0.32337844 -0.50581366 -0.40581775 -0.25688326 -0.45895183
-0.5355729 -0.46945608 -0.48919204 -0.71859705 -0.4500306 -0.38684157 -0.4266637 -0.35054985
-0.24556462 -0.4082902 -0.31443325 -0.15859607 -0.87349856 -0.41964322 -0.63054764 -0.4889385
-0.42866644 -0.58660245 -0.83458257 -0.42185795 -0.7225148 -0.47113654 -0.21462514 -0.80301493
-0.21523802 -0.13545376 -0.6396448 -0.49464715 -0.493661 -0.2953176 -0.78904533 -0.75204605
-0.044456735 -0.352481 -0.47107917 -0.5592325 -0.4517129 -0.2585803 -0.22914512 -0.5314661
-0.69964683 -0.56775934 -0.43200976 -0.4553962 -0.3520178 -0.2109444 -0.60768795 -0.4532777
-0.24683543 -0.16487823 -0.09343123 -0.4029726 -0.47916508 -0.7662687 -0.12500411 -0.46747273
-0.70059735 -0.7593467 -0.23419785 -0.22691791 -0.80395204 -0.86318105 -0.6741286 -0.35838652
-0.24983896 -0.44345662 -0.48637182 -0.23322558 -0.23493877 -0.06861957 -0.46183947 -0.8547117
-0.45181155 -0.30464354 -0.34757298 -0.44180363 -0.72618294 -0.28889227 -0.570263 -0.4099731
-0.51403207 -0.5676359 -0.852313 -0.19193467 -0.52617437 -0.7320276 -0.02184208 -0.72366047
-0.5522533 -0.27541056 -0.46636268 -0.56996536 -0.25119665 -0.5034599 -0.35499877 -0.30167285
-0.2961471 -0.23608935 -0.0054152412 -0.3493043 -0.5536105 -0.0054196334 -0.38604316 -0.74038047
-0.49747616 -0.72352797 -0.0551035 -0.75162745 -0.7648423 -0.38728428 -0.45867005 -0.56463087
-0.40233675 -0.3304444 -0.12064458 -0.5667945 -0.474983 -0.78841436 -0.7111839 -0.3069861
00000000: a2fa f9be 6c21 d8be 487d bfbe dc91 a5be
00000010: 017d 01bf 58c7 cfbe 3486 83be bcfb eabe
00000020: 4e1b 09bf 8c5c f0be 6177 fabe faf5 37bf
00000030: 696a e6be 1910 c6be aa73 dabe 457b b3be
00000040: 4b75 7bbe 6a0b d1be 65fd a0be 0267 22be
00000050: 9a9d 5fbf 7adb d6be 926b 21bf 2656 fabe
00000060: 2b7a dbbe 942b 16bf 34a7 55bf c4fd d7be
00000070: bbf6 38bf cf38 f1be b1c6 5bbe 6392 4dbf
00000080: 5b67 5cbe 64b4 0abe c3bf 23bf 6442 fdbe
00000090: 22c1 fcbe de33 97be e0fe 49bf 1786 40bf
000000a0: 4418 36bd 6478 b4be 4a31 f1be dc29 0fbf
000000b0: ea46 e7be a364 84be 05a5 6abe 2a0e 08bf
000000c0: 0e1c 33bf ad58 11bf 6230 ddbe b129 e9be
000000d0: ad3b b4be cf01 58be 7091 1bbf 0414 e8be
000000e0: 6dc2 7cbe d7d5 28be df58 bfbd 6d52 cebe
000000f0: 2055 f5be 2f2a 44bf 1401 00be 9658 efbe
00000100: 595a 33bf 8c64 42bf 90d1 6fbe 2b5d 68be
00000110: cdcf 4dbf 6ff9 5cbf b193 2cbf 707e b7be
00000120: c9d5 7fbe bf0c e3be ba05 f9be b0d2 6ebe
00000130: ca93 70be 6b88 8cbd 3976 ecbe 63ce 5abf
00000140: d853 e7be 3dfa 9bbe 16f5 b1be 1634 e2be
00000150: 20e7 39bf b0e9 93be c2fc 11bf ffe7 d1be
00000160: 9b97 03bf 9650 11bf 2f31 5abf 868a 44be
00000170: 5db3 06bf 2966 3bbf 29ee b2bc d041 39bf
00000180: 7960 0dbf 9d02 8dbe 17c7 eebe 40e9 11bf
00000190: d99c 80be bfe2 00bf 66c2 b5be dd74 9abe
000001a0: 98a0 97be 68c1 71be 5672 b1bb 03d8 b2be
000001b0: 6bb9 0dbf 2e97 b1bb 73a7 c5be 9389 3dbf
000001c0: 32b5 febe 2139 39bf 35b4 61bd a86a 40bf
000001d0: b4cc 43bf 204a c6be cdd6 eabe a68b 10bf
000001e0: 15ff cdbe 0230 a9be 8114 f7bd 7219 11bf
000001f0: f930 f3be 86d5 49bf 2610 36bf 482d 9dbe

weight f4 [2, 128]
1.228201 -0.37553853 0.23078535 -0.01534854 -0.026320834 -0.005925399 -0.09954942 -0.020911569
0.027446942 0.022993837 0.05318347 -0.08530486 -0.96472895 -0.0025941439 -0.11100101 -0.07213298
0.0070389546 0.95231414 -0.07001228 -0.027679907 0.019264363 -0.005086416 0.013651611 1.128232
1.2931412 0.07100214 -0.14426829 -0.070331305 -0.09641984 0.056011725 -0.04449039 -0.051699094
0.020748602 0.0046033403 -0.098975316 -0.04125776 -0.008532917 0.036788873 0.108350724 0.0046764263
0.09264864 -0.02410995 -0.01238351 -0.050093368 0.1826616 -0.018421425 -0.011289182 -0.14935495
0.014679882 0.010411131 1.4067959 0.15098332 0.07933398 0.04014569 0.10606938 -0.119528644
0.112508304 -0.034570128 0.008216936 0.0027905055 -0.02072813 0.053084206 -0.048580505 -0.016037446
0.003618702 -0.022068555 0.29986563 0.049356904 0.011835923 0.066239856 0.0017317387 -0.03247037
-0.052258253 0.040534455 0.0017571911 0.04317368 -0.13251545 0.064549886 -1.0552772 0.18882622
0.07168447 -0.10831452 -0.008364213 0.045172334 -0.059199437 -0.04957996 0.036932915 0.11909181
-0.04928053 0.0039154347 0.04313341 0.0138910385 -0.006159935 0.052799378 -0.056734286 0.07964464
0.105715156 -0.056675516 -0.014720823 -0.03714125 -0.030316368 -1.2126951 0.67387676 0.044103332
-0.031786416 0.020633113 0.09559523 -0.04563565 -0.017583232 0.1308803 -0.034290377 0.46044353
0.0067417016 -0.01295389 0.01854209 0.034145135 -0.043711256 -0.21552175 0.028396925 -0.072545566
-0.10401096 0.078109026 -0.048007794 0.12572369 -0.8699363 -0.001054591 0.023952197 0.0881245
-1.3483531 0.3623851 -0.17358254 -0.055829085 0.017468693 0.13646449 0.1029706 0.037259404
-0.0097257085 -0.09664861 0.083138674 -0.035634443 0.9602278 -0.0039430824 0.04601263 0.03737601
-0.041696757 -0.90800774 0.0019715931 -0.026813962 -0.036830585 0.0015505776 0.051265962 -1.1681893
-1.1998856 0.03562007 0.09976626 0.10258352 0.012648842 -0.046134934 -0.05524506 0.023327352
0.0030468106 -0.013738447 0.20411767 0.047103636 -0.0043845177 0.03915994 0.040070638 -0.07979199
0.0005810063 -0.024299419 -0.038622037 0.014807944 -0.119280994 0.017388249 0.011862936 0.11437593
-0.0057152715 0.08944743 -1.3771064 -0.16540445 0.065083854 0.016554298 -0.050368745 0.011687507
-0.06337186 -0.045943968 0.011551908 -0.02333641 7.6377124e-05 -0.018977374 0.025551625 0.018278413
-0.050789118 -0.02036874 -0.36251917 0.061713118 -0.04269787 -0.045012984 -0.042844705 0.013607618
-0.04069251 -0.06387277 0.089570776 -0.031830125 0.17544046 -0.062274426 1.1536003 -0.048162706
0.004067488 0.060126346 -0.002585397 -0.036277935 -0.02861854 0.02356175 0.084548 -0.2668265
0.104190655 -0.09039097 -0.0020100179 -0.02602397 0.039761633 0.042697188 0.01283229 -0.010294595
-0.030136062 -0.045743853 0.033519078 -0.06441009 -0.052021082 1.2372909 -0.5919918 -0.08580989
-0.014986318 0.059846852 -0.039587926 0.012567356 0.0756216 -0.072780974 -0.089224406 -0.46591848
0.024349937 0.0059597585 -0.07461171 0.068887785 0.056981586 0.32971963 -0.016054979 -0.05907632
0.12690458 0.057133447 -0.08101069 0.03280637 0.9249637 0.0013136176 -0.08085606 0.029308027
00000000: b135 9d3f 9646 c0be ff52 6c3e 7178 7bbc
00000010: ca9e d7bc d929 c2bb 91e0 cbbd bd4e abbc
00000020: 69d8 e03c 925d bc3c e9d6 593d 50b4 aebd
00000030: 7af8 76bf 8302 2abb 7f54 e3bd 75ba 93bd
00000040: 08a7 e63b dcca 733f 9962 8fbd f9c0 e2bc
00000050: 4cd0 9d3c f3ab a6bb 02ab 5f3c e869 903f
00000060: a785 a53f 9269 913d 11bb 13be dc09 90bd
00000070: c477 c5bd 8d6c 653d 8e3b 36bd 6ec2 53bd
00000080: f9f8 a93c 9ed7 963b 92b3 cabd e6fd 28bd
00000090: a6cd 0bbc eeaf 163d fce6 dd3d b53c 993b
000000a0: 92be bd3d 3b82 c5bc 35e4 4abc b42e 4dbd
000000b0: a40b 3b3e 87e8 96bc 43f6 38bc 81f0 18be
000000c0: e383 703c 7393 2a3c e311 b43f 5f9b 1a3e
000000d0: db79 a23d cf6f 243d e73a d93d 6fcb f4bd
000000e0: c16a e63d 6899 0dbd 54a0 063c eae0 363b
000000f0: 0ace a9bc d36e 593d 5afc 46bd f660 83bc
00000100: bf27 6d3b 1dc9 b4bc fd87 993e 772a 4a3d
00000110: 76eb 413c c3a8 873d 82fb e23a a7ff 04bd
00000120: c00c 56bd 7507 263d 8d51 e63a e2d6 303d
00000130: 21b2 07be bb32 843d 5313 87bf a95b 413e
00000140: 4fcf 923d 01d4 ddbd 0d0a 09bc a006 393d
00000150: 1c7b 72bd 5b14 4bbd f846 173d 68e6 f33d
00000160: 62da 49bd 0c4d 803b a9ac 303d 3d97 633c
00000170: 48d9 c9bb 2944 583d 3662 68bd bb1c a33d
00000180: 3081 d83d 9624 68bd 9b2f 71bc 6c21 18bd
00000190: 085a f8bc 9839 9bbf 3083 2c3f b2a5 343d
000001a0: 7932 02bd c606 a93c 6fc7 c33d 73ec 3abd
000001b0: b60a 90bc 7c05 063e 1174 0cbd 41bf eb3e
000001c0: 7ee9 dc3b 8d3c 54bc 95e5 973c c5db 0b3d
000001d0: 930a 33bd bcb1 5cbe aba0 e83c c592 94bd
000001e0: b303 d5bd a0f7 9f3d d2a3 44bd b6bd 003e
000001f0: 25b4 5ebf 343a 8aba 6637 c43c 9e7a b43d
00000200: d696 acbf 8a8a b93e 9fbf 31be 0aad 64bd
00000210: 811a 8f3c 59bd 0b3e 40e2 d23d 519d 183d
00000220: 9458 1fbc b5ef c5bd 9c44 aa3d 6cf5 11bd
00000230: 7dd1 753f f934 81bb bd77 3c3d 9617 193d
00000240: 38ca 2abd 3273 68bf d835 013b f4a8 dbbc
00000250: abdb 16bd c03c cb3a 42fc 513d 3a87 95bf
00000260: da95 99bf 5ae6 113d 4152 cc3d 4f17 d23d
00000270: 173d 4f3c fcf7 3cbd a548 62bd 0119 bf3c
00000280: 00ad 473b 3917 61bc 3904 513e beef 403d
00000290: 00ac 8fbb 2c66 203d 1c21 243d fc69 a3bd
000002a0: ac4e 183a 930f c7bc 2432 1ebd 059d 723c
000002b0: 9849 f4bd cd71 8e3c c35c 423c ed3d ea3d
000002c0: 2c47 bbbb 3730 b73d 0645 b0bf c95f 29be
000002d0: af4a 853d e19c 873c 754f 4ebd f57c 3f3c
000002e0: 1bc9 81bd be2f 3cbd 3744 3d3c 002c bfbc
000002f0: a82c a038 7076 9bbc a451 d13c 9cbc 953c
00000300: 4008 50bd 58dc a6bc 1d9c b9be e5c6 7c3d
00000310: f6e3 2ebd 895f 38bd ee7d 2fbd 7df2 5e3c
00000320: 30ad 26bd bacf 82bd e270 b73d 4e60 02bd
00000330: aaa6 333e 7813 7fbd 2da9 933f 4246 45bd
00000340: 9048 853b 0b47 763d c46f 29bb 2c98 14bd
00000350: 6e71 eabc 9204 c13c 8027 ad3d 7c9d 88be
00000360: e961 d53d e71e b9bd 81ba 03bb 3930 d5bc
00000370: 18dd 223d 3fe3 2e3d 863e 523c a9aa 28bc
00000380: e7df f6bc e85d 3bbd 4d4b 093d 70e9 83bd
00000390: 0f14 55bd 8c5f 9e3f c68c 17bf 18bd afbd
000003a0: 2c89 75bc f921 753d f326 22bd 50e7 4d3c
000003b0: 7fdf 9a3d 310e 95bd 49bb b6bd de8c eebe
000003c0: 8579 c73c 144a c33b 06ce 98bd 0a15 8d3d
000003d0: 8665 693d 03d1 a83e bb85 83bc 03fa 71bd
000003e0: 46f3 013e c304 6a3d efe8 a5bd f95f 063d
000003f0: 6cca 6c3f b12d ac3a dd97 a5bd 6317 f03c

bias f4 [2]
-0.051790226 -0.03217654
00000000: fd21 54bd 8ccb 03bd

weight f4 [128, 4]
-0.05117744 0.21923137 0.24915157 0.24048774 0.016702976 0.00067813054 0.3489575 0.055987667
-0.18182428 -0.04084939 0.0063275443 -0.1936914 0.015419524 0.090743504 0.16868563 0.17323183
0.18676437 0.0030946312 -0.31456062 -0.17339405 0.036174264 -0.060608868 0.42437682 -0.1066143
-0.30999568 0.20613827 0.43070868 0.00181025 -0.058771785 0.0020673324 3.4201784 0.19092871
0.14634366 -0.10780887 -0.02225433 0.014343222 0.034773532 -0.13594954 0.01934696 -0.20164804
0.22185037 -0.23830944 -0.042273846 -0.31293976 -0.46219796 -0.1241108 -0.28418595 -0.0069051962
-0.5393828 -0.14536306 1.1348581 0.13385928 -0.09069786 0.048793364 -3.044313 -0.1897431
0.2171414 0.029742584 -0.11531292 -0.021430654 0.02759344 0.039515827 -0.26008022 0.12028025
0.27637437 -0.30304953 -0.4466577 -0.078954585 0.2266804 -0.08814234 0.013476864 0.050194535
-0.04996912 0.0015087497 3.2657447 0.18722998 -0.061338075 0.018545488 3.249572 0.2574435
-0.5167006 -0.14359686 -0.98723984 -0.13084581 0.035060745 0.012045557 -2.3803844 -0.38179195
-0.3050289 0.14429113 -0.1680455 0.20763844 -0.02157645 0.07971443 -0.0756061 0.08738358
0.5202277 0.10830013 0.076608814 0.0432434 -0.053796947 0.023276253 -2.9448586 -0.22027527
0.024518965 -0.023253243 -0.24932419 -0.055180795 -0.46908703 -0.34836286 -0.78649473 -0.21802507
0.1610265 -0.09045315 -1.529331 -0.4002285 -0.1519167 0.1655733 0.44491467 0.090852946
-0.5034455 -0.10582115 -0.14865318 0.00789002 0.020983748 0.029264767 0.23818843 0.058970116
-0.0506052 0.035374112 1.1189319 0.63262755 0.41905525 -2.2436754e-05 -0.3963343 -0.105546616
-0.037311394 0.03278921 -0.19145611 0.03079611 -0.33883527 0.37153825 -0.4294841 0.34238133
-0.2236903 -0.17717884 0.59484816 -0.13951162 -0.05660204 0.09041499 -0.39522862 0.15236486
0.0021554567 -0.0025027068 0.020277303 -0.006304632 -0.02674903 0.0055703493 3.0165658 0.2203607
0.221462 -0.004481209 -0.31351918 0.20812297 -0.022027021 0.20190872 -0.096904285 -0.045295153
-0.008852479 -0.09988452 0.079599395 0.048176054 0.11022029 -0.13766061 0.2272613 -0.1121204
0.20029551 -0.19239011 -0.033093844 -0.2095174 0.11118223 -0.20826103 -0.25418377 -0.30696142
0.008141874 0.027068958 0.0020967766 0.020257896 -0.021373976 0.020472065 -2.7345698 -0.14559974
-0.18279435 0.30008048 0.30439028 0.5188834 -0.059237238 -0.07524063 0.11932005 -0.24570632
0.02917621 -0.0034585672 -0.009697568 -0.10096414 0.42055377 0.24582654 0.41426456 0.2494572
0.03156468 -0.054704927 0.015510236 -0.071003266 -0.5292877 -0.24798113 0.24429668 -0.11483871
-0.076710396 -0.24219327 -1.5441658 -0.42852756 -0.020566087 0.03589575 -3.090235 -0.18778145
-0.2633173 0.1125895 -0.41987914 -0.0041814703 -0.06490666 -0.14282727 0.29111415 -0.28860578
-0.32563514 0.35802054 -0.018879957 0.3550386 -0.15488814 -0.043082554 0.13253367 -0.043959133
0.26037428 -0.2019709 -0.16025591 -0.14022188 0.04784823 -0.08095977 0.31738603 -0.10890244
0.09217015 -0.3152917 0.3879939 -0.29540431 0.22535437 -0.36296842 -0.36448157 -0.036706455
00000000: 6f9f 51bd 307e 603e 9721 7f3e 6b42 763e
00000010: aed4 883c 92c4 313a 8faa b23e 5353 653d
00000020: 2530 3abe b151 27bd 4a57 cf3b 0a57 46be
00000030: 2ca2 7c3c bbd7 b93d edbb 2c3e af63 313e
00000040: 293f 3f3e 4ccf 4a3b 170e a1be 368e 31be
00000050: 772b 143d 0141 78bd eb47 d93e 9958 dabd
00000060: c1b7 9ebe e915 533e d985 dc3e e945 ed3a
00000070: afba 70bd 157c 073b 34e4 5a40 d182 433e
00000080: 1ddb 153e e6ca dcbd b64e b6bc d5ff 6a3c
00000090: b16e 0e3d 5b36 0bbe 847d 9e3c d37c 4ebe
000000a0: be2c 633e 6407 74be 5727 2dbd a439 a0be
000000b0: 36a5 ecbe ce2d febd d280 91be fc44 e2bb
000000c0: fe14 0abf 0eda 14be 0843 913f 6812 093e
000000d0: cdbf b9bd 8ddb 473d 06d6 42c0 044c 42be
000000e0: 515a 5e3e b8a6 f33c 2e29 ecbd 578f afbc
000000f0: a30b e23c 59db 213d 3c29 85be 7e55 f63d
00000100: f180 8d3e 4f29 9bbe 51b0 e4be f1b2 a1bd
00000110: e81e 683e f983 b4bd 11ce 5c3c c998 4d3d
00000120: 6cac 4cbd 3dc1 c53a f601 5140 37b9 3f3e
00000130: a23d 7bbd b5ec 973c fdf8 4f40 a2cf 833e
00000140: 7e46 04bf 0e0b 13be c0bb 7cbf 72fc 05be
00000150: db9b 0f3d ba5a 453c 3858 18c0 3c7a c3be
00000160: bf2c 9cbe 0ec1 133e 1f14 2cbe 2c9f 543e
00000170: 18c1 b0bc 5241 a33d 5fd7 9abd 2af6 b23d
00000180: a42d 053f 75cc dd3d 15e5 9c3d fe1f 313d
00000190: 305a 5cbd d7ad be3c 9078 3cc0 d78f 61be
000001a0: ffdb c83c 967d bebc d74e 7fbe 4205 62bd
000001b0: 2d2c f0be 9e5c b2be b857 49bf f741 5fbe
000001c0: 21e4 243e 803f b9bd 1ec1 c3bf c0ea ccbe
000001d0: 0d90 1bbe 0c8c 293e dbcb e33e 1c11 ba3d
000001e0: cee1 00bf c2b8 d8bd 8a38 18be 2445 013c
000001f0: 1ce6 ab3c aabc ef3c abe7 733e a68a 713d
00000200: 6647 4fbd 72e4 103d 2939 8f3f e1f3 213f
00000210: 698e d63e 9036 bcb7 54ec cabe d328 d8bd
00000220: d5d3 18bd fb4d 063d 120d 44be 2048 fc3c
00000230: d17b adbe 433a be3e 57e5 dbbe 9b4c af3e
00000240: 120f 65be 5f6e 35be f847 183f 22dc 0ebe
00000250: 8ad7 67bd 7f2b b93d 685b cabe 8905 1c3e
00000260: 9042 0d3b 7404 24bb 961c a63c 1697 cebb
00000270: c820 dbbc 7a87 b63b 6a0f 4140 3ca6 613e
00000280: efc6 623e 1bd7 92bb 9685 a0be 301e 553e
00000290: 0372 b4bc 29c1 4e3e c175 c6bd 6987 39bd
000002a0: fd09 11bc 4190 ccbd 0205 a33d 4154 453d
000002b0: 2dbb e13d e7f6 0cbe 30b7 683e 619f e5bd
000002c0: 441a 4d3e ea01 45be 698d 07bd bb8b 56be
000002d0: 82b3 e33d 6142 55be 6024 82be 0c2a 9dbe
000002e0: 7f65 053c b8bf dd3c 136a 093b e3f3 a53c
000002f0: 7a18 afbc 08b5 a73c 3103 2fc0 1918 15be
00000300: 712e 3bbe 26a4 993e 0bd9 9b3e 8bd5 043f
00000310: bfa2 72bd c217 9abd 125e f43d 709a 7bbe
00000320: f202 ef3c 21a9 62bb 8ce2 1ebc 49c6 cebd
00000330: d352 d73e f4b9 7b3e 7c1a d43e b571 7f3e
00000340: f749 013d 4612 60bd a51e 7e3c 296a 91bd
00000350: 667f 07bf c4ee 7dbe e928 7a3e 8f30 ebbd
00000360: 571a 9dbd 8301 78be 3aa7 c5bf f767 dbbe
00000370: 367a a8bc 6c07 133d 69c6 45c0 c849 40be
00000380: 86d1 86be 5395 e63d 66fa d6be b704 89bb
00000390: c8ed 84bd 5041 12be ea0c 953e 23c4 93be
000003a0: a6b9 a6be 784e b73e 24aa 9abc 9fc7 b53e
000003b0: ff9a 1ebe 5577 30bd e8b6 073e 7e0e 34bd
000003c0: c74f 853e 76d1 4ebe 201a 24be 5396 0fbe
000003d0: 81fc 433d 3cce a5bd 6c80 a23e 3e08 dfbd
000003e0: b4c3 bc3d ea6d a1be 23a7 c63e 3c3f 97be
000003f0: 4cc3 663e ffd6 b9be 549d babe 8259 16bd

bias f4 [128]
0.7459738 -0.18967372 0.94947 0.6705195 1.0218287 -0.26873064 0.5933237 -0.6982338
-0.63343805 -0.4425693 -0.56373155 -1.0409462 -0.12810245 -0.6466039 -0.7123469 0.5692927
0.8959403 0.8153734 -0.6866029 -0.73865646 -1.1218377 -0.6269436 0.93737835 -0.47998673
-1.1641911 -0.6539103 -0.26728645 -1.0180236 -0.7206336 0.57791346 -1.0874753 -0.21365133
-0.7772837 -0.88926905 -0.108145565 0.31922653 -0.7173308 -0.21188521 0.0016625301 -0.68030626
0.98844886 0.99817425 0.88526744 -0.36615473 -0.10853047 -0.72688395 -0.15125372 -0.562815
-0.7685646 0.71413696 -0.39599118 -0.9132279 -0.14891873 -1.2557015 -0.46448514 -0.660503
0.86939496 0.81338316 0.7419542 -0.6458381 0.17622477 -0.14522229 0.8591569 1.0490663
-0.53107566 -0.6742661 -0.7714274 -0.6486877 1.0002093 0.69695777 0.76026845 0.93363386
-0.42647403 -0.7256784 0.92869467 1.003034 -0.31779248 -0.6130765 0.9697412 -0.04279764
0.39882025 0.7557118 0.7747702 -1.3429196 -0.6462307 0.9007575 -0.50034046 -0.67163074
1.0068727 -0.30279604 1.0179062 -1.1299306 0.7326233 -0.19459353 -0.66562927 -0.3664993
-0.48762923 -0.2661392 -0.18019924 0.90590185 0.68620765 0.004253908 -0.8848284 -1.0179852
-0.63327545 -1.1867372 -0.2938099 -0.05318302 -0.33287635 -0.7341185 0.7409415 -0.15798977
-0.5238428 -0.770052 -0.13061461 0.80961156 -0.8546604 -0.25718862 -0.24060372 -0.6268189
0.975057 -0.35984606 0.5066324 -0.43819055 -0.38474414 -0.6000118 -0.583937 0.6252671
00000000: 24f8 3e3f d439 42be 7710 733f 2aa7 2b3f
00000010: 48cb 823f 1097 89be 10e4 173f 73bf 32bf
00000020: ff28 22bf 7198 e2be b650 10bf ba3d 85bf
00000030: 4a2d 03be d587 25bf 5e5c 36bf 2bbd 113f
00000040: 585c 653f 50bc 503f 35c5 2fbf 9718 3dbf
00000050: 6198 8fbf 607f 20bf 07f8 6f3f d2c0 f5be
00000060: 3704 95bf aa66 27bf c5d9 88be 994e 82bf
00000070: 727b 38bf 23f2 133f 6432 8bbf 6ac7 5abe
00000080: 11fc 46bf 23a7 63bf 6c7b ddbd a971 a33e
00000090: fea2 37bf 70f8 58be 41e9 d93a 8d28 2ebf
000000a0: fc0a 7d3f 5988 7f3f e3a0 623f a278 bbbe
000000b0: 3945 debd 1115 3abf 41e2 1abe a514 10bf
000000c0: a6c0 44bf aed1 363f 5bbf cabe 4ec9 69bf
000000d0: 277e 18be d4ba a0bf ffd0 edbe b916 29bf
000000e0: ab90 5e3f e139 503f b6f0 3d3f a555 25bf
000000f0: 4474 343e 27b5 14be b5f1 5b3f ce47 863f
00000100: 93f4 07bf b49c 2cbf 447c 45bf 6610 26bf
00000110: dc06 803f d36b 323f f4a0 423f a102 6f3f
00000120: ce5a dabe 0fc6 39bf efbe 6d3f 6b63 803f
00000130: b2b5 a2be 95f2 1cbf f640 783f 944c 2fbd
00000140: 2b32 cc3e 5476 413f 5757 463f cae4 abbf
00000150: 606f 25bf 0b98 663f 5016 00bf feef 2bbf
00000160: 34e1 803f 1508 9bbe c04a 823f 91a1 90bf
00000170: 338d 3b3f 8743 47be ae66 2abf cca5 bbbe
00000180: 8aaa f9be 6643 88be 2686 38be 2fe9 673f
00000190: 4eab 2f3f 5e64 8b3b 1d84 62bf 574d 82bf
000001a0: 571e 22bf 01e7 97bf 406e 96be 70d6 59bd
000001b0: c56e aabe 31ef 3bbf 58ae 3d3f 12c8 21be
000001c0: 901a 06bf 2122 45bf d6bf 05be b442 4f3f
000001d0: 06cb 5abf 3aae 83be d260 76be 3477 20bf
000001e0: 569d 793f be3d b8be a9b2 013f 835a e0be
000001f0: 2ffd c4be 609a 19bf e57c 15bf 8111 203f

weight f4 [1, 128]
0.28939378 -0.0039620763 0.38634095 0.16296317 0.3349903 0.0028363336 0.092365414 -3.7214482
0.0047039576 -0.04850603 -0.05325325 -1.2124506 -0.093314335 -3.8466194 0.004881984 0.21013995
0.31525755 0.3109023 -4.2056365 -3.4198685 -0.71172005 -1.795872 0.36940992 -0.0693006
-1.234585 -3.7174704 -0.02376331 -0.6446842 -0.21024695 0.10459545 -1.5209037 -0.0026171613
-0.1447315 -0.182527 0.0076981406 0.030875493 -0.15204933 -0.0025153721 -6.531485e-05 -2.3257787
0.37914506 0.30404735 0.3186059 -0.010931781 0.007079873 -0.104907535 -0.006912732 -2.5348613
-0.08395878 0.19692001 -0.068396546 -0.71271855 -0.0011248545 -1.0801978 -0.10142017 -3.5423498
0.3816963 0.23740496 0.19306804 -0.08428112 0.017022714 0.00038570754 0.23089555 0.4416491
0.0023273458 -4.0234394 0.033181936 -3.819788 0.30312896 0.23846419 0.17559491 0.32448635
-0.01896705 -3.4028342 0.2788612 0.3909571 0.010679066 -0.007501047 0.34819016 -0.0013658789
0.04971742 0.2815433 0.1958006 -1.2533829 -0.12170712 0.40997025 0.0022923467 0.0003817792
0.28863618 -0.015667716 0.38872114 -1.1640443 0.23479946 -0.14916342 -3.8383212 0.0066388766
-0.2041819 0.0011715806 -0.0029679912 0.29642728 0.2760478 -0.009462431 -0.46910796 -0.2857426
-3.728791 -1.0599234 0.03617452 0.0014828395 -0.17010544 -0.22903347 0.23171829 -0.01101528
-0.14751576 -0.7893517 -0.0055894926 0.23373614 0.0062199305 -0.0023693512 -0.02924928 -2.9720278
0.3381711 -0.04839482 0.09105595 -0.11977517 -0.040835246 -2.7784162 -0.07193148 0.19212484
00000000: 6c2b 943e 4ed4 81bb 7bce c53e d1df 263e
00000010: d983 ab3e c8e1 393b 142a bd3d 352c 6ec0
00000020: a823 9a3b 42ae 46bd 1420 5abd 9531 9bbf
00000030: 961b bfbd 032f 76c0 0df9 9f3b ed2e 573e
00000040: 7069 a13e 962e 9f3e 9394 86c0 20df 5ac0
00000050: 4933 36bf 22df e5bf 4c23 bd3e 79ed 8dbd
00000060: e206 9ebf 09eb 6dc0 46ab c2bc 060a 25bf
00000070: fa4a 57be 2436 d63d f9ac c2bf ae84 2bbb
00000080: 7f34 14be 5ce8 3abe af40 fc3b 9aee fc3c
00000090: d2b2 1bbe f1d8 24bb a5f9 88b8 8fd9 14c0
000000a0: 4d1f c23e 18ac 9b3e 5020 a33e 361b 33bc
000000b0: 47fe e73b c3d9 d6bd 3384 e2bb 2b3b 22c0
000000c0: 95f2 abbd 66a5 493e 7d13 8cbd b974 36bf
000000d0: db6f 93ba ec43 8abf 61b5 cfbd dcb5 62c0
000000e0: b36d c33e 491a 733e a1b3 453e 949b acbd
000000f0: 3873 8b3c ca38 ca39 e26f 6c3e d51f e23e
00000100: 6286 183b 04c0 80c0 c8e9 073d 6877 74c0
00000110: b833 9b3e f52f 743e 27cf 333e 1323 a63e
00000120: c960 9bbc 09c8 59c0 e5c6 8e3e 872b c83e
00000130: 40f7 2e3c 58cb f5bb fb45 b23e 4a07 b3ba
00000140: 7ea4 4b3d 7226 903e f47f 483e da6e a0bf
00000150: 9541 f9bd 9fe7 d13e 323b 163b 8929 c839
00000160: 1fc8 933e 9559 80bc 7506 c73e 67ff 94bf
00000170: 456f 703e 4cbe 18be 0ea7 75c0 ef8a d93b
00000180: 0f15 51be b98f 993a a182 42bb 51c5 973e
00000190: 2356 8d3e 5008 1bbc eb2e f0be db4c 92be
000001a0: 83a4 6ec0 92ab 87bf bc2b 143d d65b c23a
000001b0: 1f30 2ebe c087 6abe 8f47 6d3e 6f79 34bc
000001c0: 5f0e 17be f412 4abf 1028 b7bb 8758 6f3e
000001d0: 8fd0 cb3b 1e47 1bbb 309c efbc b435 3ec0
000001e0: c324 ad3e a639 46bd 8b7b ba3d af4c f5bd
000001f0: dc42 27bd 92d1 31c0 d050 93bd 60bc 443e
