src/cartpole/results/CartPole-v0/train-a2c/20210407-190232/num_env6-num_episodes100000-learning_rate0.001-hidden_layers32-32-value_coefficient0.1.pt (torch, 6143 bytes, 7 tensors)

weight f4 [32, 4]
000000 e7 79 94 bd 3d 7b cc 3d e9 01 c5 bf 5f 7f be be
       -0.072498135 0.09984443 -1.5391208 -0.3720655
000010 c8 17 f8 bd 40 a9 52 3e 8a 01 5c bd c1 18 a3 3e
       -0.12113911 0.20572376 -0.053712405 0.31854823
000020 eb 42 47 bc a1 0b 63 3c 0a 44 af bf 5b da d5 bd
       -0.012161951 0.013857753 -1.3692639 -0.104420386
000030 84 11 05 bf 1a f7 df be c6 83 81 3f 54 9d bd 3e
       -0.5197985 -0.4374321 1.0118339 0.37034094
000040 7f fc e9 3d 95 a3 01 3e bb d4 c4 bf 32 c3 b8 be
       0.11425113 0.12660058 -1.537742 -0.36086422
000050 ac cf 26 3e bd 06 8b 3e 9e 08 45 3f 25 08 1c 3f
       0.16290158 0.27153578 0.76966274 0.6094993
000060 f0 21 8c bd 33 17 9b bd c3 22 33 bf d5 31 dd be
       -0.068424106 -0.07572784 -0.6997492 -0.4320208
000070 21 20 21 be 1e d2 00 3e 60 70 c1 3f 1d 0d 0e 3f
       -0.15734912 0.12580153 1.5112419 0.5548876
000080 e4 50 43 be 88 e8 17 be 40 8e 9e bf 96 77 d8 be
       -0.19073826 -0.14834797 -1.2387161 -0.42278737
000090 98 2b a2 be 4b e8 97 3e c9 4f 8e 3f 1a fa 57 3e
       -0.31673884 0.29669413 1.1118098 0.210915
0000a0 37 00 0a 3e c7 00 83 be 30 38 65 bf 01 9c aa be
       0.13476644 -0.2558653 -0.8953886 -0.33322147
0000b0 c6 10 ac be 72 35 b1 be e1 7d 90 3f c5 82 bb 3e
       -0.33606547 -0.34611088 1.1288415 0.36623207
0000c0 75 8a 31 be 8f e8 11 3e ee 83 e9 be fa 98 c6 3e
       -0.17337973 0.1424887 -0.45608467 0.38788587
0000d0 8b d7 9e 3d 7c fc 99 bd 5f d2 19 bf 6e 60 21 be
       0.07755955 -0.07518861 -0.60086626 -0.15759441
0000e0 02 7c 9d 3d b6 cd 94 be ac bc 15 3f 08 6a 91 be
       0.07689668 -0.29063195 0.58491015 -0.28401208
0000f0 14 2b 20 3e eb ac 49 3e 5d 1c aa 3d dc 05 64 3d
       0.15641433 0.19694869 0.08306191 0.05566965
000100 93 b5 d2 3e 3b 26 ec 3d 63 3a 83 3f c3 8b d0 3e
       0.41154155 0.115307294 1.0252193 0.4073163
000110 cc 7c 67 3e 13 29 a0 3e 14 24 6e bd eb 94 40 3d
       0.226062 0.31281337 -0.058139876 0.04701702
000120 48 0b 88 3e 01 b5 be 3e 39 6c 79 3f b1 87 c9 3e
       0.26571107 0.3724747 0.9743076 0.39361337
000130 ae 44 40 3e f8 72 db be aa b4 46 bf 7d 2d 85 be
       0.18776199 -0.42861152 -0.7761942 -0.26011267
000140 b8 bd 15 bf 6b 58 c6 3e f6 3a 3d be 96 9e eb be
       -0.5849261 0.38739333 -0.18479523 -0.4601943
000150 57 19 92 3d 3f 39 c9 bd 6e e1 8c bd 2b b4 5c be
       0.071337394 -0.09825372 -0.06878935 -0.21553104
000160 4a 82 25 3e 0a 71 56 be ad 95 02 3e 4c df 0f 3e
       0.16162983 -0.20941558 0.1275241 0.14050025
000170 90 b4 95 3e e7 bf dc bd 55 64 02 c0 5c 7e 02 bf
       0.2923932 -0.1077879 -2.0373738 -0.5097406
000180 e3 d2 0a 3e 30 3a 90 bd 98 c3 ad bf 70 16 93 be
       0.1355701 -0.070423484 -1.3575315 -0.28728056
000190 a5 0f e8 3e 36 3d 28 3e 2a 4f 9d bf a1 62 ca bb
       0.45324436 0.164296 -1.2289784 -0.0061763083
0001a0 1b 80 81 be 04 1e 0b 3e a6 3b f7 be 4f 1e 19 be
       -0.2529305 0.13585669 -0.48287696 -0.14952968
0001b0 40 44 09 bd 1a de bd 3d 3d bf 69 be 18 3f 89 3e
       -0.033512354 0.09270878 -0.22826858 0.2680595
0001c0 14 78 54 be 81 73 ac 3e 5f 83 8b 3f 11 fb 8c be
       -0.20748931 0.33681872 1.0899466 -0.27535298
0001d0 65 5a c5 bd b2 ec 53 3d 57 18 5e 3d 1e e3 b7 3d
       -0.09636382 0.051739402 0.05422243 0.08978866
0001e0 da 50 16 3d 6c b1 76 3d ba 30 1d be c2 6c 11 3e
       0.0366982 0.060227796 -0.15350619 0.14201644
0001f0 0d 7b df be 8c 67 a7 be 13 b9 97 bf b9 73 cc be
       -0.43648568 -0.32696187 -1.1853355 -0.3993204

bias f4 [32]
000000 db 8c 78 be 89 20 f6 be f5 37 a0 3e 74 0b a2 3d
       -0.24272482 -0.48071697 0.31292692 0.07912341
000010 7e 10 88 be 9a 42 c6 3d 59 d7 e9 3e 2c be 62 be
       -0.26575083 0.09680672 0.4567211 -0.22142857
000020 33 35 74 be d8 35 af 3e 89 08 b5 3e ba f4 46 3e
       -0.23848419 0.34220767 0.35358074 0.19429293
000030 86 d3 61 3e 21 ae 3b 3e 7d 89 f1 3d fe 8a 60 be
       0.22053346 0.18328144 0.11793802 -0.21928021
000040 e4 e3 1c be fe c0 f3 be 56 b1 49 3e 66 f0 b2 bd
       -0.15321308 -0.4760818 0.19696555 -0.087372586
000050 6d 68 88 be f7 3b cb be 73 60 1c bf 68 89 ae be
       -0.2664217 -0.39694187 -0.6108467 -0.34089208
000060 c7 61 2d be 50 91 b6 3e b0 b0 d6 bd 10 ae 01 bf
       -0.1693183 0.3565774 -0.10482919 -0.50656223
000070 60 63 41 3e f1 37 d6 be 8f fe 90 be 5d 7e 27 be
       0.18885565 -0.41839555 -0.28319213 -0.16356798

weight f4 [2, 32]
000000 6a 32 4b 3e f9 54 3f bc 03 f2 64 3e 09 80 a1 be
       0.1984345 -0.011677974 0.22357945 -0.31542996
000010 7a 75 14 3e 4a 96 50 be 86 8d 5e bb 0a 03 de be
       0.14497939 -0.2036983 -0.0033958866 -0.43361694
000020 b5 d1 a0 3d 56 66 92 be d2 97 a0 3e 5b 34 6d be
       0.078524984 -0.285937 0.3136583 -0.23164503
000030 5e f3 9e 3d cf 03 ee 3d 07 57 40 be eb fe d5 3d
       0.07761262 0.1162182 -0.18783198 0.10449012
000040 22 59 6d be e8 46 c5 bd 53 27 f2 3c 5f 87 ce bc
       -0.23178533 -0.09632665 0.029559767 -0.025211034
000050 cf ad 8e 3d 76 4e 1e bd 69 e4 7c 3d 84 bf e1 3e
       0.06966745 -0.038649045 0.061741266 0.44091427
000060 c4 39 ab 3e 76 11 47 3e f1 d1 3d 3d 78 97 6e bd
       0.3344251 0.19440255 0.046342794 -0.05824992
000070 dd b3 fa bd ca 5b ea 3d 39 fc cf 3d b6 b5 a7 3e
       -0.122413374 0.114432886 0.101555295 0.32755822
000080 65 e0 b6 be 1e 2a 78 bc 67 bf 01 bf d6 1b 86 3d
       -0.35718074 -0.01514676 -0.5068268 0.06548278
000090 05 22 8d be 8f 65 88 3e 87 a0 3a be e8 21 fe 3e
       -0.27565017 0.26639983 -0.18225299 0.49635243
0000a0 43 b9 6b be e4 a2 c6 3e 41 6a 95 be 24 63 1c 3d
       -0.2301989 0.3879615 -0.29182628 0.038180485
0000b0 5e 00 a9 bc 87 80 92 3d 08 60 10 bd 6a 38 20 3e
       -0.020630058 0.07153421 -0.035247833 0.1564652
0000c0 a6 f5 8c 3e b4 01 23 3d 0b 46 e2 3d 98 3f 1c be
       0.27531165 0.039796546 0.11048516 -0.15258634
0000d0 87 a0 e9 bc c2 a1 1e bd c1 8b 81 3d 54 ef bc be
       -0.028518928 -0.038728483 0.06325484 -0.36901343
0000e0 49 88 c6 be 80 04 66 be 23 be 5c 3d 85 a7 fa bd
       -0.38775852 -0.22462654 0.053892266 -0.12238983
0000f0 6a 49 13 bd f6 f9 1f 3e 9e 3f d2 3d b3 70 4e be
       -0.035958685 0.15622696 0.1026604 -0.20160179

bias f4 [2]
000000 51 0d 1d be c9 b3 b3 3d
       -0.15337111 0.08774526

weight f4 [32, 4]
000000 5e 99 50 be af 03 ef bd 4c 4d 70 be 74 6b 1c be
       -0.20371005 -0.116706245 -0.23466986 -0.15275365
000010 c5 06 9e bc e5 08 a6 3e c8 9d dd bb d3 5b c7 3e
       -0.019290337 0.3242866 -0.0067631938 0.38937244
000020 7f 3d 88 3e 2a 90 80 be aa 19 f0 bf 0a cb 05 bf
       0.26609418 -0.25109988 -1.8757832 -0.5226294
000030 a0 a8 52 be ec d3 94 3d 9e 7f 9e 3d b7 44 a0 3e
       -0.20572138 0.072669834 0.07739185 0.31302425
000040 51 60 d0 3d e0 d2 3e bd 82 2c 0e 3f 90 90 f4 be
       0.10174621 -0.046587825 0.55536664 -0.47766542
000050 43 0c b7 3e 9d c9 03 bf d3 6e ec bd a6 11 12 be
       0.35751542 -0.5147951 -0.115445755 -0.14264545
000060 6e ab b1 be 58 13 c1 bd 6a 0b 2a bf bb 4d be bd
       -0.34701103 -0.09427518 -0.66423666 -0.0929217
000070 02 6d 19 bf 2d 3f 61 be b4 14 79 3f 37 0a 11 3f
       -0.5993196 -0.21996756 0.97297215 0.5665621
000080 40 1a 42 be 7b 37 18 3e 76 6c 0c 40 65 10 fd 3e
       -0.18955326 0.14864914 2.19412 0.4942657
000090 4c ee 36 3e 11 28 47 3e 3a 87 42 3e 8f 75 0b be
       0.1786434 0.19448878 0.18996897 -0.13619064
0000a0 c7 ef eb bd cc 03 ce 3d 58 78 a4 3e c0 c3 4d 3d
       -0.11520343 0.10059318 0.32123065 0.05023551
0000b0 e0 8b 45 be 2e fb 82 be ba cd 0f bf 2c 01 9f 3b
       -0.1929164 -0.2558226 -0.5617329 0.0048524346
0000c0 d7 d2 a0 bd ed 82 c0 be d0 45 cb 3e 1e b5 ce be
       -0.078527145 -0.37599888 0.397017 -0.40372556
0000d0 dd b7 5c 3d 88 9f 23 bc b0 e0 1f 3f 03 55 96 be
       0.053886283 -0.009986766 0.6245222 -0.29361734
0000e0 3b 6b a1 be ac 53 a6 3e d0 d9 a2 bd 7a 18 b0 3e
       -0.31527123 0.32485712 -0.07951701 0.34393674
0000f0 af a4 24 be 70 0f 0c 3e cf c8 03 be 8b 17 fe bd
       -0.16078447 0.13677764 -0.12869571 -0.12406834
000100 08 7b a8 be 82 e6 0f 3e 21 9a 9f bf 50 46 be bd
       -0.32906365 0.14052776 -1.2468911 -0.09290755
000110 5c 70 94 bd a9 57 b4 be 6a 2a 85 3e 80 81 e5 be
       -0.07247993 -0.3522313 0.26008922 -0.44825363
000120 ff 38 3f bd 17 d4 94 3d f8 4d 13 40 93 cb 98 3e
       -0.046685215 0.072670154 2.3016338 0.29842815
000130 be a5 0a 3d a5 93 d0 bc 76 d5 14 c0 0f 35 8e be
       0.03384947 -0.025461027 -2.3255286 -0.27774855
000140 72 11 1d 3b 2d 5d 15 3e aa 03 44 3e fa ce d5 bc
       0.0023966697 0.14586325 0.19142023 -0.02609967
000150 d2 99 03 bf c0 79 1e be c4 33 9c 3e 39 36 fd 3e
       -0.51406586 -0.15476131 0.30508244 0.4945543
000160 3a ef 09 3e 2e bb 69 3e 3d 99 92 be ef 00 07 bd
       0.13470164 0.2282531 -0.28632537 -0.032959875
000170 60 8d 6a 3e b5 a9 34 bc f2 ef 46 bd dc c3 bb bc
       0.22905493 -0.011026789 -0.048568673 -0.022920541
000180 5a 03 8d be fb 84 da 3d 40 f6 32 3e f5 fa 78 3e
       -0.2754162 0.10669895 0.1747675 0.24314483
000190 71 60 92 3e d7 e2 db bb 17 38 3c 3e 14 67 9a be
       0.28589204 -0.006710391 0.18380772 -0.30156767
0001a0 fe 3e 30 be e4 ff 90 be bd d2 95 3e fc 5c e2 3d
       -0.1721153 -0.2832023 0.29262343 0.110528916
0001b0 d1 cc 70 be 60 95 11 3e 0f 7d 1b 3e 2e 63 bc 3e
       -0.23515631 0.14217138 0.15184425 0.36794418
0001c0 ba 83 ef 3e 0e 79 e7 3d 15 8b 96 bd d1 23 95 bc
       0.46780187 0.11302386 -0.073507465 -0.018205555
0001d0 4f 55 8d 3e 80 71 39 3e cf a1 c2 be 20 58 ad 3e
       0.27604148 0.18109703 -0.38014075 0.33856297
0001e0 8c bb 38 3e 40 b9 31 3e 55 bd c0 be a6 8f a6 3d
       0.18040293 0.17355824 -0.3764445 0.081328675
0001f0 a1 ba 2a be 56 0a b0 3e e5 b9 24 be 7d 04 db 3d
       -0.16672756 0.34382886 -0.16086538 0.106942154

bias f4 [32]
000000 22 c4 42 3f c1 4f 56 3f bc b7 1d bf 90 5a 64 3f
       0.76080525 0.83715445 -0.6160848 0.8920069
000010 71 41 a4 3e 42 33 4e 3f 5f 2d e2 be f3 5c d7 be
       0.32081178 0.80546963 -0.4417524 -0.42063102
000020 e4 72 15 bf 8f 19 86 3f 93 2f 5f 3f 54 af 94 3f
       -0.58378434 1.047655 0.8718197 1.1616006
000030 c6 d3 63 3f 64 22 29 3c 6d 5f e1 3e 61 b3 37 3f
       0.88995016 0.010323141 0.44018117 0.71758085
000040 32 40 42 bd 29 89 6e 3f 9d 82 e3 be 26 69 dc be
       -0.047424503 0.9317804 -0.44435588 -0.43048972
000050 95 4a 0c bf f3 2c ad be f5 f3 7e 3f e5 8f 82 3f
       -0.54801303 -0.33823356 0.99591 1.0200163
000060 37 b7 4c 3f fa 54 88 3f 52 55 92 3f 4e e0 3a 3f
       0.79967064 1.0650933 1.1432288 0.7299851
000070 69 79 ba 3e 6e de 88 3f f4 c1 52 3f 49 2c 94 3f
       0.36420754 1.069288 0.823272 1.1576015

weight f4 [1, 32]
000000 d7 f9 34 3f 22 ba 19 3f 91 ca 9d bf b4 ea 12 3f
       0.70693725 0.6004964 -1.2327443 0.5738938
000010 ee c1 d8 3d 2f 30 1a 3f 68 07 8a be 39 07 ca be
       0.10583864 0.6022977 -0.26958776 -0.39458635
000020 d6 b2 ad bf 2f 92 12 3f d0 89 23 3f b6 e3 03 3f
       -1.3570201 0.5725431 0.6388216 0.51519334
000030 46 b1 ce 3e 04 9f 83 3d c9 3a 5d 3e 51 f0 0f 3f
       0.40369624 0.06426814 0.21604456 0.5622607
000040 ca 9e 90 be 30 17 32 3f 80 92 f8 bf 47 97 d3 bf
       -0.28246146 0.6956663 -1.9419708 -1.6530541
000050 1d 68 f7 3d ec 64 b1 3e 7a 3a dc 3e 24 89 1c 3f
       0.12080405 0.3464731 0.43013364 0.6114676
000060 19 cd a5 3e 16 a9 ff 3e a3 dd 15 3f 40 64 91 3e
       0.3238304 0.4993369 0.58541316 0.28396797
000070 29 23 33 3e 5b 7a db 3e 48 78 07 3f 1a 76 ed 3e
       0.17493881 0.42866787 0.5291791 0.46379167
