src/cartpole/results/CartPole-v0/train-a2c/20210407-190232/num_env6-num_episodes100000-learning_rate0.003-hidden_layers64-64-value_coefficient0.1.pt (torch, 7807 bytes, 7 tensors)

weight f4 [64, 4]
00000000: 9136 98bd 0a05 13bd d585 16bf 4d89 18be
00000010: c9f1 cd3d 1a8e a4bd c765 5d3f e595 7c3e
00000020: 9ccb 51bd 693d ff3d 237c ba3d 25a9 b93d
00000030: 620f d1bd 9387 e0bd be4a 993d 02e9 94bd
00000040: d182 de3c c07b c33d 213d 32c0 6d85 96be
00000050: b03b 36be eaea 193d b0bb 2c3f ac93 ca3e
00000060: 5510 1a3e f0c5 edbd 89b5 fabc a14b 47be
00000070: 6502 c9bd 3758 09bc 0d33 bc3f 22c2 0d3e
00000080: 3481 21be e721 e8bd 07f8 89bf c612 8fbd
00000090: 9d97 c2bd 48fa a93d d15c 4840 e108 233f
000000a0: 7dde 03be 65cf 4dbe b8b4 1e3f d0ed 72be
000000b0: 65c8 9b3b 5f60 83be 3b93 b73f 214e a23c
000000c0: e9ba 053e e96a 21be 9db4 713f 60fe a43c
000000d0: aedb 823d a865 d5bd f272 b0bf e1f0 92be
000000e0: db29 2a3e 5123 10be f3c5 81bc 3c57 78be
000000f0: bef8 fe3c 80e2 a73d d1d0 91be 6062 073e
00000100: bcfb 2a3e d126 16bd ef32 533e d1d1 453d
00000110: 4457 afbd b143 1d3e 21ab febf f7cd 84be
00000120: 309f a0bd 583e 553d da94 4540 712c 103f
00000130: a1bb be3e f47a 72be b549 363e d408 bbbe
00000140: e0f9 87bc 6986 583c c127 5b3e 7e23 b93d
00000150: 0ea8 833d 3424 b9bd 88e5 03bd f2e4 25be
00000160: a60d 923d 4892 e4bc a877 3d40 a1db 673e
00000170: c665 fd3d 6ab4 383b 0e1d 41c0 086c eabe
00000180: cec6 853d 461d 78bd ace0 38c0 e580 aebe
00000190: caa2 f43d aa0a fe3b 4883 1dc0 9a90 91be
000001a0: 6fec a4be c8e0 863c 928e dcbe f974 51be
000001b0: 50b6 6e3e b666 a03e 4bce 6dbf 5d71 143d
000001c0: 09f6 82bd c8a4 0b3e dc44 413e 9a66 1a3e
000001d0: 9cb1 063d 3103 f5bd dd46 c03f 458e 22bd
000001e0: 5935 28bd bd09 a13d 0588 7abe 7780 1d3e
000001f0: 66cb 263b baa6 7f3d e008 02c0 f169 3fbe
00000200: d431 87bd 7bbf 7dbe 2004 193e b140 4bbe
00000210: 9ae2 86bd 4acf 2c3d b43b d43e eb27 903d
00000220: 37e7 ed3c ab65 ac3c faf9 cabb 75c3 153e
00000230: c02c 0a3d 0655 a3bd 3ffe 2e40 9f40 363e
00000240: a4de f93d 491f 073e 8cf4 2740 a435 173e
00000250: 26af 733d 3df8 e7bd cdf6 d5bf 9949 b3be
00000260: c669 0abe e3f7 0f3d ff13 e83e abc5 7bbd
00000270: 6003 063f 99b2 82be ad13 e3bd b0a1 3bbe
00000280: 6325 713d 6e89 b03c 97aa a0bf cd9d c1bc
00000290: 67a4 fb3a 3e6e 893d cc37 1abe 1a4d 083e
000002a0: 4b30 abbd 1b39 20bd eb42 b13f 6be2 e73d
000002b0: 78c8 a0bd f9d7 a73a 1cd6 07bf 25f5 e43d
000002c0: da75 213e 4f8f 57be a12e cd3d a23b 4cbe
000002d0: 17bb d03c 7b91 03be f3cc 1540 116e 3a3e
000002e0: 978e 4c3d db8d 873d 3fc5 19c0 f3c1 c2be
000002f0: d7c2 52be 71be 913d a37a 8d3f 65dd ba3e
00000300: 51e4 1dbd 8796 4b3d 5c9f f0bd a359 d23c
00000310: a91b 29be a501 ed3d fb5b 91be 44ee 793d
00000320: 8406 8a3c fc99 2b3d 44c4 2cc0 57ba 9bbe
00000330: 5dc2 98be df45 b73e 60b2 81be 596e 793e
00000340: bcc2 a93c fad7 e1bc dbc4 c33e 67ee fbbb
00000350: a258 7bbe 1d66 2abd 970e 6abd 63c7 60bd
00000360: 9171 a53c 3571 04be b669 073f 9810 41be
00000370: 354c 2abe 9c77 163e 9993 e63d 12a6 473e
00000380: d708 e8be 464a 933e 52a8 ebbf 322a 1c3e
00000390: b0b0 903d 3803 8f3d ab83 6a3d 4178 973e
000003a0: aebc d2bc 1a47 abbb 0b38 9dbf f811 08be
000003b0: fedc a93d ee20 08be 3b7d 643e 15f1 20be
000003c0: f63f 87bd cacb 0e3e e135 acbe 9d66 4c3d
000003d0: 59ed bf3d 0385 81be 5214 403f 52f5 f3be
000003e0: d5cb 91bd b7c6 1bbd 566d fcbf e754 b4bd
000003f0: cbf2 253e fa74 90bd 3c24 fdbf d16a 92be
-0.07432283 -0.035893477 -0.5879796 -0.14896126 0.100558825 -0.08034916 0.86483425 0.24666555
-0.051219568 0.12462885 0.091057085 0.09065465 -0.10208012 -0.10963359 0.07484959 -0.07271005
0.027161987 0.09545088 -2.784981 -0.2939867 -0.17796206 0.037577547 0.6747389 0.3956579
0.15045293 -0.11610019 -0.03060414 -0.19462444 -0.0981491 -0.008382848 1.470308 0.13843587
-0.15771943 -0.11334591 -1.0778817 -0.069860026 -0.09501574 0.082996905 3.130665 0.63685423
-0.12877841 -0.20098646 0.61994505 -0.23723531 0.0047541135 -0.25659463 1.4341806 0.019812645
0.13059582 -0.15763439 0.9441622 0.020140827 0.06389557 -0.1041978 -1.3785079 -0.286994
0.16617529 -0.14075972 -0.01584146 -0.24252027 0.031124469 0.08197498 -0.28479627 0.13221121
0.16697592 -0.036658112 0.20624898 0.0482958 -0.085615665 0.15357853 -1.9895974 -0.2593839
-0.078428626 0.05206141 3.0872102 0.5631781 0.37252524 -0.23679715 0.17801555 -0.36530173
-0.016598642 0.01321564 0.21401884 0.09039973 0.06428538 -0.09040108 -0.03220132 -0.16200617
0.071315095 -0.027901784 2.9604282 0.22642376 0.12372927 0.0028183707 -3.0173984 -0.45785546
0.065320596 -0.060574792 -2.888713 -0.34082714 0.11945112 0.007752736 -2.4611378 -0.28430635
-0.32211635 0.016464606 -0.43077523 -0.20454778 0.23311734 0.31328362 -0.92892903 0.036240924
-0.06394584 0.13637078 0.18873924 0.15078202 0.032884225 -0.11963499 1.5021626 -0.03968646
-0.0410665 0.078631856 -0.2446595 0.15381037 0.0025450825 0.062414862 -2.0317917 -0.18692757
-0.06601301 -0.24780075 0.1494298 -0.19848897 -0.065861896 0.042189874 0.414518 0.07038864
0.029040916 0.021044573 -0.0061943503 0.14625342 0.033734083 -0.07975201 2.734268 0.17798088
0.122006685 0.13195528 2.624301 0.14766556 0.059493206 -0.113266446 -1.6715943 -0.35017088
-0.13516912 0.035148513 0.45327756 -0.061467808 0.523489 -0.25526884 -0.11087737 -0.18323398
0.058873545 0.021549907 -1.255206 -0.023634816 0.0019198776 0.0671048 -0.15060347 0.13310662
-0.083588205 -0.03911696 1.3848547 0.11322483 -0.078507364 0.0012805454 -0.5306108 0.1117957
0.15767613 -0.21050762 0.100186594 -0.19944623 0.025479836 -0.12848465 2.340634 0.1820605
0.04994067 0.06618854 -2.402664 -0.38038597 -0.20582138 0.07116402 1.1053051 0.36497036
-0.038547818 0.0497041 -0.117491454 0.025677508 -0.16514458 0.11572579 -0.28390488 0.061018243
0.01684881 0.041894898 -2.699479 -0.30415604 -0.29835787 0.35795495 -0.25331402 0.243585
0.02072274 -0.027568806 0.38236126 -0.007688332 -0.2454553 -0.04160129 -0.05714282 -0.05487765
0.020195754 -0.1293381 0.5289568 -0.18853986 -0.16630633 0.14694065 0.11258621 0.19496945
-0.45319244 0.28767604 -1.8410742 0.15250471 0.070649505 0.06983036 0.057254475 0.29583934
-0.025724735 -0.005226982 -1.2282728 -0.13288105 0.08294104 -0.13293812 0.22313397 -0.15716965
-0.066039965 0.13944927 -0.33634856 0.049902547 0.09371442 -0.25296792 0.75031006 -0.47648102
-0.07118956 -0.038031306 -1.9720867 -0.08805256 0.162059 -0.070535615 -1.9776683 -0.2859712

bias f4 [64]
00000000: a4ce 32bf 5c13 123d a201 eebe 1b3b 23bf
00000010: fb13 e4be 74e2 e5be 5988 c2be 5292 9fbe
00000020: 1808 a9bd f3a7 1abf 68d4 d9be e627 68be
00000030: a04e 8fbd 43ae c5be 4909 1fbf 2b9c d1be
00000040: 2bb7 26bf 81cf 65be 6375 1abf 3c37 41bf
00000050: b964 d2be af9f d9be b01f babe 061a 01bf
00000060: a13d 07bf 5513 cbbe 5393 4abf 10f9 5cbd
00000070: b4ec fabe f074 63be 47ff 86be 4b90 94be
00000080: 49b3 86be adce 92be 9196 fdbe 0f92 afbe
00000090: ad6c c6be 0fed ebbe 001a f5be fe6b 22bf
000000a0: f0de 97be 8fc3 e8be 30a2 c2be 2ed2 febe
000000b0: 9887 0abf 7d7b 8cbe 3184 adbe f0e6 b8be
000000c0: 1945 28be fc3c eebe 8771 e5be c03c 0fbf
000000d0: 6110 01be 9ccc a8be d782 4bbf f568 29bf
000000e0: f673 153e e5f2 ffbe a7b1 92be d976 a3be
000000f0: fe6b 04bf 3372 f9be a48a 94be f6b4 cbbe
-0.6984656 0.035662994 -0.4648562 -0.6376206 -0.44546494 -0.44899333 -0.3799465 -0.3116632
-0.08253497 -0.6041252 -0.42544866 -0.2267147 -0.069974184 -0.38609514 -0.62123543 -0.4093946
-0.6512324 -0.22442438 -0.6033537 -0.75474906 -0.4109247 -0.4250464 -0.363523 -0.50430334
-0.52828413 -0.39663187 -0.7913105 -0.053948462 -0.49008715 -0.22212577 -0.26366636 -0.29016337
-0.2630866 -0.28673306 -0.49528936 -0.3429112 -0.38754788 -0.460793 -0.478714 -0.63446033
-0.29662275 -0.454617 -0.38014364 -0.4976973 -0.5411315 -0.27437964 -0.33889917 -0.3611369
-0.16432609 -0.46530902 -0.44813177 -0.5595207 -0.12603904 -0.32968605 -0.7949652 -0.66175777
0.14595017 -0.4999 -0.28651163 -0.3192661 -0.51727283 -0.4871994 -0.29012024 -0.397865

weight f4 [2, 64]
00000000: 072a b73d 5a79 693d 9098 38bd aea9 b53c
00000010: 5470 733f 4f12 a33d 74e6 023e cfa2 84bd
00000020: b400 8bbc 82a1 c9bf acc8 e8bd 3c0e a7bd
00000030: da6d ec3d 046b 9a3d 970d 1cbe a8e1 ed3d
00000040: 17f2 073e d1da 4f3e 12cf b7bf 2e55 323e
00000050: 891a e03c 8705 0bbd b5c9 0ebf 4a49 ae3f
00000060: 05c8 c23f e373 7e3e dcd1 d8bb 9a71 2a3e
00000070: 9fcc e13b b6f6 2ebd 834d 90bd f35b 503e
00000080: 4cc9 32bd e6c3 86bc 6358 85bc d08f 30bf
00000090: daef 52bf 5518 ae3d 3970 61bd a8b4 8b3d
000000a0: 3948 7dbc 0f9e 2bbe 532a 49be 440c c8bc
000000b0: 3ef6 973d 6b19 afbe 7410 103f 954a 81bd
000000c0: 66fa f93b b3be a3bb 2ecd 7a3f 4a27 9f3d
000000d0: 2d1e 58bd 991b 63bd 1716 50bc 204e 02be
000000e0: 7549 323e f2b7 cf3d 7370 9f3d 7e2c ab3d
000000f0: 2a43 933d b9d2 3a3d 9d53 533e 2b7f 5b3e
00000100: 8d2e 1abd 5325 ab3d 8e93 3e3c 53d8 853d
00000110: c07a 68bf fd72 be3d 73d7 23bd 3a9b 533d
00000120: eaf1 9f3b 9cde b83f 6f59 b0bd 0b8d 6d3d
00000130: d2f4 c83d 4161 28bc b8e3 cfbb bd8f f03c
00000140: 7b48 2a3d 5bc7 8cbd ad3e be3f 42e4 193d
00000150: dc71 a0bb ddab d6bd 38b0 473f aa2b 99bf
00000160: d33d d2bf 6fd8 86bd 6677 83bb 8473 f1bd
00000170: 3436 ab3c bf81 ab3d 4efa 7cbd 8a20 17be
00000180: b24a 51bc 5eee 273d 3d9d 4e3d 82c5 5b3f
00000190: a2c6 493f 1f57 cfbd a3df d3bc 6872 a33c
000001a0: bff8 e8bb 8949 8fbd 8cf0 963d 757c f73c
000001b0: 5260 75bd 291a 013f 0f27 0dbf a263 05bb
000001c0: f1b0 573c 8372 e5bb 9a74 92bf 7a37 12bd
000001d0: 0d9e 6cbc 9c80 cebd dd3f 3cbd 4f4b 6abd
000001e0: 340e 44be 64dc f6bd c6f3 60bc 23a2 c63d
000001f0: dfed a1bd 5148 d73c aa35 4ebe 43ef 87bd
0.08943563 0.057000495 -0.04506737 0.022175636 0.95093274 0.079624765 0.12783223 -0.06476366
-0.016968109 -1.5752413 -0.113664 -0.08157012 0.1154439 0.07539943 -0.15239559 0.11615306
0.13275944 0.20298316 -1.4360068 0.17415306 0.027356403 -0.03394082 -0.5577653 1.3616116
1.5217291 0.24848895 -0.006616814 0.16644898 0.006890848 -0.04271575 -0.07046034 0.20347576
-0.043649003 -0.016450834 -0.016277498 -0.6896944 -0.82397234 0.08500735 -0.055038664 0.06821567
-0.015459114 -0.16759513 -0.19645052 -0.024419911 0.07420014 -0.3419908 0.56275105 -0.063130535
0.007628727 -0.0049970984 0.9796933 0.07771166 -0.052763153 -0.05544624 -0.012700579 -0.12725115
0.17410834 0.10142507 0.0778512 0.083580956 0.07190545 0.045611117 0.20637365 0.2143523
-0.03764205 0.083567284 0.0116318595 0.06535401 -0.908123 0.09299276 -0.04000039 0.051661707
0.0048811333 1.4442935 -0.08610808 0.057995837 0.09812321 -0.010277093 -0.006344285 0.029365415
0.04157303 -0.068739615 1.4862877 0.0375712 -0.0048963856 -0.10481999 0.78003263 -1.196645
-1.6425117 -0.0658425 -0.004012036 -0.11789611 0.02089987 0.083743565 -0.061762147 -0.14758506
-0.012774156 0.04099881 0.050442923 0.8584825 0.78818715 -0.10124039 -0.025863474 0.019952014
-0.007109731 -0.069964476 0.073700994 0.030210713 -0.05990631 0.5043054 -0.55137724 -0.0020353575
0.013164745 -0.0070021763 -1.1441834 -0.035697438 -0.014441979 -0.10083124 -0.045959342 -0.057200726
-0.19146043 -0.12053755 -0.013729995 0.09698894 -0.079066984 0.0262796 -0.20137659 -0.066374324

bias f4 [2]
00000000: 65e6 06be 5788 ca3c
-0.13173826 0.024723215

weight f4 [64, 4]
00000000: fe74 dc3d 22b5 d53d e939 ce3e 398f 373e
00000010: 0c43 4fbe 995f 803e 3b3e e5bd 4750 563e
00000020: bf10 f0be 0655 013e 1320 02c0 c934 1fbe
00000030: 3678 443e 474d 90be 72ab 823c 443f 983d
00000040: 9d05 2b3e 5805 87be fe2b ccbe 45a1 e1bd
00000050: aa7a c83e 45c8 ad3e 095d 4e3f 4ae1 903e
00000060: 0110 b33d 8e9a ecbd d72f 68bf 355d b8bc
00000070: 991b 51bd 048b 04be 1bf0 5fc0 fac1 5cbe
00000080: ab00 cdbe 755f 863e 2a92 afbd 832a a33e
00000090: 2cc4 983e db76 e8bd 16cd 2ebf ace7 01be
000000a0: 4ab2 6abd dc04 39bd 741e 0bc0 dd76 b2be
000000b0: f9b9 673e 167c 29be bb86 82be 3ab6 3abe
000000c0: 37a8 e23d 184a 843e 511f 03bf 7264 9a3e
000000d0: a3e1 a53d ded4 e33d 5e83 053f e34a 14be
000000e0: 431d c13d 9139 013e 6b53 25be 074d 023e
000000f0: 37f2 5ebc 162c 08bd 22d7 4ac0 0386 47be
00000100: 7ff1 f33d 5271 06bd c7ba d9bf e5d0 44be
00000110: 651e 8ebd b5c1 4dbc 1c3a 28c0 f30c 7fbe
00000120: d7f0 36be dfb5 e3be 7fa0 813e 2ef1 e8be
00000130: 93c5 9e3e 8769 4bbe 6ad8 943d a4d9 5cbe
00000140: 53d0 163e e968 1c3e 77b3 c9bd 929a f7bd
00000150: a2be 43bd 44fc 9bbd a60d 3cc0 4385 5fbe
00000160: 0f4e 3bbe 0fdf b03d f544 8abe b3c2 983d
00000170: cb31 14bc 7990 3d3d dc58 e53e 6f95 233e
00000180: 8d7d 903d dd45 e23c 39df 4340 12a4 a83e
00000190: 349b 1abd af87 6fbe bd06 233f 093c 96be
000001a0: 526f c1bd 29e9 0abc 7097 12bf a9e4 8fbe
000001b0: 7650 4abd 1799 b5bc 24e3 34c0 25f8 8ebe
000001c0: 8463 73bd 66fd 3e3d f0cd 4140 f15a d73e
000001d0: da95 f6bd fa5f 1cbd e331 8a3e b3d7 e93d
000001e0: 56cb d2bc 37f9 9abd 32df de3d 0c3d 6abe
000001f0: c2d1 e4bc 559b 0abd c3c1 50c0 b38a 7abe
00000200: 6b42 9cbd d5ac 183e 1385 813e 7f39 adbd
00000210: dd00 67bd 5554 96bb 939e 43c0 d604 78be
00000220: 81a2 543d ae8e 613c b1de 7f40 1b49 873e
00000230: bd9f f1bb a9f5 363b 2f5c f0be ab64 263d
00000240: 01ef 013e cff2 303e e39d eabe 7c30 c43e
00000250: db15 b03e 56c4 aa3e d274 6abf 0e93 4c3d
00000260: cbca b1be b0d3 853e 68fb 9f3d 82de 143d
00000270: 66ff 633e 8964 6ebe b5f4 7cbe d21a c8bd
00000280: 144f bb3d 6ad7 8dbe b0ed db3e 6a63 87be
00000290: 0d4f dd3e 4a08 1c3e be13 973f 2b9f a33e
000002a0: c631 b7bc a5b7 c43c d7e9 86be 7631 843d
000002b0: e2ce 51bc c93f 50bd b254 1cc0 2fa9 d9be
000002c0: 3c20 043f 9458 813d 58fc 793f 04da 513b
000002d0: 74c1 0d3e aa3c 5c3d 92e0 453e 4503 783c
000002e0: 76f0 bf3d 7aa0 7fbe 8f03 44bd bf03 a1be
000002f0: 1626 b6be cdf4 4a3e ae6a 9bbe 9f15 6d3d
00000300: 624b 0e3d 9a3c 073d e700 03bf cbd2 3d3e
00000310: 6def 94be 49db 653e 3c48 15be a6ae c43d
00000320: a3bb 2d3e 4423 73be 668c 4f3f 5857 8dbe
00000330: c89d 41be 65fd d83c 81fa 12be 3ce2 2f3e
00000340: edf8 bbbd 484d ab3d a497 043d f085 163d
00000350: 967b 123d e6b6 2dbc 7c9d 7440 31f1 533e
00000360: 711e 11be 9251 a33e f765 83be 350c ad3e
00000370: 56e8 93be 2f60 723d b9b1 eebd 472b 953d
00000380: 9677 fe3e 5b71 493e 1044 df3e 7121 d33d
00000390: 7a20 8c3e 8c90 4fbe e9f5 ec3e 8814 9ebe
000003a0: d901 0e3c 32b4 2d3c 6b37 a63d d450 4b3e
000003b0: bc68 bbbe 9e3e 83be e304 5f3f 37c6 c8bd
000003c0: d16e 963c 42df 1cbd 4adf 8e3d a922 38bd
000003d0: ca33 ee3d f63b c0be 7b21 b53e c0db ccbe
000003e0: 6f27 6c3d 89a3 7d3c efda 94be a432 ef3d
000003f0: 2d2f afbe c126 0a3d a4fc f3bf caf7 ae3b
0.10764502 0.10434939 0.40278557 0.17925729 -0.2024042 0.25072935 -0.1119351 0.20929061
-0.46887776 0.1263009 -2.0332077 -0.1554748 0.19186482 -0.28183958 0.015950892 0.07433942
0.1670136 -0.26371264 -0.39877313 -0.11017088 0.39156085 0.33941856 0.8061071 0.28296882
0.08743287 -0.115529165 -0.90698 -0.022505382 -0.05105171 -0.12943655 -3.4990299 -0.21558371
-0.40039572 0.26244703 -0.085728005 0.3186837 0.29837167 -0.11350795 -0.68281686 -0.12686032
-0.057298936 -0.04517065 -2.1737337 -0.3485631 0.22629537 -0.16551241 -0.25493416 -0.18233576
0.11067241 0.2583778 -0.5121966 0.3015476 0.080996774 0.111245856 0.52153575 -0.14481692
0.09429409 0.12619616 -0.16145103 0.12724696 -0.013607553 -0.03324517 -3.1693807 -0.19484715
0.11911296 -0.032822914 -1.7010125 -0.19220312 -0.06939391 -0.01255839 -2.6285467 -0.24907283
-0.1786531 -0.44474694 0.2531776 -0.45496505 0.31010112 -0.19864474 0.0726784 -0.21567398
0.14727907 0.15274395 -0.09848683 -0.12090029 -0.047789223 -0.07616475 -2.938333 -0.21828179
-0.18291496 0.08636295 -0.27005735 0.07459011 -0.009045075 0.046280358 0.44794357 0.15974973
0.07055197 0.027621204 3.0604994 0.32937676 -0.03774567 -0.23391603 0.63682157 -0.29342678
-0.09445061 -0.008478441 -0.57262325 -0.2810414 -0.04939314 -0.022167725 -2.8263636 -0.27923694
-0.059421077 0.04662838 3.0281944 0.4206157 -0.12040301 -0.038177468 0.26991186 0.114180945
-0.025731724 -0.07567065 0.10882415 -0.2287485 -0.027932052 -0.033839542 -3.2618263 -0.24466972
-0.07629856 0.1490968 0.2529684 -0.08458232 -0.056397308 -0.00458769 -3.0565536 -0.24220595
0.05191279 0.013766928 3.997967 0.26422963 -0.0073737786 0.002791742 -0.4694533 0.04062335
0.12688829 0.17280124 -0.45823583 0.3831824 0.34391674 0.33352917 -0.91584504 0.04994493
-0.3472503 0.26138067 0.07811624 0.036345012 0.22265396 -0.23280539 -0.24702723 -0.097707406
0.09145942 -0.2770341 0.4295478 -0.26443034 0.43224373 0.15237537 1.18029 0.31957373
-0.022362601 0.02401335 -0.2635028 0.064547464 -0.012805672 -0.05084208 -2.4426694 -0.4251189
0.51611686 0.06315723 0.9765067 0.0032020817 0.13843328 0.05376879 0.19323948 0.015137498
0.09372036 -0.2496356 -0.047854956 -0.3144817 -0.35575932 0.19819947 -0.30354828 0.057881948
0.03473986 0.03301678 -0.5117325 0.18537442 -0.29088917 0.22446932 -0.14578336 0.09603624
0.16966109 -0.23743922 0.81073606 -0.276057 -0.18907845 0.026488015 -0.14353372 0.17176145
-0.09178338 0.083643496 0.03237118 0.036748827 0.035762392 -0.010602688 3.822112 0.20697476
-0.14171769 0.3189817 -0.2566373 0.33798376 -0.28888196 0.05917376 -0.11654992 0.07283645
0.49700612 0.19672148 0.43606615 0.10309113 0.27368528 -0.20269984 0.46281365 -0.3087504
0.008667433 0.010602044 0.08116039 0.19855052 -0.36603343 -0.2563371 0.8711683 -0.098034315
0.018363388 -0.038298853 0.06976183 -0.04495493 0.11630972 -0.37545747 0.35377106 -0.40011406
0.057654794 0.015480884 -0.29073283 0.11679581 -0.3421568 0.033728365 -1.9061475 0.0053395974

bias f4 [64]
00000000: 26e3 433f b6fb ca3e 5cca b03c 91ea 7a3f
00000010: da56 2d3f e39d 6fbf f703 0bbf 2df5 26bf
00000020: 436f 8f3f 4447 2fbf 3670 13bf b76c 4f3f
00000030: 91b3 873f a868 8f3f 7d68 503f 7316 1dbf
00000040: f8d8 a3be e04a 0fbf 5abf 57bf 659b 503f
00000050: c4bc 993f d276 0bbf 6624 6f3f 2be9 c8be
00000060: 87d9 38bf 17cb 7e3f e092 f4be e8f1 1ebf
00000070: 72a9 56bf bfb2 813f 8d9a b1be 2642 27bf
00000080: 9d63 343f 789b 1dbf 2c61 59bf c63c 17be
00000090: 9ad7 833f fac3 d8be 2d0b 7e3f aaef 8c3f
000000a0: 562d 543f 1f89 6ebf cf0f 8dbd 7301 30bf
000000b0: 2a43 81bf 2dd9 353f 3c55 653f 322d 883f
000000c0: 0704 cf3e 3e50 553f 6416 c2be 7c59 683f
000000d0: ea94 8cbe 0240 4bbf 7ef0 2d3f 2a36 6f3f
000000e0: 29d8 a7bf a781 7a3f 355e 503f ee38 91bf
000000f0: 3d1b e4bd cc91 883f ccba e1be 75a6 05bf
0.76518476 0.39645165 0.021580867 0.9801417 0.6771065 -0.9360029 -0.54302925 -0.6521786
1.1205829 -0.6846812 -0.57593095 0.8102526 1.0601674 1.1203814 0.81409436 -0.6136238
-0.32001472 -0.55973625 -0.84276354 0.81487113 1.2010732 -0.5447818 0.93414915 -0.39240393
-0.7220692 0.9952864 -0.47768307 -0.6208787 -0.83852303 1.0132674 -0.34688225 -0.6533531
0.704645 -0.6156535 -0.849139 -0.14769277 1.0300171 -0.42337018 0.992358 1.101064
0.8288168 -0.9317798 -0.06887781 -0.6875221 -1.0098622 0.7103451 0.8958318 1.0638793
0.4043276 0.83325565 -0.37907708 0.9076154 -0.27457362 -0.79394543 0.67945087 0.9344202
-1.3112842 0.97854084 0.8139375 -1.1345499 -0.11138008 1.0669494 -0.44087827 -0.5220712

weight f4 [1, 64]
00000000: 5048 aa3e 6c44 3c3d 5a79 3dbe ccc9 bb3e
00000010: 3585 a23e cf16 febe 746d 3bbd 36bf 78c0
00000020: 71f8 043f acf1 d7bd d547 89bf 12de bc3e
00000030: 2ad2 c73e 1cf9 d83e 431c 793e 6bf7 4cc0
00000040: 8e42 24bd 318b 11c0 64c3 63be b1f1 c03e
00000050: 86b7 ba3e e38c 3ac0 2777 f43e e8b8 66bc
00000060: dea2 0ec0 5cfa a33e a9c5 05bc 1d8c 19c0
00000070: 7ef3 fabf e45c b93e aecc 93bc 5c8b 42c0
00000080: 5407 273e ecbb 58c0 9a53 9bc0 f9ee c43c
00000090: 714e f93e 7af6 0ebd bc41 a13e a704 de3e
000000a0: 0878 913e b6ca 3abf f966 bfba 3ad8 9fbf
000000b0: 1601 44bf ff0b c43e 4b81 993e 6195 fe3e
000000c0: 7ea8 343d 3f70 933e 8b5f bc3c 2692 803e
000000d0: 64b8 0dbc ae84 6fc0 e598 853e 78a5 af3e
000000e0: e053 b9bf ace9 ad3e cbdd 8f3e 5bc9 29bf
000000f0: e49c 8b3a a835 cc3e b675 37bd e9c2 a6be
0.33258295 0.04596369 -0.18503323 0.36677396 0.31742254 -0.49626777 -0.04575868 -3.8866706
0.5194159 -0.10544142 -1.0725046 0.36888176 0.3902753 0.42377555 0.24327187 -3.2026012
-0.040102534 -2.2741206 -0.22242504 0.37684396 0.36468142 -2.914849 0.47747156 -0.014082171
-2.2286906 0.32026947 -0.008164802 -2.3991768 -1.9605558 0.36203682 -0.018041935 -3.0397558
0.16311389 -3.3864698 -4.8539553 0.024039732 0.4869266 -0.034903027 0.31495464 0.43362924
0.2841189 -0.7296556 -0.0014602832 -1.2487862 -0.76564157 0.38290402 0.29981455 0.49723342
0.044106 0.28796574 0.022994777 0.25111502 -0.008649919 -3.7424731 0.26093212 0.3430593
-1.4478722 0.3396734 0.28098902 -0.6632287 0.0010651615 0.39884686 -0.044789992 -0.3257058
