src/cartpole/results/CartPole-v0/train-a2c/20210407-190232/num_env12-num_episodes50000-learning_rate0.001-hidden_layers128-128-value_coefficient0.5.pt (torch, 11135 bytes, 7 tensors)

weight f4 [128, 4]
0	0x3d0c6964	0.034280196
1	0x3e5d19a7	0.21591817
2	0xbf7adcfb	-0.9799344
3	0xbed3243a	-0.41238576
4	0xbe503350	-0.20332074
5	0x3e417fe3	0.18896441
6	0x3f1331f0	0.57498074
7	0x3eeb924b	0.4601005
8	0x3bd11db6	0.0063817156
9	0x3daa15a6	0.0830491
10	0xbf3ee31f	-0.7456531
11	0xbdc86639	-0.097851224
12	0xbec09021	-0.37609962
13	0xbe88f35d	-0.2674817
14	0xbf4c623f	-0.7983741
15	0xbcdf4084	-0.027252443
16	0xba6f2cfd	-0.000912383
17	0x3e14308e	0.14471647
18	0xbeb07156	-0.34461468
19	0xbe01cbde	-0.12675425
20	0x3dfa5d23	0.12224796
21	0x3ed45c28	0.4147656
22	0x3e80ad65	0.2513229
23	0x3eab2aca	0.33431083
24	0xbd26dd01	-0.04073811
25	0x3bdb180a	0.0066862153
26	0x3f853a13	1.0408348
27	0xbeaf3e06	-0.34227008
28	0xbe2006f3	-0.15627651
29	0xbd8239a1	-0.06358648
30	0xbf0eb06b	-0.5573794
31	0x3ec6a8d1	0.38800672
32	0xbdc6475f	-0.09681582
33	0xbdfa6894	-0.12226978
34	0xbec2affd	-0.38024893
35	0xbebeeaf6	-0.37288636
36	0xbe65318b	-0.2238218
37	0x3efe7141	0.4969578
38	0x3f35a3c3	0.70953006
39	0x3e797630	0.24361491
40	0x3d7a7113	0.061142992
41	0xbe94d3a9	-0.29067734
42	0xbe72e9c4	-0.23721987
43	0xbecab9b9	-0.3959482
44	0xbe18ac38	-0.14909446
45	0xbd9d2129	-0.076723404
46	0x3ea2ef9a	0.31823426
47	0x3e3c7c23	0.1840673
48	0xbe85823e	-0.2607593
49	0x3c09c2a4	0.008408222
50	0x3ec05ea3	0.37572202
51	0x3ef11cf7	0.4709241
52	0x3db96e27	0.09054213
53	0xbd27154a	-0.040791787
54	0x3e970982	0.2949944
55	0xbe5feea3	-0.21868376
56	0x3e0854ab	0.13313548
57	0xbe992fb6	-0.29919213
58	0xbe532ec1	-0.20623304
59	0xbe940125	-0.28907123
60	0x3d70e605	0.058813114
61	0x3dbecb14	0.09316078
62	0xbd65771f	-0.056021806
63	0x3e0854b3	0.1331356
64	0x3dd6268b	0.1045657
65	0xbde3a5c3	-0.11115601
66	0x3e8d9679	0.27653864
67	0x3d64004c	0.055664346
68	0x3ebb9599	0.3663757
69	0x3eed7cea	0.46384364
70	0xbf34bdb3	-0.7060196
71	0xbe2626fb	-0.16225807
72	0xbb840643	-0.004029067
73	0x3ea2ea79	0.31819513
74	0x3f97fc75	1.1873919
75	0x3f08f31c	0.53495955
76	0x3e4247c3	0.18972687
77	0xbec57083	-0.38562402
78	0xbf1e3a75	-0.6180795
79	0xbec10bfe	-0.37704462
80	0xbeecd349	-0.46254948
81	0x3ea4a520	0.3215723
82	0x3ed78a50	0.42097712
83	0xbeb8f5ac	-0.36124933
84	0x3db61ff6	0.08892815
85	0xbdd4600a	-0.103698805
86	0xbda5a05d	-0.080872275
87	0xbe59767d	-0.21236606
88	0x3ea7fc5d	0.32809725
89	0xbe5c71a7	-0.2152773
90	0x3e7f14a5	0.24910219
91	0x3e2fb487	0.1715871
92	0x3e3bbc57	0.18333565
93	0xbd03a271	-0.032137338
94	0xbf1ba1d9	-0.60793835
95	0xbdf97b1e	-0.12181686
96	0x3d30f174	0.043199018
97	0xbdb11aa0	-0.086476564
98	0xbf6e74ef	-0.93147177
99	0xbeac7860	-0.3368559
100	0x3ef83ddc	0.48484695
101	0x3e9b59f7	0.30342075
102	0xbeeacde7	-0.45860216
103	0xbe25579b	-0.161467
104	0xbed293d2	-0.41128403
105	0xbd4cecef	-0.050030645
106	0xbf92b4bc	-1.1461406
107	0xbeda7aa9	-0.42671707
108	0xbd6ab88e	-0.05730491
109	0x3e11e622	0.14247945
110	0xbf26a491	-0.6509486
111	0x3e5b6c15	0.21427949
112	0xbe8e39c8	-0.2777846
113	0x3edfc54e	0.4370522
114	0x3debef9a	0.1152031
115	0xbecec5ec	-0.40385377
116	0xbda36e7a	-0.07980056
117	0x3da56aa1	0.080769785
118	0xbebdf225	-0.37098804
119	0x3d94642e	0.0724567
120	0x3e4687a9	0.19387688
121	0x3bc8b75c	0.0061253738
122	0x3e4f6cd2	0.20256355
123	0x3e933c12	0.28756768
124	0xbedb5816	-0.42840642
125	0xbe7ad848	-0.24496567
126	0xbf38a5db	-0.72128075
127	0xbec8338b	-0.39101824
128	0xbe10f373	-0.14155369
129	0xbeb86b33	-0.36019287
130	0x3eeff1c1	0.4686413
131	0x3dfbfbce	0.12303887
132	0xbe30febc	-0.17284673
133	0x3d3e01ec	0.04638855
134	0xbc9ad19e	-0.018898781
135	0xbdd3620c	-0.10321435
136	0x3d868a32	0.065693274
137	0x3d263d6d	0.040585924
138	0x3f5f7cbe	0.87299716
139	0x3eddefbd	0.43346968
140	0x3ee5218b	0.44752154
141	0x3e6baff0	0.23016334
142	0x3db1d0e8	0.08682424
143	0xbca99270	-0.02069971
144	0xbe4b58c0	-0.19858074
145	0xbd2e7b7e	-0.04259824
146	0x3f1e7828	0.61902094
147	0x3c00bbf5	0.007857312
148	0xbdad2d5c	-0.08455917
149	0xbe89a10d	-0.26880684
150	0xbf06957c	-0.52571845
151	0xbed0398f	-0.40668914
152	0xbe179ebd	-0.14806648
153	0x3e207bc5	0.15672214
154	0x3e37f5e9	0.17964901
155	0xbece3de8	-0.40281606
156	0x3e5146ec	0.20437211
157	0xbedcda02	-0.43135077
158	0xbde41836	-0.1113743
159	0xbe113da5	-0.14183672
160	0xbc76e245	-0.015068595
161	0xbdbc9b5b	-0.09209319
162	0xbf915016	-1.1352565
163	0xbee4d9b5	-0.44697347
164	0xbbbafd4e	-0.005706466
165	0x3d050a95	0.032480795
166	0x3eefcfcd	0.46838227
167	0x3ebea853	0.37237796
168	0xbe932732	-0.2874084
169	0xbcc2cc29	-0.023778992
170	0xbde8f2e7	-0.11374455
171	0xbe5350b3	-0.20636253
172	0x3e5e4348	0.21705353
173	0x3d0b4f59	0.03401122
174	0xbe3d6216	-0.18494448
175	0x3eaa4a99	0.33260038
176	0x3d349f8c	0.04409747
177	0xbe83ea4c	-0.25764692
178	0xbed1eb9c	-0.41000068
179	0xbef661a0	-0.48121357
180	0x3d930f9d	0.07180712
181	0xbd5ab02b	-0.053390663
182	0x3eb21cda	0.34787637
183	0x3d93b0c1	0.072114475
184	0x3d80eb5a	0.0629489
185	0xbc6070e3	-0.013698789
186	0xbec3a452	-0.38211304
187	0x3ca813f2	0.020517323
188	0xbec0964b	-0.37614664
189	0x3e97fa71	0.2968326
190	0x3f6f3539	0.93440586
191	0x3e9466ef	0.28984782
192	0xbe8fed93	-0.28110942
193	0xbad2211d	-0.0016031597
194	0xbf1efd45	-0.6210521
195	0xbe843208	-0.2581942
196	0xbe8577bf	-0.26067922
197	0x3e47bf41	0.19506551
198	0xbd4cddc4	-0.05001618
199	0x3db9c37f	0.09070491
200	0xbccba3ab	-0.024858316
201	0x3e78b2a4	0.24286896
202	0xbf56e40a	-0.8394171
203	0xbec22234	-0.3791672
204	0xbea04b8c	-0.31307638
205	0x3ea88015	0.3291022
206	0x3ee12181	0.43970874
207	0x3ee05d73	0.43821296
208	0x3e603a23	0.21897177
209	0x3de2ee37	0.11080592
210	0x3e9afb4e	0.30269855
211	0xbd3f5044	-0.046707407
212	0x3dcfcde9	0.10146696
213	0xbdb4e325	-0.08832387
214	0xbf25a702	-0.6470796
215	0xbbfbc2b9	-0.007683125
216	0xbe7cb588	-0.24678624
217	0xbe4af42c	-0.19819707
218	0x3cb55c5a	0.022138763
219	0xbecbabee	-0.3977961
220	0xbd9b5796	-0.07585065
221	0x3ebf9e68	0.37425542
222	0x3ee3a25d	0.4445981
223	0x3dfe3636	0.12412684
224	0xbea9fd24	-0.33200943
225	0x3e840641	0.2578602
226	0xbf7ba38c	-0.9829643
227	0xbe10afc1	-0.14129545
228	0xbe34a74a	-0.1764194
229	0xbc13173a	-0.008977706
230	0x3f2400a4	0.6406348
231	0x3ecfe5d3	0.4060503
232	0x3d4c1e2b	0.049833458
233	0x3ecf3dce	0.4047684
234	0xbe9258c5	-0.2858335
235	0xbebc8c73	-0.36825904
236	0x3e80d3c9	0.2516158
237	0xbe9edeb6	-0.3102929
238	0xbf53f59b	-0.8279664
239	0x3dae337b	0.08505913
240	0x3bdf72e4	0.006819116
241	0x3e535681	0.20638467
242	0xbe3066e3	-0.17226748
243	0x3df0e275	0.11761943
244	0x3eb78c42	0.35849196
245	0xbee66135	-0.44996038
246	0xbec33836	-0.38128823
247	0xbf2b29c0	-0.6686058
248	0x3cd8549b	0.02640753
249	0xbd0a776b	-0.033805292
250	0x3ea59009	0.32336453
251	0x3e03085e	0.1279616
252	0x3ee890a4	0.45422852
253	0xbe1bd48f	-0.15217803
254	0xbf82d986	-1.0222633
255	0xbe8360fd	-0.25659934

bias f4 [128]
0	0xbdb4c48f	-0.08826553
1	0xbe2a9dc4	-0.16661745
2	0x3e27254a	0.16322818
3	0x3e0c8bfa	0.13725272
4	0xbec04257	-0.37550613
5	0xbd6cfbe2	-0.0578574
6	0x3e8617b4	0.2618996
7	0xbdd78d09	-0.10524947
8	0xbdcd4f3e	-0.1002488
9	0x3d3badc9	0.04582003
10	0x3e09c967	0.13455735
11	0xbefe1897	-0.49628136
12	0xbea17fd1	-0.3154283
13	0xbeb4fc14	-0.3534857
14	0x3e09a35f	0.13441227
15	0xbe95403b	-0.29150566
16	0xbdbe8b36	-0.09303896
17	0xbe7713dd	-0.24128671
18	0x3f05cdd1	0.52267176
19	0x3ee4be73	0.4467655
20	0xbf021ad6	-0.508222
21	0xbed73eb5	-0.4204003
22	0xbedab2f2	-0.4271465
23	0xbe3bd26b	-0.18341987
24	0xbe246b25	-0.16056497
25	0xbebcf2d4	-0.36904013
26	0xbe024d83	-0.12724881
27	0x3d247302	0.040148742
28	0xbe9df100	-0.3084793
29	0x3cbb9d59	0.022902178
30	0xbe05b74e	-0.13058206
31	0xbe79b9cc	-0.24387282
32	0x3da605f3	0.081066035
33	0x3db7884c	0.089615434
34	0xbe67a61b	-0.22621958
35	0xbdb51443	-0.08841755
36	0xbeb001d5	-0.34376398
37	0x3e73cd6e	0.23808834
38	0xbf18dc25	-0.59710914
39	0xbef19e61	-0.47191146
40	0x3efe1d55	0.49631754
41	0xbe41e4de	-0.18934962
42	0xbd39b817	-0.045341577
43	0xbe48c044	-0.19604594
44	0xbdcd6523	-0.10029056
45	0xbe43c34e	-0.19117472
46	0xbb0db6ad	-0.0021623776
47	0x3e652147	0.22375976
48	0xbf0b326e	-0.54373825
49	0xbebd2541	-0.36942485
50	0xbe63c077	-0.22241388
51	0x3ea6b9c6	0.3256361
52	0xbea9ee3c	-0.3318957
53	0x3ec28a23	0.37996015
54	0xbe9307cd	-0.2871689
55	0xbe0eed6f	-0.13957761
56	0x3ec90fdf	0.3926992
57	0x3e9b2e69	0.30308846
58	0x3e892730	0.2678771
59	0x3e360a87	0.17777453
60	0xbe98e9df	-0.2986593
61	0xbe354050	-0.17700315
62	0xbdaf64a7	-0.0856412
63	0x3eb476c2	0.35246855
64	0xbe73efbd	-0.23821922
65	0xbef6d756	-0.48211163
66	0x3df32e17	0.11874025
67	0x3ed3852a	0.41312534
68	0xbe73b47e	-0.23799321
69	0xbed77460	-0.42080975
70	0xbf17022b	-0.58987683
71	0x3d5944d9	0.053044174
72	0xbd886047	-0.066589884
73	0xbea36edd	-0.3192052
74	0x3d712d53	0.058881115
75	0x3e2574b9	0.16157807
76	0x3eccac6e	0.39975303
77	0x3ea9b442	0.33145338
78	0xbe060ba6	-0.13090381
79	0xbedf90c9	-0.4366515
80	0xbee753d8	-0.45181155
81	0x3ee4192b	0.44550452
82	0x3eaf2173	0.34205207
83	0x3e214fcc	0.15753096
84	0xbedf39b9	-0.43598726
85	0x3e9c0691	0.3047376
86	0x3ec171f1	0.37782243
87	0x3ecb2fba	0.3968485
88	0xbed7f530	-0.4217925
89	0xbe862302	-0.26198584
90	0xbecd253c	-0.4006747
91	0x3ecb4a52	0.3970514
92	0xbe56aa93	-0.20963506
93	0xbe3a1d23	-0.18175177
94	0x3ea2f85a	0.31830102
95	0xbec45a83	-0.38350305
96	0xbe7b0e99	-0.24517287
97	0xbe15fb41	-0.14646627
98	0xbe6a9d72	-0.22911623
99	0xbee25e7a	-0.44212705
100	0x3ee19f13	0.44066676
101	0xbdf90c92	-0.12160601
102	0x3e5417e0	0.20712233
103	0x3ea9ca9b	0.33162388
104	0x3e11f983	0.14255337
105	0xbe0eb7af	-0.13937257
106	0x3ecb7c0e	0.39743084
107	0x3e13b86b	0.14425819
108	0xbea521f9	-0.32252482
109	0x3ec540bd	0.38525954
110	0x3de252ef	0.110509746
111	0xbf01542b	-0.50519055
112	0xbe8835f7	-0.26603672
113	0xbeeaff9c	-0.4589814
114	0x3ed4c774	0.4155842
115	0xbe811e31	-0.25218347
116	0xbf143811	-0.5789805
117	0xbcd77389	-0.026300209
118	0x3dd2fa92	0.10301699
119	0x3e097f47	0.13427459
120	0xbd143238	-0.036180705
121	0x3e383afe	0.17991254
122	0x3e2f567b	0.17122833
123	0xbd4d05a0	-0.050054193
124	0xbe2e80b9	-0.17041291
125	0xbedfad75	-0.43687025
126	0xbeed3456	-0.46328992
127	0x3df308ff	0.1186695

weight f4 [2, 128]
0	0x3c353416	0.011059782
1	0xbe584560	-0.21120214
2	0x3dc16f8f	0.09445106
3	0x3c751768	0.014959194
4	0xbb9eb6ea	-0.0048435824
5	0x3d3439a6	0.04400029
6	0xbda2000f	-0.079101674
7	0x3cfbbe9c	0.030730538
8	0x3ced087d	0.028934712
9	0xbe0a6b01	-0.13517381
10	0x3d6404cc	0.055668637
11	0xbd8560aa	-0.06512578
12	0xbd98d0c7	-0.07461696
13	0xbc923202	-0.017846111
14	0xbd2d6a73	-0.042337846
15	0xbca364cc	-0.019945525
16	0xbd332606	-0.043737434
17	0x3e00891f	0.12552308
18	0xbe08d58c	-0.13362712
19	0x3d4576cd	0.048209
20	0x3c513fce	0.01277156
21	0xbbf21347	-0.007387552
22	0x3d3ce30e	0.046114974
23	0xbc125d4a	-0.008933375
24	0x3e4e555b	0.20149748
25	0x3deaee67	0.11471253
26	0x3dfd48ce	0.12367402
27	0x3db6cc1c	0.089256495
28	0x3aaae1d4	0.0013037273
29	0x3c95bf7f	0.018279789
30	0xbe054ba0	-0.1301713
31	0x3dcac09c	0.099000186
32	0xbd681b8e	-0.056666903
33	0xbc794324	-0.0152137615
34	0xbe2374ae	-0.15962479
35	0x3d0e5eda	0.034758426
36	0xbb813f07	-0.003944281
37	0x3cdd470c	0.027011417
38	0x3dc7cafb	0.09755512
39	0xbd15923a	-0.036516406
40	0x3e21131a	0.15729943
41	0xbe372d29	-0.17888321
42	0xbc8fc349	-0.017549174
43	0xbcdc5f16	-0.02690081
44	0x3e1093c5	0.1411887
45	0xbc08de44	-0.0083537735
46	0x3bcc4089	0.006233279
47	0xbe52d53e	-0.20589158
48	0x3d770dce	0.0603159
49	0xbcae6614	-0.021288909
50	0x3dadcf1a	0.08486767
51	0xbde2fb2a	-0.11083062
52	0xbca91144	-0.020638116
53	0x3d96e061	0.07367016
54	0x3d3609c9	0.044442926
55	0xbd77eace	-0.06052666
56	0x3dfc1d57	0.12310284
57	0xbe019121	-0.12653019
58	0x3d2e6135	0.042573173
59	0x3d1443fb	0.036197644
60	0xbceeed0f	-0.029165773
61	0x3e845531	0.25846246
62	0xbd7ff021	-0.062484864
63	0x3dbc2012	0.091858044
64	0xbb68abc6	-0.0035502776
65	0xbd9b7456	-0.07590549
66	0x3d0fffe4	0.035156146
67	0x3e0952c2	0.13410476
68	0x3d5718b0	0.05251378
69	0x3d625f3f	0.055266615
70	0xbd0baf9a	-0.034103014
71	0xbccc9922	-0.024975363
72	0xbdba65ef	-0.091014735
73	0xbd55208d	-0.052032996
74	0x3df62236	0.12018244
75	0xbd2c47c7	-0.04206064
76	0xbd67d3ae	-0.056598358
77	0x3ddeb2fc	0.10873982
78	0xbd25e0d0	-0.0404976
79	0x3d6c0cf4	0.05762954
80	0x3d92cf4f	0.07168447
81	0xbdb4cc50	-0.08828032
82	0x3dbccec8	0.09219128
83	0xbca028af	-0.01955065
84	0xbe25823c	-0.16162962
85	0xbd547763	-0.05187167
86	0x3d10d2b5	0.035357196
87	0xbe0005fe	-0.12502286
88	0x3d5b1b7e	0.053493015
89	0xbd826e84	-0.063687354
90	0xbc7f8851	-0.015596465
91	0x3db2f84d	0.08738766
92	0xbd0c3810	-0.034233153
93	0x3e3f4173	0.1867731
94	0xbe06a651	-0.13149382
95	0x3b785bc1	0.0037896486
96	0xbdec4fa3	-0.11538627
97	0xbd54fa31	-0.051996414
98	0x3bf62427	0.007511634
99	0xbd24df13	-0.040251803
100	0xbdd27732	-0.10276641
101	0xbdcff0d4	-0.10153356
102	0x3e10359b	0.14082949
103	0x3d37aaee	0.044840746
104	0xbb602171	-0.003419962
105	0x3d3a07b3	0.0454175
106	0x3de580a6	0.11206178
107	0xbd7348d4	-0.059395626
108	0x3cfa6493	0.030565536
109	0xbd40adbd	-0.04704069
110	0xbdfc9b6e	-0.12334333
111	0xbd964f7d	-0.0733938
112	0xbc0c44b2	-0.0085613
113	0x3b599450	0.0033199973
114	0x3da31f0d	0.07964907
115	0x3da27926	0.079332635
116	0x3b16e9df	0.0023027582
117	0xbc479f06	-0.01218391
118	0xbcedd2f5	-0.029031256
119	0xbdb509c8	-0.08839756
120	0x39f96a36	0.00047572114
121	0xbdc7572c	-0.097334236
122	0xbdfdf1a9	-0.12399609
123	0xbd14223b	-0.036165457
124	0xbd914563	-0.070933126
125	0xbe057d8d	-0.13036175
126	0xbca55493	-0.02018193
127	0x3d5eb5ca	0.054372586
128	0xbe065be1	-0.13120987
129	0x3e4acd57	0.19804893
130	0xbd189222	-0.037248738
131	0xbdb06852	-0.086136475
132	0xbb835b80	-0.0040087104
133	0x3db13ada	0.08653803
134	0x3da901c2	0.082522884
135	0xbc6ba5de	-0.014382808
136	0xbc37b8b8	-0.011213474
137	0x3d7bfb41	0.06151891
138	0x3da52d96	0.080653355
139	0xbd649c76	-0.055813275
140	0x3d8f98bb	0.07011553
141	0x3c3948ea	0.011308888
142	0xbcb98dbc	-0.022650592
143	0xbc72ab15	-0.014811297
144	0x3c14c260	0.009079546
145	0xbda65453	-0.08121552
146	0x3d86527f	0.06558704
147	0xbdd25608	-0.102703154
148	0xbcf886b5	-0.03033767
149	0x3b7c6d04	0.0038517127
150	0x3c9a074b	0.018802306
151	0xbcfe23fa	-0.031023014
152	0xbdddae24	-0.1082423
153	0xbc048d24	-0.008090291
154	0xbe2c36a4	-0.16817719
155	0xbd697d17	-0.05700406
156	0xbdae3bbe	-0.08507489
157	0xbc09acc3	-0.008403006
158	0x3cf95366	0.030435275
159	0xbe026dcd	-0.12737198
160	0x3da4c9a3	0.08046272
161	0x3bc72f30	0.0060786232
162	0x3e878f42	0.26476485
163	0xbcecda0d	-0.028912568
164	0xbc1303da	-0.008973086
165	0x3d4872d1	0.048937622
166	0x3d50593d	0.050866354
167	0xbd1e1a17	-0.0385991
168	0xbd83374e	-0.06407033
169	0x3e059adf	0.1304736
170	0xbd0909a3	-0.033456456
171	0xbc095ec0	-0.008384407
172	0xbd9f59e5	-0.07780818
173	0x3befe1d2	0.007320621
174	0xbbb9731b	-0.0056594736
175	0x3e2f034e	0.17091104
176	0xbd5255e2	-0.051351435
177	0x3df81c1d	0.12114737
178	0xbd620351	-0.055178944
179	0x3dc57279	0.096409746
180	0x3e290487	0.16505633
181	0xbc8b058b	-0.016970417
182	0x3c38729b	0.011257793
183	0xbd41cc0b	-0.04731373
184	0xbd977b77	-0.07396596
185	0x3d3c7ab4	0.046015456
186	0xbcbad06b	-0.02280446
187	0xbd686be3	-0.056743514
188	0x3c0b7dc3	0.008513871
189	0xbe65bd5f	-0.2243552
190	0x3d219c84	0.039455906
191	0xbdb7892a	-0.08961709
192	0xbd32aaed	-0.04362004
193	0x3d0915ce	0.03346806
194	0xbdc84f6d	-0.09780774
195	0xbcbcb440	-0.023035169
196	0xbdaac0c9	-0.08337552
197	0xbd0b6d94	-0.03404005
198	0xbbe5b2aa	-0.007009824
199	0x3bc84bcc	0.0061125513
200	0xbafdb95f	-0.0019357613
201	0x3ceb1125	0.028694699
202	0xbcec6130	-0.028854936
203	0x3d5abe5b	0.053404193
204	0x3dcbd31f	0.099523775
205	0xbdda09df	-0.10646414
206	0x3e0e26f6	0.1388205
207	0x3daa0cea	0.083032444
208	0x3b854890	0.004067488
209	0x3d243767	0.0400919
210	0xbdd33b87	-0.10314088
211	0x3ce905f3	0.02844522
212	0x3d972a44	0.073811084
213	0x3cd3caa8	0.02585347
214	0x3db061a5	0.08612374
215	0xbcba0d74	-0.022711493
216	0x3ab9bd80	0.0014170855
217	0xbcbaacfc	-0.022787564
218	0x3d685307	0.056719806
219	0xbdcbd16f	-0.09952056
220	0x3d8aed3e	0.067835316
221	0xbdbaefe4	-0.09127787
222	0x3db3634d	0.087591745
223	0x3d8644f1	0.06556118
224	0x3e438c65	0.19096525
225	0xbd4e8815	-0.050422747
226	0x3c38eb3a	0.011286551
227	0xbd7b1561	-0.061299685
228	0x3ca759a6	0.02042849
229	0x3e0127b8	0.12612808
230	0xbd717220	-0.05894673
231	0xbdb13fd8	-0.08654755
232	0xbd3192ec	-0.043353006
233	0x3d0f9d65	0.035062212
234	0xbd6599d1	-0.056054894
235	0x3cd7add1	0.026328
236	0x3ce10ebd	0.027472848
237	0x3dd753d5	0.105140366
238	0xb933305c	-0.00017088786
239	0x3d8b1907	0.06791883
240	0x3d226b08	0.039652854
241	0xbc28fcbb	-0.010314162
242	0xbe0af9d6	-0.13571867
243	0x3cc22732	0.02370033
244	0x3c33b2e9	0.0109679485
245	0x3e0169ff	0.1263809
246	0x3d297715	0.04137333
247	0xbd310c4f	-0.04322463
248	0x3cb7a5da	0.022417951
249	0x3e6e2911	0.23257853
250	0xbba494dd	-0.0050226287
251	0x3e475e49	0.1946956
252	0x3e00fbfa	0.12596121
253	0x3e05c177	0.13062082
254	0xbd1669b6	-0.036721908
255	0x3d812568	0.06305963

bias f4 [2]
0	0xbdc000de	-0.093751654
1	0x3c204d2d	0.009784025

weight f4 [128, 4]
0	0x3d8255b6	0.06364004
1	0x3e482731	0.195462
2	0x3e415f39	0.18883981
3	0x3ea4c672	0.32182652
4	0x3ea9fd26	0.3320095
5	0x3ed102f5	0.4082257
6	0x3ee190f0	0.4405589
7	0xbbd665a5	-0.0065428787
8	0xbe51091d	-0.20413633
9	0xbd76300e	-0.060104422
10	0x3c6f4dc0	0.014605939
11	0xbe55b0fd	-0.20868297
12	0x3ddd546a	0.10807116
13	0x3e1ea34e	0.15491983
14	0x3e012c96	0.12614664
15	0x3e18cc91	0.14921786
16	0x3e70a3fe	0.23500058
17	0x3d2481ef	0.040162977
18	0xbe9f89c9	-0.3115981
19	0xbe57639e	-0.21034095
20	0x3d0596a4	0.032614365
21	0x3d23f789	0.04003099
22	0x3eef2aaa	0.46712238
23	0xbed7f023	-0.42175397
24	0xbf004b55	-0.5011495
25	0x3ea27eed	0.31737462
26	0x3f1b6f29	0.6071649
27	0xbe819875	-0.25311628
28	0x3e54fb07	0.20798884
29	0xbe2b4996	-0.1672729
30	0x3feca985	1.8489233
31	0x3e4c2a8b	0.19938104
32	0x3ec85a20	0.3913126
33	0xbeb9df66	-0.36303252
34	0xbe53dc3a	-0.20689479
35	0x3e02ae37	0.1276177
36	0x3ebbe9a2	0.36701685
37	0xbe1b4d12	-0.15166119
38	0xbd43fb49	-0.047847066
39	0xbe96b5b2	-0.29435498
40	0x3e9e5758	0.30926013
41	0xbf01bfa1	-0.5068303
42	0x3dbfa833	0.09358253
43	0xbeb1ce3d	-0.3472766
44	0xbeb714b9	-0.35757998
45	0x3e033caf	0.12816118
46	0xbf85e49c	-1.0460391
47	0xbdd150d4	-0.10220495
48	0xbf44578b	-0.7669608
49	0xbeeb23a5	-0.45925632
50	0x3f6f90c0	0.93580246
51	0xbc2ffdf6	-0.010741701
52	0xbd4402f2	-0.04785437
53	0xbe97a78e	-0.29620022
54	0xbfdb9906	-1.7156074
55	0xbe9fef79	-0.3123739
56	0x3eaa201f	0.3322763
57	0x3e2a737b	0.16645615
58	0x3dd545a9	0.10413677
59	0xbda3dd6e	-0.08001219
60	0x3df70855	0.12062136
61	0x3ca32fef	0.019920317
62	0xbeb4fd5f	-0.35349557
63	0x3e08aa06	0.13346109
64	0x3ed0ba69	0.4076722
65	0xbecdd353	-0.4020029
66	0xbf0dac43	-0.55340976
67	0xbc5fb374	-0.013653625
68	0x3ea40d8d	0.32041588
69	0xbe40ff75	-0.18847449
70	0xbde1d945	-0.11027769
71	0x3e24da91	0.16099001
72	0xbd3dab7b	-0.046306115
73	0x3d98f70d	0.07468996
74	0x40042f87	2.0654008
75	0x3e9e007a	0.3085974
76	0xbe618383	-0.22022824
77	0x3e720429	0.236344
78	0x3fe56bc1	1.7923509
79	0x3f0be386	0.5464405
80	0xbe98898e	-0.29792446
81	0x3e5ff396	0.21870264
82	0xbfa9ca7d	-1.326492
83	0xbf0d5140	-0.552021
84	0x3e3751f4	0.17902356
85	0xbef04b7b	-0.46932587
86	0xbf981b3d	-1.1883312
87	0xbe86ec4e	-0.2635216
88	0xbe97bce0	-0.29636288
89	0x3dbaa37a	0.09113212
90	0xbe3a6995	-0.18204339
91	0x3e803e56	0.2504756
92	0xbd936792	-0.07197489
93	0x3effbf8d	0.4995083
94	0x3e86236b	0.26198897
95	0xbe17c61a	-0.14821663
96	0x3f33cf19	0.7023788
97	0xbd9caf8a	-0.07650669
98	0xbf39c906	-0.7257236
99	0xbe0a01e1	-0.13477279
100	0x3df2f422	0.11862971
101	0xbe5e7977	-0.21726023
102	0xbfc89145	-1.5669333
103	0xbed94cb3	-0.4244133
104	0x3d20d83d	0.03926872
105	0xbed15e05	-0.40892044
106	0xbe9b27c4	-0.30303776
107	0x3e9480d7	0.29004547
108	0xbeddd139	-0.43323687
109	0xbe931768	-0.28728795
110	0xbf3ecbf9	-0.7452999
111	0xbeaced05	-0.33774582
112	0x3e098679	0.13430203
113	0xbe508f4f	-0.20367168
114	0xbfaeeb19	-1.3665496
115	0xbeeb5eed	-0.4597086
116	0xbe161b69	-0.14658894
117	0x3e916f83	0.2840539
118	0x3f00044b	0.5000655
119	0x3be4d33a	0.006983188
120	0xbb88da42	-0.004176409
121	0xbd705293	-0.0586725
122	0xbfacd893	-1.3503593
123	0xbead0d7d	-0.33799353
124	0xbeb195e3	-0.34684667
125	0x3eb50563	0.35355672
126	0x3ebf22e0	0.37331295
127	0xbeadf81d	-0.33978358
128	0xbe83f1f7	-0.25770542
129	0x3e85d74b	0.26140818
130	0x3f8e381b	1.1110872
131	0x3ef36415	0.47537294
132	0x3f2ec979	0.6827617
133	0xbd2ff092	-0.042954035
134	0xbf65e1bf	-0.89797586
135	0xbe7ad777	-0.24496256
136	0xbe01d141	-0.1267748
137	0x3da4ffee	0.08056627
138	0xbe793fef	-0.24340795
139	0xbcae268a	-0.021258611
140	0xbef1479f	-0.47124955
141	0x3ee771a1	0.4520388
142	0xbea2308a	-0.31677657
143	0x3ec0d766	0.37664336
144	0xbe5e56a1	-0.21712734
145	0xbdfbd55a	-0.12296553
146	0x3fa797b2	1.3093169
147	0x3e2de240	0.16980839
148	0x3ebac7b3	0.36480483
149	0x3e95a03f	0.2922382
150	0xbf121360	-0.57060814
151	0x3e97817b	0.29590973
152	0xbc39e6f4	-0.011346567
153	0xbe1a06b2	-0.15041617
154	0xbbca72e0	-0.006178245
155	0x3eb8f408	0.3612368
156	0xbf278295	-0.6543363
157	0x3df2fd71	0.11864746
158	0x3fcc48f7	1.5959767
159	0x3ea09afa	0.31368238
160	0x3ea6f8d0	0.32611704
161	0xbdb0406b	-0.08606037
162	0xbed18a52	-0.40925843
163	0x3e91b0da	0.2845524
164	0xbc93baf8	-0.01803349
165	0x3e985e49	0.29759434
166	0xbd0df285	-0.034655113
167	0xbdfc0ea7	-0.12307482
168	0x3da340e8	0.07971364
169	0xbe98213b	-0.29712853
170	0x3bac5397	0.005258988
171	0x3e7656fc	0.2405662
172	0x3d8d5333	0.069006346
173	0xbdaf5ce0	-0.085626364
174	0x3e99a91c	0.30011833
175	0xbe9b2886	-0.30304354
176	0x3ed4810b	0.41504702
177	0xbeca479f	-0.39507768
178	0xbef236c7	-0.47307417
179	0xbe3a4c4c	-0.18193167
180	0x3ec1db36	0.37862557
181	0xbe7e280c	-0.24819964
182	0xbf73b9f2	-0.95205605
183	0xbf088576	-0.53328645
184	0x3e15b0a2	0.14618161
185	0xbd98641d	-0.0744097
186	0xbe136c76	-0.14396843
187	0x3eb5290f	0.35382888
188	0x3d5b3d43	0.05352522
189	0xbdc13f84	-0.09435943
190	0x3e13e218	0.14441717
191	0xbe2c1ceb	-0.16807906
192	0xbe5a0cef	-0.21293996
193	0x3e78369b	0.2423958
194	0x3f986617	1.1906155
195	0x3eee5ff4	0.4655758
196	0xbe01d662	-0.12679437
197	0xbdcab672	-0.0989808
198	0x3e2c1539	0.16804971
199	0xbe9756c3	-0.2955838
200	0x3cd91b79	0.026502358
201	0xbc9b51c0	-0.01895988
202	0xbc5f9986	-0.013647443
203	0xbd8c3546	-0.068460986
204	0x3ea03084	0.31287014
205	0x3ee68d14	0.4502951
206	0xbe7e1ca8	-0.24815619
207	0x3e9847b3	0.29742202
208	0xbec0da05	-0.37666336
209	0xbef7e55d	-0.48417178
210	0x3d0a38af	0.033745464
211	0x3cbe68b9	0.023243295
212	0xbebb7c0b	-0.36618075
213	0xbef846d1	-0.4849153
214	0x3dc5b91a	0.09654446
215	0x3e27d38d	0.16389294
216	0xbe23940c	-0.15974444
217	0xbf1d8085	-0.6152423
218	0xbf70766b	-0.9393069
219	0xbec9f765	-0.3944656
220	0xbbbca5cf	-0.0057570706
221	0xbe365e7e	-0.17809483
222	0xbfce7cfa	-1.613189
223	0xbf03e916	-0.51527536
224	0xbe876edf	-0.26451775
225	0x3dcdd0ed	0.10049615
226	0xbee07ebd	-0.43846694
227	0xbd0e7d4e	-0.03478747
228	0xbde98aa4	-0.11403397
229	0xbe4a1dd0	-0.19737935
230	0x3ea6a2f7	0.32546207
231	0xbea55688	-0.3229258
232	0xbee6a184	-0.45045102
233	0x3ec49893	0.38397655
234	0x3dea298b	0.11433705
235	0x3ecd4aac	0.40096033
236	0xbe590fff	-0.21197508
237	0xbe9100c8	-0.2832091
238	0xbd555df5	-0.052091558
239	0x3d1561a9	0.03647009
240	0x3edc8b4f	0.43075034
241	0xbef571c8	-0.4793837
242	0xbe95d5dc	-0.29264724
243	0x3e620581	0.22072412
244	0xbf03db25	-0.51506263
245	0xbed6e29d	-0.41969767
246	0x3ee34ad2	0.4439302
247	0xbe991446	-0.2989828
248	0x3d4ab235	0.049486358
249	0xbeb7d100	-0.35901642
250	0x3e914594	0.28373396
251	0xbecb4de8	-0.39707875
252	0x3e905c64	0.28195488
253	0xbecd57c6	-0.40106028
254	0xbed53964	-0.41645348
255	0xbc89618b	-0.016770145

bias f4 [128]
0	0x3f16b36b	0.5886752
1	0x3e5aa213	0.21350889
2	0x3f3f2a31	0.74673754
3	0x3f2f5a3b	0.68497056
4	0x3f570143	0.839863
5	0x3ec19a66	0.3781311
6	0x3f34f0d3	0.7067997
7	0xbec1e3db	-0.37869152
8	0xbead9bb8	-0.33907866
9	0xbe11a80b	-0.1422426
10	0x3e707ac1	0.23484327
11	0xbe9d4bea	-0.3072198
12	0xbea0caf0	-0.3140483
13	0xbe82fe18	-0.25584483
14	0xbf273d90	-0.6532831
15	0x3ee662bb	0.449972
16	0x3f41552b	0.7552058
17	0x3f2e1737	0.68004173
18	0xbed34830	-0.41266012
19	0xbefe0bb2	-0.49618298
20	0xbed43160	-0.4144392
21	0xbe2e93f5	-0.17048629
22	0x3f3f6bcc	0.7477386
23	0x3d05536e	0.032550268
24	0xbe2881ce	-0.16455767
25	0xbed003fd	-0.40628043
26	0x3e8d78a2	0.27631098
27	0xbf08987b	-0.53357667
28	0xbeda7ec9	-0.42674854
29	0x3f2c4295	0.67289096
30	0xbebc2449	-0.36746433
31	0x3e36b42e	0.1784217
32	0xbed09cec	-0.40744722
33	0xbed9c473	-0.4253269
34	0x3eab38c6	0.33441752
35	0x3ed8d80a	0.42352325
36	0xbec404ce	-0.38284916
37	0x3e9edb5c	0.31026733
38	0x3ec08a63	0.3760558
39	0xbec8b367	-0.39199373
40	0x3f52873d	0.8223761
41	0x3f55773d	0.8338507
42	0x3f44aaeb	0.768233
43	0x3d9dd426	0.0770648
44	0x3ef4e1ed	0.47828618
45	0xbefdb657	-0.49553177
46	0x3e606ac4	0.21915728
47	0x3e5c5dcf	0.2152016
48	0xbed3f9ba	-0.41401464
49	0x3f282730	0.65684795
50	0xbe84c2bc	-0.2592982
51	0x3e9293da	0.28628427
52	0x3e262ff0	0.16229224
53	0xbf00f0e9	-0.503676
54	0xbe117b68	-0.14207232
55	0xbef03a5d	-0.46919528
56	0x3f28a5a7	0.65877765
57	0x3f363646	0.71176565
58	0x3f299fd6	0.66259515
59	0x3c90e1db	0.017685821
60	0x3eb9050d	0.36136666
61	0x3ea9befd	0.33153525
62	0x3f4a3772	0.7899085
63	0x3f507e20	0.8144245
64	0xbdcd11ff	-0.10013198
65	0xbec021ae	-0.37525696
66	0xbe8a2125	-0.26978412
67	0xbeb95c89	-0.3620341
68	0x3f58b9e1	0.8465863
69	0x3f13d472	0.5774604
70	0x3f4677d6	0.77526605
71	0x3f4107ec	0.7540271
72	0x3ea3674a	0.3191474
73	0xbeea03ee	-0.45706123
74	0x3f52b8f2	0.82313454
75	0x3f560219	0.8359695
76	0x3ed1cf23	0.40978345
77	0xbe996e1b	-0.29966816
78	0x3f4b0fcc	0.7932098
79	0x3ec06c9a	0.37582856
80	0x3f0bcc42	0.5460855
81	0x3f1dd105	0.61647063
82	0x3f35242d	0.70758325
83	0xbef7b948	-0.48383546
84	0xbe827699	-0.25481108
85	0x3f2dff1c	0.6796739
86	0x3e23dd1b	0.16002314
87	0xbea9d65e	-0.33171362
88	0x3f5e2dcd	0.86788636
89	0x3e859286	0.2608835
90	0x3f487e0d	0.7831734
91	0xbee14aee	-0.4400248
92	0x3f1cff27	0.6132683
93	0xbd393d8c	-0.04522471
94	0xbd6bef5f	-0.05760133
95	0x3e8446c3	0.25835237
96	0xbdf9396b	-0.12169155
97	0x3ef374ec	0.47550142
98	0x3e30cb6f	0.17265104
99	0x3f213f2f	0.62987036
100	0x3f04cf8d	0.518792
101	0x3ebad74d	0.36492386
102	0xbd954057	-0.072876625
103	0xbf0cb4ce	-0.54963386
104	0xbeafecd9	-0.34360388
105	0xbf345a48	-0.7045026
106	0x3e0fd0a7	0.14044438
107	0x3eeea5a1	0.4661074
108	0xbdd9c084	-0.106324226
109	0xbd5f02f5	-0.05444618
110	0x3f2e5b1f	0.6810779
111	0x3f0b197f	0.5433578
112	0x3d94613a	0.07245107
113	0xbe43ae19	-0.19109382
114	0x3f0cb3ba	0.5496174
115	0x3f382e68	0.7194581
116	0xbea02f08	-0.31285882
117	0x3e0fd788	0.14047062
118	0x3ecdddac	0.40208185
119	0xbea4783e	-0.32122988
120	0x3f4ba4a9	0.79548126
121	0x3e9d8ab8	0.30769897
122	0x3f198f97	0.59984726
123	0xbeb9a61a	-0.36259538
124	0x3ec43f28	0.38329434
125	0xbeb19c21	-0.3468943
126	0xbdfaf219	-0.12253208
127	0x3f087526	0.53303754

weight f4 [1, 128]
0	0x3e81250c	0.25223577
1	0x3e0d1247	0.13776504
2	0x3eb3d039	0.351198
3	0x3e5ca111	0.21545817
4	0x3e94ec7b	0.2908667
5	0x3e3f258d	0.18666668
6	0x3e66375d	0.22482057
7	0xbf1550a7	-0.5832619
8	0xbbe2d002	-0.006921769
9	0x3c8f6561	0.017504396
10	0x3e3e4728	0.18581831
11	0xbedd04e5	-0.43167797
12	0xbe7842d2	-0.2424424
13	0xbed7b2b9	-0.42128542
14	0xbea8225f	-0.32838723
15	0x3eba96e7	0.36443254
16	0x3e84652a	0.25858432
17	0x3e6f1aa4	0.23350006
18	0xbfa53b8e	-1.29088
19	0xbf77ee10	-0.9684763
20	0xbeafed20	-0.343606
21	0xbeb4e9e7	-0.35334703
22	0x3ea25598	0.31705928
23	0x3d66a69b	0.05631123
24	0xbe9245c7	-0.2856886
25	0xbf7ffdd3	-0.9999668
26	0x3e062ed6	0.13103804
27	0xbe8f39e7	-0.27973863
28	0xbf2692f7	-0.65068
29	0x3e484262	0.19556573
30	0xbf23dea2	-0.64011586
31	0x3d77873f	0.060431715
32	0xbf42a9ba	-0.7604023
33	0xbe9d3368	-0.30703282
34	0x3e68aa07	0.2272111
35	0x3e904d69	0.2818406
36	0xbec5e0e5	-0.38648143
37	0x3e8fbef8	0.28075385
38	0x3e202562	0.1563926
39	0xbf0a0547	-0.539143
40	0x3e8a377d	0.2699546
41	0x3e8f010f	0.27930495
42	0x3e70f039	0.23529138
43	0x3cad4e05	0.021155367
44	0x3e1f3f50	0.15551496
45	0xbe9876a9	-0.2977803
46	0x3d8768f6	0.066118166
47	0x3cede3b1	0.029039236
48	0xbf67a661	-0.9048825
49	0x3e923760	0.28557873
50	0x3cd76cec	0.026297055
51	0x3e9d0472	0.30667454
52	0x3e0fe436	0.140519
53	0xbdf6d886	-0.12053017
54	0xbe8fe768	-0.28106236
55	0xbf2a136a	-0.66435874
56	0x3ec0ec15	0.37680116
57	0x3e803185	0.2503778
58	0x3e587eb1	0.21142079
59	0x3d4ec16a	0.050477423
60	0x3e20a57e	0.1568813
61	0x3e6feb17	0.23429523
62	0x3e61bee7	0.2204548
63	0x3eb0940a	0.34487945
64	0x3d06885d	0.03284489
65	0xbfa189a6	-1.2620132
66	0xbe10343f	-0.1408243
67	0xbf693f93	-0.9111263
68	0x3e8dc582	0.2768975
69	0x3ea687c0	0.32525444
70	0x3e5ce280	0.21570778
71	0x3e90f541	0.28312114
72	0x3df84860	0.121231794
73	0xbf67b8a4	-0.90516114
74	0x3e7fa01e	0.24963424
75	0x3e9687d7	0.29400513
76	0x3e141099	0.14459457
77	0xbcf563f3	-0.029954886
78	0x3ea44f76	0.32091874
79	0x3e21c7dd	0.15798898
80	0x3e593585	0.21211822
81	0x3e9fd4f2	0.31217152
82	0x3e8d6211	0.2761388
83	0xbe676287	-0.22596179
84	0xbed1c2f6	-0.40969056
85	0x3ea6d4f6	0.3258435
86	0x3e109e66	0.14122924
87	0xbca90146	-0.02063049
88	0x3e942011	0.28930715
89	0x3de6f148	0.112764895
90	0x3e9f2bf3	0.31088218
91	0xbe8bddd4	-0.2731768
92	0x3e90cde1	0.28282073
93	0xbe397fd8	-0.18115175
94	0xbe4770b3	-0.19476585
95	0x3d9d4f28	0.076811135
96	0xbe43bef5	-0.19115813
97	0x3dfbbd3c	0.12291953
98	0x3e015cfb	0.12633125
99	0x3e9bc0fc	0.30420673
100	0x3ea13b18	0.31490397
101	0x3eb57a98	0.35445094
102	0x3c8cca56	0.017186325
103	0xbed74531	-0.42044976
104	0xbf09cea1	-0.53830916
105	0xbf19734a	-0.5994154
106	0x3e154d73	0.14580326
107	0x3e90de37	0.28294536
108	0xbdd046a7	-0.10169726
109	0x3d92cb6b	0.07167705
110	0x3e86f0fa	0.26355726
111	0x3e53ec56	0.20695624
112	0x3d413e89	0.04717878
113	0xbebbe9c8	-0.36701798
114	0x3e418b58	0.18900812
115	0x3e5c94c0	0.21541119
116	0x3e610f94	0.21978599
117	0x3e0b6ea7	0.1361643
118	0x3e42cf28	0.19024336
119	0xbfac7d06	-1.3475654
120	0x3ea5f5cd	0.32414094
121	0x3d886780	0.06660366
122	0x3e354fac	0.17706174
123	0xbf01104d	-0.504155
124	0x3eb56dde	0.35435385
125	0xbf2687d2	-0.65050995
126	0xbc99c11c	-0.01876884
127	0x3ea7e64e	0.32792896
