src/cartpole/results/CartPole-v0/train-a2c/20210407-190232/num_env6-num_episodes100000-learning_rate0.001-hidden_layers128-128-value_coefficient0.1.pt (torch, 11135 bytes, 7 tensors)

weight f4 [128, 4]
0	0xbb470bc9	-0.0030372015
1	0x3dbaac5e	0.09114908
2	0xbfb582cc	-1.4180541
3	0xbeb30d1d	-0.34970942
4	0xbe26db97	-0.16294704
5	0x3e218ecb	0.15777127
6	0x3f8b9b60	1.0906792
7	0x3eff46cb	0.49858698
8	0x3d36a162	0.0445875
9	0x3d710dc2	0.05885101
10	0xbf452e36	-0.7702364
11	0xbd3988e7	-0.045296576
12	0xbe98d97a	-0.2985342
13	0xbdfa2f0f	-0.12216007
14	0xbf52a56e	-0.82283676
15	0xbd4bb252	-0.049730606
16	0x3d5fdae4	0.05465211
17	0x3dc98364	0.09839514
18	0xbe2f6b37	-0.17130743
19	0xbd9acdf9	-0.075588174
20	0x3c1b9416	0.009495756
21	0x3e7c4be4	0.24638325
22	0x3eeb60e7	0.45972368
23	0x3ead5b21	0.33858588
24	0xbdd99b2c	-0.106253
25	0xbdaba961	-0.08381916
26	0x3f9a956c	1.207685
27	0xbec9e938	-0.39435744
28	0xbe9d7c2c	-0.30758798
29	0x3dee1905	0.11625866
30	0xbf1cd2d4	-0.612592
31	0x3e774ea9	0.241511
32	0x3d9ac740	0.07557535
33	0xbdf42999	-0.119219966
34	0xbf860e3d	-1.0473095
35	0xbeb07a42	-0.34468275
36	0xbe37a8ad	-0.17935438
37	0x3e930a23	0.2871867
38	0x3f4fe2a1	0.81205183
39	0x3eb98219	0.3623207
40	0x3d86873a	0.06568761
41	0xbe628eb6	-0.22124752
42	0xbe8e3ceb	-0.27780852
43	0xbec80b8b	-0.39071307
44	0xbe1c7a1a	-0.15280953
45	0xbd08e706	-0.033423446
46	0x3f0e67c0	0.5562706
47	0x3dc59a4f	0.09648573
48	0xbe03e79c	-0.1288132
49	0x3e0c5ba6	0.13706836
50	0x3fa55f9b	1.2919801
51	0x3f009da8	0.50240564
52	0x3e64e4c6	0.22352895
53	0xbc70e907	-0.014703996
54	0x3f24464c	0.64169765
55	0xbe433942	-0.19064811
56	0x3e483291	0.1955054
57	0xbe5a2510	-0.213032
58	0x3c29f9e2	0.010374518
59	0xbe3e17f9	-0.18563832
60	0xbc3473bb	-0.01101392
61	0x3d57f299	0.052721594
62	0xbe988344	-0.29787648
63	0x3e3051f7	0.17218767
64	0x3d822230	0.06354177
65	0xbd419ca8	-0.04726854
66	0xbe0fe2b6	-0.14051327
67	0xbd3cacee	-0.046063356
68	0x3e936282	0.28786093
69	0x3ec36b42	0.3816777
70	0xbf8dbf1d	-1.1073948
71	0xbdf25984	-0.1183348
72	0x3dfb97d1	0.12284816
73	0x3eb2f222	0.34950358
74	0x3fa26199	1.2686034
75	0x3ee2528c	0.44203603
76	0x3e2aec01	0.16691591
77	0xbea26b3b	-0.31722435
78	0xbf3ea735	-0.7447389
79	0xbeabc154	-0.33545935
80	0xbe3f9061	-0.1870742
81	0x3e4d9cd5	0.20079358
82	0x3e55e0b3	0.20886497
83	0xbe27eb58	-0.1639837
84	0x3d9c05a4	0.07618263
85	0xbdce5525	-0.10074834
86	0xbd87072e	-0.06593166
87	0xbe599bac	-0.2125079
88	0x3e989e75	0.29808393
89	0xbe6f8e09	-0.23394026
90	0xbdbc347a	-0.091896966
91	0x3e51be6b	0.20482795
92	0x3e68cbef	0.22734044
93	0xbd97afc0	-0.074065685
94	0xbf92a890	-1.1457691
95	0xbe82355b	-0.25431332
96	0x3db536fe	0.088483796
97	0xbdef0060	-0.116699934
98	0xbfcab302	-1.5835879
99	0xbec69576	-0.38785905
100	0x3ea1a36b	0.3156999
101	0x3e588feb	0.2114865
102	0xbf45ea05	-0.7731021
103	0xbe245905	-0.16049583
104	0xbe654b4c	-0.22392005
105	0xbd15c453	-0.036564182
106	0xbfd1a63e	-1.6378858
107	0xbebe6ac4	-0.3719083
108	0xbdb7896f	-0.0896176
109	0x3e4e6371	0.20155121
110	0xbf2dbabc	-0.6786306
111	0x3e61cdb9	0.22051133
112	0xbe908e7d	-0.2823371
113	0x3e8956ee	0.26824135
114	0x3d9cb4d2	0.07651676
115	0xbe3f2be1	-0.18669082
116	0xbcf400f0	-0.029785603
117	0x3d8cb73d	0.068708874
118	0xbde74e9d	-0.11294291
119	0x3d78c1f6	0.06073185
120	0x3e32b816	0.17453036
121	0x3e3fd2b6	0.18732724
122	0x3f23e0f1	0.6401511
123	0x3ddf818d	0.10913382
124	0xbec09537	-0.37613842
125	0xbe7e9828	-0.2486273
126	0xbf107f08	-0.56443834
127	0xbe1c2c82	-0.15251353
128	0xbdae8b15	-0.085226215
129	0xbe999897	-0.2999923
130	0x3efb8ef1	0.49132493
131	0x3d3d3f0d	0.046202708
132	0xbcf02c91	-0.029318126
133	0x3cd10364	0.025514312
134	0x3b9bfa70	0.004760079
135	0x3ca435a3	0.020045107
136	0xbda9a4af	-0.08283364
137	0x3d6f75e4	0.05846204
138	0x3fa878d0	1.3161869
139	0x3ec17b7c	0.37789524
140	0x3e53264c	0.20620078
141	0x3ca89c2e	0.020582285
142	0x3d26c9b0	0.040719688
143	0x3d23b3cf	0.0399664
144	0xbe2107ee	-0.15725681
145	0xbbcc89be	-0.006242006
146	0x3e2edf68	0.1707741
147	0xbdca1405	-0.098671
148	0x3d4b420d	0.049623538
149	0xbd8e937c	-0.06961724
150	0xbe800510	-0.25003862
151	0xbe4467b9	-0.19180192
152	0x3bf08bb2	0.0073408717
153	0x3e58509c	0.211245
154	0x3e34403c	0.17602628
155	0xbebcb55b	-0.36857113
156	0x3eb97168	0.36219335
157	0xbef0d43b	-0.4703692
158	0xbe0e20a4	-0.13879639
159	0xbda69cf8	-0.08135408
160	0xbc95b77c	-0.018275969
161	0xbdcf3d5a	-0.10119124
162	0xbfa8db24	-1.3191876
163	0xbea5af05	-0.32360092
164	0xbca46491	-0.020067485
165	0x3d571c6f	0.05251735
166	0xbe67ecd8	-0.22648942
167	0x3e1c5cbe	0.15269753
168	0xbe000998	-0.1250366
169	0x3d86153a	0.065470174
170	0xbccb0b6b	-0.024785718
171	0xbdbc9843	-0.09208729
172	0x3da64fd3	0.08120694
173	0x3d4c7a51	0.049921338
174	0xbf0a623d	-0.5405615
175	0x3e50f56b	0.2040612
176	0x3e39fe26	0.18163356
177	0xbe5a7d43	-0.21336846
178	0xbf8151af	-1.0103053
179	0xbeef89b3	-0.46784744
180	0x3dac9f69	0.084288426
181	0xbd35ac5c	-0.044353828
182	0x3c22a504	0.009927038
183	0x3e1c3a70	0.15256667
184	0xbc00f76d	-0.007871491
185	0x3b0c529c	0.0021411544
186	0xbda1c4f9	-0.07898898
187	0xbc7bf7e0	-0.015378922
188	0xbed3e2a8	-0.41383862
189	0x3e348ef8	0.17632663
190	0x3f979a81	1.1844026
191	0x3ea7a0d0	0.32739878
192	0xbe5694ea	-0.20955244
193	0x3e450d41	0.19243337
194	0xbf771586	-0.9651722
195	0xbec8ad26	-0.39194602
196	0xbe5c984e	-0.21542475
197	0x3dfec9c1	0.12440825
198	0xbd4b1791	-0.04958302
199	0x3e540008	0.20703137
200	0xbc1afa4e	-0.009459091
201	0x3e2d779a	0.16940156
202	0xbfa0b5eb	-1.2555517
203	0xbe9bd2bb	-0.30434212
204	0xbea27b9e	-0.31734937
205	0x3e9818ca	0.29706413
206	0x3f0026a8	0.50058985
207	0x3eaaa52b	0.33329138
208	0x3e1b966e	0.15194103
209	0xbc566ecb	-0.013087939
210	0x3cd4914f	0.025948195
211	0xbcd47c61	-0.025938215
212	0x3d0500c5	0.032471437
213	0xbd333b27	-0.043757584
214	0xbf4c70b5	-0.7985948
215	0x3c088eb6	0.008334806
216	0xbe3989f3	-0.1811903
217	0xbe3b2e21	-0.18279316
218	0xbee0c1d1	-0.4389787
219	0xbed45007	-0.41467306
220	0xbe48c531	-0.19606473
221	0x3e82b9b8	0.25532317
222	0x3e4b65fd	0.19863124
223	0x3e2977d0	0.16549611
224	0xbeb8602b	-0.3601087
225	0x3e8b7a7b	0.27241883
226	0xbf8d3c2f	-1.1033992
227	0xbd8c500b	-0.068512045
228	0xbe42e97c	-0.1903438
229	0x3c2bc16c	0.010483127
230	0x3f1b4482	0.6065141
231	0x3e223ff1	0.15844704
232	0xbc8e6020	-0.01737982
233	0x3d81fd24	0.06347111
234	0xbe956cf7	-0.29184696
235	0x3b01af20	0.001978822
236	0x3d739b6b	0.05947439
237	0xbe233a12	-0.15940121
238	0xbf213305	-0.62968475
239	0xbdb0485a	-0.0860755
240	0x3dc11c90	0.09429276
241	0x3e897ba8	0.26852155
242	0x3de488ba	0.11158891
243	0x3d750b2e	0.059825115
244	0x3e842ad5	0.25813928
245	0xbf02978a	-0.5101248
246	0xbf321c1f	-0.6957416
247	0xbf316477	-0.6929392
248	0xbc98e834	-0.01866541
249	0xba972c2a	-0.0011533548
250	0x3f7078fc	0.9393461
251	0x3df1a07c	0.11798188
252	0x3ef34bbe	0.47518724
253	0xbe1532fd	-0.14570232
254	0xbf8f7e09	-1.1210338
255	0xbe00e77c	-0.12588304

bias f4 [128]
0	0xbe28f78f	-0.16500686
1	0xbe7e89b3	-0.24857216
2	0xbd648e89	-0.055799995
3	0xbccaeae2	-0.024770204
4	0xbed21cb1	-0.41037515
5	0xbe23cc12	-0.15995815
6	0x3e4f0bf5	0.20219405
7	0xbe4f08d5	-0.20218213
8	0xbe187018	-0.1488651
9	0xbe642d6c	-0.22282952
10	0x3befdd1e	0.0073200604
11	0xbf12d502	-0.57356274
12	0xbe85f024	-0.26159775
13	0xbea86db3	-0.32896194
14	0xbe1987ad	-0.14993162
15	0xbea1e709	-0.31621578
16	0xbe1cd226	-0.1531454
17	0xbe861609	-0.26188686
18	0x3ef136a0	0.47111988
19	0x3ebe71f5	0.37196317
20	0xbf30f5b3	-0.6912491
21	0xbed8058c	-0.42191732
22	0xbedf64c0	-0.43631554
23	0xbe0fddba	-0.14049426
24	0xbe5af164	-0.21381146
25	0xbeb9848e	-0.36233944
26	0xbe4d7963	-0.20065837
27	0x3d450495	0.048100073
28	0xbee32114	-0.44361174
29	0xbdea0067	-0.11425858
30	0xbdf2ef2f	-0.11862027
31	0xbec59bee	-0.38595527
32	0xbd808d8a	-0.062769964
33	0xbda3a6a9	-0.07990772
34	0xbe5c9e3a	-0.21544734
35	0xbe67c21a	-0.22632638
36	0xbed79d78	-0.42112327
37	0xbd2655bc	-0.040609106
38	0xbf01e00a	-0.5073248
39	0xbed3a0d4	-0.4133364
40	0x3ef57061	0.479373
41	0xbeb5231d	-0.35378352
42	0xbe674e95	-0.2258857
43	0xbeba0bd7	-0.36337158
44	0xbe4702e1	-0.19434692
45	0xbe821fec	-0.2541498
46	0xbd8438d8	-0.064561546
47	0xbe399641	-0.18123724
48	0xbee558f0	-0.44794416
49	0xbec1533e	-0.3775882
50	0xbe467551	-0.1938069
51	0x3e91108e	0.28332943
52	0xbec9e3de	-0.3943166
53	0x3e6eba7f	0.2331333
54	0xbe89b088	-0.26892495
55	0xbeccf556	-0.40030926
56	0x3eb646f9	0.35601023
57	0x3e792874	0.24331838
58	0xbda13217	-0.07870882
59	0xbdd3ab0c	-0.10335359
60	0xbe6fd348	-0.23420441
61	0xbe3d2d78	-0.18474376
62	0xbdd70dc6	-0.10500674
63	0x3e8fb878	0.28070426
64	0xbf070a7d	-0.5275038
65	0xbf0136fb	-0.5047452
66	0x3d7d6530	0.061864078
67	0x3ebb84d3	0.36624774
68	0xbe87c22a	-0.26515323
69	0xbeee6c9d	-0.4656724
70	0xbf29c23b	-0.66312
71	0xbd6d783c	-0.057975993
72	0xbe2fbb77	-0.17161356
73	0xbeb9407a	-0.36182004
74	0xbe05876e	-0.13039944
75	0x3d0de5d6	0.034643017
76	0x3e878f67	0.26476595
77	0x3e9f34c8	0.31094956
78	0xbe388040	-0.18017673
79	0xbf086078	-0.532722
80	0xbee753d8	-0.45181155
81	0x3ec74df1	0.38926652
82	0x3e85b348	0.26113343
83	0x3c147ed4	0.009063441
84	0xbf189694	-0.59604764
85	0x3e6ad409	0.22932447
86	0x3de2e7fd	0.110794045
87	0x3e5a103a	0.21295252
88	0xbed7f530	-0.4217925
89	0xbeaf4a0d	-0.34236184
90	0xbf1713b0	-0.59014416
91	0x3ec8f41b	0.39248738
92	0xbe9031ae	-0.28162903
93	0xbe866c30	-0.26254416
94	0x3e9a9ea0	0.30199146
95	0xbeae651d	-0.34061518
96	0xbe726e41	-0.23674871
97	0xbe3361ce	-0.17517778
98	0xbe965f31	-0.293695
99	0xbf017c00	-0.50579834
100	0x3eac53f8	0.33657813
101	0xbe4b4b06	-0.19852838
102	0x3e130fdd	0.1436152
103	0x3e72cb6f	0.23710416
104	0x3cd4d263	0.025979226
105	0xbe330784	-0.17483336
106	0x3e9f394a	0.31098396
107	0x3c985e17	0.018599553
108	0xbed21672	-0.4103275
109	0x3eb440ba	0.35205632
110	0xbc6c66ff	-0.014428853
111	0xbf288da2	-0.65841115
112	0xbec3aab1	-0.38216165
113	0xbf067e6d	-0.5253666
114	0x3ec7bb89	0.39010265
115	0xbe9f5777	-0.31121418
116	0xbee99602	-0.4562226
117	0xbe80b4b5	-0.2513787
118	0x3de563ba	0.11200662
119	0x3ddb661a	0.10712834
120	0xbcc7f977	-0.024410946
121	0x3e424f8a	0.18975654
122	0x3d9124d3	0.07087102
123	0xbe37ab71	-0.17936493
124	0xbe88ec52	-0.26742798
125	0xbf0abd8c	-0.54195476
126	0xbf2211c1	-0.6330834
127	0x3cece364	0.028917022

weight f4 [2, 128]
0	0x3d91847b	0.07105347
1	0xbf0ecae6	-0.5577835
2	0x3d9b3736	0.0757889
3	0xbcb525cf	-0.022112755
4	0xbbed3208	-0.00723863
5	0x3d6ddcb1	0.058071796
6	0xbdf8def2	-0.121518984
7	0x3d5c4cf3	0.053784322
8	0x3eb94a46	0.3618948
9	0xbd900ced	-0.070337154
10	0x3d7a2008	0.061065704
11	0xbdbb6608	-0.0915032
12	0xbead4444	-0.33841145
13	0xbd878339	-0.066168256
14	0xbd4e80b7	-0.05041572
15	0xbcc08102	-0.023499016
16	0xbc9163ba	-0.017747749
17	0x3de0daef	0.10979258
18	0xbde1dcca	-0.1102844
19	0xbb79c972	-0.0038114456
20	0x3b88516b	0.0041600964
21	0xbc830dc7	-0.01599778
22	0x3dd3c303	0.1033993
23	0x3e6e4759	0.23269404
24	0x3f6ea468	0.93219614
25	0x3d90a5df	0.070628874
26	0x3e6d73d8	0.23188722
27	0x3deda253	0.116032265
28	0xbcd8fe54	-0.02648846
29	0x3c94698d	0.018116737
30	0xbe0c4fb9	-0.13702287
31	0x3d6c95cb	0.05776004
32	0xbd122a81	-0.035685066
33	0xbbff34ec	-0.007788291
34	0xbe903293	-0.28163585
35	0xbc38088c	-0.0112325065
36	0xbbe507f4	-0.0069894735
37	0x3d3fe350	0.04684764
38	0x3de26ee5	0.11056308
39	0x3d5bc95f	0.05365884
40	0x3e18eb3e	0.14933488
41	0xbd2135ce	-0.039357953
42	0xbd151ba0	-0.0364033
43	0xbd0e7eaa	-0.034788765
44	0x3ee540bd	0.44775954
45	0xbbfa5a7e	-0.007640182
46	0xbc3ae215	-0.011406441
47	0xbe229956	-0.15878806
48	0x3e203330	0.15644526
49	0x3d9a3665	0.07529906
50	0x3ddb9057	0.1072089
51	0xbd06b36f	-0.032885965
52	0x3d99e4b7	0.07514327
53	0x3d53e678	0.051733464
54	0x3cfee2a9	0.03111394
55	0x3bbc5287	0.0057471427
56	0x3e1ab7d0	0.15109181
57	0xbd8aca53	-0.067768715
58	0x3c58cd86	0.013232594
59	0xba9f6fb9	-0.0012164033
60	0xbd2d7b55	-0.042353947
61	0x3e8e6bab	0.2781652
62	0xbeb48175	-0.35255018
63	0x3d82e9bb	0.06392237
64	0xbc3236ec	-0.010877352
65	0x3c37fbda	0.01122948
66	0x3c13b968	0.009016372
67	0x3de12d56	0.10994975
68	0x3dba5bf5	0.09099571
69	0x3dc3fe21	0.095699556
70	0xbbaf416b	-0.0053483746
71	0x3beac20e	0.0071642464
72	0xbf4c6ee6	-0.7985672
73	0xbd6f8ba9	-0.0584828
74	0x3dc6da42	0.09709598
75	0x3c000252	0.007813053
76	0xbd64224a	-0.055696763
77	0x3dc99fe0	0.09844947
78	0xbe8894b1	-0.26675943
79	0x3d148b81	0.036265854
80	0x3d92cf4f	0.07168447
81	0xbda1f45b	-0.07907935
82	0x3d46889a	0.048470117
83	0xb96ec6d2	-0.00022771515
84	0xbe407743	-0.18795495
85	0xbd4a1b59	-0.049342487
86	0x3dadabe7	0.084800534
87	0xbd94f49d	-0.07273219
88	0x3d5b1b7e	0.053493015
89	0xbd531cbc	-0.051541075
90	0x3d5329fe	0.05155372
91	0x3d4b385a	0.049614288
92	0xbd4b4a33	-0.04963131
93	0x3ea411d3	0.3204485
94	0xbe0a8412	-0.13526943
95	0xbd6ebe8e	-0.058287196
96	0xbd813378	-0.06308645
97	0xbd6e90d9	-0.058243606
98	0x3ad1b846	0.0016000352
99	0xbd1d8e6a	-0.038465895
100	0xbdadd651	-0.08488143
101	0xbe1d5857	-0.1536573
102	0x3e11094e	0.14163706
103	0x3ca9442b	0.020662388
104	0x3ca784ad	0.020449007
105	0x3d1ecf73	0.038772058
106	0x3d407875	0.046989877
107	0x3cb9e617	0.022692723
108	0x3d7359bf	0.05941176
109	0xbdd2f948	-0.10301453
110	0xbdd136fe	-0.10215567
111	0xbd07250a	-0.032994308
112	0x3c5a9ab6	0.01334255
113	0xbc696a79	-0.0142465765
114	0x3da61d6c	0.081110805
115	0x3d426939	0.04746363
116	0xbd99a304	-0.07501796
117	0xbe999a43	-0.30000505
118	0xbd6abc7c	-0.05730866
119	0xbd84986f	-0.06474387
120	0x3d050b05	0.032481212
121	0xbd120735	-0.035651404
122	0xbdc1bb30	-0.09459531
123	0x3e7cd184	0.24689299
124	0xbeb91b77	-0.36153767
125	0x3c2d0e10	0.010562435
126	0xbc231708	-0.009954222
127	0x3dc0ad0d	0.09408007
128	0xbe43cb14	-0.19120437
129	0x3f0b6cda	0.5446297
130	0xbc98426a	-0.018586356
131	0xbd48f7fd	-0.049064625
132	0xbad37c0e	-0.0016134994
133	0x3d946994	0.072467
134	0x3dffe0b7	0.12494033
135	0xbd195740	-0.037436724
136	0xbeb03785	-0.34417358
137	0xbb596c22	-0.0033176024
138	0x3d9a1fff	0.07525634
139	0xbcf12448	-0.029436246
140	0x3eaaf64c	0.33391035
141	0x3d743fca	0.059631146
142	0xbc6ec309	-0.014572867
143	0xbc38735f	-0.011257975
144	0xbc8a872f	-0.016910164
145	0xbd861d53	-0.06548562
146	0x3d2d0851	0.04224426
147	0xbd4f984c	-0.05068235
148	0xbcb1fb53	-0.021726286
149	0x3c4c2d29	0.012461939
150	0xbd1d9f71	-0.038482133
151	0xbe8b98c8	-0.27265
152	0xbf56c4c7	-0.8389401
153	0x3d136df0	0.035993516
154	0xbe8d82dc	-0.276389
155	0xbdab94cc	-0.0837799
156	0xbd6aa167	-0.05728283
157	0xbc070071	-0.008239851
158	0x3d18ba6e	0.03728717
159	0xbdb065c5	-0.08613161
160	0x3d73a208	0.059480697
161	0xbab08940	-0.0013468638
162	0x3ec60791	0.38677648
163	0x3c8be75c	0.017078094
164	0xbbc23f57	-0.005927961
165	0x3cee65e6	0.029101323
166	0x3d1b116a	0.037858404
167	0xbe03dd93	-0.12877493
168	0xbd65cf51	-0.056105915
169	0xbc144cee	-0.009051545
170	0xbc6f3d42	-0.014602007
171	0xba02187b	-0.00049627543
172	0xbec4cd58	-0.38437915
173	0x3bd87fba	0.006607023
174	0x3c4448b7	0.011980227
175	0x3dfd8e80	0.12380695
176	0xbe17052e	-0.1474807
177	0x3cc93196	0.024559777
178	0xbd9ec30b	-0.07752045
179	0x3c97441b	0.018465092
180	0x3d8ddfdb	0.06927463
181	0x3ba2bc92	0.004966327
182	0x3cc96930	0.02458629
183	0xbde8a0f2	-0.11358823
184	0xbdd0ce5f	-0.10195612
185	0xbc50d763	-0.012746665
186	0x3bd62dfb	0.006536243
187	0xbc9e5910	-0.019329578
188	0x3cb1c72a	0.021701414
189	0xbe79ea4e	-0.24405786
190	0x3ea8b703	0.32952127
191	0xbd7ca5b2	-0.061681457
192	0xbd14a7f3	-0.03629298
193	0xbd5bd179	-0.053666566
194	0xbd92c6c3	-0.07166817
195	0x3a92c0d5	0.0011196384
196	0xbdf9907f	-0.121857636
197	0xbd988523	-0.07447269
198	0xbd127d91	-0.03576428
199	0xbcd53687	-0.026026977
200	0x3f34a353	0.70561713
201	0x3d0ff3c8	0.035144597
202	0xbbbcfe9c	-0.0057676565
203	0x3b675d1d	0.0035303303
204	0x3dc9fa05	0.098621406
205	0xbdc4f6bc	-0.09617373
206	0x3ebaec00	0.3650818
207	0x3dd5cd90	0.104395986
208	0x3b854890	0.004067488
209	0x3cfd0eaf	0.03089079
210	0xbd7361ce	-0.059419446
211	0x3c157533	0.009122181
212	0x3dcd14a0	0.100136995
213	0x3cbf1218	0.023324057
214	0x3d163d9b	0.036679845
215	0xbd999a83	-0.07500174
216	0x3ab9bd80	0.0014170855
217	0xbd0f1759	-0.034934375
218	0xbc2ae35a	-0.010430181
219	0xbd7cea8e	-0.061747126
220	0x3daa760a	0.083232954
221	0xbe6659e4	-0.22495228
222	0x3dbb1eeb	0.091367565
223	0x3e02b372	0.12763765
224	0x3e0dfe75	0.13866599
225	0xbd34f19b	-0.044175725
226	0x3c8ce382	0.017198328
227	0xbd8132d4	-0.06308523
228	0x3b26ae6b	0.002543355
229	0x3e3687ad	0.17825194
230	0xbd74c12b	-0.05975453
231	0xbd7f76a2	-0.062368996
232	0xbd89ab94	-0.06722179
233	0x3d2ad5e8	0.041707903
234	0x3c13b973	0.0090163825
235	0xbd646599	-0.055760954
236	0xbab4021b	-0.0013733538
237	0x3e24fb0e	0.16111395
238	0xbcaef7d1	-0.021358402
239	0x3ce1704b	0.027519366
240	0x3c9166ac	0.017749153
241	0x3beda5cc	0.0072524305
242	0xbe0c7920	-0.1371808
243	0x3d639ce7	0.055569556
244	0x3db4d09a	0.0882885
245	0x3ed41248	0.41420197
246	0x3d8ea4fc	0.06965062
247	0xbd88f6f7	-0.0668773
248	0xbc1d150c	-0.0095875375
249	0x3e2efed1	0.17089392
250	0xbd0cfefa	-0.034422852
251	0xbdb4f7e3	-0.08836343
252	0x3ed547fd	0.41656485
253	0xbc28cf5b	-0.010303344
254	0xbd404e6d	-0.046949793
255	0x3cbf4d56	0.023352306

bias f4 [2]
0	0xbdc5e4ba	-0.09662767
1	0x3c4f6c5f	0.012660115

weight f4 [128, 4]
0	0x3d003351	0.03129894
1	0x3e402228	0.1876303
2	0x3e7c615f	0.24646519
3	0x3eabc44c	0.335482
4	0x3ea5e0b0	0.32397985
5	0x3e926378	0.28591514
6	0x3ecdd777	0.4020345
7	0x3d7a2413	0.06106956
8	0xbe583e01	-0.21117403
9	0xbd8b2ed5	-0.06796042
10	0x3d33a530	0.043858707
11	0xbe4b1554	-0.19832355
12	0x3e0206bc	0.12697881
13	0x3e13bf92	0.14428547
14	0x3df9c266	0.12195282
15	0x3e1e4a4e	0.15458032
16	0x3e68ef2f	0.22747491
17	0x3d133d8f	0.03594738
18	0xbe84e302	-0.25954443
19	0xbe41d29f	-0.18928002
20	0x3de1505d	0.11001656
21	0xbad0f28d	-0.0015941426
22	0x3eb6b5ca	0.3568557
23	0xbec734fd	-0.38907614
24	0xbef78be5	-0.4834892
25	0x3e834e86	0.25645846
26	0x3f2004ef	0.6250753
27	0xbe3146eb	-0.1731221
28	0x3de86343	0.11347058
29	0xbde37b12	-0.11107458
30	0x3ffce871	1.9758435
31	0x3e19df8a	0.1502668
32	0x3e8d9451	0.2765222
33	0xbe7ae38f	-0.24500869
34	0xbba02f71	-0.004888468
35	0x3e460aea	0.19340101
36	0x3e4607f7	0.19338976
37	0xbe5c117e	-0.21491048
38	0x3daf5b8c	0.08562383
39	0xbe41cadd	-0.18925042
40	0x3ebcf3c7	0.36904737
41	0xbeecaa47	-0.4622366
42	0x3d2e44b7	0.042546
43	0xbeade55e	-0.33964056
44	0xbe53d9e5	-0.20688589
45	0x3e3e0d48	0.18559754
46	0xbf91078f	-1.1330432
47	0xbdc3a48e	-0.09552871
48	0xbf3e308b	-0.7429282
49	0xbeef6453	-0.4675623
50	0x3f4eb49b	0.8074433
51	0xbde78bab	-0.113059364
52	0xbe1dcc1e	-0.15409896
53	0xbe9ee3d2	-0.31033188
54	0xbfb9723c	-1.4487987
55	0xbe8dc148	-0.27686524
56	0x3e87697c	0.26447666
57	0x3e3c50ca	0.18390194
58	0xbe6d1770	-0.23153472
59	0xbdbd2934	-0.092363745
60	0x3dd98a5b	0.10622092
61	0x3d7c1579	0.061543915
62	0xbe96dcb5	-0.2946526
63	0x3e0004a1	0.12501766
64	0x3ea02520	0.31278324
65	0xbeb6b73c	-0.35686672
66	0xbefe920d	-0.49720803
67	0xbd54302a	-0.051803745
68	0x3ea2f551	0.31827787
69	0xbe2a8de7	-0.16655694
70	0xbc714fb5	-0.014728476
71	0x3e5b9ea0	0.2144723
72	0xbc2c9f30	-0.010536
73	0x3b894e95	0.004190276
74	0x40093043	2.1435707
75	0x3e3d2089	0.18469442
76	0xbde4855d	-0.111582495
77	0x3e17070d	0.14748783
78	0x3ff29f05	1.8954779
79	0x3ec398be	0.3820247
80	0xbe410db3	-0.18852882
81	0x3e66276a	0.22475973
82	0xbf983d42	-1.1893694
83	0xbec87831	-0.391542
84	0x3e11d742	0.1424227
85	0xbe27f37f	-0.1640148
86	0xbf7788f0	-0.96693325
87	0xbea686b0	-0.32524633
88	0xbea48cdc	-0.32138717
89	0x3e024ac4	0.12723833
90	0xbe0c9b44	-0.13731104
91	0x3e5d1f18	0.21593893
92	0xbcf049ba	-0.02933203
93	0x3daada63	0.08342435
94	0x3ddc13fa	0.10745998
95	0x3d89bf0f	0.06725895
96	0x3f15fc0f	0.58587736
97	0xbc935df1	-0.01798913
98	0xbf41edd2	-0.7575351
99	0xbda69cac	-0.081353515
100	0x3d94e4eb	0.07270225
101	0xbd91eeba	-0.071256116
102	0xbfd5db7d	-1.6707608
103	0xbe8c1d37	-0.2736604
104	0xbb925b5d	-0.0044664578
105	0xbe8eee19	-0.2791603
106	0xbd5262f9	-0.05136392
107	0x3e9306db	0.28716168
108	0xbea0687a	-0.3132971
109	0xbe9ef79b	-0.31048283
110	0xbf00f873	-0.50379103
111	0xbe7edb22	-0.2488828
112	0x3db9dd41	0.09075404
113	0xbde2b448	-0.11069542
114	0xbfc016a5	-1.500691
115	0xbea84476	-0.32864732
116	0xbdccc6fa	-0.09998889
117	0x3e887244	0.26649678
118	0x3ef02443	0.46902665
119	0x3c4f9284	0.012669209
120	0xbe666fbf	-0.22503565
121	0x3e54b117	0.2077068
122	0xbea3f33e	-0.32021517
123	0xbec01859	-0.37518576
124	0xbe854303	-0.26027688
125	0x3e60add9	0.21941318
126	0x3e900b6b	0.2813371
127	0xbe11a046	-0.14221296
128	0xbdd2e294	-0.102971226
129	0x3df32ee0	0.11874175
130	0x3fa1608f	1.2607592
131	0x3ebca1cb	0.36842188
132	0x3ed07169	0.40711525
133	0xbdbf1232	-0.09329642
134	0xbf970acc	-1.180017
135	0xbe8b8393	-0.2724882
136	0xbdd1e7a0	-0.10249257
137	0x3d81b9e9	0.06334288
138	0xbe75c312	-0.24000195
139	0xbc7ee7cc	-0.015558194
140	0xbec129e8	-0.37727284
141	0x3ee3973a	0.44451314
142	0xbeaf6a33	-0.3426071
143	0x3ebee57e	0.37284464
144	0xbe7a34d5	-0.24434216
145	0xbeb552f6	-0.35414857
146	0x3f453f1a	0.7704941
147	0x3e292d23	0.16521125
148	0x3eb7cf42	0.35900313
149	0x3e88ead8	0.26741672
150	0xbefa3fe2	-0.48876864
151	0x3e621277	0.22077356
152	0xbd330d39	-0.043713782
153	0xbdea1318	-0.11429423
154	0x3d491d61	0.049100284
155	0x3e98dcac	0.2985586
156	0xbef8b9c2	-0.48579222
157	0x3df1c872	0.1180581
158	0x3fbcce34	1.4750428
159	0x3eaae684	0.33378994
160	0x3e96d507	0.29459402
161	0xbd069ea9	-0.032866154
162	0xbea9c52d	-0.33158246
163	0x3e8d7c4b	0.2763389
164	0xbd18e6cd	-0.037329484
165	0x3e8e0aac	0.27742517
166	0x3a9a6890	0.001178043
167	0xbddaba75	-0.10680095
168	0x3d42560d	0.047445346
169	0xbe873e75	-0.26414838
170	0x3d0a524b	0.033769887
171	0x3e6f2289	0.23353018
172	0x3e665bba	0.22495928
173	0xbe5b237f	-0.2140026
174	0x3d17ecce	0.03709107
175	0xbe67e4ad	-0.22645827
176	0x3eb9b10c	0.3626789
177	0xbebd28a3	-0.36945066
178	0xbef97571	-0.48722413
179	0xbe63e4ae	-0.22255203
180	0x3e0bc12b	0.13647906
181	0xbe2c7ba1	-0.16844036
182	0xbf9c8fe7	-1.2231416
183	0xbedc6596	-0.43046254
184	0x3d9097b4	0.07060185
185	0x3beb904a	0.0071888315
186	0x3d55f7c0	0.052238226
187	0x3e9b24cf	0.3030152
188	0x3e118dee	0.14214298
189	0xbe530508	-0.20607388
190	0x3d115206	0.035478614
191	0xbe60046e	-0.2187669
192	0xbd8ffefa	-0.07031055
193	0x3e10e725	0.14150675
194	0x3f9bcd53	1.2172035
195	0x3ec2f4f1	0.380775
196	0xbdfa40c9	-0.12219388
197	0xbe0313f9	-0.12800588
198	0x3e542735	0.20718081
199	0xbe877cf1	-0.2646251
200	0x3cdb3bf5	0.026761988
201	0xbc98c068	-0.018646434
202	0xbc595232	-0.013264226
203	0xbd8baeb0	-0.06820428
204	0x3eb7430a	0.35793334
205	0x3eedb166	0.46424407
206	0xbd80b6f3	-0.06284895
207	0x3e9b8e81	0.3038216
208	0xbe9428cc	-0.28937376
209	0xbecb5359	-0.39712027
210	0xbd390961	-0.04517496
211	0xbd5a9955	-0.053368885
212	0xbe85e350	-0.26149988
213	0xbea413be	-0.32046312
214	0xbbaefb8e	-0.0053400462
215	0x3cd6ca75	0.026219586
216	0xbe974e31	-0.29551843
217	0xbf074db0	-0.52852917
218	0xbf085884	-0.53260064
219	0xbef42b5d	-0.47689334
220	0xbe1bf90c	-0.15231723
221	0xbe89012b	-0.26758704
222	0xbf729fe4	-0.94775224
223	0xbe6a3d7c	-0.22875017
224	0xbe8641a7	-0.26221964
225	0x3dd5ea08	0.104450285
226	0xbeca50a0	-0.39514637
227	0xbcdadadb	-0.026715687
228	0xbde7d5c1	-0.11320067
229	0xbe483d87	-0.19554721
230	0x3ea737a5	0.3265964
231	0xbe9d815c	-0.30762756
232	0xbebc4432	-0.3677078
233	0x3ebd327a	0.36952573
234	0x3d5ac9d3	0.05341513
235	0x3ecdf125	0.4022304
236	0xbe391d6b	-0.18077628
237	0xbde0f368	-0.10983926
238	0x3e2a8278	0.16651332
239	0xbbb5e935	-0.005551482
240	0x3eb233c2	0.34805113
241	0xbed6d038	-0.41955733
242	0xbdb177f6	-0.08665459
243	0x3e3cfea0	0.18456507
244	0xbeda4067	-0.4262726
245	0xbebf9e80	-0.37425613
246	0x3eebaa48	0.46028352
247	0xbe704f48	-0.23467743
248	0x3d6a1970	0.057153165
249	0xbebf4c66	-0.37362975
250	0x3e9e6afa	0.30940992
251	0xbec3cc06	-0.38241595
252	0x3e76c8e2	0.24100068
253	0xbec4792d	-0.383737
254	0xbebb8b35	-0.36629644
255	0xbcdc77a7	-0.026912523

bias f4 [128]
0	0x3f191f0e	0.5981301
1	0x3e3234cd	0.17402954
2	0x3f47a576	0.7798685
3	0x3f352198	0.70754385
4	0x3f5ebd15	0.87007266
5	0x3ec070fa	0.37586194
6	0x3f3dde20	0.7416706
7	0xbed426c5	-0.4143583
8	0xbf17cdab	-0.592982
9	0xbeac24db	-0.33621868
10	0x3d8e2d91	0.06942285
11	0xbeb9ff6d	-0.36327687
12	0xbea5b001	-0.32360843
13	0xbe12d422	-0.14338735
14	0xbf1d0d69	-0.6134859
15	0x3ef0e9d4	0.47053397
16	0x3f4bc31b	0.7959458
17	0x3f28d9ce	0.65957344
18	0xbedbabe7	-0.4290459
19	0xbf0b84f2	-0.54499733
20	0xbf1ce4e3	-0.61286753
21	0xbeb19d0e	-0.34690136
22	0x3f4798e3	0.7796766
23	0xbe403d27	-0.18773328
24	0xbe0c4c0d	-0.13700886
25	0xbed3aa7c	-0.41341007
26	0x3e9536ad	0.29143277
27	0xbf2c03f7	-0.6719355
28	0xbee43d11	-0.4457784
29	0x3f3107af	0.6915235
30	0xbe8138a0	-0.25238514
31	0x3c217c2a	0.009856263
32	0xbee7ae06	-0.45249957
33	0xbee0bf45	-0.43895927
34	0x3ea5240f	0.32254073
35	0x3ef9ee83	0.48814783
36	0xbe26677f	-0.16250418
37	0x3ecab8c6	0.39594096
38	0x3ec36344	0.3816167
39	0xbf02ed46	-0.511433
40	0x3f578e8e	0.84201896
41	0x3f5c0b2b	0.8595454
42	0x3f4b9dfb	0.79537934
43	0xbe30309e	-0.17206046
44	0x3f05b594	0.5223019
45	0xbefb2984	-0.4905511
46	0x3e38ea20	0.18058062
47	0xbe30f5ab	-0.17281215
48	0xbefab3c2	-0.4896527
49	0x3f305c68	0.68891
50	0xbe84e68a	-0.25957137
51	0x3e078233	0.13233261
52	0x3dca6170	0.09881866
53	0xbf38da48	-0.7220807
54	0xbe1fa2ea	-0.1558949
55	0xbf1db97e	-0.61611164
56	0x3f317e3d	0.6933325
57	0x3f4440e3	0.7666151
58	0x3f322316	0.69584787
59	0xbee145ac	-0.43998468
60	0x3ebdfb46	0.3710577
61	0x3ebfe4ce	0.37479252
62	0x3f4f9c77	0.8109812
63	0x3f57a7c2	0.84240353
64	0xbefea3c9	-0.49734333
65	0xbec22f9d	-0.3792695
66	0xbee368fb	-0.4441603
67	0xbeb5e4ee	-0.35526222
68	0x3f62c8c5	0.885876
69	0x3f1b00a8	0.60547876
70	0x3f4b294f	0.79359907
71	0x3f48e88c	0.7847984
72	0x3e881e03	0.26585397
73	0xbefc8ece	-0.493277
74	0x3f5a2ffb	0.8522946
75	0x3f58c2cb	0.8467223
76	0x3ee6b92d	0.45063153
77	0xbebde052	-0.37085205
78	0x3f539260	0.82645226
79	0x3eba870a	0.36431152
80	0x3f138ce5	0.57636863
81	0x3f24bb5d	0.64348394
82	0x3f4427f7	0.7662348
83	0xbee478ff	-0.44623563
84	0xbea6a00e	-0.32543987
85	0x3f3e9752	0.74449646
86	0x3e382abe	0.17985055
87	0xbf1e5427	-0.61847156
88	0x3f653ecc	0.89548945
89	0x3e7768e6	0.2416111
90	0x3f55cd42	0.83516324
91	0xbf1c3f78	-0.61034346
92	0x3f2015fe	0.6253356
93	0xbd70e71b	-0.05881415
94	0xbe77e20f	-0.24207328
95	0x3e148043	0.14502053
96	0xbe855324	-0.26039994
97	0x3edeaf3b	0.43493065
98	0x3d93d4ae	0.072183
99	0x3f3f3723	0.74693507
100	0x3f1312ed	0.57450753
101	0x3ec0a08a	0.37622482
102	0xbea02512	-0.31278282
103	0xbf029184	-0.5100329
104	0xbe739c65	-0.23790129
105	0xbf3448ce	-0.7042359
106	0x3da0ecd8	0.07857674
107	0x3efc9454	0.49331915
108	0xbe661017	-0.22467075
109	0xbefad375	-0.48989454
110	0x3f359aac	0.70939136
111	0x3f101401	0.56280524
112	0xbddd321b	-0.108005725
113	0xbeba8138	-0.3642671
114	0x3f118660	0.56845665
115	0x3f3ec4cf	0.74519056
116	0xbe9aef73	-0.3026081
117	0x3e2b0001	0.1669922
118	0x3eda6ab5	0.42659536
119	0xbeb11e66	-0.34593505
120	0x3f544776	0.8292154
121	0x3e4f086a	0.20218053
122	0x3f1e7f8b	0.61913365
123	0xbe135d5d	-0.14391084
124	0x3ed6f035	0.41980138
125	0xbeb5de25	-0.35521045
126	0xbecd2c8a	-0.40073043
127	0x3f1075ca	0.5642973

weight f4 [1, 128]
0	0x3e76afc5	0.24090488
1	0x3d74fdae	0.05981224
2	0x3eb914e6	0.36148757
3	0x3e674d2e	0.22588035
4	0x3e95a424	0.29226792
5	0x3e0c1bf3	0.13682537
6	0x3e38d317	0.18049274
7	0xbf3f5a83	-0.74747485
8	0xbdb1cc29	-0.086815186
9	0xbc9f5369	-0.019448953
10	0x3d821ce1	0.063531645
11	0xbeaaac22	-0.33334452
12	0xbe2454f7	-0.16048037
13	0xbe52d3c3	-0.20588593
14	0xbe792262	-0.24329522
15	0x3ec25532	0.37955624
16	0x3e8dce48	0.27696443
17	0x3e57a209	0.21057905
18	0xbff04d42	-1.8773577
19	0xbf846f38	-1.0346441
20	0xbe4d313b	-0.20038311
21	0xbe591f45	-0.21203335
22	0x3ea93826	0.3305065
23	0x3b414917	0.0029493028
24	0xbe5ab3e1	-0.21357681
25	0xbfb26542	-1.3937151
26	0x3dc20d0a	0.09475143
27	0xbe77d643	-0.24202828
28	0xbf5d4a8b	-0.8644187
29	0x3e49c619	0.19704475
30	0xbdd4e0f6	-0.103944704
31	0x3c64bfdd	0.013961759
32	0xbf413d02	-0.75483716
33	0xbe83d316	-0.25746983
34	0x3e1eafed	0.15496798
35	0x3e8c0ba8	0.27352643
36	0xbe01d947	-0.12680541
37	0x3e854fd7	0.26037475
38	0x3df38192	0.11889948
39	0xbe9ef3be	-0.31045336
40	0x3e91628a	0.28395492
41	0x3e8a4627	0.27006647
42	0x3e6532c7	0.22382651
43	0x3d427813	0.047477793
44	0x3e161586	0.14656648
45	0xbf03eaf0	-0.5153036
46	0x3d39704a	0.045273103
47	0x3c0e3313	0.008679169
48	0xbf51bd2f	-0.81929296
49	0x3e8cbb22	0.2748652
50	0x3cd5128d	0.026009822
51	0x3e5aef6b	0.21380393
52	0x3d85a6c8	0.065259516
53	0xbdf14e8c	-0.1178256
54	0xbdbfe7dc	-0.093703955
55	0xbe8f9923	-0.28046522
56	0x3ec3b1e5	0.3822166
57	0x3e8dd0bf	0.27698323
58	0x3e5ee71e	0.21767852
59	0xbe011e0c	-0.12609118
60	0x3dd63541	0.10459376
61	0x3e29d11d	0.16583677
62	0x3e6cc070	0.23120284
63	0x3eb90300	0.361351
64	0xbd62fc53	-0.055416416
65	0xc001a46d	-2.0256608
66	0xbd624cb1	-0.05524892
67	0xbfc01ea0	-1.5009346
68	0x3e8953d5	0.2682177
69	0x3ea9958f	0.33121917
70	0x3e69f268	0.22846377
71	0x3e97135f	0.29506966
72	0x3d4f8f6a	0.05067388
73	0xbf9e6aeb	-1.2376379
74	0x3e8693bc	0.26284587
75	0x3e9df8ef	0.30853984
76	0x3dfb9d83	0.12285902
77	0xbd2315a8	-0.039815575
78	0x3ea707ea	0.32623225
79	0x3dfa214f	0.12213384
80	0x3e57ca04	0.21073157
81	0x3ea5e68e	0.32402462
82	0x3e84c1f6	0.2592923
83	0xbe18a8ec	-0.14908189
84	0xbe48177f	-0.19540213
85	0x3eadcc13	0.3394476
86	0x3d599d07	0.05312827
87	0xbeaa0b13	-0.33211574
88	0x3e8bebd7	0.2732837
89	0x3d9e26ec	0.077222675
90	0x3ea73aea	0.32662135
91	0xbe9f5f89	-0.31127575
92	0x3e966e2a	0.29380924
93	0xbde77edc	-0.113034934
94	0xbf9b2a9c	-1.2122378
95	0x3d1164a7	0.03549638
96	0xbfa12bfc	-1.2591548
97	0x3d79c0d2	0.060974903
98	0x3da6c298	0.081425846
99	0x3e9e0183	0.30860528
100	0x3ea0ad13	0.31382045
101	0x3e8f8aaf	0.28035495
102	0xbe1a78b1	-0.15085103
103	0xbf6f454f	-0.9346513
104	0xbdcabda8	-0.09899455
105	0xbf0b871c	-0.54503036
106	0x3d83695d	0.06416581
107	0x3e8570e6	0.26062697
108	0xbf655564	-0.8958342
109	0xbe5e5081	-0.21710397
110	0x3e8e09aa	0.27741748
111	0x3e411b30	0.18858027
112	0x3c52825a	0.012848461
113	0xbdf48f29	-0.11941368
114	0x3e2b0611	0.16701533
115	0x3e63e582	0.22255519
116	0x3d360041	0.044433836
117	0x3d943aaf	0.072377555
118	0x3e088c5b	0.13334791
119	0xbff67fd8	-1.9257765
120	0x3ea66b1e	0.325036
121	0x3d512b3b	0.05106662
122	0x3e35da98	0.17759168
123	0xbe3e970b	-0.18612306
124	0x3e9d42e5	0.307151
125	0xbf72a5b5	-0.947841
126	0xbe66c458	-0.22535837
127	0x3ea72945	0.32648674
