src/cartpole/results/CartPole-v0/train-a2c/20210407-190232/num_env6-num_episodes50000-learning_rate0.003-hidden_layers64-64-value_coefficient0.1.pt (torch, 7807 bytes, 7 tensors)

weight f4 [64, 4]
000000 29 ba 74 39 d0 fb 54 3d e5 ce f5 be d4 9c 50 be
       0.00023339003 0.05199796 -0.4800941 -0.20372325
000010 46 7d a0 bc c0 6b a1 3e aa 3c 5b 3f 54 e3 6c 3e
       -0.019590985 0.3152752 0.8563944 0.23133594
000020 4f 58 dc bd be a1 cd 3c 89 d4 de bd 95 9c c9 bc
       -0.10759031 0.025101539 -0.108803816 -0.024610797
000030 6e f0 8c bd 2b 99 14 be 10 d5 eb bd 1a 41 23 3c
       -0.06881796 -0.14511554 -0.11515248 0.009964252
000040 eb e9 29 3c 8c a9 22 3e bf 00 a8 bf e5 c8 6e be
       0.010370712 0.1588499 -1.3125228 -0.23318823
000050 13 b0 6f be ee 3f 7c 3e a7 be dd 3f ac 75 07 3f
       -0.2340701 0.24633762 1.7323807 0.5291393
000060 f2 c8 40 3d 2f 41 f3 bd 85 14 f2 bc 6f cd c2 bd
       0.047066636 -0.11877667 -0.0295508 -0.095118396
000070 c1 b2 67 bd e0 93 38 3e 60 bb 97 be 8e 0c 66 3e
       -0.056566957 0.1802516 -0.29635143 0.22465727
000080 13 c5 bf be d6 03 a8 bd 54 ac 96 bf 6d c6 02 bf
       -0.37455043 -0.08203857 -1.177134 -0.51084024
000090 01 25 be be 78 36 4f 3e aa 5c b3 3f dc 46 b7 3e
       -0.37137607 0.20235622 1.4012654 0.3579625
0000a0 23 cf 83 3e 34 8e 1d be ef b6 9f bf cb 72 12 bf
       0.2574397 -0.15386277 -1.2477702 -0.5720641
0000b0 ad 12 23 be 9f b4 53 bd 68 bf b0 3f 96 da 96 3e
       -0.15925093 -0.051685926 1.3808413 0.29463643
0000c0 37 62 77 3c c3 6b 2d 3e ea b1 43 3f c3 90 1c 3e
       0.0150991 0.16935639 0.7644335 0.15289597
0000d0 d8 08 a7 3d 62 56 21 be 38 69 06 be 4d 6c be bd
       0.08155984 -0.15755609 -0.13126075 -0.092980005
0000e0 7e 4e 37 3e 85 4c 92 be 06 77 9e be 08 e5 62 be
       0.17901036 -0.28574005 -0.30950183 -0.22157681
0000f0 dd 03 83 bd a1 31 3f 3e 80 5c 0a bf 15 b7 dd bd
       -0.06397221 0.18671276 -0.54047394 -0.10825936
000100 9c 86 7b 3e 8c bb 43 be 06 bc 01 bd ef ae 85 bc
       0.24563068 -0.19114512 -0.031673454 -0.016318766
000110 c1 3a 5c bd ca 43 9c 3e 69 ae de bf 59 0c 55 3d
       -0.05376697 0.3052047 -1.7396976 0.05201373
000120 90 6f 6e be 00 bb 54 3e 0b 09 05 40 7e ae 49 3f
       -0.23284745 0.2077446 2.078677 0.7878188
000130 53 69 13 3e 00 31 b5 be 8b bb 3b 3e 75 ee 22 be
       0.14395647 -0.35388947 0.1833326 -0.15911277
000140 67 aa 0a be 6c 88 a4 3e 96 0a 25 3e 9c 25 ad 3d
       -0.13541566 0.32135332 0.1611732 0.08454439
000150 32 09 a8 3d da ed c4 bd 64 bc 40 bd 82 f8 4b be
       0.08204879 -0.09615679 -0.047054663 -0.19919017
000160 ba ae 00 bc 50 a7 8d bd 02 90 1d 40 dc 4b a1 3e
       -0.007854158 -0.06916678 2.4619145 0.3150319
000170 a5 85 00 3e 99 b2 c9 bd 90 38 e8 bf 82 9c a6 be
       0.12550981 -0.09848518 -1.8142262 -0.3254128
000180 f7 96 b4 3d f9 2d ea bd 28 02 00 c0 65 25 f6 be
       0.08817857 -0.1143455 -2.0001316 -0.48075405
000190 5e de a5 3e 5d d2 0b 3d 8e 8b 86 3d 70 4d 95 3e
       0.32396215 0.034136165 0.06569587 0.29160643
0001a0 ac e9 0d bf 27 00 83 3b 90 a7 ce bf ec 50 04 bf
       -0.5543468 0.003997821 -1.6144886 -0.51685977
0001b0 9d f4 9a bd d0 25 80 3d 91 1d 4e 3f e3 91 98 3e
       -0.075661875 0.06257212 0.80513865 0.29798803
0001c0 83 d5 4e be cd 19 58 3e 06 99 af 3e 9a 2e 77 3d
       -0.20198636 0.21103592 0.34296435 0.060347177
0001d0 e3 89 bc 3d f7 67 85 3e 9e ec eb 3e ce a5 09 3d
       0.09205987 0.2605588 0.46078962 0.03360539
0001e0 11 f7 a3 bc 09 ec 91 3d 57 f9 b8 be 62 1f b7 3d
       -0.020015271 0.07125098 -0.3612773 0.08941533
0001f0 5f a5 14 be 69 dc 06 be b6 a9 a3 bf 31 5f cc be
       -0.14516209 -0.13170017 -1.2786167 -0.39916375
000200 19 59 52 3d 35 50 11 be e6 88 54 3e 46 d3 0d 3c
       0.0513545 -0.14190753 0.20755348 0.008656329
000210 10 77 15 bd 95 60 e0 3c 3d 31 9d 3e 7f 93 84 bc
       -0.0364905 0.027389804 0.30701628 -0.016183613
000220 4b ec 77 bc 85 ea 2f 3c 9e 81 0b 3d a1 c3 57 3e
       -0.01513202 0.010737066 0.03405916 0.2107072
000230 e7 dd bf 3d 7c 4f 13 bd 1e a8 fb 3f 8b 34 a9 3e
       0.093684964 -0.035964474 1.966068 0.330479
000240 10 cc b6 3c 5e 14 06 3e 7d a1 69 3f 1f 0d 4a 3d
       0.022314101 0.13093707 0.91262037 0.04932892
000250 f2 62 5a be 35 04 97 be 19 38 c9 bf d9 ff 01 bf
       -0.21326807 -0.29495397 -1.5720245 -0.5078102
000260 ee 13 e1 bc 9b c2 a4 3c be ff fd 3d ad f7 40 be
       -0.027475324 0.020112326 0.124022946 -0.18844481
000270 f9 28 52 3e 7e c4 c1 be 7d 8e 2f be 65 e5 86 be
       0.20523442 -0.37845224 -0.17144199 -0.2634689
000280 36 b6 03 3e 3f 16 f3 3c 73 90 81 be 9f 85 04 be
       0.12862477 0.029673694 -0.25305519 -0.12941597
000290 e8 fc 86 bd 0b 0f da 3c 6b 92 76 be 46 42 2d 3e
       -0.06591207 0.026618501 -0.24079292 0.16919813
0002a0 86 d3 9d bd bc 64 6d 3d e9 94 24 3e 54 14 0c bd
       -0.077063605 0.057957396 0.1607243 -0.034199074
0002b0 30 e1 38 3d 3e 77 87 3d 35 b2 ab be cc 65 66 3e
       0.04513663 0.066145405 -0.335344 0.2249977
0002c0 2e 83 dd bc 1b a5 44 be 89 b7 e2 be e3 ba b7 be
       -0.02704009 -0.19203608 -0.4428065 -0.3588477
0002d0 40 66 55 3d 95 9d f2 bb 3c 1d ef 3f 7e 7d c7 3e
       0.052099466 -0.007404039 1.8680797 0.3896293
0002e0 ad bc 2c 3e 31 71 26 3c ec ce 0a 3e 13 92 2d 3e
       0.16868849 0.010158823 0.13555497 0.16950254
0002f0 95 dd bd bd 5d 73 d1 3e a1 32 a5 3f d3 7c 68 3e
       -0.09270779 0.40908328 1.2906076 0.22703867
000300 52 ad 21 be c7 e9 c2 3d 6c e2 a2 bf 27 d3 23 be
       -0.15788773 0.09517246 -1.2725348 -0.15998517
000310 1e 6b 65 be 80 a1 fd 3d 0d 68 b7 be 8e 43 c1 bc
       -0.22404143 0.12384319 -0.35821572 -0.023591783
000320 0a cc bb 3c b1 8d c8 bc 36 b8 18 c0 88 b9 ba be
       0.022924442 -0.024481626 -2.3862433 -0.36469674
000330 4d d5 2c be 28 93 b6 3e 4f 90 9d be a9 0f fc 3e
       -0.16878243 0.35659146 -0.3077416 0.49230698
000340 2e c0 f4 3c 91 41 55 bd 18 a9 e1 3f e4 ae 7b 3e
       0.029876795 -0.052064482 1.7629728 0.24578434
000350 ff 6d 00 3d 02 9f 5c bd 7a 82 2f bc c7 f9 e0 ba
       0.0313549 -0.05386258 -0.01071226 -0.0017164283
000360 75 c0 23 be 0f 09 f3 bd 22 77 90 be 2e 27 f2 be
       -0.15991385 -0.11866962 -0.2821589 -0.47295517
000370 66 cc ff bd 00 86 5e 3e 6d 92 e0 bd ab d3 48 3e
       -0.12490158 0.21730804 -0.109654285 0.19611995
000380 ba 82 04 bf da 9a a4 3e 36 10 b6 bf 71 c7 f1 bd
       -0.5176197 0.32149392 -1.4223697 -0.118056186
000390 af 4c 5e be 18 ce 27 3d 83 34 d2 be 83 a4 f8 3d
       -0.2170894 0.04096803 -0.41055688 0.12140753
0003a0 3f 8e 3e bc 3d 5f 05 3e 4f f7 55 bf d2 67 d4 3d
       -0.011630594 0.13024612 -0.8358049 0.10371365
0003b0 74 82 11 3e 88 4e bb bd 07 d2 3b 3e 82 e2 9f 3d
       0.1420992 -0.09145838 0.18341838 0.07806875
0003c0 0e d0 04 bc ca bf 21 3e 56 f2 28 bd 91 93 29 3e
       -0.008106245 0.15795818 -0.041246735 0.16560198
0003d0 f2 19 80 3e 99 f6 b1 be 0f 9a 72 3e fe d9 db be
       0.25019795 -0.34758452 0.23691581 -0.42939752
0003e0 38 f6 ae 3c 44 d6 de bc c7 09 c9 bf 7e b9 87 be
       0.02135764 -0.02720178 -1.5706109 -0.26508707
0003f0 f6 5d 99 3c 19 b3 a5 be 55 78 ca bf db 84 d9 bd
       0.018721562 -0.32363203 -1.5817972 -0.10621043

bias f4 [64]
000000 57 12 24 bf 41 4c 29 3d 42 ab a0 be 08 82 1d bf
       -0.64090484 0.041332487 -0.3138066 -0.61526537
000010 01 03 92 be bf 52 a5 be 28 83 1e be 72 b0 4a be
       -0.28517917 -0.32289693 -0.1547972 -0.19793871
000020 2c 1e 32 3e 00 66 b6 3e da 4d 93 be 97 fc 0f be
       0.17394322 0.35624695 -0.28770334 -0.14061199
000030 3d c8 13 bd 65 02 2e be 16 63 dd be ad 33 f5 be
       -0.036079634 -0.16993101 -0.4323966 -0.47890988
000040 55 ac 2c bf 57 2e 2e 3e e7 19 da be fd 6f 1e bf
       -0.6745046 0.17009865 -0.42597887 -0.6188963
000050 c4 09 8f be 10 24 bc be 38 62 72 be 8e 34 8c be
       -0.27937138 -0.36746264 -0.2367028 -0.27383846
000060 61 b3 a6 be fe 10 22 bf 6b 60 80 be c8 3d 5e be
       -0.3255873 -0.6330718 -0.2507356 -0.21703255
000070 ef 11 8b be 63 4f 31 be 7a 7f aa be e5 08 92 be
       -0.2716212 -0.1731544 -0.33300382 -0.2852241
000080 cc af b5 be a8 b6 31 be ed e0 e0 be 6b 47 7e be
       -0.35485685 -0.17354834 -0.43921605 -0.24831931
000090 5d 94 70 bd 2f 2e 45 bd 71 2b cf be ac e8 0a bf
       -0.05873524 -0.048139747 -0.4046283 -0.5426128
0000a0 09 3d 2f be 55 10 c9 be cb d8 38 be 38 3b f3 be
       -0.17113127 -0.39270273 -0.1805145 -0.47506118
0000b0 cb 83 d3 be f9 07 6e be 8b e3 de be 69 0f 4d 3e
       -0.41311488 -0.23245229 -0.43532977 0.2002541
0000c0 a9 61 9e be 11 3e e1 be 13 49 94 be 59 a3 94 be
       -0.30933884 -0.43992665 -0.28962 -0.29030874
0000d0 83 05 4b be bb 1c 0a be dc f5 1b bf e8 71 bd be
       -0.19826321 -0.13487522 -0.60922027 -0.37000966
0000e0 c7 a1 92 3a 86 87 e7 be 8c b5 11 be 1d 89 bf be
       0.001118713 -0.45220584 -0.14229411 -0.37409297
0000f0 e3 f4 f5 be f4 37 7f be 0e 27 59 be e0 b2 b0 3e
       -0.48038396 -0.24923688 -0.21206304 0.3451147

weight f4 [2, 64]
000000 54 59 0a 3d 6f 67 77 3d 3c 0e d0 bc 9f 30 26 3d
       0.033776596 0.060401376 -0.025397412 0.040573712
000010 61 0b 96 3d 90 93 5a be 38 14 01 3d 51 0a 20 3c
       0.07326389 -0.21345353 0.031513423 0.009768085
000020 23 ce 00 3e ee a4 c1 be 8f a9 05 3e d2 7f dc bd
       0.12578635 -0.37821144 0.13052963 -0.10766567
000030 b9 ef ec 3d 65 a7 f0 3c 0c fa 50 bd 50 0a 05 3e
       0.11569161 0.029376695 -0.051019713 0.12992215
000040 a6 b9 11 3d 09 36 3b 3e b2 78 1d bf 72 b0 0d 3d
       0.03557744 0.18282332 -0.6151229 0.0345921
000050 27 f1 35 3d 3b 30 f2 bc 1f 25 da be eb 79 9e 3e
       0.044419434 -0.029564014 -0.42606446 0.3095239
000060 45 99 17 3f 80 5f df 3d df 8a 6f 3e 9e c2 7f bc
       0.59218246 0.10906887 0.23392819 -0.015610365
000070 34 30 4f 3d 4c 67 dd 3d 6a 53 8e bd 57 73 1b 3e
       0.05058308 0.10810718 -0.06949504 0.15180717
000080 30 83 99 bc 71 49 a5 3b 73 1d 8c 3c 10 4a df bd
       -0.018739313 0.0050441553 0.017103886 -0.10902798
000090 09 b6 de bb ac 13 3e 3e ae c8 e9 bc e5 49 28 3e
       -0.0067966026 0.18562192 -0.028538074 0.16434439
0000a0 aa 1f 2a 3b 0e 1d ed bd 9c e1 59 bd 96 d2 0a bd
       0.0025958815 -0.11577807 -0.053193673 -0.033892237
0000b0 b6 6c 5e bc b9 ed 50 be 00 fe 5e 3c b1 8a 00 be
       -0.013575723 -0.20403184 0.013610363 -0.12552907
0000c0 fc df d7 3d 29 a7 85 3c 55 5b e4 3e 7d 90 8a 3d
       0.105407685 0.01631506 0.4460093 0.0676584
0000d0 be f2 8b be a7 2b a8 bd 4d 68 91 bc 9c 27 9b bd
       -0.27333635 -0.08211451 -0.01774993 -0.07575914
0000e0 3d 3e 71 3e 40 b6 1c ba 8a 26 a5 3c d2 38 bc 3d
       0.23558898 -0.0005978085 0.020159978 0.09190525
0000f0 f4 a1 38 bc 83 41 96 3d 6b c3 86 3e 74 df 9a 3e
       -0.011269081 0.07336714 0.26320967 0.30248606
000100 ff 98 93 3c 91 2e a4 3d b4 b2 03 bc c5 54 40 3d
       0.01801729 0.08016694 -0.008038212 0.046955843
000110 7a 7b f9 bc 08 ab c5 3e 83 ae 66 3d 6f 59 bb bc
       -0.030454386 0.3860705 0.05631877 -0.022869794
000120 a6 2e 0d be a5 32 7d 3e 18 1d a9 be 20 38 ac 3d
       -0.13787326 0.2472635 -0.3303001 0.084091425
000130 03 73 c8 3d ce 69 12 3d 8c 9c dc bd 6f 87 7f 3c
       0.09787562 0.035745434 -0.107720464 0.015596255
000140 b7 15 0e 3e 2f fb 46 bd f9 57 2a 3f 61 62 35 3e
       0.13875471 -0.04857939 0.66540486 0.1771331
000150 de e3 b3 bc 9f a2 df bd 06 f9 25 3f 31 06 14 be
       -0.021959241 -0.109196894 0.64833105 -0.14455487
000160 ee 84 36 bf 89 af 96 3d 36 6d 7a be c1 67 83 3d
       -0.71296585 0.073576994 -0.24455723 0.06416274
000170 c8 b6 ba bc 1a 61 89 bd 5e 77 80 bd 0b 70 c4 bd
       -0.022792235 -0.06707974 -0.062727675 -0.09591683
000180 62 5a 1a bd 94 c6 9f 3c 8d c4 8b 3c bc 3d 8e 3e
       -0.037683852 0.01950387 0.017061496 0.27781475
000190 9c 7a ed bc 3e b3 4e be ba 7b 56 bd 78 02 9c bd
       -0.028989129 -0.20185563 -0.05236409 -0.076176584
0001a0 91 26 ce bc 91 68 f9 bd 7b 73 8e bd 5e 8a 22 3d
       -0.025164874 -0.121781476 -0.0695562 0.03968274
0001b0 64 4e e4 3c 91 91 bb 3e b8 92 12 bb 2b 41 77 3d
       0.02786941 0.36634496 -0.0022365283 0.060364883
0001c0 5c 4a ad bd ca f3 e7 bc b4 49 1c bf ff 13 d2 bc
       -0.084614486 -0.02831449 -0.6104996 -0.0256443
0001d0 e1 13 53 3e b6 e2 97 bd dc 91 27 bd 58 9a de bd
       0.20613052 -0.074162886 -0.040910587 -0.108692825
0001e0 74 81 81 be 54 ac 97 bc aa 11 34 3d ea 95 b5 3d
       -0.25294077 -0.01851479 0.04396216 0.088664845
0001f0 a1 97 86 3b d3 80 c1 ba 6e 34 84 be 6d 37 1e be
       0.004107431 -0.0014763124 -0.2582125 -0.15450831

bias f4 [2]
000000 2a c3 30 3d 0b c6 19 be
       0.043154873 -0.15016954

weight f4 [64, 4]
000000 1d 53 c5 3d 6a df ce 3d 46 51 d2 3e 00 b9 48 3e
       0.09634993 0.101012066 0.41077632 0.19601822
000010 5e 71 73 be 5d 6e c6 3e 09 66 9c 3c 11 9e 5e 3e
       -0.23773715 0.38756076 0.019091623 0.21739985
000020 e5 9b 6c bc ae 8a 32 3d a3 11 16 c0 d9 a9 c1 bd
       -0.014441465 0.043589287 -2.3448265 -0.09456224
000030 b4 37 57 3e 91 97 95 be 64 42 62 3b 81 63 d5 3d
       0.21017343 -0.29217198 0.0034524435 0.104193695
000040 e3 bf 3f 3e 67 f2 af be 45 4b fd be e4 1a 11 be
       0.18725543 -0.34364626 -0.4947149 -0.14170414
000050 26 c2 ad 3e 1d dc 86 3e 85 2f 68 3b ba 1d 3a 3e
       0.33937186 0.26339808 0.0035428714 0.18175402
000060 86 da 18 3e 55 55 86 be c2 6b 55 bf 07 8d 0e bd
       0.1492711 -0.26236978 -0.8336755 -0.034802463
000070 b4 84 98 3c 8c 9d dd 3b 37 ed 33 c0 76 22 66 be
       0.018617965 0.006763166 -2.8113534 -0.22474083
000080 af 6e cb be 5a ec 88 3e 7a 11 b3 bd a4 23 a7 3e
       -0.39732882 0.26742822 -0.08743568 0.3264438
000090 5f bf 8b 3e 4f 44 35 be 0a 01 8b bf 35 85 f0 bd
       0.27294442 -0.17701839 -1.0859692 -0.11744157
0000a0 0d 73 82 3d be 44 8b bd 40 ab e9 bf da 7f 98 be
       0.063696004 -0.06800221 -1.8255386 -0.29785043
0000b0 f4 f8 86 3e 5e 02 1e be 96 4c 92 be 03 95 48 be
       0.2636181 -0.1543059 -0.28574055 -0.19588093
0000c0 45 36 4e 3e 8b b7 dd 3e fb aa b7 be 17 c1 78 3e
       0.2013789 0.43304095 -0.35872635 0.24292408
0000d0 1e da db 3d af c0 07 3e 5e 0d 04 3f 94 9c 20 be
       0.10734962 0.13257097 0.51582897 -0.1568473
0000e0 7e d3 05 3e cf db 19 3e 90 0c 27 be 5e e9 05 3e
       0.13068959 0.15025257 -0.16313386 0.13077304
0000f0 dc 06 7d 3c 2e 24 f1 bb 85 53 1d c0 44 d1 39 be
       0.01544353 -0.0073590493 -2.4582226 -0.18146235
000100 0c 3c 43 38 92 d4 be 3c c3 29 0c c0 f7 f3 08 be
       4.6547546e-05 0.02329472 -2.190049 -0.13374315
000110 ae be 90 3d f0 3b 48 be 7b f8 ee bf 8f d5 a1 be
       0.07067619 -0.19554114 -1.866958 -0.31608245
000120 0d cb 1f 3e bc c2 17 be 0c 72 e8 bf f4 5d b9 be
       0.15604801 -0.14820379 -1.8159804 -0.36204493
000130 70 1f ae 3e 83 49 5b be fe 08 2e 3d 05 2e 64 be
       0.3400836 -0.21414761 0.042489044 -0.2228318
000140 d0 2f 20 3e 61 c9 2c 3e e4 04 eb bd 22 b8 10 be
       0.15643239 0.16873695 -0.11475542 -0.14132741
000150 fd ed 9f be 26 0a bd bd 28 6a 97 bf 4a 61 cb bd
       -0.31236258 -0.09230451 -1.1829271 -0.09930666
000160 fd 70 2c be 02 5f be 3d 32 3b 92 be d4 72 8b 3d
       -0.16839977 0.09295465 -0.28560787 0.06809011
000170 1e 02 fc bc 93 1c cd 3a 5f 31 5b 3e 83 41 3f 3e
       -0.030762728 0.0015648775 0.21405552 0.18677334
000180 0d 07 13 bf c2 ad 13 3e 70 b5 75 3f 26 b9 70 3e
       -0.57432634 0.14421752 0.95979977 0.23508129
000190 59 07 eb be b8 0c f9 be a5 ff 11 3f 54 0e a6 be
       -0.45904043 -0.48642516 0.5703071 -0.32432806
0001a0 3a 88 12 3e 5c 13 53 be 94 f9 61 3c 29 f8 44 be
       0.14309779 -0.20612854 0.013792414 -0.1923529
0001b0 f1 fd 12 3f bc c1 53 bb 2c 49 bc bf d6 24 08 be
       0.57418734 -0.003231152 -1.470983 -0.13295302
0001c0 83 32 65 be 89 ba 77 3e eb 59 f8 3f 1c 91 21 3f
       -0.2238255 0.24192251 1.9402441 0.63112044
0001d0 42 9e d7 bd d7 3c 2c bd d6 bd 8c 3e 57 10 08 3e
       -0.10528232 -0.04205021 0.27488583 0.13287483
0001e0 cf 40 ea 3b cd 10 f3 3b ff aa ce 3e fe 53 2d be
       0.007148839 0.0074177743 0.40364835 -0.16926572
0001f0 15 40 1a be 2a 9c 4f 3c 27 67 e2 bf ce 4d b2 be
       -0.15063508 0.01267151 -1.768773 -0.34824985
000200 94 35 e0 bd 75 1e 6d 3e bd 7d 88 3e 20 ca 24 be
       -0.10947719 0.2315615 0.2665843 -0.1609273
000210 8c 64 a4 3c 19 ba 91 3b 58 2e 17 c0 c2 5b 41 be
       0.020067476 0.0044472334 -2.3622036 -0.18882659
000220 a8 96 e2 bd 0a 34 c1 3d 39 6f 55 40 69 ff e3 3e
       -0.11063892 0.09433754 3.3349135 0.445308
000230 8c d6 a4 3d 21 72 55 be 1c 0c 0f bf da 24 59 3e
       0.08048734 -0.20844318 -0.5587785 0.21205464
000240 b9 f9 09 3e 13 4a 35 3e 48 c4 f4 be 42 b2 c5 3e
       0.13474168 0.17704038 -0.47806 0.38612562
000250 42 c6 d4 3e 93 a5 40 3e 25 86 a1 bf 72 1b 51 bd
       0.4155751 0.18813162 -1.2619063 -0.051051565
000260 4a 4d e4 be b7 47 9f 3e 1b 01 0a 3d 3a cf da ba
       -0.44590217 0.31109402 0.03369246 -0.0016693838
000270 33 96 82 3e 12 2c 6b be 97 ad 89 be a1 5e c4 bd
       0.25505218 -0.2296603 -0.2689025 -0.095883615
000280 f6 a8 57 3d da a6 a8 be a2 df ce 3e 89 a2 8b be
       0.052651368 -0.32939798 0.40404993 -0.27272442
000290 6a 2c 8a 3e 50 12 59 3e ed 60 69 bd 69 8d 1d 3e
       0.2698701 0.21198392 -0.0569772 0.15385975
0002a0 af 14 c2 3d 9a 10 4d bd 24 28 b4 be 31 89 6a 3e
       0.09476601 -0.05006466 -0.35186875 0.22903897
0002b0 44 11 1f bd d4 6b d4 be 2d 07 d1 bf 10 eb da be
       -0.038834825 -0.41488516 -1.6330315 -0.42757463
0002c0 61 37 09 3e aa 67 77 be b9 d7 71 be b2 45 05 be
       0.13400032 -0.24160638 -0.23617448 -0.13014868
0002d0 e2 94 0f 3e 57 4d 26 3d 2d 7c 21 3e 58 26 9c 38
       0.14021638 0.0406011 0.15770026 7.445802e-05
0002e0 58 8d d4 3d 1e 11 84 be 57 b1 9e bd d6 39 ac be
       0.10378522 -0.2579431 -0.07748669 -0.33637875
0002f0 e2 ff b7 be fa 84 5a 3e f2 de a4 be 67 5c 12 3d
       -0.3593741 0.21339789 -0.32201344 0.035732653
000300 69 51 d9 3d 99 0d 40 3d ce 11 03 bf b7 e4 99 3e
       0.10611231 0.046887968 -0.5119904 0.30057308
000310 5a 93 c2 be f4 01 8e 3e ae 9e 2d be 6f bc 95 3d
       -0.38003045 0.27735865 -0.16955063 0.073113315
000320 76 40 28 3e 27 53 73 be e2 0d 1c 3f a5 07 92 be
       0.1643084 -0.23762189 0.60958683 -0.28521457
000330 fd 00 64 be 13 81 ab bc fe ed 0f be c3 e9 5a 3e
       -0.22266002 -0.02093557 -0.1405563 0.21378236
000340 39 b1 e5 bd 16 55 d5 3d d5 e6 50 3c fa b8 4f 3d
       -0.11215443 0.104166195 0.012750347 0.050713517
000350 c2 c0 b6 bc 87 ad 7c 3c 27 80 48 40 23 01 b2 3e
       -0.022308711 0.0154222315 3.1328218 0.34766492
000360 00 80 06 be 2d c3 ae 3e 90 4d 80 be 0f c2 af 3e
       -0.13134766 0.34133282 -0.25059175 0.34327742
000370 20 d1 b3 be bc f6 32 3d da bf 22 be 33 3c 95 3d
       -0.35120487 0.043692335 -0.15893498 0.07286873
000380 20 72 9a 3e 06 f7 dd 3e 46 4d 20 bf b2 08 5d 3d
       0.30165195 0.43352526 -0.6261791 0.05396337
000390 3f 55 a0 3e 5e 25 3c be be cf e6 3e 27 c0 a4 be
       0.31315038 -0.1837363 0.4508037 -0.3217785
0003a0 48 cc 2a 3d f4 3c 74 3c 8e 5b bb 3d 59 eb 6d 3e
       0.041698724 0.0149071105 0.09148322 0.2323431
0003b0 bf f7 8d be 98 a5 bd be 6a 4b d4 3f 29 e0 53 3c
       -0.27728078 -0.370404 1.6585515 0.012931862
0003c0 b5 f2 29 3e ff 63 50 be 53 0b dc be e6 14 90 bc
       0.16596492 -0.20350645 -0.4297739 -0.01758809
0003d0 da df ab 3d 04 ee d8 be ef 7d a1 3e 41 40 d5 be
       0.08392306 -0.42369092 0.31541392 -0.41650584
0003e0 80 bb 1f 3e a8 89 d3 3d c2 25 e5 3f a2 15 aa 3e
       0.1559887 0.1032899 1.7902148 0.3321963
0003f0 bb 54 a9 be 78 61 20 3e 51 b8 c9 bf 5d 69 a3 bd
       -0.33072457 0.15662181 -1.5759374 -0.07979081

bias f4 [64]
000000 81 ad 36 3f 5d 21 19 3f 82 ba de be 85 23 6e 3f
       0.71358496 0.59816533 -0.4350167 0.9302295
000010 6f e8 12 3f c6 dd 5a bf d1 77 11 bf e3 b3 13 bf
       0.57385916 -0.8549465 -0.5682345 -0.5769636
000020 0c d1 84 3f 04 01 e5 be f1 a7 eb be c8 3c 41 3f
       1.0376296 -0.44727337 -0.46026567 0.7548337
000030 fd ff 4d 3f 90 3b 88 3f 6d 24 51 3f ad 15 ff be
       0.8046873 1.0643177 0.81696206 -0.49821225
000040 ce 06 e4 be a9 26 03 bf 57 33 e6 be b0 93 41 3f
       -0.44536442 -0.51230866 -0.44961044 0.7561598
000050 84 e3 94 3f 63 af 3b bf 39 53 5c 3f 16 0a e2 be
       1.1631932 -0.73314494 0.8606449 -0.4414832
000060 04 77 36 bf 34 37 2d 3f 9f b5 8c be 30 75 a4 be
       -0.71275353 0.6766236 -0.27482316 -0.32120657
000070 62 d8 3d bf 01 4f 77 3f ee 50 38 3e 2a d5 22 bf
       -0.741583 0.96604925 0.17999622 -0.6360651
000080 7d 27 3f 3f 8b b5 00 bf a4 67 41 bf 6b 30 09 3f
       0.7466963 -0.5027701 -0.7554877 0.53589505
000090 3e 77 76 3f 91 fe c5 be 78 37 6e 3f c7 bd 84 3f
       0.962757 -0.3867078 0.9305339 1.0370415
0000a0 35 f7 49 3f 42 31 3a bf 90 cf 34 3e 42 25 c5 bc
       0.78892833 -0.7273141 0.17657304 -0.024065617
0000b0 b0 f5 2c bf b8 8d 29 3f 4c 86 5c 3f c8 e4 7b 3f
       -0.6756239 0.6623187 0.8614242 0.9839597
0000c0 25 67 1c 3f 9f c7 46 3f 87 83 b4 3d 68 0e 63 3f
       0.61094886 0.7764835 0.08814149 0.8869386
0000d0 88 5b 99 bd 49 9c 36 bf cd 02 2b 3f 3b 93 62 3f
       -0.07488161 -0.7133222 0.6680115 0.88505906
0000e0 18 99 1e bf 8f 89 70 3f 98 c9 49 3f 80 46 1a bf
       -0.6195235 0.939599 0.7882323 -0.60263824
0000f0 ea 5b 48 be 19 c7 7e 3f 12 91 00 bf d1 80 f8 bc
       -0.19566312 0.9952255 -0.5022136 -0.030334862

weight f4 [1, 64]
000000 f0 76 c2 3e 9e 78 27 3e 02 4e aa bf 20 02 c9 3e
       0.37981367 0.16354606 -1.3305056 0.39259434
000010 05 b0 d2 3e ee 5b b9 be 2c 8a 10 bc 6e 49 04 c0
       0.41149917 -0.3620295 -0.008822005 -2.0669818
000020 17 60 04 3f b1 f2 24 bd f6 27 8b bf e3 b5 de 3e
       0.5170912 -0.04027051 -1.087157 0.43498144
000030 0c 76 78 3e c0 32 db 3e 31 f3 97 3e f2 f4 ce bf
       0.24263781 0.42812157 0.29677728 -1.6168501
000040 8d c6 dd bf cd 89 af bf f8 ca 2f bf 79 e7 e1 3e
       -1.7326218 -1.3713928 -0.6866908 0.44121912
000050 6a 05 b8 3e 94 26 e3 be ba da 02 3f 24 86 bf bb
       0.3594163 -0.4436537 0.51115 -0.005844848
000060 2c 4d e9 bd 3f 7e 81 3e fa 93 81 3d 68 92 2d be
       -0.113916725 0.2529163 0.063270524 -0.16950381
000070 fa a9 16 bf e0 75 c1 3e 8f 18 39 3c db 66 7b be
       -0.58853114 0.37785244 0.011297359 -0.24550955
000080 20 b8 76 3e 2c 22 be bf 84 df 06 c0 a0 fc 02 3e
       0.24093676 -1.4854178 -2.1073923 0.12791681
000090 d0 75 01 3f c5 75 42 bd a4 5b ab 3e 2a a7 e2 3e
       0.5057039 -0.047475595 0.33468354 0.4426816
0000a0 d2 4e ad 3e e3 79 94 be 9f b3 77 3c ac 7a 3e be
       0.33849198 -0.28999242 0.015118509 -0.18601483
0000b0 11 6b 2d bd c9 f5 ec 3e 3d fb ae 3e 7e 24 01 3f
       -0.042338435 0.4628127 0.34176055 0.5044631
0000c0 a8 0a 2a 3e b5 b9 ab 3e e7 6a ca ba 4e 2b 8f 3e
       0.16605628 0.3354012 -0.0015443236 0.27962726
0000d0 a7 74 2e 3b 68 98 bf bf 86 d1 b3 3e 90 f2 bf 3e
       0.0026619823 -1.4968386 0.3512079 0.37489748
0000e0 ba d7 13 be 8b ca bb 3e 49 66 ab 3e 41 da 83 be
       -0.14437762 0.36677966 0.33476475 -0.25752452
0000f0 d8 a1 75 3c 49 93 d1 3e 84 7a f9 be d8 8b 74 be
       0.0149922 0.40932682 -0.48726285 -0.23881471
