src/cartpole/results/CartPole-v1/train-a2c/20210408-075553/num_env6-num_episodes100000-learning_rate0.002-hidden_layers32-32-value_coefficient0.1.pt (torch, 6143 bytes, 7 tensors)

weight f4 [32, 4]
0	0x3cc47d35	0.023985485
1	0xbcb95275	-0.022622326
2	0xc025c50c	-2.5901518
3	0xbec34f20	-0.38146305
4	0xbd4886f1	-0.048956815
5	0x3dc1d245	0.09463934
6	0x40341d02	2.8142705
7	0x3eff46d7	0.49858734
8	0xbe40d8c5	-0.18832691
9	0x3e54800d	0.20751972
10	0xbfbaeb40	-1.4603043
11	0x3e00d010	0.1257937
12	0xbead517c	-0.3385123
13	0xbe54913d	-0.20758529
14	0x3fbd682b	1.4797415
15	0xbd7d04ea	-0.061772265
16	0x3cb1da0d	0.02171042
17	0xbc5d7023	-0.013515505
18	0xc0166c0c	-2.3503447
19	0xbea752a0	-0.32680225
20	0x3e7367f2	0.2377012
21	0x3e97e1e1	0.2966452
22	0x3fa00e9e	1.2504461
23	0x3ea83557	0.32853195
24	0xbe062b96	-0.13102564
25	0x3d9f0147	0.077639155
26	0xbf112587	-0.5669789
27	0xbd86128f	-0.065465085
28	0xbd7e9976	-0.06215807
29	0x3d784a8d	0.060617972
30	0x3ff706c8	1.9298944
31	0x3ef9a84c	0.48761213
32	0xbc73a765	-0.014871453
33	0xbb9bb2da	-0.0047515454
34	0xbfc653da	-1.549434
35	0xbe9146a9	-0.28374222
36	0xbe1c6c89	-0.15275778
37	0x3db0267d	0.08601091
38	0x3feb3f3e	1.8378675
39	0x3ef7c260	0.48390484
40	0x3b7463e0	0.0037290975
41	0xbd1cce36	-0.038282596
42	0xbf8b6593	-1.0890373
43	0xbe42cadd	-0.19022699
44	0x3d2fa5c2	0.04288269
45	0xbd7aa747	-0.061194684
46	0x3fdefa84	1.7420201
47	0x3e41133f	0.18854998
48	0xbe66982a	-0.22518983
49	0x3e86e303	0.2634507
50	0xbf95b47a	-1.1695702
51	0x3ebc1c0d	0.3674015
52	0x3dd87a39	0.10570187
53	0xbd8a984f	-0.06767332
54	0xbe5085e5	-0.20363577
55	0xbd9284c2	-0.07154228
56	0x3e10bd2d	0.14134665
57	0xbdfddb58	-0.12395352
58	0xbdb0c7a4	-0.086318284
59	0xbe42b56d	-0.19014521
60	0x3e3d2c1c	0.18473858
61	0xbe0ff0d1	-0.14056708
62	0x3f7c7475	0.986152
63	0x3eb2efe2	0.3494864
64	0x3e1bfc84	0.15233046
65	0xbd80218f	-0.06256401
66	0xbd475317	-0.048663225
67	0xbcefe115	-0.029282132
68	0x3d2debe5	0.042461295
69	0x3e2b23a9	0.16712822
70	0x3ca9c7bd	0.020725125
71	0x38d4ef34	0.00010153503
72	0xbc81ed48	-0.015860215
73	0x3e0af9f7	0.13571917
74	0x3f8f15a5	1.117848
75	0x3e96c008	0.29443383
76	0x3df592e5	0.119909085
77	0xbe40dff2	-0.18835428
78	0xbf360950	-0.7110796
79	0xbe0bf3a8	-0.13667166
80	0xbeaa4156	-0.33252972
81	0x3eba8fe2	0.364379
82	0xbf0a63f7	-0.54058784
83	0xbcee73c0	-0.029107928
84	0x3d9e9291	0.07742799
85	0xbdd60891	-0.10450853
86	0xbd6b69c8	-0.057473928
87	0xbe5388df	-0.20657681
88	0x3e29568f	0.16536926
89	0xbe15f4cf	-0.14644168
90	0x3d01397d	0.031548966
91	0x3d7847b1	0.060615245
92	0x3d65ce03	0.05610467
93	0xbddb6369	-0.1071232
94	0xc02a25ae	-2.6585498
95	0xbeeb002b	-0.45898566
96	0x3d25f51b	0.040516954
97	0xbd7b6a54	-0.0613807
98	0xc01a9e47	-2.4159105
99	0xbed2ff0f	-0.4121022
100	0x3e526c33	0.20549087
101	0x3e4e921c	0.20172924
102	0xbfb982cf	-1.4493045
103	0x3d8bd2f9	0.06827349
104	0xbdf352fa	-0.11881061
105	0x3dd25f42	0.10272075
106	0xbf141a90	-0.5785303
107	0x3d8ee83d	0.0697789
108	0xbd2fa8c0	-0.042885542
109	0x3de1fb9b	0.11034318
110	0xbe7f0b00	-0.2490654
111	0x3e79e84b	0.24405019
112	0xbd2fbbf5	-0.04290386
113	0x3ce665d8	0.028124735
114	0x3fb482ff	1.4102477
115	0xbe04407a	-0.12915221
116	0xbd957b8c	-0.07298955
117	0x3d998304	0.07495692
118	0x3d26b7bf	0.040702578
119	0x3d894964	0.06703451
120	0x3ce960bb	0.028488507
121	0xba03acc5	-0.0005022998
122	0xbeea84be	-0.458044
123	0x3db84904	0.089983016
124	0xbed849a2	-0.42243677
125	0xbd8d2b80	-0.068930626
126	0xbfbad358	-1.4595747
127	0xbee96f3e	-0.45592684

bias f4 [32]
0	0xbec5f6e3	-0.38664922
1	0xbed03274	-0.40663493
2	0x3e826517	0.2546775
3	0xbe1cfb93	-0.15330343
4	0xbeb0735d	-0.34463015
5	0xbcbff818	-0.02343373
6	0xbda2e58b	-0.07953938
7	0xbe51a008	-0.20471203
8	0xbea72f9c	-0.3265351
9	0xbec555e3	-0.3854209
10	0x3e97c93c	0.29645717
11	0xbe292c21	-0.1652074
12	0x3d9f5b88	0.0778113
13	0xbe53edbc	-0.20696157
14	0xbebed860	-0.37274456
15	0x3c91f67d	0.01781773
16	0xbf102b5c	-0.5631616
17	0xbf1746e1	-0.5909253
18	0xbe9435cf	-0.28947303
19	0xbe82dbab	-0.25558218
20	0xbf24516e	-0.6418675
21	0xbecf973a	-0.40545064
22	0xbf2c4aa0	-0.6730137
23	0xbee66ab1	-0.45003274
24	0xbec48fb2	-0.3839088
25	0x3ea9a757	0.33135483
26	0xbe8faa14	-0.28059447
27	0xbf087cbf	-0.5331535
28	0xbd5661f6	-0.052339517
29	0xbee1a285	-0.44069305
30	0xbe8fc476	-0.28079575
31	0xbe8065b5	-0.25077596

weight f4 [2, 32]
0	0x3f91530a	1.1353467
1	0xbfd58190	-1.6680164
2	0x3e080539	0.13283242
3	0xbe68e4c2	-0.22743514
4	0x3f415405	0.7551883
5	0xbda80a41	-0.08205081
6	0xbdb62ec7	-0.08895641
7	0xbefd62d5	-0.49489465
8	0x3d4eea07	0.050516155
9	0xbecc9fb3	-0.3996559
10	0x3dd07ce9	0.10180075
11	0xbf2c6f58	-0.673574
12	0x3e06fcd5	0.13182385
13	0x3db234bf	0.08701467
14	0xbe161562	-0.14656594
15	0x3c703d43	0.014663043
16	0x3ca33a0e	0.019925144
17	0xbc12869e	-0.008943228
18	0x3c102cda	0.008799756
19	0xbdc32d61	-0.0953014
20	0x3dc78703	0.09742548
21	0xbd136e71	-0.035993997
22	0x3d7f0d47	0.06226852
23	0x3f80bbb7	1.0057286
24	0x3fbbd11c	1.467319
25	0x3e26d63e	0.16292664
26	0x3d5d4443	0.054020178
27	0xbbe40940	-0.0069591105
28	0xbdb6250f	-0.08893787
29	0x3e06c82c	0.13162297
30	0x3e060faf	0.1309192
31	0x3e53fa39	0.20700921
32	0xbfa5a4e3	-1.2940944
33	0x3fd2129a	1.6411927
34	0xbed50855	-0.4160792
35	0xbcb86c04	-0.022512443
36	0xbf62c78d	-0.8858574
37	0x3e143928	0.14474928
38	0xbdc6072b	-0.09669336
39	0x3f0ec0b1	0.55762774
40	0xbe4f0a8b	-0.20218866
41	0x3f006e1c	0.50168014
42	0xbda3c6ad	-0.07996879
43	0x3ef5d0db	0.48010907
44	0xbd994674	-0.07484141
45	0x3dce4f92	0.100737706
46	0xbd9cb2e8	-0.07651311
47	0x3e7c3435	0.2462929
48	0x3cc1540e	0.02359965
49	0xbd42ea61	-0.047586802
50	0x3e0664c8	0.13124382
51	0xbda8f3f1	-0.08249653
52	0xbd668278	-0.05627677
53	0xbd2981c7	-0.04138353
54	0x3d807779	0.062727876
55	0xbf6f0f1a	-0.9338242
56	0xbfc2a4ce	-1.5206544
57	0xbe45c948	-0.19315064
58	0x3d3d4ca1	0.046215657
59	0xbe31d948	-0.17368042
60	0xbd8e33b9	-0.06943459
61	0x3e0e5fa9	0.13903679
62	0x3d961c17	0.073295765
63	0xbda5fc9f	-0.08104824

bias f4 [2]
0	0xbe1c8727	-0.15285932
1	0x3db2a753	0.08723321

weight f4 [32, 4]
0	0xbe4e1382	-0.20124629
1	0xbdbb1f66	-0.09136848
2	0xbe3f9958	-0.1871084
3	0xbdc8ef73	-0.09811296
4	0xbd3a5bfe	-0.045497887
5	0x3e96dc41	0.29464915
6	0x3c15dd35	0.009146978
7	0x3ed408eb	0.41413054
8	0x3d64fd2a	0.0559055
9	0xbc91a76d	-0.01778003
10	0xc045007a	-3.078154
11	0xbeaa3174	-0.33240855
12	0xbe3b1362	-0.18269113
13	0x3dc100ca	0.094239786
14	0x3d8681e5	0.06567744
15	0x3e9ce239	0.30641344
16	0x3e4f6dda	0.20256749
17	0xbe3f1438	-0.18660057
18	0x3f033610	0.5125437
19	0xbe9750f1	-0.2955394
20	0x3ea242cd	0.3169159
21	0xbed9cf51	-0.42540982
22	0xbdebd060	-0.11514354
23	0xbe527951	-0.20554091
24	0xbeb466ab	-0.3523458
25	0xbe18dca8	-0.14927924
26	0xbf0f3e17	-0.55954117
27	0xbe15f55f	-0.14644383
28	0xbed2e17a	-0.4118765
29	0x3c84fc5f	0.016233621
30	0x3fd9c1e7	1.7012299
31	0x3e901763	0.28142843
32	0xbb9586ef	-0.0045632045
33	0x3d22b847	0.03972652
34	0x4049fb1a	3.155951
35	0x3e9aa82e	0.30206436
36	0x3df46bbb	0.119346105
37	0x3e35d4da	0.17756978
38	0x3e4e427a	0.20142546
39	0xbddd209e	-0.10797237
40	0xbe01ac5b	-0.12663405
41	0x3db20a38	0.08693355
42	0x3eae6090	0.34058046
43	0x3db2f880	0.08738804
44	0xbe1f9989	-0.15585913
45	0xbe5cbda3	-0.21556716
46	0xbf107fbd	-0.56444913
47	0x3c8dab75	0.017293671
48	0xbc9e0503	-0.0192895
49	0xbea4c6b9	-0.32182863
50	0x3edbdb42	0.42940718
51	0xbec3780f	-0.38177535
52	0x3e9d5bef	0.30734202
53	0x3b602858	0.0034203734
54	0x3e25692b	0.161534
55	0xbe159ae3	-0.14609866
56	0x3e4b641e	0.1986241
57	0x3dd7546d	0.1051415
58	0x3fd04bb2	1.62731
59	0x3ec6063e	0.38676637
60	0xbe230661	-0.15920402
61	0x3e1c3aef	0.15256856
62	0xbdbeb322	-0.093115106
63	0xbdcc67ec	-0.09980759
64	0xbe42be08	-0.19017804
65	0x3e326b5a	0.17423764
66	0xbffdc770	-1.9826488
67	0xbdb18a31	-0.08668936
68	0xbd0fa278	-0.03506705
69	0xbea84ab9	-0.3286951
70	0x3e995d63	0.2995406
71	0xbeca9cb3	-0.39572677
72	0x3d685d60	0.056729674
73	0xbd5466fd	-0.05185603
74	0x403a485b	2.9106662
75	0x3e0f2198	0.13977659
76	0x3c39b632	0.011334943
77	0x3cd97b31	0.026548
78	0xc04ff220	-3.2491531
79	0xbe495a6c	-0.196634
80	0xbc5b3451	-0.013379172
81	0x3e14c4a1	0.14528133
82	0x3e6b1be3	0.22959857
83	0xbc5d639a	-0.013512516
84	0xbe9f7a97	-0.31148216
85	0xbe37c6a2	-0.17946866
86	0xbf647fe3	-0.8925764
87	0xbe3527a4	-0.17690903
88	0x3e08ed0b	0.13371675
89	0x3e42ed88	0.19035923
90	0xbe979610	-0.29606676
91	0x3b59b3a2	0.0033218642
92	0x3e549ccf	0.20762943
93	0xbcddbd50	-0.02706781
94	0xbcb8346a	-0.02248593
95	0x3c8ffce7	0.017576648
96	0xbe8010cd	-0.25012818
97	0x3dfda0c0	0.12384176
98	0x3e1bd403	0.15217595
99	0x3e6f01e0	0.23340559
100	0x3e814fa4	0.25256073
101	0xbd18df73	-0.037322473
102	0x3e3b8655	0.18312962
103	0xbe820f86	-0.25402468
104	0xbe0fddba	-0.14049426
105	0xbe63287b	-0.22183411
106	0x3e8dde9e	0.27708906
107	0x3d9fa174	0.077944666
108	0xbe40f364	-0.18842846
109	0x3e5c215f	0.21497105
110	0x3dd16f16	0.10226266
111	0x3e9f6421	0.3113108
112	0x3e8b5572	0.27213627
113	0xbc6af807	-0.014341361
114	0xbd2bdfd6	-0.041961513
115	0xbd9c993f	-0.07646417
116	0x3e67dc1b	0.22642557
117	0x3e237f33	0.15966491
118	0xbee96ae9	-0.45589378
119	0x3e9e3b70	0.30904722
120	0x3e272f9d	0.16326757
121	0x3e176fe7	0.14788781
122	0xbec8521e	-0.3912515
123	0x3dc45ae6	0.0958765
124	0xbe27fdd1	-0.16405417
125	0x3ea8793d	0.32904997
126	0xbe3c5c85	-0.18394668
127	0x3e07b1f9	0.13251485

bias f4 [32]
0	0x3f545673	0.8294441
1	0x3f6508e3	0.89466685
2	0xbf365cb9	-0.71235234
3	0x3f727694	0.94712186
4	0x3c988a1b	0.018620541
5	0x3f5ef051	0.87085444
6	0xbf62fe7a	-0.8866955
7	0xbef4897e	-0.47761148
8	0xbf30a979	-0.69008595
9	0x3f8cc58d	1.0997788
10	0x3f6d4955	0.9269002
11	0x3f98b1c6	1.1929252
12	0x3f685cd3	0.9076664
13	0xbeb4023f	-0.35157964
14	0xbe5a91d6	-0.21344694
15	0x3f403fa9	0.7509714
16	0xbe6c77e2	-0.23092607
17	0x3f806fd7	1.0034131
18	0xbf098684	-0.5372088
19	0xbf28c1d9	-0.6592079
20	0xbf0c707e	-0.5485915
21	0xbf1ed1ea	-0.62039053
22	0x3f8201e2	1.0156825
23	0x3f8970a3	1.0737499
24	0x3f4cf29f	0.8005771
25	0x3f8ad973	1.084761
26	0x3f9863d6	1.1905468
27	0x3f25a743	0.64708346
28	0x3e6d6a1a	0.23185006
29	0x3f8baa32	1.0911314
30	0x3f59f064	0.8513243
31	0x3f9649cc	1.1741271

weight f4 [1, 32]
0	0x3f2a11fc	0.6643369
1	0x3f11d4f6	0.5696558
2	0xc036a2be	-2.853683
3	0x3f0c1e20	0.5473347
4	0x3c03363d	0.008008537
5	0x3f0f4207	0.55960125
6	0xbf2d9735	-0.6780885
7	0xbe368873	-0.17825489
8	0xc04fcce4	-3.2468805
9	0x3f147c8e	0.58002555
10	0x3f1ea493	0.6196987
11	0x3f02e2af	0.5112714
12	0x3ec0e408	0.37673974
13	0xbe221441	-0.15828039
14	0xbe1d851e	-0.15382811
15	0x3ef19098	0.4718063
16	0xbe7b8395	-0.24561913
17	0x3f2fdd73	0.6869728
18	0xc0394889	-2.8950522
19	0xc065804a	-3.5859551
20	0x3df4b8ac	0.11949286
21	0xbeb1441a	-0.3462227
22	0x3ed7403b	0.4204119
23	0x3f1a5f6c	0.6030185
24	0x3e927310	0.2860341
25	0x3efebe33	0.49754485
26	0x3f15e034	0.5854523
27	0x3e364285	0.17798813
28	0x3d292576	0.04129549
29	0x3ed23705	0.41057602
30	0x3eff30f6	0.49842042
31	0x3eef2e3a	0.46714956
