src/cartpole/results/CartPole-v1/train-a2c/20210408-075553/num_env6-num_episodes100000-learning_rate0.002-hidden_layers64-64-value_coefficient0.3.pt (torch, 7807 bytes, 7 tensors)

weight f4 [64, 4]
0.020283673 0.08602754 -2.8655834 -0.31748277 -0.1746304 0.15406303 0.77936566 0.24921641
-0.045975976 0.06457218 -0.11368266 -0.03965444 -0.1655534 -0.028822994 -0.7933207 -0.12193131
0.018860484 0.077212326 -2.4779918 -0.26775798 -0.042467277 0.08507036 -0.012590046 0.19498146
0.0075361403 -0.050212696 0.23447216 -0.13343634 -0.03747565 0.09940165 -0.37944707 0.22643876
-0.18857816 -0.08469217 -1.0369859 -0.18203394 -0.07114018 0.49829754 1.3076422 0.5608201
0.1309628 -0.15729585 -2.3142629 -0.43411756 -0.24077938 -0.31749195 0.99019736 0.32628766
-0.034611475 0.0586524 0.9479423 0.15747559 -0.09620613 -0.22956547 -0.85528415 -0.35502225
0.021286927 -0.4391206 -0.39765865 -0.38145185 0.041175596 0.08637766 -0.3463105 0.12168943
0.18173687 -0.0471049 0.11337596 -0.022479638 0.111058526 0.3549654 -1.23797 -0.17091498
-0.08766101 0.075830035 2.090666 0.6845831 0.17354862 -0.23929037 0.12675337 -0.19967684
-0.124274164 0.14935805 0.58363235 0.07492426 0.08288067 -0.12988606 -0.034783352 -0.24287944
0.0803797 0.035817772 2.680053 0.27322987 -0.021966953 0.03955972 -1.3679311 -0.13192353
0.11889503 -0.14691094 -0.79213697 -0.014649288 0.18630184 -0.08645596 -0.832154 -0.082665764
-0.32033262 -0.0022326277 -1.699413 -0.29969245 -0.11646604 0.15410073 -0.5395011 0.15230517
-0.20016354 0.15728115 0.6112624 -0.038135275 -0.017917639 -0.02703691 1.093663 0.1481436
0.023821551 -0.009666843 -0.18195932 0.1383155 0.011834357 -0.021766942 -1.0868988 -0.15247428
0.10514137 -0.11688036 -0.25969765 -0.1370952 -0.072719395 0.031705815 2.1004705 0.34036288
0.09627139 -0.03356728 -0.09572532 0.11963747 0.400679 0.16312899 1.7044169 0.21075669
-0.2822949 -0.11728839 1.0286258 -0.0879807 0.13389036 -0.13468316 -1.9677749 -0.45498022
-0.0393274 0.0012055465 0.36038852 -0.16952285 0.25919697 -0.23173119 -1.2277718 -0.45115474
-0.08724428 -0.15058896 -0.696579 -0.15238744 -0.05143622 0.036174554 -0.25248653 0.16029945
-0.3678663 -0.026061555 1.365222 -0.03060398 0.027337201 0.032328583 -0.34032682 0.13030374
0.122558914 -0.16055635 -0.018909985 -0.22708564 -0.006527266 -0.041292597 2.4931312 0.30016536
-0.0019365287 0.0232143 -1.968312 -0.1632265 -0.4006374 0.3174385 1.2269845 0.16302855
0.024471402 0.063401036 -1.4585545 -0.14903723 -0.1464186 0.08210199 -0.27489245 0.08663868
0.032958116 0.05715818 -2.0811517 -0.17288584 -0.24304855 0.28147516 -0.6337261 0.2888022
0.12530206 0.03104781 0.7081498 -0.03921753 0.03347518 -0.061361723 -0.22174457 -0.0401212
-0.070208766 -0.10612839 0.63683856 -0.22039673 -0.12251058 0.083593465 -0.09210777 0.1438104
-0.3470536 0.21808454 -1.0786918 0.15834284 -0.033112366 0.08054396 -0.24859305 0.21026345
-0.10252332 0.09078536 -0.4529382 0.01342589 0.16513306 -0.1942304 0.50856733 -0.18208396
-0.06850958 0.0801054 -1.4954137 -0.15921083 0.108085215 -0.20898867 -0.17389278 -0.37174097
-0.023642229 0.03866005 -1.4079945 -0.11431305 0.18303572 -0.23875345 -1.2084321 -0.35570693
00000000: f229 a63c 352f b03d b865 37c0 1a8d a2be
00000010: 50d2 32be b3c2 1d3e 8284 473f 9632 7f3e
00000020: 4e51 3cbd 6b3e 843d 74d2 e8bd b26c 22bd
00000030: d586 29be 331e ecbc 1117 4bbf 1fb7 f9bd
00000040: 4d81 9a3c 7f21 9e3d 6b97 1ec0 9317 89be
00000050: 2bf2 2dbd 5e39 ae3d 7b46 4ebc 38a9 473e
00000060: baf1 f63b d4ab 4dbd 7819 703e 89a3 08be
00000070: 1180 19bd 1893 cb3d e346 c2be 90df 673e
00000080: a21a 41be 1773 adbd f4bb 84bf 1b67 3abe
00000090: f1b1 91bd db20 ff3e d260 a73f e891 0f3f
000000a0: 1d1b 063e 2a12 21be e21c 14c0 a844 debe
000000b0: df8e 76be 4e8e a2be 937d 7d3f 2d0f a73e
000000c0: c3c4 0dbd 803d 703d 59ac 723f 4841 213e
000000d0: b807 c5bd 3613 6bbe e7f3 5abf 7ac5 b5be
000000e0: ec61 ae3c 6ad4 e0be ea99 cbbe a84d c3be
000000f0: bea7 283d c5e6 b03d 9c4f b1be 4f38 f93d
00000100: 3b19 3a3e 11f1 40bd a831 e83d 3827 b8bc
00000110: a772 e33d 06be b53e cd75 9ebf 5604 2fbe
00000120: 9e87 b3bd c74c 9b3d 79cd 0540 d740 2f3f
00000130: bbb6 313e 8908 75be a3cb 013e 1678 4cbe
00000140: 7483 febd 51f1 183e ee68 153f e471 993d
00000150: 57bd a93d da00 05be fd78 0ebd 63b5 78be
00000160: 1d9e a43d a8b5 123d fd85 2b40 c9e4 8b3e
00000170: 0af4 b3bc 5f09 223d 5e18 afbf f616 07be
00000180: 3d7f f33d d26f 16be 7dc9 4abf 9103 70bc
00000190: e9c5 3e3e d30f b1bd 0b08 55bf ab4c a9bd
000001a0: a302 a4be 4751 12bb 5d86 d9bf 4a71 99be
000001b0: bf85 eebd 95cc 1d3e be1c 0abf e3f5 1b3e
000001c0: acf7 4cbe 4f0e 213e b17b 1c3f bc33 1cbd
000001d0: 03c8 92bc 837c ddbc 26fd 8b3f f5b2 173e
000001e0: 6a25 c33c ae61 1ebc 8b53 3abe 94a2 0d3e
000001f0: e4e4 413c 9650 b2bc 801f 8bbf 3822 1cbe
00000200: 5c54 d73d f85e efbd 17f7 84be af62 0cbe
00000210: e8ed 94bd f5dd 013d 1c6e 0640 0b44 ae3e
00000220: ef29 c53d d87d 09bd a30b c4bd 7d04 f53d
00000230: cc25 cd3e 490b 273e 552a da3f 9ad0 573e
00000240: f588 90be e534 f0bd 03aa 833f 3a2f b4bd
00000250: 8e1a 093e 62ea 09be 0ce0 fbbf 2bf3 e8be
00000260: c515 21bd 6e03 9e3a d884 b83e 6697 2dbe
00000270: 77b5 843e f14a 6dbe a027 9dbf c1fd e6be
00000280: 21ad b2bd fe33 1abe 0053 32bf 740b 1cbe
00000290: c9ae 52bd c52b 143d ea45 81be 8a25 243e
000002a0: f958 bcbe 0b7f d5bc 98bf ae3f 33b5 fabc
000002b0: 44f2 df3c fa6a 043d 513f aebe 586e 053e
000002c0: 2b00 fb3d e268 24be 1de9 9abc 2389 68be
000002d0: ade2 d5bb 6d22 29bd 768f 1f40 46af 993e
000002e0: 1fd3 fdba ea2b be3c a6f1 fbbf d924 27be
000002f0: 5820 cdbe 4d87 a23e d40d 9d3f f5f0 263e
00000300: 4078 c83c 67d8 813d eab1 babf 379d 18be
00000310: c2ee 15be 1725 a83d b4be 8cbe 9f6f b13d
00000320: 17ff 063d b21e 6a3d 9731 05c0 fc08 31be
00000330: b8e1 78be 831d 903e e03b 22bf e2dd 933e
00000340: 2f4f 003e fa57 fe3c 4e49 353f 90a2 20bd
00000350: 451d 093d 6e56 7bbd 0211 63be 2156 24bd
00000360: 9dc9 8fbd d759 d9bd da07 233f aeaf 61be
00000370: d4e6 fabd 0d33 ab3d 00a3 bcbd 0943 133e
00000380: 02b1 b1be 8e51 5f3e 9312 8abf a024 223e
00000390: d5a0 07bd 3bf4 a43d 2d8f 7ebe 4d4f 573e
000003a0: bff7 d1bd aded b93d 84e7 e7be 44f8 5b3c
000003b0: a418 293e 55e4 46be 7831 023f 3874 3abe
000003c0: c04e 8cbd 4d0e a43d b769 bfbf 2a08 23be
000003d0: c85b dd3d 2001 56be f310 32be d554 bebe
000003e0: 59ad c1bc 005a 1e3d 2a39 b4bf f61c eabd
000003f0: b76d 3b3e c97b 74be e7ad 9abf 381f b6be

bias f4 [64]
-0.42836583 0.09098488 -0.29686028 -0.69368064 -0.3691476 -0.2805171 -0.1174897 -0.2372413
0.2674368 -0.24619097 -0.3826162 0.11669225 0.041318648 -0.05432857 -0.33668554 -0.36954927
-0.5951203 0.09596641 -0.42111462 -0.64686716 -0.46130088 -0.43659207 -0.34295073 -0.23093843
-0.13108715 -0.5767913 -0.29556262 -0.1918307 -0.36465168 -0.15896103 -0.33151415 -0.21313612
-0.4432046 -0.33304068 -0.49153355 -0.16038252 0.019208139 -0.40434042 -0.46389684 -0.33183855
-0.06078174 -0.39728945 -0.10952931 -0.59186494 -0.5524347 -0.35830024 -0.26568338 0.1536833
-0.21954346 -0.4981489 -0.275503 -0.30490747 -0.059902187 -0.2808417 -0.65889287 -0.40829995
0.18021944 -0.37924895 -0.18501186 -0.34684128 -0.25914145 -0.57537544 -0.24174313 -0.33805645
00000000: c452 dbbe 4856 ba3d 12fe 97be 0e95 31bf
00000010: ea00 bdbe f09f 8fbe 719e f0bd 62ef 72be
00000020: 7aed 883e 7c19 7cbe 45e6 c3be 59fc ee3d
00000030: be3d 293d a287 5ebd 0c62 acbe 9035 bdbe
00000040: ce59 18bf 0a8a c43d 569c d7be 1699 25bf
00000050: a12f ecbe ff88 dfbe 3d97 afbe 207b 6cbe
00000060: b63b 06be 98a8 13bf fc53 97be 446f 44be
00000070: a0b3 babe aec6 22be 39bc a9be 5b40 5abe
00000080: b7eb e2be 4f84 aabe 49aa fbbe 513b 24be
00000090: 635a 9d3c b505 cfbe e383 edbe bee6 a9be
000000a0: 46f6 78bd 8669 cbbe e750 e0bd 7684 17bf
000000b0: 5c6c 0dbf 2173 b7be a707 88be 285f 1d3e
000000c0: 00d0 60be 5f0d ffbe bb0e 8dbe d51c 9cbe
000000d0: ff5b 75bd 7cca 8fbe 34ad 28bf b10c d1be
000000e0: 728b 383e eb2c c2be c073 3dbe 2e95 b1be
000000f0: 30ae 84be ce4b 13bf 838b 77be bc15 adbe

weight f4 [2, 64]
1.1133082 0.06606354 -0.043600924 0.058040522 1.1594771 0.0970592 0.048360478 -0.0018729365
0.050700195 -0.22649683 0.9678151 -0.15249397 0.09716405 0.13650052 0.0073805875 0.1061906
0.11675209 0.1746063 -0.48501837 0.13103335 0.009197426 -0.056794167 -1.0843071 0.22688425
-0.040323295 0.017752009 0.019555189 0.051173985 0.0075050374 -0.09021181 -0.041353215 0.036859803
-0.035081547 -1.2131149 0.008565642 -0.09260323 -0.048299722 0.44606072 -0.05786272 0.12326443
0.042734608 -0.12260806 -0.104309276 -0.013380229 0.089342125 -1.6786277 0.7169609 -0.090573765
0.33541182 0.004172921 0.7150466 0.07185063 -0.060755167 -0.09676735 -0.047207024 -0.12309146
0.0794483 -0.038503695 0.04737721 0.083181344 0.1891722 0.047328796 0.2902494 0.13623883
-1.0615146 0.07450395 0.010165355 0.029489465 -1.1166676 0.075558774 0.039471585 -0.011228989
-0.06278721 0.09554817 -1.1675853 0.12892045 0.1164042 -0.07137817 -0.16611995 0.03932796
0.05757973 -0.0403618 0.5353031 0.0806919 0.013262754 -0.08196683 1.3065788 -0.06191553
-0.08046024 0.16489588 -0.030184025 -0.002621517 0.020285653 0.13123919 -0.09086959 0.019030353
-0.021341646 1.2376629 0.025599664 0.2613898 0.012513986 -0.46229464 -0.02303934 -0.035095803
-0.06530417 -0.11495145 -0.018440995 0.019170973 -0.0750486 1.8409402 -0.7055871 0.025407163
-0.31461895 -0.016172241 -0.8795373 -0.029836936 -0.0064502237 -0.059510045 -0.011453212 -0.061360385
-0.09680011 0.019391047 0.016744819 0.097388625 -0.19633377 0.024562074 -0.28525192 0.011736963
00000000: e280 8e3f 524c 873d e296 32bd e6bb 6d3d
00000010: bf69 943f f9c6 c63d a315 463d 527d f5ba
00000020: 02ab 4f3d c9ee 67be bbc2 773f 6127 1cbe
00000030: f2fd c63d cbc6 0b3e dbd8 f13b 757a d93d
00000040: b81b ef3d fecb 323e 5454 f8be 9b2d 063e
00000050: cdb0 163c 00a1 68bd 93ca 8abf 5854 683e
00000060: 0a2a 25bd a96c 913c 3432 a03c d09b 513d
00000070: d1ec f53b f8c0 b8bd fd61 29bd 4efa 163d
00000080: abb1 0fbd 5947 9bbf e856 0c3c c3a6 bdbd
00000090: eed5 45bd 1262 e43e 7601 6dbd 1072 fc3d
000000a0: 7c0a 2f3d ef19 fbbd 1aa0 d5bd bf38 5bbc
000000b0: 01f9 b63d 46dd d6bf c08a 373f bd7e b9bd
000000c0: 19bb ab3e 00bd 883b 4b0d 373f 6c26 933d
000000d0: 69da 78bd f62d c6bd 275c 41bd 6017 fcbd
000000e0: cab5 a23d 0db6 1dbd 9b0e 423d fb5a aa3d
000000f0: 5bb6 413e d7db 413d 929b 943e 3182 0b3e
00000100: b6df 87bf 8795 983d 978c 263c e493 f13c
00000110: f7ee 8ebf 8fbe 9a3d f5ac 213d cbf9 37bc
00000120: 9596 80bd c2ae c33d 6f73 95bf b903 043e
00000130: 5365 ee3d b82e 92bd 591b 2abe 5b16 213d
00000140: b9d8 6b3d 6a52 25bd a009 093f cb41 a53d
00000150: 064c 593c 3ade a7bd f93d a73f 249b 7dbd
00000160: 57c8 a4bd 77da 283e 7d44 f7bc c2cd 2bbb
00000170: 192e a63c 9163 063e d619 babd 8be5 9b3c
00000180: add4 aebc bd6b 9e3f 63b6 d13c e2d4 853e
00000190: 7607 4d3c e2b1 ecbe ffbc bcbc 9ec0 0fbd
000001a0: 31be 85bd aa6b ebbd 9211 97bc 720c 9d3c
000001b0: 15b3 99bd eea3 eb3f 5ba1 34bf af22 d03c
000001c0: bc15 a1be a67b 84bc 5b29 61bf 976c f4bc
000001d0: 665c d3bb cec0 73bd 41a6 3bbc 0755 7bbd
000001e0: 233f c6bd f9d9 9e3c 6e2c 893c b073 c73d
000001f0: b80b 49be 6736 c93c 8a0c 92be 644c 403c

bias f4 [2]
-0.02188328 -0.085131556
00000000: 9044 b3bc 7459 aebd

weight f4 [64, 4]
0.09575741 0.07935474 0.45192194 0.19183238 -0.25965887 0.35146198 0.028587291 0.21951327
-0.25018394 -0.050163753 0.012252084 -0.052917402 0.14016992 -0.29955542 0.101197034 0.11093407
0.1426525 -0.30566397 -0.4343692 -0.17521052 0.42445517 0.20034139 0.04368088 0.0683061
0.22408375 -0.114139736 -0.94641787 -0.14661366 0.010186959 0.022986926 -2.7586195 -0.21008028
-0.37477645 0.2831102 -0.10655786 0.29174238 0.09861417 0.19009031 -1.0210186 -0.2093746
0.032349706 0.021989247 -2.1954744 -0.2617022 0.26755783 -0.21852003 -0.35770974 -0.1934901
0.09765149 0.2494812 -0.5047898 0.2971564 0.09869995 0.09978028 0.45055905 -0.17181118
0.09021014 0.15514511 -0.1926094 0.08931687 0.0030048245 0.027748974 -2.7199266 -0.19121453
-0.025392149 0.07723715 -0.25747767 0.06398576 0.3954554 0.10078295 1.4709655 0.1473789
0.3889654 -0.27813554 -0.14965044 -0.27042174 0.3161912 -0.25296587 -0.0028462745 -0.2230561
0.18650313 0.09523961 -0.20545332 -0.13731945 -0.4866402 -0.15362327 -0.44631925 -0.10683031
-0.15492724 0.110843316 -0.30800253 0.03433706 -0.039752766 0.04469443 -0.09697813 0.092870526
0.0038689594 -0.005302911 2.5603702 0.24621904 -0.078531034 -0.2677969 0.52435297 -0.39188972
-0.014493584 0.011097504 -1.7496871 -0.16211772 0.34080675 -0.022680102 -1.7026942 -0.18816885
-0.041879285 0.037576236 2.7348223 0.36109883 -0.09691987 -0.031217868 0.322419 0.12160078
-0.026050158 -0.0005046701 0.44450575 -0.09989474 0.07733495 0.36235008 -0.70867074 -0.43625754
-0.13075358 0.19952495 0.2816554 -0.11851702 0.022616144 0.0573294 -2.5570126 -0.2343004
0.0004358841 -0.013960566 3.443568 0.23865765 0.009597808 -0.20461942 -0.23613507 0.30886856
0.10246676 0.17225096 -0.48300058 0.35629904 0.26483622 0.07098407 -0.9919487 -0.11589862
-0.39184564 0.21832797 -0.039373856 0.0028953867 0.27484798 -0.21201394 -0.3010535 -0.1336064
0.05083586 -0.3116031 0.35497737 -0.3315269 0.012618762 0.10700067 0.40704104 0.016247664
0.07485955 0.00659554 -0.2984123 0.21719936 -0.016971732 -0.26010773 -1.7186228 -0.5147629
0.48595658 0.073646344 0.20694675 -0.060167503 0.15091573 0.020667445 0.1607362 0.016147573
0.12664463 -0.28923225 -0.14033754 -0.33888626 -0.33490348 0.21722339 -0.3456439 0.01478493
0.053316962 0.032927603 -0.40364036 0.28895065 -0.32103118 0.19831812 -0.23735243 0.07059379
0.10002837 -0.25983 0.72295934 -0.23931752 -0.20100592 -0.010253873 -0.006483291 0.24097307
-0.25484955 0.1602101 0.24334326 0.03673081 0.012540461 -0.023276446 2.8623233 0.2349906
-0.13357137 0.33626753 -0.21643698 0.32653242 -0.33923542 0.0369822 -0.14805774 0.047889527
0.3724405 0.29217678 0.2070964 0.12281981 0.31644055 -0.21258134 0.4217815 -0.3335224
-0.047128726 -0.028147388 0.1924268 0.2604379 -0.015356437 -0.01986691 2.6873722 0.10976475
0.043158073 -0.04928986 0.10255258 -0.026591051 0.09472042 -0.40647772 0.30001336 -0.45770296
0.0660692 0.023820601 -0.28213096 0.12530433 -0.010315438 0.04213318 -2.1727126 -0.09936116
00000000: 761c c43d bd84 a23d 5062 e73e b56f 443e
00000010: 02f2 84be d3f2 b33e e52f ea3c 16c8 603e
00000020: 1c18 80be 8278 4dbd f7bc 483c ebbf 58bd
00000030: b488 0f3e 545f 99be 6440 cf3d 6731 e33d
00000040: 7f13 123e fd7f 9cbe a465 debe 636a 33be
00000050: 3052 d93e 4b26 4d3e b9ea 323d 12e4 8b3d
00000060: 3676 653e 18c2 e9bd 7148 72bf e421 16be
00000070: 34e7 263c 144f bc3c 398d 30c0 491f 57be
00000080: b3e2 bfbe d2f3 903e 023b dabd 425f 953e
00000090: 3af6 c93d 09a7 423e bdb0 82bf 4c66 56be
000000a0: 2081 043d cb22 b43c a782 0cc0 d5fd 85be
000000b0: 57fd 883e b7c3 5fbe bb25 b7be 4522 46be
000000c0: 81fd c73d 0078 7f3e e839 01bf e224 983e
000000d0: 3323 ca3d 9a59 cc3d adaf e63e 45ef 2fbe
000000e0: 18c0 b83d 5cde 1e3e 663b 45be c3eb b63d
000000f0: 97ec 443b d151 e33c 4713 2ec0 becd 43be
00000100: 3203 d0bc 832e 9e3d 1dd4 83be f70a 833d
00000110: 2179 ca3e 4b67 ce3d 9948 bc3f 7fea 163e
00000120: 7926 c73e c867 8ebe f73d 19be b874 8abe
00000130: d0e3 a13e be84 81be 9088 3abb d168 64be
00000140: adfa 3e3e fc0c c33d 5b62 52be 789d 0cbe
00000150: e728 f9be 6b4f 1dbe f583 e4be d9c9 dabd
00000160: 3fa5 1ebe d201 e33d 82b2 9dbe 04a5 0c3d
00000170: ccd3 22bd 8211 373d 789c c6bd e732 be3d
00000180: 5e8e 7d3b 0bc4 adbb 1bdd 2340 d820 7c3e
00000190: e1d4 a0bd ad1c 89be ff3b 063f c5a5 c8be
000001a0: 7f76 6dbc 4ed2 353c bff5 dfbf 3002 26be
000001b0: 397e ae3e 9fcb b9bc e2f1 d9bf 56af 40be
000001c0: 9d89 2bbd 8ae9 193d 5407 2f40 f2e1 b83e
000001d0: ed7d c6bd 9dbc ffbc 1a14 a53e d409 f93d
000001e0: 2467 d5bc d64b 04ba 4296 e33e 9d95 ccbd
000001f0: c961 9e3d f385 b93e 726b 35bf 265d dfbe
00000200: 44e4 05be 4550 4c3e 2335 903e 0db9 f2bd
00000210: 7e45 b93c 3cd2 6a3d 18a6 23c0 72ec 6fbe
00000220: 6087 e439 dcba 64bc 6b63 5c40 ac62 743e
00000230: 2040 1d3c c187 51be 64cd 71be 0524 9e3e
00000240: 18da d13d 8e62 303e da4b f7be d46c b63e
00000250: 9d98 873e 1960 913d 5af0 7dbf 415c edbd
00000260: fe9f c8be 5e91 5f3e 7b46 21bd 87c0 3d3b
00000270: e0b8 8c3e 2f1a 59be af23 9abe 1ed0 08be
00000280: 4339 503d 718a 9fbe 98bf b53e e5bd a9be
00000290: edbe 4e3c 2b23 db3d af67 d03e d219 853c
000002a0: f74f 993d 661f d83b 7fc9 98be 8269 5e3e
000002b0: 4d08 8bbc d72c 85be d5fb dbbf 80c7 03bf
000002c0: 4dcf f83e e5d3 963d d9e9 533e 3372 76bd
000002d0: a789 1a3e c64e a93c 0898 243e ea47 843c
000002e0: 21af 013e 4016 94be a5b4 0fbe 8082 adbe
000002f0: 7878 abbe cf6f 5e3e 3df8 b0be 7e3c 723c
00000300: e362 5a3d 18df 063d f3a9 cebe 57f1 933e
00000310: 335e a4be e813 4b3e 840c 73be 7a93 903d
00000320: addb cc3d 7008 85be dd13 393f a70f 75be
00000330: 7fd4 4dbe dcff 27bc c971 d4bb a5c1 763e
00000340: a47b 82be 1e0e 243e fa2e 793e 0c73 163d
00000350: 8176 4d3c 3fae bebc 4e30 3740 60a1 703e
00000360: efc6 08be 422b ac3e a8a1 5dbe 422f a73e
00000370: 44b0 adbe a67a 173d 739c 17be cf27 443d
00000380: 85b0 be3e 3298 953e 1411 543e f488 fb3d
00000390: 7f04 a23e ecae 59be bff3 d73e 73c3 aabe
000003a0: 0d0a 41bd 5a95 e6bc 880b 453e 1e58 853e
000003b0: 9199 7bbc eebf a2bc e8fd 2b40 57cc e03d
000003c0: 85c6 303d 2ae4 49bd 1607 d23d 7ad5 d9bc
000003d0: c8fc c13d d91d d0be 5a9b 993e 0b58 eabe
000003e0: 4a4f 873d 6c23 c33c 7873 90be c74f 003e
000003f0: 1502 29bc d793 2c3d b90d 0bc0 dd7d cbbd

bias f4 [64]
0.7043706 0.63055974 0.23523031 0.89553916 0.5651693 -0.9232949 -0.61343485 -0.5912894
1.0119736 -0.034481652 -0.5378132 0.7432442 0.9848983 1.0643154 0.8059094 -0.5713073
-0.18859467 -0.46556017 -0.66521555 0.7611807 1.1624024 -0.87219 0.8278721 -0.26546916
-0.5585443 0.8989137 -0.39862043 -0.3471343 -0.6717429 0.94763976 0.16787617 -0.6221717
0.7614933 -0.55565894 -0.70269346 0.39250144 0.94002914 -0.63587344 0.9575482 1.0045427
0.7583593 -0.16748522 0.44957435 -0.28942463 -0.92207533 0.6608295 0.8726965 0.95962346
0.6125387 0.81474376 0.4004744 0.87668437 0.39174455 -0.5975579 0.6537065 0.85772663
-0.8957509 0.95029694 0.74312353 -0.490599 -0.097757526 0.9694134 -0.4324142 -0.41734412
00000000: a251 343f 5d6c 213f 37e0 703e 0e42 653f
00000010: efae 103f 0e5d 6cbf 110a 1dbf be5e 17bf
00000020: 5a88 813f a23c 0dbd 20ae 09bf 4045 3e3f
00000030: 4c22 7c3f 7d3b 883f 1450 4e3f 3241 12bf
00000040: f61e 41be e75d eebe 914b 2abf bddc 423f
00000050: 9ac9 943f d847 5fbf 6def 533f 93eb 87be
00000060: c2fc 0ebf 351f 663f fa17 ccbe 96bb b1be
00000070: 58f7 2bbf 8598 723f bbe7 2b3e a546 1fbf
00000080: 3af1 423f aa3f 0ebf b8e3 33bf f3f5 c83e
00000090: c0a5 703f 9ac8 22bf e121 753f db94 803f
000000a0: d623 423f 3f81 2bbe 9c2e e63e 772f 94be
000000b0: 210d 6cbf 1f2c 293f 0a69 5f3f e2a9 753f
000000c0: 56cf 1c3f 0c93 503f fb0a cd3e 636e 603f
000000d0: be92 c83e 8ef9 18bf 4f59 273f f993 5b3f
000000e0: ee4f 65bf a946 733f 583d 3e3f cb2f fbbe
000000f0: 1935 c8bd 7a2b 783f 6565 ddbe 21ae d5be

weight f4 [1, 64]
0.3734482 0.15908723 0.03007599 0.3659187 0.3715961 -0.9148172 0.04302466 -3.0188758
0.49542263 -0.09660092 -2.388023 0.43542022 0.3631533 0.4223798 0.26908928 -3.5622504
-0.021425478 -0.49436298 -0.03631877 0.42734125 0.37494048 -0.85448897 0.47691324 -0.011368007
-2.3021247 0.30274257 -1.8600308 -0.16763608 -1.996413 0.35397294 0.0043669334 -0.108942315
0.29521522 -3.2278628 -3.6801102 0.08973924 0.46509787 -0.10020202 0.38023254 0.39912885
0.30539963 -0.007906769 0.066264845 -0.13391966 -0.87180793 0.49423477 0.3288255 0.4815534
0.17552994 0.39691192 0.18954933 0.26026064 0.119061604 -1.2027149 0.33034748 0.35103086
-0.62410116 0.35444286 0.31957126 -1.7125142 0.0055797417 0.3808408 -0.03638091 -1.5958055
00000000: 9a34 bf3e c3e7 223e ec61 f63c b259 bb3e
00000010: d841 be3e 7631 6abf a03a 303d 4335 41c0
00000020: 09a8 fd3e b4d6 c5bd 5ed5 18c0 66ef de3e
00000030: 3bef b93e 2a42 d83e 12c6 893e e9fb 63c0
00000040: 7c84 afbc 251d fdbe fec2 14bd 79cc da3e
00000050: 33f8 bf3e cabf 5abf f92d f43e e140 3abc
00000060: 0356 13c0 1301 9b3e 7d15 eebf cba8 2bbe
00000070: 768a ffbf f13b b53e 7e18 8f3b 261d dfbd
00000080: 7326 973e 4e95 4ec0 ed86 6bc0 35c9 b73d
00000090: 4f21 ee3e b736 cdbd d7ad c23e 9e5a cc3e
000000a0: 575d 9c3e 658b 01bc ddb5 873d 3c22 09be
000000b0: ce2e 5fbf 570c fd3e d15b a83e 2b8e f63e
000000c0: 1fbe 333e 0a38 cb3e 3819 423e e240 853e
000000d0: 92d6 f33d 90f2 99bf 4e23 a93e 51ba b33e
000000e0: 18c5 1fbf 8979 b53e d89e a33e aa33 dbbf
000000f0: 44d6 b63b 91fd c23e 2604 15bd 5b43 ccbf
