src/cartpole/results/CartPole-v1/train-a2c/20210408-075553/num_env6-num_episodes100000-learning_rate0.003-hidden_layers64-64-value_coefficient0.5.pt (torch, 7807 bytes, 7 tensors)

weight f4 [64, 4]
-0.22794393 0.14332199 -0.6772522 -0.1784399 -0.4403636 -0.1628648 0.9056892 0.0024212212
0.0041921097 -0.016686121 -0.33048895 0.055472363 -0.116291344 0.017029954 0.21269935 0.00593836
0.034215253 0.008096038 -3.144782 -0.27424625 -0.08375015 0.18076716 0.1906508 0.296586
0.0610165 -0.025154117 0.037610225 -0.06556518 -0.033704728 0.08964015 -0.046503644 0.12210902
-0.1586557 -0.032516114 -0.9431904 -0.17441478 -0.31395212 0.3314194 1.8742601 0.477622
-0.13009809 -0.43392432 -0.26693258 -0.18881322 -0.19321121 -0.05015056 1.8809874 0.030480327
0.0008739983 0.14134042 0.9921434 0.05134462 0.17404093 -0.21030654 -0.30220592 -0.11321829
0.22196595 -0.041098423 -2.3563921 -0.66730875 -0.016998978 0.063562475 2.6976075 0.38334513
0.13210243 -0.19530702 -0.045387946 -0.03651536 0.21845382 0.20335914 -2.129259 -0.3248424
0.05038687 0.04316948 3.083179 0.4738052 0.2894018 -0.2503606 0.24089956 -0.3470717
-0.07996195 0.09680119 0.34551075 0.10744602 0.07122395 -0.109564684 -0.050447825 -0.20290323
0.114797436 -0.06648472 2.9786224 0.25550148 -0.037304938 0.067111626 -2.6629846 -0.45480776
0.033806726 -0.031382527 -2.3212526 -0.35675395 0.2549689 -0.03517136 0.7141931 0.05377013
0.028289873 -0.029110912 -3.0163918 -0.24997549 -0.010230512 0.032265536 -0.4541388 0.07373764
-0.12762265 0.13889815 0.4393406 0.24410896 -0.025041878 0.07989289 0.34237823 0.15150882
0.058720794 0.0048130704 -0.13392511 0.08923737 -0.11866307 -0.015628686 -0.83148813 -0.19454709
-0.021964047 -0.019215843 0.18061706 -0.19935338 -0.015371565 0.0574598 0.15810752 -0.012539605
0.16560453 -0.020902848 0.0050851037 0.047346942 0.035506543 -0.1252742 2.6879685 0.32634673
-0.24023783 -0.1116916 1.8002635 -0.06544261 -0.02567561 -0.11547166 -1.1902497 -0.35465872
0.0524081 -0.019934943 0.3084823 -0.15890537 0.20839202 -0.29380494 0.14538415 -0.30115885
0.11717034 -0.16170678 -1.274935 -0.13634108 -0.06270783 0.033196904 -0.2424592 0.16436096
-0.034713026 -0.0011680992 0.56410414 0.010779549 0.35960856 -0.115077436 -1.131009 0.37901017
-0.068634026 -0.23379102 0.11964045 -0.2577556 -0.11930685 -0.022402765 3.1161509 0.22853073
0.06997695 0.008177061 -0.08045906 0.035605326 -0.0978171 0.1816928 0.8759481 0.25143945
-0.03525276 0.014259393 -0.24060544 -0.031604618 -0.39450157 0.33535376 -0.4547885 0.10896849
-0.070172586 -0.011141388 -2.7587354 -0.1827701 -0.23237176 0.15674779 -0.41386768 0.3969685
0.06393418 0.0006354447 0.4356782 -0.003218228 0.12385491 -0.1338039 0.022931946 -0.08306011
-0.036770493 -0.01589174 0.18832928 -0.30421677 -0.10442989 0.44531795 0.27084452 -0.018172182
-0.12855907 0.48535386 -1.5298855 -0.117930435 -0.10779545 0.11711824 -0.10974718 0.19600202
-0.11565583 0.11844697 -0.21738344 0.0030648138 0.14138141 -0.09836466 0.28718346 -0.010705464
-0.08282703 0.10299416 -0.40564296 0.12143936 0.20180638 -0.37220106 1.1475697 -0.43825844
-0.018986331 0.063934684 -2.1853294 -0.19301148 0.030631771 -0.08634529 -0.95363706 -0.118661486
00000000: 226a 69be 00c3 123e 6660 2dbf f3b8 36be
00000010: 5677 e1be 08c6 26be 3fdb 673f 5aad 1e3b
00000020: f75d 893b 55b1 88bc d935 a9be fd36 633d
00000030: 282a eebd 6782 8b3c dccd 593e 9396 c23b
00000040: 4b25 0c3d 3fa5 043c 1c44 49c0 016a 8cbe
00000050: 3385 abbd 071b 393e f739 433e 1fda 973e
00000060: 70ec 793d 0210 cebc 2e0d 1a3d 0947 86bd
00000070: f80d 0abd 4195 b73d 9b7a 3ebd 4b14 fa3d
00000080: a476 22be 9e2f 05bd ed74 71bf ca99 32be
00000090: 55be a0be ceaf a93e c1e7 ef3f df8a f43e
000000a0: 6f38 05be 542b debe 63ab 88be 4158 41be
000000b0: 29d9 45be ac6a 4dbd 32c4 f03f e1b1 f93c
000000c0: 081d 653a 8bbb 103e 1cfd 7d3f bc4e 523d
000000d0: c937 323e 995a 57be bcba 9abe fede e7bd
000000e0: 0b4b 633e d256 28bd 21cf 16c0 bfd4 2abf
000000f0: 7141 8bbc 0b2d 823d 9aa5 2c40 d045 c43e
00000100: dc45 073e 90fe 47be b6e8 39bd 2191 15bd
00000110: 5cb2 5f3e 613d 503e c845 08c0 be51 a6be
00000120: 7662 4e3d 7bd2 303d ce52 4540 9896 f23e
00000130: 792c 943e 442f 80be 60ae 763e 62b3 b1be
00000140: 17c3 a3bd b43f c63d c9e6 b03e a90c dc3d
00000150: dddd 913d 7363 e0bd 61a2 4ebd ddc5 4fbe
00000160: eb1a eb3d 2429 88bd c0a1 3e40 17d1 823e
00000170: 10cd 18bd d271 893d 576e 2ac0 90dc e8be
00000180: ec78 0a3d f78a 00bd 678f 14c0 74a8 b6be
00000190: 498b 823e d80f 10bd 5cd5 363f 113e 5c3d
000001a0: 2ac0 e73c 027a eebc 900c 41c0 93f9 7fbe
000001b0: e19d 27bc de28 043d e184 e8be c303 973d
000001c0: 83af 02be 513b 0e3e 40f1 e03e b3f7 793e
000001d0: a024 cdbc e29e a33d 334c af3e 2125 1b3e
000001e0: 3785 703d f6b6 9d3b aa23 09be 15c2 b63d
000001f0: a005 f3bd bb07 80bc 68dc 54bf 5a37 47be
00000200: f2ed b3bc 8b6a 9dbc aef3 383e 4b23 4cbe
00000210: 04d9 7bbc f85a 6b3d f0e6 213e ea72 4dbc
00000220: 3c94 293e 733c abbc f1a0 a63b deee 413d
00000230: 4f6f 113d e147 00be ad07 2c40 eb16 a73e
00000240: e800 76be 91be e4bd 096f e63f c606 86bd
00000250: a855 d2bc 687c ecbd 1a5a 98bf d495 b5be
00000260: e0a9 563d 9b4e a3bc 64f1 9d3e 17b8 22be
00000270: b864 553e 9a6d 96be 95df 143e 7e31 9abe
00000280: 01f7 ef3d 7696 25be 1231 a3bf ff9c 0bbe
00000290: f66c 80bd 7af9 073d 3947 78be 3d4e 283e
000002a0: 3f2f 0ebd e81a 99ba 2169 103f b59c 303c
000002b0: 9d1e b83e b8ad ebbd e7c4 90bf 9f0d c23e
000002c0: ff8f 8cbd ea66 6fbe 0d06 f53d 8bf8 83be
000002d0: 2657 f4bd 0186 b7bc 046f 4740 f603 6a3e
000002e0: 1350 8f3d 14f9 053c b8c7 a4bd e4d6 113d
000002f0: 5554 c8bd ad0d 3a3e 223e 603f acbc 803e
00000300: 3365 10bd 3ba0 693c 4661 76be d873 01bd
00000310: 1cfc c9be 7db3 ab3e 0ada e8be df2a df3d
00000320: a5b6 8fbd 5e8a 36bc 1f8f 30c0 1628 3bbe
00000330: ddf2 6dbe 7e82 203e 77e6 d3be 753f cb3e
00000340: ecef 823d f993 263a 3711 df3e e8e8 52bb
00000350: a5a7 fd3d e403 09be c7db bb3c 6b1b aabd
00000360: a89c 16bd 652f 82bc 64d9 403e 4dc2 9bbe
00000370: 57df d5bd b700 e43e 22ac 8a3e d4dd 94bc
00000380: fda4 03be 4d80 f83e 4ad3 c3bf 8385 f1bd
00000390: dcc3 dcbd b0db ef3d 21c3 e0bd c1b4 483e
000003a0: f7dc ecbd 5394 f23d c499 5ebe 0bdb 483b
000003b0: 4ac6 103e 6973 c9bd b609 933e f865 2fbc
000003c0: 38a1 a9bd 9aee d23d 6fb0 cfbe 33b5 f83d
000003d0: 55a6 4e3e 2391 bebe 90e3 923f 6963 e0be
000003e0: 3989 9bbc 30f0 823d 70dc 0bc0 cda4 45be
000003f0: 7bef fa3c cdd5 b0bd 8f21 74bf cb04 f3bd

bias f4 [64]
-0.6683666 0.05941787 -0.44271266 -0.5743561 -0.4632266 -0.46564263 -0.1873876 -0.28234446
-0.14692196 0.038359 -0.3943002 0.00864402 -0.29224136 -0.31566504 -0.4250496 -0.49138978
-0.6159119 -0.2351156 -0.6319696 -0.77669 -0.40945825 -0.35714242 -0.4651911 -0.42332104
-0.540626 -0.8552722 -0.4102644 -0.2110763 -0.4318824 -0.3159126 -0.35308218 -0.41460308
-0.44669825 -0.33455023 -0.58707386 -0.32983035 -0.15382807 -0.46677694 -0.47837383 -0.85522044
-0.3017693 -0.39604023 -0.3223098 -0.37739506 -0.6709437 -0.48100466 -0.4703972 -0.40507728
-0.21662067 -0.5501506 -0.31313676 -0.49458537 -0.2918668 -0.35843349 -0.7388468 -0.30518347
-0.021414405 -0.45128122 -0.35573736 -0.33204094 -0.55212545 -0.58036727 -0.38008377 -0.31176236
00000000: 131a 2bbf 2760 733d 3cab e2be 0009 13bf
00000010: 092c edbe b668 eebe 89e2 3fbe 748f 90be
00000020: b672 16be 541e 1d3d b7e1 c9be a69f 0d3c
00000030: a9a0 95be d99e a1be 1aa0 d9be 7197 fbbe
00000040: 67ac 1dbf 25c2 70be c2c8 21bf 28d5 46bf
00000050: 83a4 d1be 5fdb b6be 872d eebe 89bd d8be
00000060: 7766 0abf 1ef3 5abf 2d0e d2be 6324 58be
00000070: b11f ddbe 4cbf a1be 30c7 b4be db46 d4be
00000080: a2b5 e4be 2b4a abbe 794a 16bf 86df a8be
00000090: 1b85 1dbe 63fd eebe 6aed f4be baef 5abf
000000a0: 8181 9abe c9c5 cabe ca05 a5be ed39 c1be
000000b0: f7c2 2bbf 3e46 f6be e7d7 f0be 4a66 cfbe
000000c0: cfd1 5dbe abd6 0cbf 7653 a0be 4b3a fdbe
000000d0: 916f 95be 9884 b7be 1025 3dbf 0241 9cbe
000000e0: 436d afbc 550e e7be 3523 b6be 4501 aabe
000000f0: 1858 0dbf f392 14bf 579a c2be 519f 9fbe

weight f4 [2, 64]
0.060848422 -0.15028602 0.07762372 0.08707532 1.5241815 0.07156929 0.041302532 -0.03809585
-0.045803025 -0.24505526 0.08177013 -0.11613774 0.12534857 -0.04927098 0.33989754 -0.62388706
0.069200486 0.6197021 -1.2220546 0.10647504 -0.011501378 -0.027124317 -0.983236 1.1217226
0.67997634 0.121030174 0.4476024 0.03874544 0.0060155825 0.005947847 -0.08586243 0.03894681
-0.015408004 0.007990839 0.015558294 -0.8321528 -0.24037302 0.0038188063 -0.0345882 0.14018205
-0.055692073 -0.110763416 -0.06158778 -0.17353965 0.016374663 -1.7069783 0.06961271 -0.0537941
0.019074025 0.00911917 0.85330933 0.052812804 -0.052238435 -0.096198924 -0.033928644 -0.025448514
0.15903342 -0.0906803 0.03691085 0.0852827 0.0020422987 0.03358646 0.7050915 0.075390115
-0.009054648 0.29085425 -0.11105948 0.00045428006 -1.4813715 0.10104806 0.046530053 0.024994044
0.033716053 0.11410081 -0.28154123 0.09256398 0.08821854 0.11439341 -0.4986373 0.76940733
0.105131544 -0.48545757 1.2723378 0.10525014 0.033961594 -0.11163658 1.2055023 -0.95675826
-0.8007599 0.061615817 -0.4582314 0.009807372 0.021775268 0.03507966 -0.04636032 0.01694384
-0.04101553 0.016557038 0.018607011 1.0009409 0.20458688 -0.020052327 -0.04631375 -0.052014727
0.033122998 -0.12679613 -0.061162293 0.17933024 -0.0020806014 1.8692931 -0.05823885 -0.011369501
0.0017194471 -0.021118388 -1.0177962 -0.010798567 -0.014967297 -0.060078487 -0.024731597 -0.15900311
-0.17638591 0.07156757 0.027210496 0.09528727 -0.009203966 0.038304377 -0.7000942 0.07258698
00000000: 323c 793d 94e4 19be 2ff9 9e3d 8c54 b23d
00000010: 6118 c33f eb92 923d d82c 293d 650a 1cbd
00000020: f49b 3bbd c4ef 7abe 1977 a73d a0d9 edbd
00000030: 605b 003e 5ed0 49bd 0d07 ae3e 10b7 1fbf
00000040: fcb8 8d3d cca4 1e3f 496c 9cbf 960f da3d
00000050: 4770 3cbc d133 debc 5bb5 7bbf 9b94 8f3f
00000060: ee12 2e3f abde f73d 242c e53e 8ab3 1e3d
00000070: 5d1e c53b 28e6 c23b a4d8 afbd b186 1f3d
00000080: da71 7cbc 02ec 023c 37e8 7e3c f707 55bf
00000090: 5824 76be f044 7a3b 5bac 0dbd e28b 0f3e
000000a0: 5f1d 64bd eed7 e2bd 7843 7cbd 61b4 31be
000000b0: 2824 863c 447e dabf 1c91 8e3d 3457 5cbd
000000c0: 2141 9c3c 9268 153c 7b72 5a3f 3d52 583d
000000d0: f8f7 55bd f103 c5bd c3f8 0abd 6779 d0bc
000000e0: a8d9 223e 98b6 b9bd d52f 173d b2a8 ae3d
000000f0: 16d8 053b f591 093d e080 343f 2266 9a3d
00000100: f259 14bc d9ea 943e 2773 e3bd 702c ee39
00000110: 959d bdbf 49f2 ce3d 4c96 3e3d 4fc0 cc3c
00000120: d819 0a3d afad e93d 2c26 90be 2f92 bd3d
00000130: ecab b43d 1847 ea3d 634d ffbe e1f7 443f
00000140: 354f d73d e58d f8be f7db a23f 638d d73d
00000150: 501b 0b3d b8a1 e4bd e64d 9a3f 1cee 74bf
00000160: 9afe 4cbf de60 7c3d 4e9d eabe 19af 203c
00000170: 0c62 b23c b1af 0f3d 52e4 3dbd cfcd 8a3c
00000180: e6ff 27bd a0a2 873c bb6d 983c d51e 803f
00000190: 397f 513e c744 a4bc 7db3 3dbd 650d 55bd
000001a0: fbab 073d d8d6 01be 5085 7abd 59a2 373e
000001b0: b35a 08bb ff44 ef3f dc8b 6ebd 2547 3abc
000001c0: 125f e13a 7800 adbc 2547 82bf 79ec 30bc
000001d0: 6539 75bc dc14 76bd eb99 cabc b6d1 22be
000001e0: 829e 34be 0592 923d 8ce8 de3c f925 c33d
000001f0: 3bcc 16bc 0de5 1c3d 6039 33bf 7ca8 943d

bias f4 [2]
-0.00080882164 -0.106205754
00000000: 1a07 54ba 6782 d9bd

weight f4 [64, 4]
0.06185807 0.11238592 0.42164573 0.14718373 -0.21518032 0.28082326 -0.07019795 0.2432614
-0.33831486 0.13394727 -1.9479793 -0.19382824 0.18557605 -0.2731708 0.00704681 0.05647114
0.17739744 -0.2884053 -0.4351838 -0.16452664 0.43752894 0.21071869 0.3105557 0.22576565
0.19467975 -0.26538298 -0.5632366 -0.049753696 0.023517534 0.030044593 -3.4151087 -0.22580588
-0.3989126 0.26454884 -0.09366798 0.31210583 0.5293916 0.18035485 0.31028458 -0.006490257
0.018060366 0.03608177 -2.6143947 -0.2176005 0.2178138 -0.16746387 -0.25831044 -0.19407037
0.055943526 0.2491332 -0.4678064 0.2596722 0.07874371 0.11170061 0.5197534 -0.14971831
0.08811321 0.12321278 -0.15158719 0.12488409 0.0053153536 0.030941973 -3.139112 -0.2393921
0.075474985 -0.01783805 -2.394494 -0.20448725 0.03263724 0.031444058 -2.606398 -0.21181078
0.029985612 0.029030483 -2.6234713 -0.24812286 0.33138552 -0.2299245 0.05516612 -0.2407308
0.12931366 0.13871133 -0.09640931 -0.12190939 -0.52546006 -0.25960633 -0.69433355 -0.120416984
-0.18023461 0.086752914 -0.27907375 0.06331787 0.3544438 0.2847348 1.1721776 0.35461295
-0.42556676 0.008605225 2.124681 0.45828158 -0.06739638 -0.25234273 0.5967752 -0.29525056
0.06612907 -0.025637714 0.02293155 0.09999633 0.037818123 0.003946439 -2.8592756 -0.25426248
0.02262484 0.010636905 3.1763296 0.3851046 -0.11644616 -0.036268726 0.2664206 0.10836369
0.0056740358 -0.021795565 0.24969655 -0.099901944 -0.18715699 0.30231628 -1.5215148 -0.367287
-0.12255655 0.14962001 0.30749035 -0.11087074 0.016076632 0.018312424 -2.9688299 -0.18801449
0.016905272 0.006281537 4.082208 0.31708091 -0.0022537007 0.0060833534 -0.37832245 0.005775221
0.10562293 0.16856365 -0.4736998 0.35619646 0.15191501 -0.06969661 -1.3778245 0.022072958
-0.37806812 0.28810665 0.04065618 0.025002193 0.21978126 -0.23409499 -0.25272465 -0.109637335
0.05829998 -0.29196554 0.4206102 -0.2795895 0.41458666 0.2819422 0.66156405 0.10635719
-0.02014783 0.04514427 -0.28968403 0.06501013 0.13036384 -0.066518754 -2.0034273 -0.4314939
0.60492325 0.08405254 0.4081209 -0.05231315 0.113616705 0.033267427 0.17504859 -0.013011258
0.081991315 -0.25657126 -0.048345365 -0.32705808 -0.36247626 0.20384505 -0.3155509 0.041236445
0.00396735 0.045488548 -0.49960467 0.1947074 -0.31076524 0.24127643 -0.17029771 0.09406207
0.1624677 -0.19599204 0.48624554 -0.21547735 -0.204639 0.0056116697 -0.14190929 0.18269005
-0.018304097 0.0688503 0.040837888 0.040440403 0.0059705074 0.01705305 3.8041933 0.24804696
-0.13903296 0.31019357 -0.25753814 0.3251015 -0.29867783 0.04121427 -0.16579433 0.07464592
0.48218942 0.27736574 -0.18408346 0.1072934 0.2677207 -0.20299523 0.46465707 -0.3169532
0.010913255 0.011446513 0.07809418 0.19447282 0.09054514 0.024398237 3.0159929 0.2375534
0.028982595 -0.100804456 -0.1991304 -0.075464115 0.07487813 -0.3962647 0.33502528 -0.42668003
0.053639323 0.02951984 -0.23643182 0.11491654 -0.106892444 0.11307619 -1.7485442 0.031236073
00000000: e35e 7d3d 972a e63d f3e1 d73e 55b7 163e
00000010: 3b58 5cbe 11c8 8f3e f1c3 8fbd 8419 793e
00000020: 9b37 adbe 7929 093e 6357 f9bf e97a 46be
00000030: a607 3e3e 0bdd 8bbe ede8 e63b 484e 673d
00000040: ada7 353e dca9 93be 69d0 debe ac79 28be
00000050: cb03 e03e a4c6 573e 2801 9f3e 1c2f 673e
00000060: 215a 473e 47e0 87be 4630 10bf 88ca 4bbd
00000070: d8a7 c03c 1420 f63c 2491 5ac0 a839 67be
00000080: 463e ccbe f272 873e ffd4 bfbd 56cc 9f3e
00000090: 3586 073f f1ae 383e 9fdd 9e3e 39ac d4bb
000000a0: 55f3 933c 7aca 133d 3e52 27c0 aad2 5ebe
000000b0: 950a 5f3e a67b 2bbe 4441 84be 62ba 46be
000000c0: 0a25 653d c61c 7f3e 5284 efbe c1f3 843e
000000d0: 6244 a13d 4ac3 e43d 8f0e 053f c24f 19be
000000e0: b374 b43d fb56 fc3d ac39 1bbe 3bc3 ff3d
000000f0: 6b2c ae3b 057a fd3c 36e7 48c0 3423 75be
00000100: a192 9a3d 1a21 92bc 643f 19c0 1b65 51be
00000110: a0ae 053d 7ccb 003d 3acf 26c0 ede4 58be
00000120: 63a4 f53c 56d1 ed3c f4e6 27c0 eb13 7ebe
00000130: 5dab a93e 5471 6bbe dff5 613d 2382 76be
00000140: cd6a 043e 580a 0e3e 3f72 c5bd a1ab f9bd
00000150: 8d84 06bf 1feb 84be d8bf 31bf 2e9d f6bd
00000160: 6c8f 38be 83ab b13d c1e2 8ebe cdac 813d
00000170: a879 b53e c2c8 913e ea09 963f d48f b53e
00000180: e3e3 d9be eefc 0c3c c6fa 0740 e2a3 ea3e
00000190: 1d07 8abd 1133 81be 42c6 183f 152b 97be
000001a0: ae6e 873d 2f06 d2bc f2da bb3c e0ca cc3d
000001b0: 2de7 1a3d 2151 813b 5ffe 36c0 b12e 82be
000001c0: ba57 b93c 6a46 2e3c fc48 4b40 6e2c c53e
000001d0: 537b eebd 848e 14bd 4868 883e c8ed dd3d
000001e0: 43ed b93b 9d8c b2bc 74b0 7f3e 6499 ccbd
000001f0: 15a6 3fbe 33c9 9a3e ffc0 c2bf 0b0d bcbe
00000200: eefe fabd fd35 193e 606f 9d3e 3310 e3bd
00000210: 24b3 833c f003 963c 4f01 3ec0 df86 40be
00000220: ed7c 8a3c 5ad5 cd3b 73a1 8240 6e58 a23e
00000230: d3b2 13bb de56 c73b 7bb3 c1be 113e bd3b
00000240: d650 d83d f39b 2c3e c888 f2be 625f b63e
00000250: 9c8f 1b3e 19bd 8ebd 8e5c b0bf 59d2 b43c
00000260: 2592 c1be b782 933e 1887 263d 66d1 cc3c
00000270: 570e 613e 99b6 6fbe 2065 81be 8a89 e0bd
00000280: f6cb 6e3d 827c 95be 385a d73e 5b26 8fbe
00000290: b444 d43e ba5a 903e 435c 293f ccd1 d93d
000002a0: 100d a5bc 33e9 383d 7751 94be 0824 853d
000002b0: 197e 053e fc3a 88bd 2738 00c0 c5ec dcbe
000002c0: 40dc 1a3f bd23 ac3d 39f5 d03e 5046 56bd
000002d0: e0af e83d 6d43 083d f03f 333e 2c2d 55bc
000002e0: 10eb a73d 4f5d 83be ca05 46bd 2874 a7be
000002f0: 7d96 b9be c2bc 503e e38f a1be 8ce7 283d
00000300: 8b00 823b 3352 3a3d 2fcc ffbe 6061 473e
00000310: 9f1c 9fbe 2b11 773e 8662 2ebe 9da3 c03d
00000320: ef5d 263e 23b2 48be 2df5 f83e 18a6 5cbe
00000330: e38c 51be 19e2 b73b ab50 11be 1a13 3b3e
00000340: 79f2 95bc 6301 8d3d a145 273d d6a4 253d
00000350: 3fa4 c33b d7b2 8b3c e777 7340 0600 7e3e
00000360: a85e 0ebe b1d1 9e3e 0adc 83be b473 a63e
00000370: 4dec 98be 4bd0 283d fdc5 29be f6df 983d
00000380: 88e1 f63e e202 8e3e 6080 3cbe a4bc db3d
00000390: b012 893e fbdd 4fbe 88e7 ed3e b147 a2be
000003a0: 82cd 323c 288a 3b3c d7ef 9f3d e223 473e
000003b0: bb6f b93d d0de c73c 0706 4140 3341 733e
000003c0: e86c ed3c 9172 cebd d7e8 4bbe ee8c 9abd
000003d0: b459 993d 35e3 cabe 6f88 ab3e ce75 dabe
000003e0: e8b4 5b3d 97d3 f13c 2f1b 72be 5d59 eb3d
000003f0: 6dea dabd 7d94 e73d 4cd0 dfbf cbe2 ff3c

bias f4 [64]
0.7481725 0.37371114 -0.051834345 0.98614705 0.64841074 -0.94555795 -0.7281699 -0.7077867
1.1174288 -1.1103834 -0.58222914 0.8139281 1.0091285 1.1232098 0.82623327 -0.6723911
-0.5246343 -0.58484256 -0.6059901 0.7998713 1.2086196 -1.0268401 0.93344164 -0.728544
-0.59011924 0.98778695 -0.4347675 -0.64255035 -0.8145342 1.0129557 -0.18564078 -0.72912693
0.6981773 -0.61674464 -0.87024444 -0.067227796 1.0436647 -0.6054181 0.9812577 1.1023945
0.8244153 -0.8657957 -0.1041777 -0.6515996 -1.2655646 0.7252511 0.892615 1.0588256
0.4368844 0.82980734 -0.35388723 0.8971097 -0.21155308 -0.7685952 0.6959098 0.9328304
-1.0901432 0.9822717 0.81631434 -0.60905564 -0.30655128 1.0551696 -0.44081596 -0.27682585
00000000: 3c88 3f3f 1157 bf3e 4050 54bd 2274 7c3f
00000010: 3ffe 253f 1610 72bf 5869 3abf 8231 35bf
00000020: e807 8f3f 0b21 8ebf f80c 15bf 985d 503f
00000030: 1f2b 813f 57c5 8f3f 0684 533f d321 2cbf
00000040: 6f4e 06bf 3eb8 15bf 2b22 1bbf 5ec4 4c3f
00000050: 0cb4 9a3f 7f6f 83bf 08f6 6e3f dc81 3abf
00000060: 0e12 17bf 9bdf 7c3f d999 debe 2e7e 24bf
00000070: 5085 50bf 88a8 813f 9e18 3ebe 10a8 3abf
00000080: bfbb 323f fae2 1dbf 57c8 5ebf baae 89bd
00000090: ce96 853f aefc 1abf b433 7b3f 431b 8d3f
000000a0: e20c 533f c9a4 5dbf 1e5b d5bd 3bcf 26bf
000000b0: 05fe a1bf 0eaa 393f 6b82 643f 9987 873f
000000c0: 50af df3e 416e 543f b530 b5be fba8 653f
000000d0: 5fa1 58be a8c2 44bf 2527 323f f9cd 6e3f
000000e0: d089 8bbf 2876 7b3f faf9 503f 12eb 1bbf
000000f0: 4af4 9cbe cc0f 873f a1b2 e1be 1ebc 8dbe

weight f4 [1, 64]
0.30140528 0.028260536 -0.11592436 0.36788264 0.30993494 -0.695387 -0.019295547 -4.461544
0.5108039 -1.3072037 -2.714294 0.37768942 0.32689652 0.42605856 0.24713361 -3.9430356
-2.3072877 -3.0321016 -2.603818 0.38553765 0.37054893 -0.7826648 0.4740684 -0.4585966
-0.12662588 0.30593905 0.086097725 -3.0060406 -2.3056195 0.35784122 0.0559621 -0.13835229
0.16258064 -3.4807336 -5.0570297 -0.0013136145 0.48990148 -0.0029359185 0.30441946 0.43891457
0.2862979 -0.7307424 0.0016084799 -0.36152565 -1.4816126 0.384277 0.3054193 0.4906105
0.043358795 0.2784862 0.02973348 0.2426774 0.0064109038 -3.548524 0.25997055 0.3322875
-0.8733275 0.34727296 0.27742317 -1.4053043 -0.005801778 0.39988142 -0.052764315 -0.08774352
00000000: cb51 9a3e a482 e73c c069 edbd 1d5b bc3e
00000010: cbaf 9e3e e204 32bf b211 9ebc f8c4 8ec0
00000020: 0bc4 023f 7352 a7bf feb6 2dc0 8260 c13e
00000030: fb5e a73e 5924 da3e 9810 7d3e b25a 7cc0
00000040: 9aaa 13c0 f40d 42c0 f4a4 26c0 3165 c53e
00000050: 97b8 bd3e b85c 48bf 18b9 f23e 2ccd eabe
00000060: 37aa 01be 0ba4 9c3e 0154 b03d f862 40c0
00000070: 458f 13c0 f736 b73e 8438 653d 39ac 0dbe
00000080: 8a7b 263e 57c4 5ec0 30d3 a1c0 972d acba
00000090: 5ed4 fa3e 8a68 40bb dedc 9b3e 69b9 e03e
000000a0: a395 923e ef11 3bbf a1d3 d23a e419 b9be
000000b0: 7ba5 bdbf f4bf c43e eb5f 9c3e 4d31 fb3e
000000c0: fe98 313d be95 8e3e a193 f33c 6d80 783e
000000d0: 8f12 d23b 041b 63c0 dc1a 853e 9621 aa3e
000000e0: 6492 5fbf c3cd b13e 690a 8e3e 03e1 b3bf
000000f0: d71c bebb 42bd cc3e 651f 58bd e0b2 b3bd
