src/cartpole/results/CartPole-v1/train-a2c/20210408-075553/num_env6-num_episodes50000-learning_rate0.003-hidden_layers32-32-value_coefficient0.1.pt (torch, 6143 bytes, 7 tensors)

weight f4 [32, 4]
-0.04517186 0.28893265 -1.8469337 -0.47493663 -0.22660883 0.10451774 1.624032 0.7304453
-0.015795453 0.052080464 0.45196688 -0.096600294 -0.31131583 -0.29515126 1.5889046 0.107895166
0.009173106 -0.0762482 -1.9243957 -0.388807 0.29839098 0.27252775 1.5232482 0.67059547
-0.15208273 -0.007857941 -0.9320687 -0.31341186 -0.14861122 0.073881306 1.9117067 0.502922
-0.15574215 -0.08079466 -1.5145702 -0.4353574 -0.25986892 0.29810387 1.564339 0.27920595
-0.07887713 -0.14814019 -1.2532544 -0.38881847 -0.035979737 -0.062735416 1.443624 0.15534498
-0.26705346 0.29634953 -0.44868198 0.19496219 -0.0124442475 -0.012350006 -0.9525257 -0.13329825
0.043232147 -0.27635694 0.81275976 -0.2655789 0.023791296 -0.023212323 -2.2471583 -0.36641705
0.12208053 -0.08939034 0.07658358 0.13052534 -0.030020127 0.1874128 -0.21815802 -0.057649914
0.5027253 0.28516126 1.3229119 0.46082103 0.1771774 -0.28821814 -0.3939034 -0.13138896
-0.17304616 0.18205938 0.19208986 -0.200398 0.05700559 -0.114548124 -0.05522742 -0.20240243
0.17028901 -0.2290431 1.2028761 0.26878646 0.1538466 -0.14488742 -2.5594883 -0.53363657
0.1386391 -0.102217846 -2.1350143 -0.4179421 -0.07063434 0.18044813 -1.5403821 -0.050024163
-0.057426747 0.06912167 -0.72473973 -0.0039197016 0.0016686918 0.10115182 -0.23513912 0.26968202
-0.016160512 0.12917112 0.3896039 -0.0072463695 -0.058753844 0.08746254 0.027457345 0.054393176
-0.05754608 -0.022430563 1.8748648 0.31460226 -0.4777563 -0.28863075 -1.6736822 -0.3689645
00000000: 2106 39bd fbee 933e 5368 ecbf e52a f3be
00000010: 250c 68be 660d d63d 48e0 cf3f 77fe 3a3f
00000020: 7765 81bc 5352 553d 3468 e73e 60d6 c5bd
00000030: ca64 9fbe 111e 97be 3a61 cb3f 24f8 dc3d
00000040: cc4a 163c 0428 9cbd 9952 f6bf b611 c7be
00000050: b4c6 983e c288 8b3e ccf9 c23f 25ac 2b3f
00000060: 93bb 1bbe 98be 00bc 0e9c 6ebf 8577 a0be
00000070: 8a2d 18be 154f 973d ceb2 f43f 7fbf 003f
00000080: df7a 1fbe ac77 a5bd 70dd c1bf 2ae7 debe
00000090: 8a0d 85be 12a1 983e 433c c83f 15f4 8e3e
000000a0: 558a a1bd 10b2 17be a46a a0bf 3713 c7be
000000b0: 7d5f 13bd 6d7b 80bd acc8 b83f c112 1f3e
000000c0: 3bbb 88be 20bb 973e a5b9 e5be 2ba4 473e
000000d0: f5e2 4bbc ae57 4abc b9d8 73bf 567f 08be
000000e0: 3114 313d a87e 8dbe 0611 503f f5f9 87be
000000f0: f7e5 c23c c527 bebc 71d1 0fc0 049b bbbe
00000100: 5b05 fa3d 4812 b7bd dad7 9c3d 6fa8 053e
00000110: c5ec f5bc 24e9 3f3e d164 5fbe 5122 6cbd
00000120: 9bb2 003f a800 923e 2d55 a93f bcf0 eb3e
00000130: fe6d 353e 5491 93be b5ad c9be d48a 06be
00000140: 0333 31be c66d 3a3e 34b3 443e 2235 4dbe
00000150: b27e 693d 3598 eabd 2636 62bd 9542 4fbe
00000160: 3e60 2e3e 468a 6abe d8f7 993f 619e 893e
00000170: f789 1d3e 5e5d 14be a8ce 23c0 689c 08bf
00000180: 69f7 0d3e 9757 d1bd 13a4 08c0 82fc d5be
00000190: bda8 90bd 65c7 383e 3e2b c5bf 23e6 4cbd
000001a0: 4f38 6bbd aa8f 8d3d 8b88 39bf d770 80bb
000001b0: 01b8 da3a af28 cf3d 4fc8 70be c313 8a3e
000001c0: 0d63 84bc 6f45 043e 2a7a c73e f472 edbb
000001d0: dfa7 70bd 8f1f b33d 3aee e03c 61cb 5e3d
000001e0: 70b5 6bbd 4dc0 b7bc 92fb ef3f 8c13 a13e
000001f0: 799c f4be 69c7 93be 383b d6bf eae8 bcbe

bias f4 [32]
-0.064106025 -0.45992085 -0.24473254 -0.15108886 -0.30542192 0.06550196 0.2405748 -0.28837374
-0.27976364 0.4132382 0.34937504 -0.13345405 -0.04479203 0.11057143 -0.025756076 -0.360984
-0.5078445 -0.5420343 -0.0651663 -0.17546122 -0.6381189 -0.40869343 -0.57020324 -0.39842147
-0.31687415 0.2810917 -0.20332642 -0.5029211 -0.26053286 -0.4541825 -0.23695675 -0.2381317
00000000: 054a 83bd bf7a ebbe 2b9b 7abe 0ab7 1abe
00000010: 4360 9cbe e425 863d 3e59 763e b9a5 93be
00000020: 2e3d 8fbe f593 d33e 49e1 b23e 2ea8 08be
00000030: d977 37bd 4673 e23d 68fe d2bc e5d2 b8be
00000040: 1902 02bf c3c2 0abf e975 85bd 1bac 33be
00000050: c35b 23bf 4440 d1be d7f8 11bf e6fd cbbe
00000060: 543d a2be 40eb 8f3e cd34 50be 70bf 00bf
00000070: 9064 85be 9c8a e8be caa4 72be ccd8 73be

weight f4 [2, 32]
0.22600918 -0.30781987 -0.13775708 -0.23783219 0.2714315 -0.36068767 -0.04508902 -0.23409586
0.03864784 -0.27012777 0.24793947 -0.17094201 0.0997085 0.10399039 -0.16378127 1.3275472
0.06384094 -0.002446612 -0.115971446 -0.083902344 0.023228662 -0.048607428 -0.023852676 0.8579244
0.81478614 0.12426385 0.041434407 -0.07545991 -0.0715065 0.15320617 -0.19844063 0.32067248
-0.38475174 0.2809958 -0.14548922 -0.012116704 -0.40210208 0.42338604 -0.14055927 0.296831
-0.19032021 0.37215108 -0.22610778 -0.022524081 -0.04272637 0.08376263 -0.059299376 -1.0665928
-0.020316193 -0.05408343 0.2560155 -0.093894966 0.01791985 -0.028770112 0.14884867 -0.7860225
-0.8681193 -0.15448791 0.05880116 -0.1051797 -0.08686571 0.117453665 0.4026561 -0.19471261
00000000: f36e 673e 919a 9dbe 3110 0dbe 488a 73be
00000010: 12f9 8a3e 0eac b8be 44af 38bd d3b6 6fbe
00000020: 334d 1e3d 304e 8abe d8e3 7d3e 6c0b 2fbe
00000030: f833 cc3d eaf8 d43d 47b6 27be 11ed a93f
00000040: 0abf 823d 5757 20bb 7082 edbd fed4 abbd
00000050: 094a be3c 9518 47bd b066 c3bc efa0 5b3f
00000060: d395 503f 0c7e fe3d 20b7 293d ba8a 9abd
00000070: 0072 92bd 14e2 1c3e 0534 4bbe 2f2f a43e
00000080: 2efe c4be aede 8f3e 20fb 14be 2485 46bc
00000090: 53e0 cdbe 0ec6 d83e c5ee 0fbe 3cfa 973e
000000a0: 4de3 42be 968a be3e cc88 67be 6c84 b8bc
000000b0: d901 2fbd be8b ab3d e7e3 72bd 1d86 88bf
000000c0: 256e a6bc 9686 5dbd 7714 833e 014c c0bd
000000d0: a6cc 923c 4caf ebbc c96b 183e c538 49bf
000000e0: 113d 5ebf 1432 1ebe 7cd9 703d 7468 d7bd
000000f0: a6e6 b1bd 8c8b f03d f128 ce3e be62 47be

bias f4 [2]
-0.17600979 0.110384956
00000000: e93b 34be 8211 e23d

weight f4 [32, 4]
-0.18404225 -0.115505345 -0.17869948 -0.121872894 -0.04671088 0.30938053 0.047170866 0.40917787
0.102426685 -0.113569856 -2.483975 -0.46969467 -0.2144442 0.073448956 0.17329717 0.34380615
0.27750874 0.0032351555 0.707307 -0.39278138 0.3645986 -0.3970365 -0.14202408 -0.22630729
0.038344026 0.107852556 -2.2555099 -0.1846716 -0.36783862 -0.2070864 1.5149726 0.39642823
-0.053711295 0.13100849 3.0068622 0.4102173 0.19149897 0.16091844 0.2044118 -0.0752409
-0.097322546 0.10973652 0.36794126 0.07272112 -0.17254038 -0.23664433 -0.5713017 0.0011418625
-0.057552215 -0.32226497 0.43188605 -0.420969 0.04000616 0.013875072 0.5408166 -0.28221685
-0.16543606 0.17446566 2.1881926 0.49826038 -0.21752523 0.08452456 -0.026684783 -0.05565093
-0.27772066 0.04728799 -1.7942331 -0.20757927 -0.05012872 -0.33707997 0.31728145 -0.4192021
0.06016775 0.0073494883 2.8872945 0.19193304 0.015174071 0.027549377 -2.9691641 -0.24642417
-0.044087358 0.12814069 0.17980433 -0.02376271 -0.34438968 -0.09852836 0.32397267 0.07076625
0.13303922 0.18199097 -0.3136334 0.004534945 0.23855811 -0.0034287928 0.0043052104 0.0036747477
-0.29051888 0.15417932 0.21202222 0.22061743 0.27896878 -0.07144596 0.17154367 -0.24045296
-0.19447252 -0.30354285 0.3975887 0.14590597 -0.26219437 0.21951394 0.23809265 0.34036487
0.10791429 0.053395353 0.2127285 0.055147182 0.22345254 0.19753274 -0.45256093 0.26298198
0.1770863 0.1566173 -0.37533948 0.0914843 -0.1252141 0.35966536 -0.20374767 0.09605045
00000000: 9275 3cbe 118e ecbd fffc 36be 7f98 f9bd
00000010: e853 3fbd 2067 9e3e 3d36 413d c37f d13e
00000020: 15c5 d13d 5097 e8bd 72f9 1ec0 d27b f0be
00000030: 4397 5bbe 686c 963d d074 313e 5c07 b03e
00000040: a015 8e3e e704 543b 1212 353f a41a c9be
00000050: abac ba3e 5e48 cbbe c36e 11be 19bd 67be
00000060: a00e 1d3d cde1 dc3d 465a 10c0 8d1a 3dbe
00000070: 5855 bcbe 750e 54be 9fea c13f a4f8 ca3e
00000080: 6000 5cbd 1727 063e 6e70 4040 0008 d23e
00000090: 4e18 443e cec7 243e 5451 513e e717 9abd
000000a0: 0b51 c7bd 8abd e03d cc62 bc3e d0ee 943d
000000b0: 6dae 30be e452 72be d440 12bf 8caa 953a
000000c0: dfbb 6bbd eaff a4be 2b20 dd3e 4089 d7be
000000d0: 80dd 233d 4554 633c f572 0a3f ba7e 90be
000000e0: 1268 29be 20a7 323e 590b 0c40 fc1b ff3e
000000f0: efbe 5ebe 361b ad3d 0c9a dabc 3bf2 63bd
00000100: 6731 8ebe 0db1 413d 6ea9 e5bf a98f 54be
00000110: c653 4dbd bf95 acbe b772 a23e a8a1 d6be
00000120: 7572 763d fad3 f03b 6fc9 3840 188a 443e
00000130: ab9c 783c 3baf e13c c906 3ec0 9e56 7cbe
00000140: f294 34bd 5037 033e a01e 383e 04aa c2bc
00000150: d853 b0be 3dc9 c9bd bfdf a53e e5ed 903d
00000160: 6f3b 083e d75b 3a3e 8f94 a0be e099 943b
00000170: 9448 743e 99b5 60bb b912 8d3b 09d4 703b
00000180: e4be 94be 2fe1 1d3e 5a1c 593e 89e9 613e
00000190: ffd4 8e3e 4252 92bd 25a9 2f3e 4d39 76be
000001a0: ce23 47be f869 9bbe bf90 cb3e 6068 153e
000001b0: 573e 86be 43c8 603e 8fce 733e 4e44 ae3e
000001c0: 2b02 dd3d 16b5 5a3d 80d5 593e 03e2 613d
000001d0: bed0 643e 0646 4a3e 11b6 e7be 93a5 863e
000001e0: 1c56 353e 4960 203e 7f2c c0be 1f5c bb3d
000001f0: 2038 00be 0f26 b83e 3ba3 50be 19b6 c43d

bias f4 [32]
0.82336867 0.8967882 -0.670238 0.94026536 0.22977293 0.81877846 -0.41922808 -0.40248552
-0.63619566 1.105954 0.94093454 1.163457 0.9156765 -0.36172 -0.5784071 0.7997354
-0.4053491 1.0126724 -0.4859305 -0.60185367 -0.5568407 -0.75509584 1.0147516 1.0877137
0.76783955 1.0951961 1.1861955 0.6791828 0.48267642 1.0786581 0.8542117 1.1695815
00000000: 4ac8 523f e993 653f b894 2bbf 3bb5 703f
00000010: 9849 6b3e 779b 513f 10a5 d6be 9512 cebe
00000020: b8dd 22bf e78f 8d3f 16e1 703f 29ec 943f
00000030: c669 6a3f 5d33 b9be 7d12 14bf 76bb 4c3f
00000040: eb89 cfbe 409f 813f e2cb f8be 1513 1abf
00000050: 1d8d 0ebf f64d 41bf 61e3 813f 343a 8b3f
00000060: 2291 443f 632f 8c3f 41d5 973f edde 2d3f
00000070: 5d21 f73e 7811 8a3f 9ead 5a3f d9b4 953f

weight f4 [1, 32]
0.6556632 0.5556694 -1.583474 0.5349467 0.09349944 0.51654017 -1.2350926 -0.18263167
-2.0857744 0.6188883 0.63103724 0.49175292 0.398761 -0.013577125 -1.2069569 0.5368576
-0.37545815 0.70054275 -1.8400983 -2.497697 0.12182752 -0.30025592 0.42083502 0.6003232
0.2703616 0.51176316 0.5547114 0.19294243 0.12701894 0.38416055 0.48009837 0.47009578
00000000: 8bd9 273f 5a40 0e3f 47af cabf 44f2 083f
00000010: a27c bf3d fa3b 043f 8417 9ebf cc03 3bbe
00000020: 547d 05c0 776f 1e3f a88b 213f 0ac7 fb3e
00000030: 672a cc3e 9772 5ebc 907d 9abf 806f 093f
00000040: 0d3c c0be c556 333f 5788 ebbf 45da 1fc0
00000050: b580 f93d 25bb 99be b077 d73e c8ae 193f
00000060: d66c 8a3e e902 033f 9101 0e3f b392 453e
00000070: 4111 023e b1b0 c43e 74cf f53e 65b0 f03e
