src/cartpole/results/CartPole-v1/train-a2c/20210408-075553/num_env12-num_episodes50000-learning_rate0.001-hidden_layers128-128-value_coefficient0.3.pt (torch, 11135 bytes, 7 tensors)

weight f4 [128, 4]
-0.0065390505 0.20560995 -1.1304188 -0.40195903 -0.24497846 0.21156678 0.91250134 0.39424276
0.0031877232 -0.006563031 -0.9879487 -0.027672555 -0.35432684 -0.25314844 -0.72774535 -0.03242265
0.052772302 0.11553848 -0.27640802 -0.06801409 0.22559653 0.35687906 0.42385688 0.4054025
-0.019258732 0.04161052 1.2167829 -0.37069878 -0.30530164 -0.03775878 -0.5950185 0.3266578
-0.17102347 -0.039920114 -0.2061996 -0.48174387 -0.20850325 0.48071384 0.6627735 0.20502594
0.01534861 -0.28005463 -0.2775937 -0.42849696 -0.2468457 -0.14069463 0.22605927 0.16110717
-0.23981291 0.08352067 0.25790426 0.38634032 0.21102287 0.07893388 0.79910016 -0.23736322
0.029277861 -0.2988638 -0.019813564 -0.28357944 0.16472699 0.158285 0.14917737 0.15023085
0.16311418 -0.093558095 -0.2678461 -0.035109904 0.31163657 0.45081398 -0.97655517 -0.17489548
0.07528384 0.35815206 1.3200195 0.48942354 0.15673585 -0.40281045 -0.71583116 -0.34920177
-0.34134308 0.22396761 0.51676863 -0.29960367 0.10182162 -0.09854405 -0.08028054 -0.21679078
0.16267127 -0.3001009 -0.17414296 0.2571668 0.23268828 -0.0563073 -0.95552164 -0.18020059
0.07854298 -0.06811686 -1.2400329 -0.2985373 0.4149121 0.21520852 -0.6639482 -0.09481286
-0.31684607 -0.01580085 -1.230766 -0.49293327 -0.048868205 0.12123465 -0.7064638 0.21661367
-0.2597109 0.3587047 -0.05152098 -0.33336216 -0.0054906635 0.07474753 -0.5362024 0.09672244
0.18662807 0.0008327069 0.357494 0.24091434 -0.38416067 -0.26352656 -0.5005684 -0.19266933
-0.16910191 -0.33320746 0.43729803 0.09913912 -0.16856256 0.087627076 -0.13012895 -0.084256485
-0.0532739 0.045931235 1.147411 0.40713736 0.43973643 0.21377766 -0.080726944 0.0035485614
-0.49736923 -0.18369114 1.0588669 0.084605105 -0.17321646 -0.21363756 -0.59542775 -0.39826882
-0.028883582 0.14887773 0.2425089 -0.32625687 0.41144323 -0.43065497 -0.46666542 -0.16151385
0.00549822 -0.12782723 -1.2580535 -0.38437247 -0.04270797 0.028876608 -0.21270753 0.18043195
-0.22240293 0.048692446 -0.030688731 -0.2908792 0.3236315 0.05906069 -0.036960643 0.27895686
0.16811457 -0.24678746 -0.60278887 -0.46640003 0.026819868 -0.044511493 0.19317567 0.05337162
0.053877585 -0.031702947 -0.5999944 0.056640465 -0.36561438 0.3992325 0.9421151 0.19959165
-0.37789625 0.08666411 -0.6935449 -0.4296733 -0.24385382 0.27353817 -0.3289448 -0.053800825
-0.011176314 0.26994658 -1.0557541 -0.367893 -0.28650126 0.37838936 0.4963878 0.3967737
0.29073647 -0.07574197 -0.33949578 0.092978776 0.07461332 -0.11461654 -0.73985577 0.034451652
-0.22933617 -0.19264895 0.27886018 -0.34838128 -0.058237337 0.42663562 0.52383447 0.054505933
-0.3602225 0.261052 -1.0508921 -0.1683966 -0.18145378 -0.06532926 0.62465566 0.4118809
0.10797412 0.31949016 -0.4382376 -0.21050261 0.17500183 -0.3179769 -0.90869236 0.053129606
0.06562792 0.2571903 0.17725067 0.10398937 0.2873474 -0.49951202 -0.40294307 -0.68143606
-0.037562795 -0.004618104 0.40588033 0.08212896 0.41793668 -0.21987954 -1.15171 -0.19093338
00000000: 8845 d6bb 6a8b 523e 90b1 90bf 93cd cdbe
00000010: a2db 7abe f6a4 583e b099 693f 30da c93e
00000020: 1fe9 503b b20e d7bb 35ea 7cbf 8eb1 e2bc
00000030: 546a b5be ac9c 81be 854d 3abf 9dcd 04bd
00000040: c527 583d 709f ec3d 5a85 8dbe f94a 8bbd
00000050: c702 673e dab8 b63e c503 d93e eb90 cf3e
00000060: 7dc4 9dbc cb6f 2a3d 8bbf 9b3f 3bcc bdbe
00000070: 7f50 9cbe f3a8 1abd 2253 18bf b13f a73e
00000080: c720 2fbe 4683 23bd fd25 53be 22a7 f6be
00000090: e081 55be 2020 f63e 86ab 293f 52f2 513e
000000a0: bc78 7b3c 5263 8fbe c320 8ebe f463 dbbe
000000b0: 1fc5 7cbe 4112 10be 157c 673e 47f9 243e
000000c0: 8491 75be e30c ab3d 070c 843e 66ce c53e
000000d0: 6116 583e 16a8 a13d d491 4c3f 580f 73be
000000e0: 20d8 ef3c ad04 99be 0e50 a2bc 5331 91be
000000f0: 31ae 283e 7715 223e f4c1 183e 1ed6 193e
00000100: 6707 273e 639b bfbd 2023 89be 67cf 0fbd
00000110: d48e 9f3e 17d1 e63e 85ff 79bf cd17 33be
00000120: 6a2e 9a3d b55f b73e 66f6 a83f b995 fa3e
00000130: 5d7f 203e 2c3d cebe b640 37bf 93ca b2be
00000140: 85c4 aebe c457 653e f34a 043f a765 99be
00000150: da87 d03d 76d1 c9bd 206a a4bd 67fe 5dbe
00000160: 4c93 263e d3a6 99be 8852 32be 5eab 833e
00000170: d645 6e3e 7ca2 66bd 119d 74bf 8186 38be
00000180: 24db a03d da80 8bbd 66b9 9ebf e2d9 98be
00000190: 5c6f d43e 9f5f 5c3e 82f8 29bf 3f2d c2bd
000001a0: a639 a2be c970 81bc be89 9dbf c061 fcbe
000001b0: 072a 48bd df49 f83d d0da 34bf f9cf 5d3e
000001c0: d4f8 84be 24a8 b73e aa07 53bd 72ae aabe
000001d0: 06eb b3bb 3c15 993d 8f44 09bf 6a16 c63d
000001e0: 6e1b 3f3e 044a 5a3a 7409 b73e 40b2 763e
000001f0: b5b0 c4be f4ec 86be 4025 00bf 1c4b 45be
00000200: 0d29 2dbe 2b9a aabe 87e5 df3e 7309 cb3d
00000210: aa9b 2cbe d375 b33d 8640 05be aa8e acbd
00000220: bc35 5abd 6422 3c3d 5dde 923f 4f74 d03e
00000230: 2225 e13e 88e8 5a3e 2b54 a5bd fb8e 683b
00000240: 2ea7 febe 8819 3cbe f388 873f 7145 ad3d
00000250: a85f 31be cec3 5abe f46d 18bf e4e9 cbbe
00000260: 439d ecbc 6773 183e 4154 783e 240b a7be
00000270: b0a8 d23e cf7e dcbe c5ee eebe e363 25be
00000280: 6a2a b43b 24e5 02be e607 a1bf 78cc c4be
00000290: 8dee 2ebd a38e ec3c 01d0 59be 27c3 383e
000002a0: 98bd 63be bb71 473d ef66 fbbc 1eee 94be
000002b0: 07b3 a53e 9fe9 713d 0b64 17bd 6fd3 8e3e
000002c0: 3a26 2c3e dab5 7cbe 5f50 1abf fccb eebe
000002d0: 57b5 db3c af51 36bd d8cf 453e 339c 5a3d
000002e0: beae 5c3d f3da 01bd 3c99 19bf d5ff 673d
000002f0: cf31 bbbe 3468 cc3e 752e 713f c161 4c3e
00000300: 9e7b c1be f47c b13d 298c 31bf 24fe dbbe
00000310: d1b4 79be 320d 8c3e 746b a8be 415e 5cbd
00000320: dc1c 37bc 7036 8a3e f322 87bf 795c bcbe
00000330: 4bb0 92be 40bc c13e 8b26 fe3e ec25 cb3e
00000340: 69db 943e 9b1e 9bbd 64d2 adbe a86b be3d
00000350: dece 983d 14bc eabd 3067 3dbf 2d1d 0d3d
00000360: 1ad7 6abe c445 45be c3c6 8e3e 085f b2be
00000370: 468a 6ebd fc6f da3e 041a 063f 9d41 5f3d
00000380: 156f b8be 9ca8 853e a283 86bf 2970 2cbe
00000390: 05cf 39be 59cb 85bd 6fe9 1f3f 0ee2 d23e
000003a0: 8921 dd3d 3794 a33e ae60 e0be ff8d 57be
000003b0: ae33 333e decd a2be 10a0 68bf 6e9e 593d
000003c0: ee67 863d 72ae 833e 3381 353e 61f8 d43d
000003d0: 331f 933e 0ac0 ffbe 8e4e cebe 9872 2ebf
000003e0: 72db 19bd 7753 97bb 8ccf cf3e 3a33 a83d
000003f0: ccfb d53e 1a28 61be 3c6b 93bf 0a84 43be

bias f4 [128]
-0.14128155 -0.17045628 0.18769534 0.11688326 -0.41017264 -0.108429134 0.24644649 -0.14402184
-0.0006245221 -0.10142331 0.113139845 -0.45695952 -0.40426767 -0.24894544 0.17104709 -0.2691874
-0.11736641 -0.19311939 0.52349186 0.4499987 -0.59124506 -0.42704186 -0.4186392 -0.13967112
-0.1815407 -0.38880453 -0.07756874 0.07309762 -0.35894167 0.019875567 -0.046704836 -0.34985653
0.047906645 0.17021838 -0.16970974 -0.07752267 -0.07889185 0.32047176 -0.62862927 -0.4158608
0.50167257 -0.33797958 -0.017542679 -0.19904463 -0.18639748 -0.20396905 0.034965355 0.18343584
-0.42469224 -0.33852515 -0.15480801 0.31451544 -0.2940156 0.37540662 -0.28677228 -0.18554632
0.36940774 0.24660361 0.29424658 0.1705722 -0.29430902 -0.21386278 -0.08172509 0.36122826
-0.2708296 -0.508022 0.12923752 0.43365294 -0.28793228 -0.4293743 -0.47874513 0.120259136
-0.09638325 -0.32860243 0.08158638 0.10872037 0.36369705 0.33248585 -0.07776053 -0.4932391
-0.45181155 0.45628104 0.34876025 0.12444192 -0.49358037 0.30564645 0.34383824 0.3632937
-0.4217925 -0.25690544 -0.35135952 0.45910224 -0.29494324 -0.28063104 0.31213883 -0.4144636
-0.10716636 -0.17845993 -0.17673099 -0.41297263 0.42498848 -0.10746156 0.20117195 0.3569586
0.14510041 -0.08840812 0.4026455 0.08795672 -0.2666332 0.41352826 0.091323555 -0.54970527
-0.27575877 -0.46665516 0.4056982 -0.22420216 -0.55728513 -0.09964096 0.21656819 0.09840094
-0.121937245 0.21273468 0.13076204 0.005907372 -0.22411428 -0.511222 -0.31083012 0.10206774
00000000: 1cac 10be 178c 2ebe 3533 403e 7e60 ef3d
00000010: 2602 d2be 1810 debd 785c 7c3e 767a 13be
00000020: f8b6 23ba 06b7 cfbd ddb5 e73d 99f6 e9be
00000030: 2cfc cebe 8eeb 7ebe f826 2f3e eed2 89be
00000040: cd5d f0bd 17c1 45be 9003 063f 3b66 e63e
00000050: d65b 17bf 3ba5 dabe e157 d6be f205 0fbe
00000060: cee5 39be 6311 c7be 5cdc 9ebd 34b4 953d
00000070: 34c7 b7be 16d2 a23c 924d 3fbd 6520 b3be
00000080: c239 443d ba4d 2e3e 64c8 2dbe 35c4 9ebd
00000090: 0d92 a1bd e014 a43e d9ed 20bf b5eb d4be
000000a0: 9d6d 003f a90b adbe aab5 8fbc 5bd2 4bbe
000000b0: fbde 3ebe 43dd 50be d537 0f3d 9bd6 3b3e
000000c0: 4371 d9be 2b53 adbe fe85 1ebe 2b08 a13e
000000d0: 3689 96be 4c35 c03e d1d3 92be dbff 3dbe
000000e0: 0323 bd3e a885 7c3e 7da7 963e 7baa 2e3e
000000f0: acaf 96be d8fe 5abe 7c5f a7bd e9f2 b83e
00000100: 2daa 8abe bb0d 02bf d756 043e c207 de3e
00000110: dc6b 93be f3d6 dbbe 151e f5be 6c4a f63d
00000120: 9564 c5bd 943e a8be c316 a73d c9a8 de3d
00000130: 8036 ba3e 963b aa3e ea40 9fbd d689 fcbe
00000140: d853 e7be ab9d e93e b490 b23e 68db fe3d
00000150: 91b6 fcbe b17d 9c3e 910b b03e a201 ba3e
00000160: 30f5 d7be 1c89 83be 65e5 b3be 730f eb3e
00000170: cd02 97be dfae 8fbe a9d0 9f3e 9334 d4be
00000180: 097a dbbd 33be 36be f8f8 34be 2671 d3be
00000190: 1798 d93e ce14 dcbd 0500 4e3e 47c3 b63e
000001a0: 3495 143e 510f b5bd 8d27 ce3e a722 b43d
000001b0: 2684 88be fab9 d33e d807 bb3d 7cb9 0cbf
000001c0: 4130 8dbe 6ded eebe adb7 cf3e 4095 65be
000001d0: 3daa 0ebf 8f10 ccbd 0dc4 5d3e 6f86 c93d
000001e0: 3cba f9bd 1fd7 593e 7ce6 053e a192 c13b
000001f0: 377e 65be 72df 02bf 2025 9fbe e408 d13d

weight f4 [2, 128]
0.046218466 -0.31370565 0.16524872 0.018615665 0.0009895562 0.018497325 -0.114323154 0.06206918
-0.012640224 -0.10476336 0.058318254 -0.039023772 -0.06767598 -0.08769061 -0.044360682 -0.025018305
0.05323864 0.12448596 -0.14767917 0.051769167 -0.02262447 0.048039317 0.11889656 0.07675231
0.38685298 0.093879305 0.124062344 0.10531629 -0.03929305 0.060651924 -0.11006507 0.07023669
-0.03203311 -0.0082940385 -0.16626257 0.034143973 -0.11184649 0.04146974 0.06837051 0.03083698
0.16614275 -0.07294319 -0.04424892 0.0026924193 0.22706427 -0.013372961 0.030030532 -0.17368366
0.13375345 0.07581054 0.11598332 -0.09392758 0.29118758 0.085210636 0.027952507 -0.10854636
0.14494659 -0.09633679 0.030742606 0.035775788 -0.03983165 0.25235662 -0.07008507 0.088492595
-0.007271965 0.010043558 0.044449996 0.12264163 0.039750233 0.065122314 0.049927708 -0.037362076
-0.15841633 -0.02931341 0.115839675 -0.011079986 -0.051025916 0.12041203 -0.013385518 0.06874962
0.07168447 -0.119384386 0.09780818 -0.039468937 -0.13216104 -0.051434543 0.028524872 -0.10394017
0.053493015 0.013493591 0.01834209 0.06915157 -0.021335535 0.15905228 -0.15443079 0.07009105
-0.1212956 -0.0460445 0.036552787 -0.002537214 -0.10368816 -0.10325388 0.1737503 0.048783034
0.01592134 0.059094172 0.10878235 -0.036818217 0.10828826 -0.06623135 -0.098017745 0.041834064
0.042198732 0.09329208 0.08258778 0.05767076 -0.011509189 0.003409303 -0.059643656 -0.09052825
0.010449396 -0.112180285 -0.11146491 -0.09735676 -0.057057492 0.028987229 -0.061894346 0.04322086
-0.16636954 0.30055243 -0.10804637 -0.08979308 -0.009841773 0.11204169 0.11774422 -0.045721434
0.03036148 0.031108564 0.07800412 -0.081915684 0.06317459 0.08115347 -0.020627564 -0.009738507
-0.08789643 -0.08017893 0.079639204 -0.10626304 0.0050583957 -0.051575143 -0.05397939 -0.11670874
-0.2935972 0.01274293 -0.16856414 -0.07306364 -0.04447786 -0.05077521 0.010329544 -0.098608375
0.0558284 -0.0008411016 0.27140364 -0.028298331 0.0989289 0.03447907 0.08005088 -0.10595222
-0.072914526 0.024533808 -0.0067565823 -0.037977405 -0.16368458 0.012339798 -0.029456707 0.13870376
-0.124788985 0.024048321 -0.08629516 0.07950672 -0.14676952 -0.028510379 0.027747855 0.0007056246
-0.09581015 0.015821675 -0.010973819 -0.056321695 0.01917964 -0.2182495 0.04705629 -0.08625148
-0.039898034 -0.052480932 -0.107101776 -0.011572157 -0.07061222 -0.043895636 -0.091040485 0.018499294
0.06546599 0.0059751896 -0.024511725 0.022423321 0.0939512 -0.11813637 0.11170823 0.07191234
0.004067488 0.07119603 -0.10875758 0.04836363 0.044342633 0.02541627 0.09295642 -0.043793827
0.0014170855 -0.099969104 0.022781324 -0.08128435 0.05493794 -0.06355675 0.11052878 -0.0007403099
0.19687451 -0.05637449 -0.017754626 -0.09901435 0.02135013 0.12784885 -0.091866545 -0.090489484
-0.06269415 0.02138568 -0.05277612 0.0037502192 -0.05024958 0.124330625 -0.025496935 -0.04730896
-0.011107155 -0.10028642 -0.13865733 0.045362324 0.024779879 0.110788204 0.07198575 -0.041093245
0.012444453 0.24742334 -0.017553179 0.2558875 0.11208527 -0.028728215 0.0049901926 0.074211605
00000000: 934f 3d3d 079e a0be f636 293e e17f 983c
00000010: ffb3 813a b487 973c 4222 eabd 413c 7e3d
00000020: f118 4fbc 2c8e d6bd 1fdf 6e3d 64d7 1fbd
00000030: b499 8abd 2297 b3bd 8cb3 35bd 30f3 ccbc
00000040: c310 5a3d 7ff2 fe3d 3539 17be e80b 543d
00000050: f456 b9bc e0c4 443d 0a80 f33d 5130 9d3d
00000060: 9811 c63e cb43 c03d 6614 fe3d 11b0 d73d
00000070: c0f1 20bd 276e 783d cc69 e1bd 41d8 8f3d
00000080: 2635 03bd b8e3 07bc bc40 2abe 8dda 0b3d
00000090: c60f e5bd 2ddc 293d d705 8c3d d69d fc3c
000000a0: 5321 2a3e 3d63 95bd 5b3e 35bd 4d73 303b
000000b0: 8983 683e 441a 5bbc 9702 f63c 21da 31be
000000c0: aaf6 083e 8e42 9b3d aa88 ed3d 1a5d c0bd
000000d0: 8a16 953e ea82 ae3d a8fc e43c 8e4d debd
000000e0: e16c 143e 394c c5bd ebd7 fb3c a289 123d
000000f0: 8326 23bd e334 813e c388 8fbd 9b3b b53d
00000100: aa49 eebb bc8d 243c 3311 363d 892b fb3d
00000110: 24d1 223d d95e 853d ff80 4c3d fa08 19bd
00000120: e437 22be ad22 f0bc 5a3d ed3d d488 35bc
00000130: 8d00 51bd 959a f63d ef4e 5bbc 9acc 8c3d
00000140: 4fcf 923d cd7f f4bd a84f c83d 2eaa 21bd
00000150: 3955 07be 07ad 52bd feac e93c 95de d4bd
00000160: 7e1b 5b3d 3914 5d3c 2742 963c 579f 8d3d
00000170: dcc7 aebc 9ade 223e 1b23 1ebe e58b 8f3d
00000180: d469 f8bd 2899 3cbd 60b8 153d 6347 26bb
00000190: 755a d4bd c576 d3bd 99eb 313e b8d0 473d
000001a0: 786d 823c bb0c 723d 48c9 de3d b3ce 16bd
000001b0: 3cc6 dd3d 4da4 87bd 87bd c8bd 325a 2b3d
000001c0: 94d8 2c3d eb0f bf3d c823 a93d 2d38 6c3d
000001d0: 0a91 3cbc 9d6e 5f3b e84c 74bd e066 b9bd
000001e0: f233 2b3c c7be e5bd b747 e4bd fb62 c7bd
000001f0: 1eb5 69bd a076 ed3c ed84 7dbd 5b08 313d
00000200: c75c 2abe 02e2 993e 6a47 ddbd 6fe5 b7bd
00000210: 633f 21bc 1d76 e53d e223 f13d 6646 3bbd
00000220: a3b8 f83c 63d7 fe3c a0c0 9f3d 69c3 a7bd
00000230: ae61 813d ca33 a63d 23fb a8bc 428e 1fbc
00000240: 0b03 b4bd da34 a4bd e119 a33d 70a0 d9bd
00000250: e6c0 a53b 7540 53bd 7e19 5dbd fe04 efbd
00000260: 5f52 96be b9c7 503c 149c 2cbe 64a2 95bd
00000270: 6b2e 36bd abf9 4fbd 3f3d 293c 30f3 c9bd
00000280: 52ac 643d 5f7d 5cba 6bf5 8a3e e7d1 e7bc
00000290: 3c9b ca3d ed39 0d3d b7f1 a33d 7afd d8bd
000002a0: 3654 95bd 20fb c83c 5266 ddbb 328e 1bbd
000002b0: ee9c 27be dd2c 4a3c 314f f1bc 5c08 0e3e
000002c0: 5e91 ffbd fc00 c53c 84bb b0bd 6bd4 a23d
000002d0: c04a 16be 998e e9bc 784f e33c aaf9 383a
000002e0: 1d38 c4bd 759c 813c 88cb 33bc 94b1 66bd
000002f0: 9f1e 9d3c cc7c 5fbe 19be 403d 9ea4 b0bd
00000300: 1f6c 23bd 3ff6 56bd 2d58 dbbd 2599 3dbc
00000310: 249d 90bd e9cb 33bd 6f73 babd d58b 973c
00000320: 0813 863d 86cb c33b d0cc c8bc 1db1 b73c
00000330: 7d69 c03d 7bf1 f1bd 49c7 e43d c746 933d
00000340: 9048 853b 39cf 913d 4bbc debd f118 463d
00000350: 9fa0 353d c835 d03c ef5f be3d 2861 33bd
00000360: 80bd b93a 9abc ccbd e69f ba3c 6978 a6bd
00000370: 9b06 613d 0b2a 82bd ea5c e23d 5b11 42ba
00000380: 7999 493e f0e8 66bd 2672 91bc 09c8 cabd
00000390: 78e6 ae3c cfea 023e 8724 bcbd 8d52 b9bd
000003a0: ca65 80bd 0631 af3c c62b 58bd 3dc6 753b
000003b0: 81d2 4dbd 0ea1 fe3d f3de d0bc 0ac7 41bd
000003c0: c9fa 35bc f762 cdbd 30fc 0dbe d8cd 393d
000003d0: 2cff ca3c ede4 e23d 446d 933d 6451 28bd
000003e0: d2e3 4b3c 8b5c 7d3e afcb 8fbc b003 833e
000003f0: f68c e53d 6f57 ebbc c584 a33b 41fc 973d

bias f4 [2]
-0.09575495 0.011787886
00000000: 2c1b c4bd fa21 413c

weight f4 [128, 4]
0.047707193 0.18355164 0.2224991 0.30190232 0.37458718 0.43333286 0.42225486 -0.02535332
-0.20457079 -0.058022935 0.03484159 -0.22185992 0.11791529 0.16640352 0.14355801 0.14139377
0.23797277 0.05152254 -0.29785317 -0.22754656 0.10031245 0.05708538 0.43065757 -0.4143409
-0.5183802 0.30873033 0.58323973 -0.2628598 0.32734054 -0.12585133 1.700502 0.2023925
0.4785679 -0.596356 -0.61137176 0.20749341 0.31857488 -0.36395952 0.034762435 -0.3862264
0.29859495 -0.54135364 0.13130437 -0.35228863 -0.21816488 0.19599679 -0.34274086 -0.06893134
-0.66234154 -0.44867107 0.9421326 -0.003296287 -0.011823523 -0.26006004 -1.6338272 -0.3473072
0.30486134 0.23349585 -0.0757223 -0.043828513 0.13568988 0.029743178 -0.33106053 0.13204014
0.36646912 -0.38378003 -0.52009773 -0.032093592 0.2932176 -0.15658446 -0.046678584 0.15169896
-0.039849363 0.049123377 2.0874896 0.3105343 -0.15203439 0.15931472 1.8247569 0.52603513
-0.3433565 0.16802861 -1.1928107 -0.5654768 0.08799547 -0.5531545 -0.9574082 -0.20065752
-0.2785907 0.10823266 -0.16662517 0.23332539 -0.056321863 0.5008096 0.27964327 -0.10097966
0.6021569 -0.031163963 -0.71046174 -0.18327247 0.08085354 -0.13902563 -1.5679742 -0.40819708
-0.027662534 -0.35561746 -0.24141952 0.2612368 -0.40201667 -0.35176015 -0.5710328 -0.21639888
0.08954899 -0.11849056 -1.3962742 -0.40909374 -0.14674343 0.28173977 0.51740354 0.0057085906
0.05123354 -0.037206657 -1.376419 -0.291036 -0.39991075 0.36689037 0.352377 -0.29630262
-0.22601339 0.21394098 1.0971594 0.46293586 0.61353844 -0.014575914 -1.0310582 -0.22864442
-0.08724788 0.08970336 -0.23301229 -0.032001805 -0.55226654 0.47354126 -0.24391337 0.43898723
-0.019676331 -0.06726828 1.4600295 0.23645721 0.30060363 0.27898574 -0.5362278 0.2877719
-0.026691249 -0.12888153 -0.022574928 0.34050834 -0.53605574 0.12954597 1.5918044 0.3458853
0.313033 -0.06009412 -0.3579746 0.28604522 0.0036925594 0.30666336 -0.039851904 -0.1448732
0.06823538 -0.2715751 0.0020041978 0.2214738 0.09456315 -0.034631114 0.31679899 -0.2647886
0.34310207 -0.38999626 -0.41895708 -0.1989865 0.13179623 -0.24050836 -1.1150639 -0.49911168
0.12186106 -0.055180617 -0.00690362 0.35220453 0.07646527 -0.07282699 0.17623457 -0.1808011
-0.14549565 0.19139844 1.0516928 0.47556219 -0.11738041 -0.0916835 0.1849963 -0.3188056
-0.004992485 -0.050397873 -0.04491818 -0.0999521 0.3120043 0.4478183 -0.23518518 0.28157532
-0.44655746 -0.44372484 0.005646186 0.010072077 -0.24989855 -0.45036766 0.06237625 0.2034859
-0.27105364 -0.69290715 -0.70986265 -0.26358795 0.07577053 -0.14827801 -1.615109 -0.48624167
-0.24311341 0.100355424 -0.41451064 -0.035424378 -0.14563264 -0.20732395 0.29997376 -0.3664876
-0.48039153 0.42724672 0.15549712 0.43572608 -0.17453101 -0.22060312 -0.13386899 -0.010683884
0.3703385 -0.49442616 -0.17829388 0.19977483 -0.52412 -0.38176912 0.33373475 -0.34418625
0.05539757 -0.34651062 0.30837312 -0.40311724 0.26712406 -0.38552603 -0.38909575 -0.02900031
00000000: 9e68 433d f6f4 3b3e ced6 633e f192 9a3e
00000010: e4c9 bf3e cedd dd3e ca31 d83e c4b1 cfbc
00000020: 017b 51be 75a9 6dbd 0eb6 0e3d 3f2f 63be
00000030: 927d f13d af65 2a3e df00 133e 87c9 103e
00000040: 22af 733e 4d09 533d 3680 98be f701 69be
00000050: 9d70 cd3d 5cd2 693d 267f dc3e 7e24 d4be
00000060: 91b4 04bf e711 9e3e 334f 153f 8f95 86be
00000070: 2e99 a73e 2cdf 00be 0daa d93f fb3f 4f3e
00000080: da06 f53e c9aa 18bf dc82 1cbf 2779 543e
00000090: 3f1c a33e e758 babe 0e63 0e3d 77bf c5be
000000a0: 70e1 983e 2796 0abf a774 063e 2d5f b4be
000000b0: 9d66 5fbe 62b3 483e bb7b afbe e02b 8dbd
000000c0: 378f 29bf 37b8 e5be 9a2f 713f 8506 58bb
000000d0: 73b7 41bc 9726 85be 4021 d1bf 40d2 b1be
000000e0: c916 9c3e 8919 6f3e 4b14 9bbd 8785 33bd
000000f0: 4af2 0a3e f7a7 f33c c480 a9be 8835 073e
00000100: d7a1 bb3e d17e c4be 2025 05bf 9274 03bd
00000110: 9e20 963e ad57 20be 0b32 3fbd f956 1b3e
00000120: 1639 23bd 9835 493d 6e99 0540 5afe 9e3e
00000130: e7ae 1bbe 6623 233e a291 e93f 3daa 063f
00000140: 6ccc afbe b10f 2c3e 05ae 98bf 16c3 10bf
00000150: f836 b43d 899b 0dbf b418 75bf 2a79 4dbe
00000160: 71a3 8ebe 16a9 dd3d ca9f 2abe daec 6e3e
00000170: c1b1 66bd 0f35 003f 672d 8f3e 6dce cebd
00000180: f426 1a3f 914b ffbc d2e0 35bf c7ab 3bbe
00000190: 8a96 a53d bc5c 0ebe 61b3 c8bf 35ff d0be
000001a0: 8a9c e2bc 7e13 b6be ae36 77be d4c0 853e
000001b0: 21d5 cdbe e819 b4be 352f 12bf ab97 5dbe
000001c0: 7665 b73d 2eab f2bd 1db9 b2bf bc74 d1be
000001d0: e943 16be 3240 903e 8f74 043f 210f bb3b
000001e0: 43da 513d 0266 18bd 7f2e b0bf ac02 95be
000001f0: 1ac1 ccbe 0ed9 bb3e c26a b43e fab4 97be
00000200: 0e70 67be 5813 5b3e b86f 8c3f ee05 ed3e
00000210: db10 1d3f d0cf 6ebc b7f9 83bf c321 6abe
00000220: 04af b2bd 65b6 b73d c69a 6ebe 5314 03bd
00000230: 5761 0dbf 0074 f23e 6dc4 79be efc2 e03e
00000240: 4230 a1bc f4c3 89bd 3fe2 ba3f d721 723e
00000250: b8e8 993e 38d7 8e3e 3a46 09bf d756 933e
00000260: 9ba7 dabc 85f9 03be 0eef b8bc 1c57 ae3e
00000270: f33a 09bf b3a7 043e 3fc0 cb3f e117 b13e
00000280: dd45 a03e 4125 76bd 7248 b7be 8574 923e
00000290: defe 713b fb02 9d3e c03b 23bd a459 14be
000002a0: febe 8b3d e40b 8bbe dc58 033b 07ca 623e
000002b0: 53aa c13d 5bd9 0dbd 7a33 a23e 5f92 87be
000002c0: 13ab af3e 97ad c7be 8b81 d6be 1ec3 4bbe
000002d0: 97f5 063e d347 76be 6aba 8ebf 918b ffbe
000002e0: 4b92 f93d 1205 62bd c337 e2bb 2754 b43e
000002f0: d399 9c3d 5126 95bd d676 343e ec23 39be
00000300: d0fc 14be f4fd 433e df9d 863f e37c f33e
00000310: 2465 f0bd 8fc4 bbbd ac6f 3d3e 7d3a a3be
00000320: 0098 a3bb 006e 4ebd 20fc 37bd b0b3 ccbd
00000330: 07bf 9f3e 7148 e53e 62d4 70be a42a 903e
00000340: 2ea3 e4be e72f e3be a403 b93b 5a05 253c
00000350: 68e5 7fbe 9796 e6be 3d7e 7f3d 9c5e 503e
00000360: 8bc7 8abe 5d62 31bf 8fb9 35bf 00f5 86be
00000370: 942d 9b3d 31d6 17be e4bb cebf abf4 f8be
00000380: b9f2 78be 2587 cd3d bd3a d4be 2719 11bd
00000390: b920 15be bb4c 54be 2996 993e 43a4 bbbe
000003a0: e1f5 f5be 15c0 da3e a33a 1f3e 7d17 df3e
000003b0: 42b8 32be c9e5 61be f414 09be 750b 2fbc
000003c0: 029d bd3e 6d25 fdbe ac92 36be c691 4c3e
000003d0: ba2c 06bf 3e77 c3be 48df aa3e 2e39 b0be
000003e0: 90e8 623d d769 b1be 15e3 9d3e 6265 cebe
000003f0: 7cc4 883e ab63 c5be 8f37 c7be 0f92 edbc

bias f4 [128]
0.60075206 0.17277683 0.7407027 0.68261564 0.84337085 0.3729964 0.6740042 -0.38201597
-0.1084258 -0.087785885 0.15548962 -0.42177114 -0.31690824 -0.31502408 -0.6736866 0.444638
0.7757641 0.69619536 -0.39148527 -0.47907048 -0.38490164 -0.32298154 0.750906 0.033415724
-0.15809177 -0.44781086 0.28433314 -0.5818278 -0.46204406 0.6741752 -0.34393314 0.1777638
-0.3985742 -0.39821562 0.3377565 0.34254888 -0.28534526 0.32845604 0.3751284 -0.42237347
0.8329611 0.83653456 0.7723886 0.042697705 0.50644684 -0.5173141 0.22477292 0.25096726
-0.4101487 0.6488042 -0.22782892 0.25281495 0.1273227 -0.558205 -0.1161331 -0.53005564
0.6619886 0.69553995 0.6205849 -0.017106602 0.35044616 0.31664318 0.792103 0.82101315
-0.07168662 -0.36675373 -0.283995 -0.36850518 0.8620677 0.5761651 0.7730102 0.7556527
0.3017894 -0.4363445 0.824863 0.82776785 0.42675915 -0.30186045 0.7876984 0.39693338
0.5338137 0.6152509 0.7224094 -0.4526936 -0.21758848 0.7156138 0.17054279 -0.695271
0.86662 0.31097823 0.8016091 -0.27775085 0.6341879 -0.036908876 -0.037026152 0.23702876
-0.27759773 0.46207628 0.21281245 0.6438107 0.53031844 0.34968728 -0.08258285 -0.48624963
-0.24128285 -0.64733154 0.16543491 0.46122223 -0.0045078094 -0.48414528 0.68043613 0.5537682
0.07997611 -0.08859266 0.5625987 0.7196757 -0.31361187 0.19925699 0.3372338 -0.30070487
0.79462796 0.26256877 0.6008983 -0.28512725 0.35156003 -0.40302312 -0.3416051 0.5361799
00000000: e3ca 193f 69ec 303e b19e 3d3f e6bf 2e3f
00000010: 27e7 573f 62f9 be3e 8a8b 2c3f 9997 c3be
00000020: 590e debd 16c9 b3bd ac38 1f3e 63f2 d7be
00000030: cc41 a2be d64a a1be ba76 2cbf 98a7 e33e
00000040: 7a98 463f dc39 323f c270 c8be ba48 f5be
00000050: d411 c5be d65d a5be 603b 403f edde 083d
00000060: cfe2 21be 7747 e5be 1d94 913e abf2 14bf
00000070: 0a91 ecbe bf96 2c3f 0118 b0be b707 363e
00000080: eb11 ccbe ebe2 cbbe 6cee ac3e 9162 af3e
00000090: c618 92be 642b a83e d410 c03e 5641 d8be
000000a0: f03c 553f 2127 563f 42bb 453f cae3 2e3d
000000b0: 80a6 013f b26e 04bf df2a 663e c87e 803e
000000c0: 03ff d1be 0818 263f fc4b 69be f670 813e
000000d0: e260 023e 86e6 0ebf 31d7 edbd bab1 07bf
000000e0: 1678 293f e80e 323f a7de 1e3f 2523 8cbc
000000f0: ae6d b33e 0e1f a23e 43c7 4a3f eb2d 523f
00000100: 6fd0 92bd 25c7 bbbe cb67 91be b6ac bcbe
00000110: 78b0 5c3f 8e7f 133f ffe3 453f 7572 413f
00000120: 2484 9a3e 8c68 dfbe 392a 533f 98e8 533f
00000130: 2d80 da3e 748d 9abe 9aa6 493f da3a cb3e
00000140: 04a8 083f 1581 1d3f d3ef 383f 75c7 e7be
00000150: 84cf 5ebe 7732 373f c5a2 2e3e 48fd 31bf
00000160: cfda 5d3f 8a38 9f3e 4136 4d3f 5c35 8ebe
00000170: 235a 223f c32d 17bd bca8 17bd abb7 723e
00000180: 4a21 8ebe 4395 ec3e 82eb 593e c7d0 243f
00000190: f3c2 073f 360a b33e 3221 a9bd b6f5 f8be
000001a0: da12 77be 85b7 25bf c567 293e 5225 ec3e
000001b0: 3fb6 93bb e4e1 f7be 1031 2e3f c1c3 0d3f
000001c0: 84ca a33d 1270 b5bd 7806 103f ab3c 383f
000001d0: bc91 a0be 060a 4c3e e9a9 ac3e fdf5 99be
000001e0: bd6c 4b3f 6a6f 863e 79d4 193f 33fc 91be
000001f0: adff b33e 0c59 cebe dde6 aebe 1643 093f

weight f4 [1, 128]
0.2601228 0.14786924 0.3445593 0.21192396 0.2905127 0.17993854 0.20187004 -0.48122752
0.044235334 0.097257085 0.19328037 -0.18640777 -0.19591649 -0.40019298 -0.32325053 0.36015704
0.25301945 0.23916748 -1.3476466 -0.9973115 -0.3021521 -0.38059166 0.30740666 0.05340796
-0.24529608 -0.96181715 0.10851901 -0.33236063 -0.64366853 0.1925412 -0.645289 0.075965784
-0.7283838 -0.32037914 0.22253467 0.30594236 -0.5377419 0.27203262 0.15011092 -0.5939124
0.2686323 0.2761478 0.22935717 0.008399357 0.15083618 -0.2757518 0.06688745 0.046896238
-0.7254327 0.28037786 0.057677068 0.29275912 0.12549229 -0.118092775 -0.19888026 -0.718619
0.37141016 0.24536541 0.20878802 0.018493863 0.14792198 0.21016052 0.22186019 0.34124747
0.046257433 -1.3583505 -0.13464095 -0.9478603 0.27099368 0.3205068 0.21294194 0.28462678
0.1197547 -0.8362892 0.24720065 0.29181314 0.14050934 -0.0066278377 0.31994915 0.15047099
0.2022418 0.30413723 0.263438 -0.23412871 -0.40455058 0.3241354 0.1422683 -0.40481773
0.27971986 0.11635887 0.31537005 -0.18629064 0.28233486 -0.16769402 -0.09189528 0.09568695
-0.8921418 0.09953323 0.13806184 0.2886387 0.31248024 0.3354651 0.021010403 -0.46455863
-0.20282988 -0.5224425 0.12015938 0.27837783 -0.046484984 -0.22801262 0.25936797 0.20055073
0.045328405 -0.2857013 0.17881724 0.21100292 0.110006474 0.11652086 0.17544633 -1.3924614
0.32473215 0.06709499 0.16890204 -0.39704764 0.35036635 -0.59601784 -0.108713575 0.33102548
00000000: d12e 853e 096b 173e 146a b03e 9802 593e
00000010: 15be 943e cf41 383e 05b7 4e3e 7463 f6be
00000020: 1c30 353d b92e c73d 4aeb 453e aee1 3ebe
00000030: 559e 48be 18e6 ccbe 1881 a5be 8166 b83e
00000040: c48b 813e 52e8 743e af7f acbf ce4f 7fbf
00000050: aeb3 9abe e9dc c2be 6864 9d3e 4ec2 5a3d
00000060: e52e 7bbe a639 76bf 373f de3d 2c2b aabe
00000070: 76c7 24bf 8529 453e a931 25bf f393 9b3d
00000080: 5c77 3abf bc08 a4be 21e0 633e 7aa4 9c3e
00000090: 74a9 09bf dc47 8b3e adb6 193e a50a 18bf
000000a0: 2c8a 893e 3f63 8d3e 9bdc 6a3e 759d 093c
000000b0: cd74 1a3e 572f 8dbe 4afc 883d 4516 403d
000000c0: f5b5 39bf b08d 8f3e ca3e 6c3d 86e4 953e
000000d0: 0d81 003e a0da f1bd 44a7 4bbe 6af7 37bf
000000e0: 7929 be3e 1241 7b3e 87cc 553e 7180 973c
000000f0: dc78 173e 5234 573e 512f 633e fdb7 ae3e
00000100: 6f78 3d3d 6ede adbf 51df 09be f9a6 72bf
00000110: afbf 8a3e 7819 a43e 740d 5a3e 9aba 913e
00000120: f441 f53d 0d17 56bf 2b22 7d3e 8868 953e
00000130: aee1 0f3e 552e d9bb 60d0 a33e 1115 1a3e
00000140: 7918 4f3e e0b7 9b3e 58e1 863e 70bf 6fbe
00000150: 4121 cfbe 13f5 a53e c8ae 113e 4544 cfbe
00000160: 7137 8f3e 8f4d ee3d 2f78 a13e f9c2 3ebe
00000170: 328e 903e fbb7 2bbe 9833 bcbd 85f7 c33d
00000180: 6863 64bf 14d8 cb3d 1560 0d3e 74c8 933e
00000190: 69fd 9f3e 15c2 ab3e 021e ac3c a1da edbe
000001a0: a3b2 4fbe cbbe 05bf 1f16 f63d 8a87 8e3e
000001b0: 0a67 3ebd 247c 69be e1cb 843e 2c5d 4d3e
000001c0: 47aa 393d 7147 92be de1b 373e 2611 583e
000001d0: 134b e13d 7da2 ee3d 34a8 333e 2d3c b2bf
000001e0: 4b43 a63e 1969 893d a8f4 2c3e d449 cbbe
000001f0: 3863 b33e a094 18bf 39a5 debd 2c7c a93e
