src/cartpole/results/CartPole-v1/train-a2c/20210408-075553/num_env6-num_episodes50000-learning_rate0.001-hidden_layers128-128-value_coefficient0.5.pt (torch, 11135 bytes, 7 tensors)

weight f4 [128, 4]
0	0xbd16c14c	-0.036805436
1	0x3e143032	0.1447151
2	0xbf89aac0	-1.0755234
3	0xbee0c614	-0.43901122
4	0xbe412b76	-0.18864235
5	0x3deb77e9	0.114974804
6	0x3e686510	0.22694802
7	0x3ece384f	0.40277335
8	0xbcc272f5	-0.023736456
9	0x3c8c1fbc	0.017104976
10	0xbf5aeafb	-0.855148
11	0xbd998574	-0.07496157
12	0xbeba837a	-0.36428434
13	0xbe51805a	-0.20459118
14	0xbf41bcdd	-0.7567881
15	0xbbd98acc	-0.0066388603
16	0x3dbeb651	0.09312118
17	0x3e3925b8	0.18080795
18	0xbe2dc281	-0.16968729
19	0xbdc04385	-0.09387878
20	0x3e0c02a0	0.13672876
21	0x3ee6023a	0.44923574
22	0x3eca254d	0.39481583
23	0x3ec0a1b8	0.37623382
24	0xbdaef011	-0.08541883
25	0xbb171ec2	-0.0023059105
26	0x3f85984d	1.0437104
27	0xbece0af3	-0.4024273
28	0xbe926620	-0.2859354
29	0x3bcd8a83	0.0062726154
30	0xbf459f92	-0.7719661
31	0x3e9c5324	0.3053218
32	0xbe186926	-0.14883861
33	0xbe6c91c0	-0.23102474
34	0xbdc79ea3	-0.097470544
35	0xbeb984bf	-0.3623409
36	0xbe88a69a	-0.26689607
37	0x3ef9edc3	0.4881421
38	0x3f3ec9ee	0.7452687
39	0x3e60cd1d	0.21953245
40	0x3dd2dea9	0.10296375
41	0xbe8b8da3	-0.27256498
42	0xbe93dc43	-0.28878984
43	0xbebd2f6f	-0.3695025
44	0xbe87244d	-0.26394883
45	0xbe23041e	-0.1591954
46	0xbd31a09f	-0.04336607
47	0x3de6f0c1	0.11276389
48	0xbe52fc30	-0.20604014
49	0x3c554abe	0.013018308
50	0x3efe8285	0.49708953
51	0x3ee87d36	0.45408028
52	0x3e425eb8	0.18981445
53	0x3d3ef818	0.04662332
54	0x3f0360e2	0.51319706
55	0xbe837fa7	-0.25683329
56	0x3da35b74	0.07976428
57	0xbe87a79d	-0.26495066
58	0x3c9ab352	0.018884335
59	0xbea321f2	-0.31861836
60	0x3d423a4c	0.047418877
61	0x3da26928	0.07930213
62	0xbe729bed	-0.23692293
63	0x3dda981a	0.10673542
64	0x3db7f5ad	0.08982406
65	0xbd712563	-0.058873545
66	0xbdfdd9ad	-0.12395034
67	0x3bcdd58e	0.006281561
68	0x3eb562f3	0.35427055
69	0x3ec71895	0.38885942
70	0xbf464dc6	-0.7746242
71	0xbe4b3d7c	-0.19847673
72	0x3da4cc9b	0.08046838
73	0x3eb09c85	0.34494415
74	0x3f952d50	1.1654453
75	0x3eff47b2	0.49859387
76	0x3e0b20b0	0.13586688
77	0xbec21da6	-0.37913245
78	0xbf23aadc	-0.63932586
79	0xbec7b0e1	-0.39002135
80	0xbeafe464	-0.34353936
81	0x3e9e2c5b	0.30893216
82	0x3ef1a0c0	0.47192955
83	0xbeae2196	-0.3401
84	0x3d9c05a4	0.07618263
85	0xbdce5525	-0.10074834
86	0xbd87072e	-0.06593166
87	0xbe599bac	-0.2125079
88	0x3e2db14d	0.16962166
89	0xbe7ba52c	-0.24574727
90	0x3f140688	0.57822466
91	0x3e81c2c8	0.2534392
92	0x3e2edbe6	0.17076072
93	0xbd51172d	-0.051047493
94	0xbf41ae3b	-0.7565648
95	0xbe67d736	-0.2264069
96	0x3e4a5fc5	0.19763096
97	0xbd743cca	-0.059628285
98	0xbf56c9c9	-0.8390165
99	0xbe838e21	-0.25694373
100	0x3f073d57	0.5282797
101	0x3e8e7ca0	0.27829456
102	0xbf201df8	-0.6254573
103	0xbe4b40af	-0.19848894
104	0xbefbfc69	-0.4921601
105	0xbc8f05fc	-0.017458908
106	0xbf8d09f6	-1.1018665
107	0xbeea5037	-0.45764324
108	0xbe202c01	-0.15641786
109	0x3ddb64c9	0.107125826
110	0xbf4207d9	-0.75793225
111	0x3e315d69	0.1732079
112	0xbe63341b	-0.22187845
113	0x3ecd86ab	0.40141806
114	0x3e80c7d4	0.25152457
115	0xbea9d6e1	-0.33171752
116	0xbd4f463e	-0.050604098
117	0x3e0ceef4	0.13763028
118	0xbe64af14	-0.22332412
119	0x3cd50755	0.026004473
120	0x3ddaa377	0.1067571
121	0x3db9078e	0.09034644
122	0x3ebd20d0	0.36939096
123	0x3e9c3d53	0.30515537
124	0xbef2c348	-0.47414613
125	0xbe7f04f0	-0.24904227
126	0xbf509a1a	-0.8148514
127	0xbee10f70	-0.4395709
128	0xbe149312	-0.14509228
129	0xbeb1f3b1	-0.34756234
130	0x3f11ca7e	0.56949604
131	0x3ddfc02b	0.10925325
132	0xbe097bcb	-0.1342613
133	0x3d55dac9	0.052210603
134	0x3d833033	0.06405678
135	0xbdc4db9c	-0.096122
136	0x3db47cdd	0.08812878
137	0xbc9270aa	-0.017875988
138	0x3f42ff6f	0.7617101
139	0x3ecce8ef	0.40021464
140	0x3edff413	0.437409
141	0x3e6fdf55	0.23425038
142	0x3e55f3ef	0.20893835
143	0xbd6fb44d	-0.058521558
144	0xbe9da32b	-0.3078855
145	0xbe091ece	-0.13390657
146	0x3f5ee0f7	0.8706202
147	0x3d7b18b4	0.061302856
148	0xbda4e78c	-0.080519766
149	0xbe431502	-0.19050983
150	0xbee42bf0	-0.44564772
151	0xbed51c88	-0.4162333
152	0xbc43aebd	-0.011943516
153	0x3e428af7	0.18998323
154	0x3ec0e602	0.37675482
155	0xbeb95730	-0.3619933
156	0x3e5c0d26	0.2148939
157	0xbea5f954	-0.32416785
158	0xbd565ed6	-0.052336536
159	0xbe559dc4	-0.20860964
160	0xbc77aab7	-0.015116385
161	0xbdf2aa18	-0.11848849
162	0xbf98dae1	-1.1941797
163	0xbed67a4f	-0.4189019
164	0xbd232aeb	-0.03983585
165	0x3cf0e824	0.029407568
166	0xbe71dc63	-0.23619227
167	0x3e2fc99b	0.1716675
168	0xbe8532d6	-0.26015347
169	0x3d943aa2	0.07237746
170	0xbb38d242	-0.0028201495
171	0xbe807907	-0.25092337
172	0x3e8beaee	0.27327675
173	0x3d2c76e4	0.04210557
174	0xbf248b9c	-0.64275527
175	0x3e720c70	0.23637557
176	0x3cabf60c	0.020991348
177	0xbe55784a	-0.20846668
178	0xbea81247	-0.32826445
179	0xbf00ab39	-0.50261265
180	0x3d19a374	0.037509397
181	0xbcad59a4	-0.021160908
182	0x3e901926	0.28144187
183	0x3d5838d9	0.05278859
184	0x3cdbe077	0.026840432
185	0x3d297e72	0.041380353
186	0xbe7a7236	-0.2445763
187	0x3bf0583b	0.0073347366
188	0xbeb2ab28	-0.34896207
189	0x3ebc0d8e	0.3672909
190	0x3f74be77	0.95603126
191	0x3e68c061	0.22729637
192	0xbeef1596	-0.46696156
193	0xbdee363f	-0.1163144
194	0xbf5b7264	-0.8572142
195	0xbe5e0906	-0.2168313
196	0xbe7b1e38	-0.24523246
197	0x3e95ce52	0.29258972
198	0x3d1d80f9	0.038453076
199	0xbda4fb69	-0.08055765
200	0x3cce05a8	0.025149181
201	0x3e70c2a1	0.23511745
202	0xbf6db017	-0.92846817
203	0xbeca772d	-0.3954405
204	0xbe97e280	-0.29664993
205	0x3eb3633f	0.35036656
206	0x3ed8c2cb	0.42336115
207	0x3ed7312b	0.420297
208	0x3de287b6	0.11061041
209	0x3b1b849b	0.0023730162
210	0xbcc5431d	-0.024079854
211	0xbda05871	-0.07829369
212	0x3d875c34	0.06609383
213	0xbd8b52fc	-0.068029374
214	0xbf227356	-0.6345724
215	0xbce82f94	-0.028343
216	0xbe990589	-0.29887035
217	0xbe3c8791	-0.1841109
218	0xbd01427b	-0.03155754
219	0xbeafc246	-0.34327906
220	0xbd18783e	-0.037224047
221	0x3ee69fde	0.45043844
222	0x3edd20a1	0.43188956
223	0x3d95426f	0.07288062
224	0xbebc4798	-0.36773372
225	0x3e78921e	0.2427449
226	0xbf832ef9	-1.024871
227	0xbe09322e	-0.13398048
228	0xbde0212d	-0.10943828
229	0xbd5dfb09	-0.054194484
230	0x3f0fe9ee	0.56216323
231	0x3ecd6054	0.40112555
232	0x3d591d9b	0.05300675
233	0x3ec2ae20	0.38023472
234	0xbea1fa8a	-0.3163646
235	0xbec7854c	-0.38968885
236	0x3e2a23ed	0.16615267
237	0xbe79831b	-0.24366419
238	0xbf373af7	-0.7157435
239	0x3d586494	0.052830294
240	0x3d41a770	0.04727882
241	0x3e8b6066	0.27221984
242	0xbcddcf56	-0.027076405
243	0x3df28e9b	0.11843606
244	0x3e747a77	0.23874842
245	0xbf0cbc91	-0.5497523
246	0xbe966866	-0.29376525
247	0xbf254473	-0.6455757
248	0x3d30bc10	0.0431481
249	0xbbb06f97	-0.0053843963
250	0x3db9a5a3	0.09064796
251	0x3d917146	0.07101683
252	0x3ed350ba	0.41272527
253	0xbe165fd5	-0.14684995
254	0xbf816b13	-1.0110801
255	0xbe82d8ba	-0.25555974

bias f4 [128]
0	0xbe1f9292	-0.15583256
1	0xbe78e20c	-0.2430498
2	0x3e50cefa	0.20391455
3	0x3d92e552	0.07172646
4	0xbeb9181e	-0.36151212
5	0xbd11d30b	-0.035601657
6	0x3e60f29c	0.21967548
7	0xbda57ae6	-0.08080082
8	0xbd383156	-0.044968925
9	0xbd8294b5	-0.0637602
10	0x3da6ae7e	0.081387505
11	0xbf05da62	-0.5228635
12	0xbebb442b	-0.36575446
13	0xbe933b62	-0.28756243
14	0x3db9e1ee	0.09076296
15	0xbe914450	-0.2837243
16	0xbe10d890	-0.14145112
17	0xbe9c0f60	-0.3048048
18	0x3f03d842	0.5150186
19	0x3ee1cd8d	0.44102135
20	0xbf06e783	-0.5269701
21	0xbed8058c	-0.42191732
22	0xbed83001	-0.42224124
23	0xbe2abf78	-0.16674602
24	0xbe44fca9	-0.19237007
25	0xbe90ba7d	-0.2826728
26	0xbe06ecbd	-0.13176246
27	0x3d276da6	0.040876053
28	0xbe9b931b	-0.3038567
29	0xbc044015	-0.008071919
30	0xbe0ab851	-0.13546874
31	0xbe5e7ebc	-0.21728033
32	0x3d71f2e0	0.059069514
33	0x3bd2390a	0.006415491
34	0xbe9a2208	-0.3010409
35	0xbd931b74	-0.07182971
36	0xbe4876c4	-0.19576555
37	0x3e10806a	0.14111486
38	0xbf1693a1	-0.58819014
39	0xbf194c37	-0.5988192
40	0x3f016903	0.5055086
41	0xbeab1523	-0.33414564
42	0xbdb14cab	-0.086572014
43	0xbe341435	-0.17585833
44	0xbe09bde0	-0.13451338
45	0xbe55b981	-0.20871545
46	0xbce11615	-0.02747635
47	0x3e1a6a25	0.15079553
48	0xbec93ccf	-0.39304206
49	0xbe9719c3	-0.29511842
50	0xbe13ff12	-0.1445277
51	0x3e9a0fe7	0.30090258
52	0xbec2d24a	-0.38051063
53	0x3ebdbeef	0.37059733
54	0xbe9d6301	-0.30739596
55	0xbe2222b2	-0.15833548
56	0x3ec56151	0.3855081
57	0x3e903e01	0.28172305
58	0x3e9c383b	0.3051165
59	0x3de0ab74	0.10970202
60	0xbe89d5b5	-0.26920858
61	0xbe74cc7a	-0.23906127
62	0xbdc48c86	-0.09597115
63	0x3eb8833e	0.3603763
64	0xbe6aad67	-0.2291771
65	0xbef375ca	-0.47550803
66	0x3dd9b422	0.10630061
67	0x3ef5f7d9	0.48040655
68	0xbe45dec2	-0.19323257
69	0xbf096191	-0.536645
70	0xbf1f6f5b	-0.6227929
71	0x3d02030a	0.03174118
72	0xbd845aca	-0.06462629
73	0xbe98633c	-0.2976321
74	0x3d937cdf	0.07201552
75	0x3df8c780	0.121474266
76	0x3ec1b595	0.3783385
77	0x3eb50d2f	0.3536162
78	0xbe32bbcc	-0.17454451
79	0xbef56b82	-0.47933584
80	0xbee753d8	-0.45181155
81	0x3ed1844f	0.40921256
82	0x3eafed09	0.3436053
83	0x3e08b66b	0.13350837
84	0xbf0014e6	-0.5003189
85	0x3e99af80	0.30016708
86	0x3eb09d5f	0.34495065
87	0x3ec1a158	0.37818408
88	0xbed41c4f	-0.41427848
89	0xbe93b914	-0.2885214
90	0xbec4ece7	-0.38461992
91	0x3edce6eb	0.43144926
92	0xbe86ddf2	-0.26341206
93	0xbe3aa610	-0.1822741
94	0x3e9b405d	0.30322543
95	0xbe9bb0fc	-0.30408466
96	0xbe230a2b	-0.15921848
97	0xbe45aee8	-0.19305003
98	0xbe7de7ac	-0.24795407
99	0xbf119f73	-0.56883925
100	0x3ec5784f	0.3856835
101	0xbe5ff0f9	-0.21869268
102	0x3e744610	0.23854852
103	0x3eb3a3bb	0.35085854
104	0x3d989870	0.0745095
105	0xbdfceb23	-0.12349536
106	0x3ec9f5b1	0.3944526
107	0x3da3e975	0.08003513
108	0xbec0c037	-0.37646648
109	0x3ebd7caa	0.37009174
110	0x3dac1428	0.08402282
111	0xbf0d8dde	-0.552946
112	0xbeb31d22	-0.34983164
113	0xbed1250f	-0.40848586
114	0x3edaa853	0.42706546
115	0xbe538ac4	-0.20658404
116	0xbef76a09	-0.48323086
117	0xbdfb962a	-0.12284501
118	0x3e2f137a	0.17097273
119	0x3e104b14	0.1409114
120	0xbdb74f84	-0.08950713
121	0x3e24176d	0.16024561
122	0x3e128c1d	0.14311261
123	0xbd74f2c3	-0.059801828
124	0xbe5f9617	-0.21834598
125	0xbf01a7dd	-0.50646764
126	0xbec8d4b4	-0.3922478
127	0x3e298735	0.16555484

weight f4 [2, 128]
0	0x3d02b8fe	0.031914704
1	0xbdc668b5	-0.0968794
2	0x3e0d2929	0.13785233
3	0x3c54d714	0.012990732
4	0xbcabe0c6	-0.020981204
5	0xba31e544	-0.00067861774
6	0xbd947b64	-0.072500974
7	0x3d9ffce0	0.07811904
8	0x3c811ed4	0.01576177
9	0xbe01cc8f	-0.12675689
10	0x3d81d94e	0.06340276
11	0xbcc619af	-0.024182169
12	0xbdb2177c	-0.086958855
13	0xbd43d3e1	-0.047809485
14	0xbd26b958	-0.0407041
15	0xbcaef223	-0.021355694
16	0xbc885b13	-0.01664499
17	0x3db55950	0.08854926
18	0xbe08d37e	-0.13361928
19	0x3d562a74	0.05228658
20	0xb9c22382	-0.0003702902
21	0xbc830dc7	-0.01599778
22	0xbd0ed729	-0.03487316
23	0x3c9983ab	0.018739542
24	0x3e195a3d	0.1497583
25	0x3dccde89	0.10003383
26	0x3e2546f3	0.16140346
27	0x3dff7d64	0.12475088
28	0xbceb2687	-0.028704895
29	0x3d1b7b26	0.03795924
30	0xbe1cc5d3	-0.15309839
31	0x3dfdb594	0.12388149
32	0xbd79ba42	-0.060968645
33	0x3bf73ef2	0.0075453455
34	0xbe39bb16	-0.18137774
35	0x3c870c73	0.016485428
36	0xbd5141ee	-0.051088266
37	0x3d3e3e29	0.046446
38	0x3d40ea11	0.047098223
39	0xbd420880	-0.047371387
40	0x3e318648	0.1733638
41	0xbd33c66a	-0.043890394
42	0xbc239358	-0.00998386
43	0xbd2b9b37	-0.04189607
44	0x3deb5d2e	0.11492382
45	0x3cb3cb16	0.021947425
46	0x3b716a84	0.003683717
47	0xbe2080ac	-0.15674084
48	0x3e0fca21	0.1404195
49	0x3d41ce9b	0.047316175
50	0x3db338ef	0.087510936
51	0xbda810c8	-0.08206326
52	0x3d854fd8	0.065093696
53	0x3d9e20fb	0.07721134
54	0x3d598b4e	0.053111367
55	0xbdbb19d0	-0.09135783
56	0x3e180af3	0.14847927
57	0xbde0bf25	-0.10973958
58	0x3d364777	0.044501748
59	0x3b986a3a	0.004651335
60	0xbd5078a9	-0.05089632
61	0x3e5dd542	0.21663383
62	0xbc67364a	-0.014112065
63	0x3d9ed394	0.07755199
64	0x3cf5a3cc	0.029985331
65	0xbdb5a703	-0.088697456
66	0x3c382e88	0.011241563
67	0x3e03f3d1	0.12885977
68	0x3da49cd3	0.08037724
69	0xbbe1f713	-0.0068959086
70	0x3a0ec0d3	0.0005445603
71	0xbd212889	-0.039345298
72	0xbdb31f1d	-0.08746169
73	0xbbc5df6a	-0.006038596
74	0x3d7709f5	0.06031223
75	0xbc4b1a28	-0.012396373
76	0xbd82fa93	-0.063954495
77	0x3dde272a	0.10847314
78	0xbd9dafd3	-0.076995514
79	0x3d5e4297	0.054262724
80	0x3d92cf4f	0.07168447
81	0xbdb9a4b1	-0.090646155
82	0x3dc3135e	0.095251784
83	0xbd24176b	-0.040061396
84	0xbe0af18e	-0.13568708
85	0xbd40884c	-0.047004983
86	0x3d377a78	0.04479453
87	0xbdd82e3d	-0.10555694
88	0x3da4063d	0.08009002
89	0xbbc16fd1	-0.005903222
90	0xbba96523	-0.005169527
91	0x3da98590	0.08277428
92	0xbc2a0283	-0.010376575
93	0x3e7e829f	0.24854515
94	0xbe0f96cf	-0.14022373
95	0xbd2fea93	-0.042948317
96	0xbe01293d	-0.12613387
97	0xbd22910c	-0.03968911
98	0x3cd0d27a	0.025490988
99	0xbda9d8ae	-0.082932815
100	0xbde6e2d5	-0.112737335
101	0xbdcc966e	-0.0998963
102	0x3e2464a3	0.16054015
103	0x3cd83d82	0.026396517
104	0xbb02b44f	-0.0019943898
105	0x3d39de8f	0.045378264
106	0x3dd563d1	0.10419429
107	0xbca05657	-0.01957242
108	0x3c2bebe2	0.010493251
109	0xbd37488b	-0.044746917
110	0xbdf06d0e	-0.117395505
111	0xbcf9c5b5	-0.030489782
112	0x3c2f9c1d	0.010718373
113	0x397b13f2	0.00023944656
114	0x3dae6c9b	0.085168086
115	0x3dc0b464	0.09409407
116	0xbd3b7466	-0.045765303
117	0xbce07b70	-0.02740261
118	0xbcf2f6bd	-0.02965867
119	0xbd9a845b	-0.07544776
120	0x3c27e5e0	0.010247678
121	0xbd9512f5	-0.072790064
122	0xbdf1a56e	-0.11799131
123	0xb994cea4	-0.0002838272
124	0xbd991cae	-0.07476173
125	0xbe1efad9	-0.15525378
126	0xbdb133a3	-0.08652427
127	0x3d6cad0b	0.057782214
128	0xbe1bb6ec	-0.15206498
129	0x3dab78c6	0.08372645
130	0xbda52ba8	-0.080649674
131	0xbdac6051	-0.084168084
132	0x3c46b8c5	0.012129013
133	0x3e065dca	0.13121715
134	0x3d9b7d14	0.07592216
135	0xbd7d03e1	-0.061771277
136	0x3b0068ec	0.0019593788
137	0x3d59816c	0.053101942
138	0x3d9556cd	0.072919466
139	0xbdc62895	-0.09675709
140	0x3da8df6c	0.08245739
141	0x3d290d0b	0.041272204
142	0xbcc6efcf	-0.024284272
143	0xbc5b90d3	-0.013401228
144	0xbc938fa9	-0.018012838
145	0xbd35369b	-0.04424153
146	0x3d864e1a	0.065578654
147	0xbddaafa7	-0.10678034
148	0xbc8cde6b	-0.0171959
149	0x3c4c2d29	0.012461939
150	0x3dcc5ef5	0.09979049
151	0xbd706b71	-0.058696214
152	0xbd676fb6	-0.05650302
153	0x3bd7e3b9	0.006588426
154	0xbe52d8d7	-0.2059053
155	0xbdbd7006	-0.092498824
156	0xbd618d2c	-0.055066273
157	0xbce60d21	-0.028082432
158	0x3d5a929b	0.05336247
159	0xbe1be82c	-0.15225285
160	0x3dad98d4	0.08476415
161	0xbc88a590	-0.016680509
162	0x3e92b2a2	0.2865191
163	0xbc2e52a6	-0.010639822
164	0x3d1c5916	0.038170896
165	0x3cf1b013	0.029502904
166	0x3dcf82bc	0.101323575
167	0xbce347bb	-0.027744165
168	0xbda41dfb	-0.08013531
169	0xbb9414d4	-0.0045190845
170	0xbd280644	-0.0410216
171	0x3bd8a16e	0.006611041
172	0xbd531f72	-0.05154366
173	0xbcbc41d3	-0.022980606
174	0xbb4bcfb8	-0.0031099152
175	0x3df95d88	0.12176043
176	0xbe069c1c	-0.13145489
177	0x3d5736ca	0.052542485
178	0xbd6cd6ef	-0.057822164
179	0x3d8a881b	0.06764241
180	0x3da274ba	0.0793242
181	0xbca807dc	-0.02051156
182	0x3b29a9df	0.0025888605
183	0xbc8706f5	-0.01648281
184	0xbdcb7424	-0.099342614
185	0x3cef6925	0.029224942
186	0xbcca9c71	-0.0247328
187	0xbcce6a62	-0.025197212
188	0x3cf7c373	0.030244565
189	0xbe3ae852	-0.18252686
190	0xbc121983	-0.008917215
191	0xbd9a3cae	-0.07531105
192	0xbd9e03cb	-0.07715567
193	0x3d3d7b44	0.046260133
194	0xbd975593	-0.07389369
195	0xbc91bc8d	-0.017790103
196	0xbde3d163	-0.11123922
197	0x3ce66194	0.0281227
198	0xbd2aa0d0	-0.04165727
199	0x3ca7cb38	0.020482644
200	0xbbb3dccf	-0.005488969
201	0xbc8db7dc	-0.017299585
202	0x3cfe13dc	0.031015329
203	0x3cc27a01	0.023739817
204	0x3ddae3a9	0.10687954
205	0xbdd97e19	-0.10619754
206	0x3e3386c9	0.17531885
207	0x3db0f22f	0.08639943
208	0x3b854890	0.004067488
209	0x3d2de80d	0.04245763
210	0xbdd98021	-0.10620142
211	0x3d48860a	0.048955955
212	0x3d44125a	0.047869064
213	0x3cabec96	0.020986836
214	0x3d9d0d99	0.07668609
215	0xbd2cc1bd	-0.04217695
216	0xbcce463c	-0.025179975
217	0xbda50313	-0.08057227
218	0x3d3d9d8a	0.04629282
219	0xbdc25eb0	-0.094907165
220	0x3d3422ae	0.043978386
221	0xbe1cb8f7	-0.15304933
222	0x3dc5443b	0.096321546
223	0x3de5fd41	0.11229945
224	0x3e4e8df8	0.20171344
225	0xbd8078b7	-0.062730245
226	0xbbdb4ea1	-0.006692723
227	0xbc9885dc	-0.018618517
228	0x3cf907f8	0.030399308
229	0x3dfef546	0.12449126
230	0xbda11678	-0.07865614
231	0xbd8b79a5	-0.06810311
232	0xbd376978	-0.044778317
233	0x3d0fc6bf	0.03510165
234	0xbd4560fc	-0.048188195
235	0xbc5d1e36	-0.013495972
236	0x3d42beab	0.047545116
237	0x3dd2a142	0.10284664
238	0xbbc87e88	-0.0061185993
239	0x3cccebe7	0.02501483
240	0x3ca6e5aa	0.020373184
241	0xbbed0861	-0.007233665
242	0xbe10a0a7	-0.14123784
243	0x3c1272b6	0.008938482
244	0x3d71cf8d	0.059035826
245	0x3e10ff95	0.14159997
246	0x3d2c0901	0.042000774
247	0xbd661659	-0.056173656
248	0x3c4f3179	0.012646073
249	0x3e5506d8	0.20803392
250	0xbc34aa25	-0.011026894
251	0x3e229ff9	0.15881337
252	0x3e04e788	0.12978947
253	0x3e1f3ec3	0.15551285
254	0x3cf2a675	0.029620389
255	0x3d745416	0.059650503

bias f4 [2]
0	0xbdb1ee92	-0.08688082
1	0x3b3eeb2f	0.002913188

weight f4 [128, 4]
0	0x3d1e20e2	0.03860558
1	0x3e4c5110	0.19952798
2	0x3e80a416	0.25125188
3	0x3eb76827	0.3582165
4	0x3ebb7cdb	0.36618695
5	0x3ecac2f9	0.39601877
6	0x3ec6c1b3	0.38819656
7	0xbd09ead7	-0.033671226
8	0xbe75ab35	-0.23991092
9	0xbd9424ee	-0.07233606
10	0x3ce993ee	0.028512921
11	0xbe51f03d	-0.205018
12	0x3e0eea45	0.13956554
13	0x3e14deb9	0.14538087
14	0x3de000f7	0.10937684
15	0x3e2055aa	0.15657678
16	0x3e6bcc27	0.23027097
17	0x3d1df9c9	0.03856829
18	0xbe8bdcf3	-0.27317008
19	0xbe499321	-0.19685031
20	0x3e003bc3	0.12522797
21	0x3d36bc47	0.04461315
22	0x3ecc2dab	0.39878592
23	0xbed33c21	-0.41256812
24	0xbf0e3cd6	-0.5556158
25	0x3e7b1fd2	0.24523857
26	0x3f15ed2e	0.5856503
27	0xbe701682	-0.23446086
28	0x3dfebb40	0.12438059
29	0xbe837af9	-0.25679758
30	0x3fbb5bc8	1.4637384
31	0x3e48841e	0.19581649
32	0x3e8773f4	0.26455653
33	0xbec81c32	-0.3908401
34	0xbe4342ae	-0.19068405
35	0x3ea37316	0.3192374
36	0x3e81fdb8	0.25388885
37	0xbde86f89	-0.11349399
38	0x3dbfff1c	0.0937483
39	0xbe4a83bd	-0.19776817
40	0x3e94f396	0.2909209
41	0xbeee4254	-0.4653498
42	0x3da35628	0.079754174
43	0xbec542a1	-0.38527396
44	0xbe88aa33	-0.26692352
45	0x3e17dd6c	0.1483056
46	0xbf4955d5	-0.78646594
47	0xbe15bfde	-0.14623973
48	0xbf305f69	-0.68895584
49	0xbef061eb	-0.46949705
50	0x3f3c875a	0.7364403
51	0xbd9528ec	-0.07283196
52	0xbe37c548	-0.1794635
53	0xbea28291	-0.3174024
54	0xbfac11c1	-1.3442918
55	0xbe910c04	-0.2832948
56	0x3d9333c7	0.0718761
57	0x3dc6e2e8	0.09711248
58	0x3dc08f8c	0.094023794
59	0xbe3bda66	-0.18345031
60	0x3ddac40c	0.10681924
61	0x3d80e688	0.0629397
62	0xbe9cdda4	-0.30637848
63	0x3e002e79	0.12517728
64	0x3eaeb07a	0.34119016
65	0xbebc794b	-0.3681129
66	0xbf046c6e	-0.5172795
67	0xbd3858df	-0.04500663
68	0x3e94b8a4	0.2904712
69	0xbe2e6cf8	-0.17033756
70	0xbd4f3117	-0.050583925
71	0x3e448026	0.1918951
72	0xbd55edda	-0.052228786
73	0x3de08cf7	0.10964387
74	0x3fdc5660	1.721386
75	0x3e9cf34f	0.3065438
76	0xbe8aaab3	-0.27083358
77	0x3e245472	0.16047838
78	0x3faeb75a	1.3649704
79	0x3f003401	0.5007935
80	0xbe8e676e	-0.27813286
81	0x3e9d6437	0.3074052
82	0xbf61b4e7	-0.8816666
83	0xbef0965a	-0.4698971
84	0x3df98db6	0.12185232
85	0xbeea2be0	-0.457366
86	0xbf6bdf84	-0.9213793
87	0xbe71608a	-0.23571983
88	0xbebcbdab	-0.36863455
89	0x3dd138ac	0.102158874
90	0xbe101eb0	-0.14074206
91	0x3e7b3c2a	0.2453467
92	0x3dbcafda	0.092132285
93	0x3ecb147d	0.3966407
94	0x3e7c74b4	0.24653894
95	0xbd8e1c16	-0.06938951
96	0x3f176994	0.59145474
97	0x3db90f5a	0.09036131
98	0xbed0bfe7	-0.4077141
99	0xbe6a3ec1	-0.22875501
100	0x3d80d640	0.06290865
101	0xbe14ac38	-0.14518821
102	0xbfa39487	-1.2779702
103	0xbebd6e7c	-0.36998355
104	0xbd6c6f2f	-0.05772322
105	0xbeb20c31	-0.34774926
106	0xbe223a11	-0.15842463
107	0x3e9f334c	0.31093824
108	0xbe80d7dc	-0.25164688
109	0xbe86643e	-0.26248354
110	0xbf1a9d6f	-0.60396475
111	0xbe60cc68	-0.21952975
112	0x3d2e4722	0.042548306
113	0xbddc11e1	-0.10745598
114	0xbf493862	-0.7860166
115	0xbedabb24	-0.42720902
116	0xbdbf46ed	-0.093397
117	0x3e8d0892	0.275456
118	0x3eeaf157	0.45887253
119	0x3bdc1923	0.0067168637
120	0xbe61d6aa	-0.22054544
121	0x3e82c031	0.25537255
122	0xbe86ee65	-0.26353756
123	0xbed7f6a8	-0.4218037
124	0xbea05c6f	-0.3132052
125	0x3e9507cb	0.29107508
126	0x3e8c136c	0.27358568
127	0xbea7d7f5	-0.3278195
128	0xbe5c8304	-0.21534353
129	0x3e9fdd62	0.3122359
130	0x3f462c72	0.7741157
131	0x3ece6ecb	0.40318903
132	0x3f0f6ac3	0.5602228
133	0x3bf88337	0.0075840014
134	0xbf5444df	-0.8291759
135	0xbe6eccf2	-0.23320368
136	0xbde34239	-0.11096615
137	0x3d871022	0.06594874
138	0xbe7e6bbb	-0.24845783
139	0xbc9d6647	-0.019213809
140	0xbecf3795	-0.40472093
141	0x3ed36bcd	0.41293183
142	0xbeb96812	-0.36212212
143	0x3ecb55c1	0.39713863
144	0xbea86327	-0.32888147
145	0xbeb770d4	-0.3582827
146	0x3f479fb2	0.7797805
147	0x3e45cc7e	0.19316289
148	0x3ec0d6d4	0.376639
149	0x3e9df52d	0.30851117
150	0xbf09158e	-0.53548515
151	0x3e7f4448	0.24928391
152	0xbe07f6b4	-0.13277704
153	0xbe24cc37	-0.16093527
154	0x3d9a22e6	0.075261876
155	0x3eb54816	0.3540656
156	0xbf1d68cb	-0.61488026
157	0x3c214374	0.009842742
158	0x3f9daa5c	1.2317615
159	0x3e8e82a9	0.2783406
160	0x3e9e6927	0.309396
161	0xbd1a3f59	-0.03765807
162	0xbeb5dd78	-0.3552053
163	0x3e957ad5	0.29195276
164	0xbd0151a9	-0.031572018
165	0x3e999397	0.29995415
166	0xbc632286	-0.0138632115
167	0xbe089534	-0.13338166
168	0xbbbfdc28	-0.005855102
169	0xbe9f41eb	-0.3110498
170	0x3cc22f9d	0.023704344
171	0x3e83862b	0.256883
172	0x3e48e83d	0.19619842
173	0xbe32704e	-0.17425653
174	0x3e08ebe3	0.13371234
175	0xbe8f773c	-0.28020656
176	0x3ec840d5	0.39111963
177	0xbed9db6c	-0.42550218
178	0xbf0385d4	-0.5137608
179	0xbe54f15d	-0.20795198
180	0x3e91ffe9	0.28515556
181	0xbdd85d17	-0.105646305
182	0xbedb36aa	-0.42815143
183	0xbecea44a	-0.40359718
184	0x3e05eded	0.13079043
185	0x3c90b946	0.01766647
186	0x3d564d6e	0.052319936
187	0x3ebb0e0b	0.3653415
188	0x3e138e43	0.14409737
189	0xbe60c7b7	-0.21951185
190	0x3d929a58	0.07158345
191	0xbe1f9938	-0.15585792
192	0xbdc7820d	-0.09741602
193	0x3e9817a3	0.29705533
194	0x3f403ca6	0.7509254
195	0x3edb00f0	0.42774153
196	0xbe224a22	-0.15848592
197	0xbe079ac7	-0.13242637
198	0x3e3f594a	0.18686405
199	0xbe909229	-0.2823651
200	0xbba39800	-0.004992485
201	0xbd4e6e00	-0.050397873
202	0xbd37fc20	-0.04491818
203	0xbdccb3b0	-0.0999521
204	0x3eac640d	0.33670083
205	0x3ed884cc	0.42288816
206	0xbe6a6826	-0.22891292
207	0x3e9fa26a	0.311786
208	0xbee08423	-0.43850812
209	0xbed65789	-0.4186366
210	0x3d7fa3c2	0.06241203
211	0x3d0e7aa2	0.03478492
212	0xbe96e0fb	-0.2946852
213	0xbef1686e	-0.47149986
214	0xbca3ed76	-0.020010691
215	0x3e6b2bde	0.22965953
216	0xbe81d869	-0.2536042
217	0xbef61390	-0.480618
218	0xbf04f3fd	-0.51934797
219	0xbed2bf7c	-0.41161716
220	0xbe7b1ac1	-0.24521925
221	0xbe905f92	-0.28197914
222	0xbf81de9d	-1.0146061
223	0xbed33e94	-0.4125868
224	0xbe8dfe22	-0.2773295
225	0x3dddcdd9	0.10830278
226	0xbecf4f88	-0.40490365
227	0xbd01682e	-0.031593494
228	0xbe43beb9	-0.19115724
229	0xbe67b4a4	-0.22627503
230	0x3e91bcbe	0.2846431
231	0xbea69458	-0.32535052
232	0xbecdadbc	-0.4017161
233	0x3eb82d7e	0.35972208
234	0x3d626e84	0.055281177
235	0x3ed40b87	0.41415045
236	0xbe7a65c5	-0.24452884
237	0xbe3fd34a	-0.18732944
238	0x3e80cc82	0.25156027
239	0x3c92ff35	0.017943958
240	0x3eb4378c	0.3519863
241	0xbeee5005	-0.46545425
242	0xbe2260a4	-0.15857178
243	0x3e496fc4	0.19671541
244	0xbeddca1f	-0.4331827
245	0xbebb8347	-0.36623594
246	0x3ed451ed	0.41468754
247	0xbe960cff	-0.2930679
248	0x3d5a346c	0.05327265
249	0xbec2420b	-0.37941012
250	0x3e985abd	0.29756728
251	0xbec42b7e	-0.38314432
252	0x3e7db33b	0.24775402
253	0xbec56882	-0.38556296
254	0xbec3d3f0	-0.38247633
255	0xbcaa3a5a	-0.020779777

bias f4 [128]
0	0x3f12bbb1	0.57317644
1	0x3e2aa54c	0.16664618
2	0x3f423f15	0.75877506
3	0x3f330aae	0.6993817
4	0x3f5b7311	0.8572245
5	0x3ebc907a	0.36828977
6	0x3f3883f5	0.7207635
7	0xbeed6000	-0.46362305
8	0xbecbebcd	-0.3982834
9	0xbe84ff43	-0.25976
10	0x3e3e0b11	0.18558909
11	0xbebd8c73	-0.37021217
12	0xbebfa153	-0.37427768
13	0xbe08645a	-0.13319531
14	0xbf13cc41	-0.5773354
15	0x3ee7d984	0.4528314
16	0x3f4607e9	0.7735582
17	0x3f2cc55a	0.67488635
18	0xbec8d3d4	-0.39224112
19	0xbf0d30e0	-0.551527
20	0xbf0f1a3e	-0.5589942
21	0xbd557024	-0.0521089
22	0x3f3f10d9	0.7463508
23	0xbc4a3df9	-0.012343877
24	0xbe043b6b	-0.12913291
25	0xbebab18a	-0.36463577
26	0x3e9ad989	0.3024409
27	0xbf297e88	-0.66208696
28	0xbef6c3ca	-0.4819625
29	0x3f2f471c	0.6846788
30	0xbe5d9206	-0.21637735
31	0x3e076abe	0.13224313
32	0xbec705ec	-0.38871706
33	0xbed244b7	-0.4106805
34	0x3ea51da4	0.32249177
35	0x3ef06764	0.4695388
36	0xbe570531	-0.20998074
37	0x3ebf8c0e	0.3741154
38	0x3ebe389d	0.37152568
39	0xbf012b15	-0.5045636
40	0x3f52b026	0.8230003
41	0x3f5776ba	0.8416554
42	0x3f456bd0	0.77117634
43	0xbd4028cd	-0.04691391
44	0x3efe64ea	0.49686366
45	0xbf17421f	-0.5908527
46	0x3e661107	0.22467433
47	0xbd9737c6	-0.07383685
48	0xbeef28d3	-0.46710834
49	0x3f2b10e6	0.6682266
50	0xbe694bfc	-0.22782892
51	0x3e64ff33	0.22362976
52	0x3e16e404	0.14735419
53	0xbefeb0da	-0.49744302
54	0xbe71a9b3	-0.23599891
55	0xbed7cf77	-0.4215047
56	0x3f2ca688	0.67441607
57	0x3f3ba78f	0.7330255
58	0x3f2cc7f2	0.6749259
59	0xbe8e1666	-0.27751464
60	0x3ec9aea6	0.3939106
61	0x3ed806d8	0.4219272
62	0x3f4d4c4f	0.8019456
63	0x3f528473	0.8223335
64	0xbeac0dec	-0.33604372
65	0xbeb2afc0	-0.34899712
66	0xbec5c31e	-0.38625425
67	0xbe9a3e09	-0.30125454
68	0x3f5e4b5e	0.8683375
69	0x3f16e9f8	0.5895076
70	0x3f47265d	0.7779291
71	0x3f42e551	0.7613116
72	0x3ea6fef0	0.32616377
73	0xbef5eb1d	-0.4803094
74	0x3f55ff06	0.8359226
75	0x3f548650	0.83017445
76	0x3eda4561	0.42631057
77	0xbe9c69dc	-0.30549514
78	0x3f4d8f4c	0.8029678
79	0x3ed3aeec	0.41344392
80	0x3f0df919	0.5545822
81	0x3f20a9b2	0.62758934
82	0x3f3e2944	0.74281716
83	0xbef26b2c	-0.4734739
84	0xbe9d8439	-0.3076494
85	0x3f37d066	0.71802366
86	0x3e5faf4d	0.21844216
87	0xbef5d85e	-0.48016638
88	0x3f5f5760	0.872427
89	0x3e8b2a0e	0.27180523
90	0x3f4679ba	0.7752949
91	0xbf0775af	-0.52913946
92	0x3f1eb14a	0.6198927
93	0xbd09f859	-0.03368411
94	0xbe39a515	-0.1812938
95	0x3e76a06d	0.24084635
96	0xbe82ca6d	-0.25545064
97	0x3eeb07e2	0.45904452
98	0x3e2e2517	0.17006336
99	0x3f3fe092	0.7495204
100	0x3f0a575a	0.5403954
101	0x3ea86d30	0.32895803
102	0xbedb741c	-0.42862022
103	0xbef31b74	-0.47481883
104	0xbe46bcec	-0.19408005
105	0xbf28d92d	-0.65956384
106	0x3e27bf5b	0.1638159
107	0x3ef5c7e0	0.48004055
108	0xbdff5fc5	-0.124694385
109	0xbee140f5	-0.4399487
110	0x3f3247ba	0.69640696
111	0x3f0edd4c	0.5580642
112	0x3dedc7dd	0.116103865
113	0xbe594aa0	-0.21219873
114	0x3f0f7470	0.56037045
115	0x3f3c89b2	0.73647606
116	0xbebd7448	-0.37002778
117	0x3e64e63a	0.2235345
118	0x3ed7a81f	0.42120454
119	0xbea4eab6	-0.3221032
120	0x3f4fcddf	0.8117351
121	0x3e72df00	0.2371788
122	0x3f1d95cf	0.61556715
123	0xbe9617c8	-0.2931502
124	0x3ea607de	0.32427877
125	0xbea18e04	-0.31553662
126	0xbced434d	-0.028962756
127	0x3f0caac4	0.5494807

weight f4 [1, 128]
0	0x3e7227e1	0.23648025
1	0x3dacbce9	0.08434469
2	0x3eb41e76	0.3517949
3	0x3e631fea	0.22180143
4	0x3e91b8dd	0.28461352
5	0x3e1ca044	0.15295511
6	0x3e4415b8	0.1914891
7	0xbec1b5cd	-0.37834015
8	0xbc2731b8	-0.010204725
9	0x3c15414e	0.009109808
10	0x3e001933	0.12509613
11	0xbea6796a	-0.32514507
12	0xbe403e45	-0.18773754
13	0xbe56c1d7	-0.20972382
14	0xbc38d854	-0.011282045
15	0x3ec82b9e	0.39095777
16	0x3e8d5580	0.27604294
17	0x3e5d8c68	0.21635592
18	0xbf5ab674	-0.8543465
19	0xbf06fda4	-0.52730775
20	0xbe63dbc7	-0.22251807
21	0xbe6bdc0d	-0.23033161
22	0x3ea5f2bc	0.32411754
23	0x3ccdb8b3	0.025112486
24	0xbe2c3e7f	-0.16820715
25	0xbf3c1ff8	-0.7348628
26	0x3dfcad3e	0.12337731
27	0xbe3ee9f6	-0.18643937
28	0xbe98bb83	-0.2983056
29	0x3e459b5b	0.19297545
30	0xbe330b63	-0.17484812
31	0x3d180951	0.03711826
32	0xbeb128e4	-0.3460151
33	0xbe82c4b8	-0.2554071
34	0x3e3c9dc2	0.18419555
35	0x3e90715a	0.2821148
36	0xbe48cbf5	-0.19609053
37	0x3e940b17	0.2891471
38	0x3e17248c	0.14760035
39	0xbeac9b9e	-0.33712476
40	0x3e8df1b1	0.27723458
41	0x3e868b51	0.26278165
42	0x3e5e608c	0.21716517
43	0x3cacf2ec	0.021111928
44	0x3e2cf20c	0.16889209
45	0xbd3e70e4	-0.04649438
46	0x3d9c6282	0.076359764
47	0x3cb00e59	0.021491216
48	0xbf0b3abb	-0.5438649
49	0x3e891027	0.26770136
50	0x3d6c3eca	0.057677068
51	0x3e62d96f	0.22153257
52	0x3dd1ec69	0.1025017
53	0xbd64fc95	-0.055904943
54	0xbdd010ba	-0.1015944
55	0xbe7bd9b5	-0.24594767
56	0x3ec2b505	0.38028732
57	0x3e87c831	0.2651992
58	0x3e5be046	0.21472272
59	0xbd0a06dd	-0.03369795
60	0x3e0e626f	0.13904737
61	0x3e4e4175	0.20142157
62	0x3e66bd6a	0.22533193
63	0x3eb64c93	0.35605296
64	0xbb3c9349	-0.0028774312
65	0xbf740b27	-0.9532952
66	0xbdb15416	-0.08658616
67	0xbf2d6b57	-0.6774191
68	0x3e855db8	0.26048064
69	0x3ea99ffc	0.3312987
70	0x3e64bca8	0.22337592
71	0x3e96615a	0.29371148
72	0x3da37c0d	0.07982645
73	0xbf22ee62	-0.63644993
74	0x3e82a224	0.25514328
75	0x3e99e23e	0.30055422
76	0x3e2393be	0.15974328
77	0xbcae80a9	-0.021301584
78	0x3ea29302	0.31752783
79	0x3e0b1579	0.1358241
80	0x3e5a804f	0.21338008
81	0x3ea4fff5	0.3222653
82	0x3e81e509	0.25370052
83	0xbe246b34	-0.1605652
84	0xbe802297	-0.2502639
85	0x3eac7cfa	0.336891
86	0x3ddb6fd8	0.10714692
87	0xbd2ce0ae	-0.04220646
88	0x3e87e39b	0.26540837
89	0x3dd46ac7	0.10371929
90	0x3ea02f21	0.31285957
91	0xbe422120	-0.18957949
92	0x3e94660e	0.28984112
93	0xbdb7f6d3	-0.08982625
94	0xbe5e74fb	-0.21724312
95	0x3d934cc9	0.0719238
96	0xbe04ab13	-0.12955885
97	0x3d97abf4	0.07405844
98	0x3df093c0	0.11746931
99	0x3eaaed2b	0.3338407
100	0x3ea4dd08	0.32199883
101	0x3e9c868c	0.305714
102	0xbd613b92	-0.05498845
103	0xbeb94a98	-0.36189723
104	0xbe050f9e	-0.12994239
105	0xbec6b7a0	-0.3881197
106	0x3e02664f	0.1273434
107	0x3e8a4ec3	0.27013215
108	0xbdde220b	-0.10846337
109	0xbe093580	-0.13399315
110	0x3e8c53bd	0.27407637
111	0x3e436c3b	0.19084255
112	0x3d09915f	0.033585902
113	0xbe26cd5d	-0.16289277
114	0x3e2c8481	0.16847421
115	0x3e5e8c2a	0.21733156
116	0x3e274167	0.16333543
117	0x3dec10fb	0.11526676
118	0x3e18d51f	0.14925049
119	0xbf724c3e	-0.94647586
120	0x3ea22c75	0.31674543
121	0x3da28a6d	0.07936559
122	0x3e36eb1b	0.17863123
123	0xbe8c0ef3	-0.27355155
124	0x3ead076d	0.33794728
125	0xbebe3876	-0.3715245
126	0xbda0a786	-0.078444526
127	0x3ea9036c	0.33010423
