src/cartpole/results/CartPole-v1/train-a2c/20210408-075553/num_env6-num_episodes50000-learning_rate0.003-hidden_layers64-64-value_coefficient0.5.pt (torch, 7807 bytes, 7 tensors)

weight f4 [64, 4]
00000000: 8a60 a53d d6d0 f3bb 2ad4 febf 8425 dcbe
00000010: aa71 29bd 28a6 883e 3f6f 923f 38b9 9f3e
00000020: 5218 8cbd 4cf8 ac3d 7879 f0bd 9d90 e0bc
00000030: 2ce9 efbd 7d12 94bd 985d 67bc 70a8 333d
00000040: a153 483d 7b14 0cbd 0e26 0fc0 4ae3 89be
00000050: c0be 84bd f0f0 063e aed7 6f3f 416b d53e
00000060: 431d 9c3d 36a8 ddbd 1a01 5cbe dbc3 6abe
00000070: 5602 64bc c1ee 533e e226 f8bc cfe1 7c3e
00000080: cba4 1fbe df7a 01be 8a5e 92bf 4005 9ebe
00000090: 62a6 c9be b0eb a73e 2267 cb3f 6e21 373f
000000a0: f2e4 083e 6db7 27be 92d8 cfbf 821c 0dbf
000000b0: 91d4 0bbe 6978 5cbe 3897 a63f 09bd 113f
000000c0: 1bed 81bd d33f f03d 1d69 af3f ce72 6d3e
000000d0: b820 b03d e93b cdbd cb9a f5be 4823 87be
000000e0: 1627 d23d 9498 85be fd05 00c0 35ea 1fbf
000000f0: df4c 243d 8c7b 963d 2335 8bbe a737 f03d
00000100: 32c5 7d3e 4cfc 8bbe ae68 64be ff1d 8a3e
00000110: a717 003e b4f7 363e 55ee f5bf a895 dbbd
00000120: e43f 88bd ebc0 403e ea29 0e40 fdb7 393f
00000130: 0dd0 a13d 158e 78be 8d4b 863e 06e6 a3be
00000140: 3110 5fbe a9e3 3a3e 95b0 373f 9761 93bc
00000150: efd8 f43d da6f 5cbe bb9b 4ebf 08c3 e0be
00000160: 9ba2 0b3f fe95 abbd 7514 c83f c3ae 8abc
00000170: b56c 7e3b 9791 833b 667f 17c0 131c b0be
00000180: b725 d93d 3b38 0ebe 2566 0ec0 055e c6be
00000190: de47 5c3e ae36 1c3d a684 52bf d91f debd
000001a0: 2aad bcbe ff7f 423d 62c0 acbf 66ba f6be
000001b0: 4bd0 66bb 830b 113e c131 b63e e28f 2f3e
000001c0: 167f 49be 32b2 773e dffc 443f 0925 39bd
000001d0: 96ec e0bd a7b6 d23d 43b8 ba3f ec02 573e
000001e0: a512 d73d e61e b13d 1689 063f e844 583d
000001f0: 1ca2 d1bd e488 61bc 264d 56bf 6a63 82be
00000200: 3122 c53d 92a2 b5bd d6cc a53b 57c8 15bd
00000210: e04f 1dbe 3f6d 443e 9985 003f 89cf 933d
00000220: f721 2ebb 8df1 8f3d 60e3 513d bffd 633e
00000230: 39bc 1d3e 161e 04bd 79bb ed3f 5576 873e
00000240: 9731 c2bd 1836 de3d cafb d33f 68fa a73e
00000250: 2244 03be 42e3 6fbe 68b7 a8bf 1f4a e3be
00000260: a08b 5ebe 0a3b fdbc 32c6 3f3e 3bdf 40be
00000270: c41c 433e 31ca 47be add2 b7bf 86af 14bf
00000280: 3716 193e d1cf 85bc 46ff ebbe abef 713d
00000290: e8fc 86bd 0b0f da3c 6b92 76be 4642 2d3e
000002a0: dcd4 9fbd 3bd8 f63d aad2 0340 9dc7 b13e
000002b0: 0993 683e 4508 e03d 7703 2c3e 4d21 263e
000002c0: 0035 553e 96ac 84be 891a 0ebe a8ae fabe
000002d0: 0772 163e cb06 cfbc 17a2 d33f 32ae d53d
000002e0: d435 10bb f816 233c 69e3 c9bf f2dd 80be
000002f0: 1bfb a9be 7734 ed3e 630c bf3f 6606 853e
00000300: be68 b8bd a529 b23b e423 9ebe 19f8 83bd
00000310: 98f7 90be 8f30 e43d f612 c6be 37fc 7cbc
00000320: 7677 d8bc d5bc b83a 3140 21c0 9d9c acbe
00000330: d398 82be 6925 c43e c6a4 a83e edb3 af3e
00000340: 9490 323e 4900 dabd 28a6 693f 1f49 56bd
00000350: ce79 45ba 7276 9fbc b55c e1bb fd0e 8cba
00000360: e134 e2bd 192d 203d 18a6 603f 116a 85be
00000370: bd58 37be ae2b 5a3e 933f 5bbd 1df2 b23d
00000380: 37ed 67be 2d49 bd3e 99de a9bf 1d85 3fbd
00000390: 5105 b6bd 36d6 ba3d e06d 9abd d123 6d3e
000003a0: e64b 29be dc75 1a3c 87a4 8abf 97db 5ebe
000003b0: f89f 453e cc33 c5bd f340 4a3f 8f5a 86bd
000003c0: b87c e5bc 34cc 1d3e 3fa8 d2bf 98ea 7639
000003d0: 0259 9d3e 565a 8ebe 71e8 c03d 9dd2 eabe
000003e0: 7573 823d 08a0 e2bd 8828 babf f48d 503d
000003f0: 1463 d23e d523 b0bd b7e5 94bf 9176 4abe
0.08075054 -0.0074406667 -1.9908497 -0.42997372 -0.041368164 0.26689267 1.14402 0.31195998
-0.06840576 0.08445796 -0.11741918 -0.027412707 -0.11714396 -0.07230089 -0.014121436 0.043861806
0.04890788 -0.03419922 -2.2366977 -0.2693122 -0.06481695 0.13177848 0.93688476 0.4168339
0.07622769 -0.10823099 -0.21484795 -0.22926275 -0.013916573 0.20696546 -0.030291978 0.24695514
-0.15590207 -0.12644528 -1.1435101 -0.3086338 -0.39384753 0.32797003 1.5890849 0.71535385
0.13368586 -0.16378565 -1.6237967 -0.55121624 -0.13655306 -0.21530308 1.3014898 0.5692907
-0.063440524 0.117309235 1.3703953 0.23188326 0.085999906 -0.100211926 -0.4796966 -0.26394105
0.10261361 -0.2609297 -2.0003655 -0.62466747 0.040112372 0.073477834 -0.27188978 0.11729365
0.24782255 -0.27340925 -0.22305557 0.2697601 0.12509023 0.17867929 -1.9213358 -0.10721904
-0.06652811 0.18823592 2.2213082 0.7254637 0.07901011 -0.2427295 0.26229516 -0.3201143
-0.2178352 0.18250908 0.7175382 -0.01799087 0.11955439 -0.21527043 -0.80706376 -0.43898797
0.5454499 -0.08378218 1.5631243 -0.016929036 0.0038822119 0.0040151584 -2.3671508 -0.3439642
0.10602897 -0.13888638 -2.2249844 -0.38743606 0.2151179 0.038138084 -0.82233655 -0.10845918
-0.36850864 0.047485348 -1.349621 -0.48189086 -0.0035219367 0.14164548 0.35584834 0.1714473
-0.19677386 0.2418907 0.7694835 -0.045201335 -0.10982625 0.102887444 1.4587482 0.20997208
0.10501603 0.086484715 0.52552927 0.05280009 -0.10235998 -0.013765547 -0.8371147 -0.25466472
0.09625662 -0.088688985 0.0050598187 -0.036568012 -0.15362501 0.19182299 0.50203854 0.072173186
-0.0026570538 0.07028494 0.051242232 0.22264765 0.15403832 -0.032255255 1.8572837 0.26457468
-0.09482115 0.10850161 1.6561215 0.32808232 -0.1281896 -0.23426536 -1.3180971 -0.44392487
-0.2173295 -0.030911941 0.1872795 -0.18835156 0.19053942 -0.19510724 -1.4361168 -0.5808033
0.1494988 -0.016334446 -0.46093196 0.059066456 -0.06591207 0.026618501 -0.24079292 0.16919813
-0.078042716 0.120529614 2.059733 0.34722605 0.2271234 0.10939077 0.16798197 0.1622364
0.20820999 -0.25912923 -0.1387731 -0.48961377 0.14691935 -0.025271794 1.6533841 0.10433616
-0.002200474 0.009954207 -1.5772525 -0.2516933 -0.3319939 0.4632909 1.4925655 0.25981444
-0.09004353 0.0054370933 -0.30886757 -0.06443805 -0.283139 0.11142074 -0.3868634 -0.015440992
-0.02642415 0.0014094362 -2.519543 -0.33713236 -0.2550722 0.38309792 0.32938212 0.3431696
0.17437965 -0.10644586 0.9126916 -0.052315827 -0.0007533104 -0.019465659 -0.0068775066 -0.0010685619
-0.11045242 0.03910551 0.8775344 -0.26057485 -0.17904945 0.21305725 -0.053527426 0.08737586
-0.22649084 0.3696989 -1.3271056 -0.046757806 -0.08887733 0.09122889 -0.07540488 0.23158194
-0.16532859 0.009427514 -1.083146 -0.21763454 0.19299304 -0.0962902 0.79005355 -0.065602414
-0.028013572 0.15409929 -1.6457595 0.00023547781 0.3073197 -0.27803296 0.09419335 -0.4586381
0.06369678 -0.1106568 -1.4543619 0.050916627 0.41091216 -0.086005844 -1.1632603 -0.19771792

bias f4 [64]
00000000: 1bfe fabe bd35 9e3e 27f1 bfbe 0dd2 17bf
00000010: 608c bdbe faa9 37be 9cf2 06be cab2 cebd
00000020: 8ce6 4b3e d6a9 58be 6bef f1be 1869 643c
00000030: fe5d ba3e 4664 5dbe ec6a 75be d304 d0be
00000040: 4972 d2be 37a1 19be 3111 b1be b196 30bf
00000050: c57f 9fbe 63d3 cabe 834c 7bbe 1a74 d6be
00000060: a331 17be 4741 fbbe 7055 0cbf 040b 63be
00000070: bc4e bebe 77b8 a9bd 211b 07bf 2466 54be
00000080: fbe4 a9be 17e3 9bbe 4e3f d4be 4559 7abe
00000090: 7ab1 1bbe 5926 0bbe 8e4d 0cbf 001a e4be
000000a0: 92d5 a0bd 5510 c9be 168c 74be 5309 09bf
000000b0: 4339 e3be aa3c 4fbe 713f 98be ec27 403e
000000c0: 6668 a0be 0810 03bf 383a a4be 4a55 abbe
000000d0: 2529 f4bd e324 01be de25 2ebf 3358 cebe
000000e0: fb7b 003e 6111 c8be 4750 73be 42bf 85be
000000f0: 46d6 1ebe 5f5c f6be db56 ce3b 0441 b2bd
-0.49021992 0.30900374 -0.37488672 -0.5930489 -0.3702116 -0.17935935 -0.13178486 -0.10092695
0.19912165 -0.21158537 -0.47252974 0.013941072 0.36399835 -0.21620283 -0.23966569 -0.4062868
-0.41102818 -0.15002905 -0.34583429 -0.68979937 -0.31152168 -0.396144 -0.24540906 -0.41885453
-0.14765029 -0.4907324 -0.5481787 -0.22172171 -0.37169445 -0.08287137 -0.5277577 -0.20742089
-0.3318251 -0.30446693 -0.41454548 -0.24448116 -0.1520442 -0.13588847 -0.5480584 -0.44551086
-0.07853235 -0.39270273 -0.23881564 -0.5352985 -0.44379625 -0.20237985 -0.29735902 0.18765229
-0.3132965 -0.51196337 -0.32075667 -0.33463508 -0.1192191 -0.12611727 -0.6802653 -0.40301666
0.12547295 -0.3907576 -0.23761092 -0.2612248 -0.15511426 -0.4811735 0.006296975 -0.08703807

weight f4 [2, 64]
00000000: 65c1 173e 0f13 e3bc 987a babd ecfb 573d
00000010: 7001 0a3f d766 223d be3c 3f3d 23da 1abc
00000020: 2293 5d3d bcbc fdbe b4de 733e 2b28 34be
00000030: 4be0 583c 35f3 273d d8c9 da3e faaf ce3d
00000040: 0467 fa3d 7e2b 843e 286f 06bf 4533 383e
00000050: c95b 7a3c a0d2 2ebd 2fad 07bd b0e7 633f
00000060: c440 cf3e fa8d bc3d 1830 033e 2b8b 0b3c
00000070: c3d8 e9ba 7eef 03bd 40f8 04be b91e 653d
00000080: e65f dbbb e8cc 143c c9bf cb3c 71ae cebd
00000090: 93f8 45be 0d53 9a3d d3b0 debc 6219 b13e
000000a0: 5471 0cbd 0e1d edbd e0dd 06bf 300a fcbc
000000b0: e8c0 863d e45a 27be 54c4 2d3e 216d 48be
000000c0: a546 123d a893 9c3a 6fa4 3a3f 81d3 5cbd
000000d0: a202 ccbc e631 adbd c5d2 703a dc43 1ebe
000000e0: 24ad 303e 18cc 303c 0349 983d 5633 a53d
000000f0: 7451 073e f906 033e 0e14 113e b542 f73d
00000100: e26f c5bd a053 2c3e 7401 6c3d 6289 0e3d
00000110: bc17 febe e728 083e 0086 283d 313d 6fbb
00000120: a08a 87bd 0cb1 ba3e e237 e0be 7d04 1c3e
00000130: 9523 4d3e 1e95 c53c 1f08 16bf 48ab 363d
00000140: 9a42 553d a5bf fdbd 844e 133f b96c 023d
00000150: 5c42 eb3b 6bc5 c4bd 79c2 823e 58ac 39bf
00000160: 098c 06bf b481 b93d 6b12 0ebe 67fc 233d
00000170: da46 f23c 0ffe 953d 4c47 1bbb 5c2c 43b8
00000180: 03b0 4bbd 2665 7d3c d643 183c 0217 8a3e
00000190: 7b53 213e 0f92 bbbd d007 5cbd 15f5 83be
000001a0: 6900 403c 9168 f9bd 9ae2 ce3e 16bd 153d
000001b0: 5bf5 52bd 5cc8 a63e be1e 22be 48b2 053e
000001c0: 576d 74bc bd2a 58bc 5ec0 64bf 3375 c43d
000001d0: b344 2dbd 79dc 92bd d508 74bd 7ce8 f4bc
000001e0: cf71 42be b4f7 f4bc 60b5 27bc 769b cc3d
000001f0: cea6 0ebe cda4 65bd fdf5 0bbe 3430 df3c
0.14819868 -0.027719049 -0.09105414 0.052730486 0.53908443 0.039648857 0.046688788 -0.009451422
0.054095395 -0.49558055 0.23815423 -0.17593448 0.013237069 0.041003425 0.4273212 0.100921586
0.1222668 0.25814432 -0.5251336 0.17988308 0.015280672 -0.042681336 -0.033124145 0.890254
0.404791 0.092067674 0.12811315 0.008517067 -0.0017841089 -0.03221082 -0.12985325 0.055937503
-0.0066947816 0.009082057 0.024871724 -0.10091866 -0.19333105 0.07535372 -0.027183926 0.34589678
-0.034287766 -0.11577807 -0.52682304 -0.030766577 0.06579763 -0.16343266 0.16969424 -0.1957288
0.035711903 0.001194586 0.72907156 -0.053912643 -0.0249036 -0.08456783 0.00091866805 -0.15455574
0.17253548 0.010790847 0.07435801 0.08066432 0.13214666 0.12795629 0.14167807 0.1207327
-0.096404806 0.16828775 0.057618573 0.034798987 -0.49627483 0.13296853 0.041143417 -0.0036504979
-0.066182375 0.364632 -0.43792635 0.15236087 0.20033105 0.024118956 -0.5860614 0.04459694
0.05206547 -0.12390069 0.5754168 0.031841967 0.0071795415 -0.09607967 0.25538996 -0.725286
-0.52557427 0.09057942 -0.13874213 0.04003563 0.0295748 0.073238485 -0.002369362 -4.6532936e-05
-0.049728405 0.01546601 0.009293517 0.2697068 0.15754502 -0.09158718 -0.053718388 -0.2577292
0.011718848 -0.121781476 0.40407258 0.03655728 -0.05150352 0.32574737 -0.1583204 0.1305629
-0.014918647 -0.013193783 -0.8935603 0.095926665 -0.042301845 -0.07170958 -0.059578735 -0.029896013
-0.18988727 -0.02990327 -0.010236114 0.09990589 -0.13930818 -0.05606537 -0.13668056 0.027244665

bias f4 [2]
00000000: c5cd b9bd a072 85bc
-0.090724505 -0.016290009

weight f4 [64, 4]
00000000: f350 cd3d 99b5 e03d cfa2 d33e 6e08 4b3e
00000010: 687c 43be 09ee cf3e b52d 933c 9075 513e
00000020: 1da4 73be 9758 b93c b52c f3bf 1935 95bd
00000030: 05b7 513e 11ed 92be e41b 103d c795 ce3d
00000040: 1cf6 483e 96e0 a4be 6c8e e2be 51e4 02be
00000050: 1add ac3e 1e80 813e cf4b 453e 5a61 e73d
00000060: 31cf 493e 8be8 7bbe 80af 22bf c5fa 143d
00000070: 4a39 8d3b 3be6 c6bc df5f 38c0 ce4a 58be
00000080: a64e ccbe 98e8 883e 126f 80bd c124 a63e
00000090: 8446 e33d c601 14be 19d7 d0bf ef8d 89be
000000a0: 6faf a5bb 6abf c0bc 2fff 00c0 6431 73be
000000b0: dcc5 873e 0033 1cbe 0866 8abe a577 51be
000000c0: 4366 de3d 9399 863e b189 09bf 405e a03e
000000d0: 07d2 de3d 8e4a 133e 2fc3 073f 62b2 29be
000000e0: c1d3 003e 1712 203e 2034 24be 71cf ef3d
000000f0: edec 58bd b476 19bd daef 24c0 6341 26be
00000100: 4fad d8bd 99f6 bc3c d3e5 0bc0 9a3e c4bd
00000110: 3ab5 2d3d 447a 9cbd ea45 02c0 75ce 94be
00000120: 868c 483e 17a8 23be 58cf c9bf f5e7 68be
00000130: 4358 a93e bfb9 4abe e417 693d 854c 6ebe
00000140: 8da4 1e3e cbf8 333e 8c75 cfbd bcf4 17be
00000150: 03fb aebe 85a9 b5bd 02c1 bcbf 598d 16be
00000160: 0556 35be f93a c03d fcd4 85be 2058 873d
00000170: c30d bc3a df22 2dbc cfad 193f 3510 513e
00000180: da48 4ebe 2096 513e 9c51 0640 aa11 f43e
00000190: 34ec f4bd a4a2 84be 4328 133f add5 b8be
000001a0: e0cd a73d d7ba 73bd 6460 a3be e1f2 9dbd
000001b0: 7973 7b3c 52f8 80bd e6c1 16c0 6ce9 56be
000001c0: 36e6 17be 3a97 333e e56b 1840 79c1 163f
000001d0: a098 e7bd 19d9 22bd 920f 983e 2f28 053e
000001e0: a499 8abc 560a bb3d 23c4 fd3e 1039 12be
000001f0: e98f 8fbc 148c edbb a228 f5bf cca9 b8be
00000200: 97bb c3bd bc18 623e 7170 8b3e 4907 2bbe
00000210: 90b7 74b8 7c27 2bbd fb59 20c0 b0f3 3dbe
00000220: 67d1 2a3c 76bd bc3d 0388 4e40 86da ab3e
00000230: 18f3 d0ba 365a 4cbe a180 f9be 5425 6c3e
00000240: 126b 073e 8cf1 373e e510 edbe ce6f c33e
00000250: 4d60 ac3e 9959 f93c f742 c6bf 480b 2d3c
00000260: 02eb d1be 99c7 9a3e 36b9 833d 1192 ce3b
00000270: 3ebf 7b3e a108 6abe 9c57 7ebe 2c6e ccbd
00000280: 9b04 333d 93a5 a7be 5d5c dc3e 0704 8bbe
00000290: 4e99 b63e be48 f13d 55f9 063e 53ae f63d
000002a0: 70e1 523e 65d3 403d f655 bfbe 9a66 8e3e
000002b0: 5e52 843d d720 a7bd 3f9f 03c0 5b70 e6be
000002c0: 0fcd 813e 779e 17be 3548 10bf 5049 c8bc
000002d0: 8585 0d3e 47f4 723d 5af1 4a3e 7288 263c
000002e0: 8e2e c23d cf18 82be 6564 60bd 3e51 aebe
000002f0: f1e4 b3be 3377 4f3e c053 9abe f5c8 2c3d
00000300: e105 f53d 3003 713d 9737 02bf 826d 933e
00000310: c02d a8be e467 843e 9624 0bbe 3353 b33d
00000320: 719b 073e 2c26 42be a9bc 2b3f 6693 7cbe
00000330: 037a 56be 7ad7 153b 21ff ebbd 07b4 503e
00000340: b8a3 ecbd a3a8 de3d ee7f 1a3e dc8b 073e
00000350: 44e6 0a3e c3dd 40bd e41b 2b40 c79f 9e3e
00000360: 74c1 06be 7eef b03e 27d7 7dbe b034 a83e
00000370: 72d6 afbe 83f2 8b3d 64cd f0bd 45c0 6e3d
00000380: 9515 313d d9af 533e b5f5 14bf ca79 9bbd
00000390: faec 9c3e 75fe 36be 955a ee3e 1fa0 a8be
000003a0: bca6 0e3d c2e7 913c 3cda dd3d d885 673e
000003b0: 1f62 9abe a247 56be afcc dc3f d6ab 083e
000003c0: 82c4 403e 446a a2bd dc13 17be 389e e03d
000003d0: d2f0 883d 1789 d6be 7738 af3e 2d43 d6be
000003e0: 5642 373d 90a9 053c f75a 41be 2c22 e23d
000003f0: cf45 bdbe da24 433e 1f3f c4bf 4098 07bd
0.100252055 0.10972137 0.4133515 0.19827434 -0.19090426 0.40611294 0.01796613 0.20455003
-0.23793073 0.02262525 -1.8998019 -0.07285518 0.20479973 -0.28696492 0.03518285 0.100871615
0.19625133 -0.32202595 -0.44249284 -0.12782408 0.33762437 0.25293058 0.192672 0.11297865
0.19707943 -0.24600427 -0.6354904 0.036371965 0.004309808 -0.024279704 -2.8808515 -0.21122286
-0.39903754 0.26739955 -0.06271185 0.32449916 0.11097434 -0.14453802 -1.6315643 -0.268661
-0.0050563137 -0.023528773 -2.0155752 -0.2374931 0.26518142 -0.1525383 -0.2703097 -0.20455797
0.108593486 0.26289043 -0.53725725 0.31321907 0.10879903 0.14383909 0.530322 -0.16571954
0.12580778 0.156319 -0.16035509 0.11709488 -0.052960325 -0.03746672 -2.5771394 -0.1623588
-0.10579931 0.023066806 -2.1859024 -0.09582253 0.04240916 -0.07640508 -2.0355172 -0.29063764
0.19584855 -0.1598209 -1.5766401 -0.22744735 0.3307515 -0.19797419 0.05690755 -0.23271377
0.15492459 0.17575376 -0.10129842 -0.14839453 -0.34175882 -0.08870224 -1.4746401 -0.14702357
-0.17708595 0.09386248 -0.26139057 0.066086054 0.0014347363 -0.010567396 0.60030836 0.20416339
-0.20144978 0.20467424 2.098731 0.47669727 -0.11959115 -0.25905335 0.5748331 -0.36100522
0.081935644 -0.059504356 -0.31909478 -0.07712341 0.015347355 -0.06297363 -2.3555846 -0.20987481
-0.14833912 0.17538157 2.3815854 0.58888966 -0.11308408 -0.03975782 0.2969938 0.1300361
-0.016918965 0.09132831 0.49563703 -0.1427958 -0.017524676 -0.0072493646 -1.9153025 -0.36067045
-0.09557264 0.22079748 0.27234223 -0.16701998 -5.834509e-05 -0.041785702 -2.505492 -0.1854999
0.010425902 0.09215824 3.2270515 0.33565158 -0.0015941588 -0.19956288 -0.4873095 0.23061115
0.13224438 0.17963237 -0.46301952 0.38171238 0.33667222 0.030438231 -1.5489186 0.010561772
-0.4099961 0.30230406 0.064318106 0.0063040336 0.24584672 -0.22854854 -0.24838108 -0.09981951
0.043705564 -0.3274351 0.43039218 -0.2715151 0.35663837 0.117814526 0.1318105 0.120449685
0.2059381 0.0470766 -0.3737027 0.27812654 0.06461023 -0.081605606 -2.0565946 -0.45007595
0.2535176 -0.14806543 -0.5636018 -0.02444902 0.13820465 0.059314992 0.19818631 0.010164367
0.09481536 -0.25409552 -0.054783244 -0.34046358 -0.35135606 0.20260315 -0.3014202 0.042183835
0.11964012 0.05884093 -0.50866073 0.28794485 -0.32847404 0.25860512 -0.13588175 0.08756103
0.1324289 -0.18959874 0.6708475 -0.24665603 -0.20944981 0.002286403 -0.11523271 0.20381175
-0.115546644 0.10872009 0.15087864 0.13236946 0.13564402 -0.04708649 2.6735773 0.30981275
-0.13159734 0.34557718 -0.24789105 0.32852697 -0.34343296 0.06833365 -0.11757925 0.05828883
0.043233473 0.2067255 -0.5818742 -0.07591589 0.3064955 -0.17870505 0.46553484 -0.32934663
0.03482698 0.017810706 0.108326405 0.22609651 -0.30152985 -0.20925763 1.7249964 0.133468
0.18824962 -0.07930425 -0.1475367 0.10967678 0.06686558 -0.41901466 0.34222767 -0.41848126
0.044740997 0.008158103 -0.18882357 0.11041674 -0.36967322 0.19057027 -1.5331763 -0.03310418

bias f4 [64]
00000000: f5ea 353f 0be8 163f f2e2 febd 3a62 6c3f
00000010: b0a3 143f 8021 35bf 2b5d eebe 5c70 10bf
00000020: 681f 843f b708 a4be 9e2c f1be 229d 3c3f
00000030: 8dc8 773f 658b 863f 8aad 4e3f ec02 f2be
00000040: bd7a c2be c8b0 fcbe 4117 adbe 1335 3f3f
00000050: ae0c 933f e358 3abf 1189 593f d1f5 b6be
00000060: 1fe7 fdbe 290c 683f 5a76 88be a051 f2be
00000070: d3c4 28bf 82a0 753f a9d1 6b3d 37b2 0cbf
00000080: 1fe8 383f 8548 f9be c02c 21bf a6f7 083f
00000090: 0b52 743f 67c6 4bbe 5a74 6e3f a649 833f
000000a0: 943e 473f b4b9 2abf e4c4 e43d 3916 22bf
000000b0: 0588 27bf d2ed 263f 0498 583f 3890 7a3f
000000c0: bca1 183f 7365 493f e6f6 ec3d abb6 623f
000000d0: bf04 b6bc 7e0b 14bf 9604 293f e4d8 603f
000000e0: 74fc 46bf 293d 6d3f 2f8e 483f f908 0dbf
000000f0: b6cd 2fbe ef8d 7b3f 5938 e7be 237d febd
0.7106164 0.5894782 -0.1244563 0.9233738 0.5806227 -0.7075424 -0.46555457 -0.56421447
1.0322084 -0.320379 -0.47104353 0.73677266 0.9679039 1.051129 0.8073355 -0.47267854
-0.37984267 -0.49353623 -0.33806804 0.7469036 1.1488245 -0.7279188 0.8497477 -0.35734418
-0.49590394 0.90643555 -0.26652795 -0.473279 -0.6592533 0.9594804 0.057572994 -0.54959434
0.7222919 -0.4868814 -0.6295891 0.5350288 0.9543769 -0.19899903 0.9314629 1.0256851
0.7782986 -0.6668961 0.111703664 -0.6331516 -0.65441924 0.65206635 0.8460696 0.9787631
0.5962179 0.78670424 0.1157053 0.8855998 -0.02221906 -0.57830036 0.6602262 0.8783095
-0.7772896 0.9267145 0.78341955 -0.55091816 -0.17168316 0.9826345 -0.45160177 -0.12426212

weight f4 [1, 64]
00000000: 87d7 c43e 97cb 143e 747a 51be e77f c43e
00000010: 1b95 d33e c8e7 47be 6ed1 eeba 7e24 11c0
00000020: 5115 023f 4695 86be fdaf abbf 50f8 d63e
00000030: 7f14 b93e 5ea3 d43e 1c46 903e a239 edbf
00000040: bcbd cfbf cc6c d0bf 9254 2ebe 7e1b dc3e
00000050: 9549 b03e c09d fcbe 4e16 ff3e 7621 aebc
00000060: ecfd 09bf a411 a13e eb66 13bc b66b a8bf
00000070: 2dcd a2bf 016d bd3e b4d2 8b3c 9902 a6be
00000080: 4044 5a3e 39b6 e3bf df9d efbf f38f 043e
00000090: 614c fc3e 58ff 8fbd 12fc a13e bd1b dc3e
000000a0: 94f6 aa3e f0bd 62be 664d f5bb 2c71 98bf
000000b0: 705a d33c e7f1 ea3e 5dc1 a93e fcdb fb3e
000000c0: 80ee 183e 784f a23e baf3 953a e243 8b3e
000000d0: f160 9ebc d4f7 1cbf 6a34 aa3e ce6e b93e
000000e0: aadd c3bd d7c2 b53e 8884 a63e 2ee1 89be
000000f0: c310 04bc 4cdf cd3e 3f3b 67bd 5ffb 8ebe
0.38445684 0.14530788 -0.20456868 0.38378832 0.41324696 -0.19522011 -0.0018220374 -2.2678523
0.50813776 -0.26285762 -1.3413082 0.41986322 0.3614845 0.4153089 0.2817849 -1.8533213
-1.6229777 -1.6283202 -0.17024449 0.42989725 0.3443114 -0.49339104 0.49821705 -0.02125619
-0.5390308 0.3145877 -0.0089967055 -1.3157871 -1.2718865 0.36997226 0.017068245 -0.32423857
0.21315098 -1.7789985 -1.8720053 0.12945537 0.49277022 -0.07031125 0.31637627 0.42989913
0.3339125 -0.22142768 -0.0074860333 -1.1909537 0.02579996 0.45887682 0.33155337 0.49191272
0.1493473 0.31701255 0.0011440434 0.27200228 -0.019333335 -0.61315656 0.33243114 0.3621735
-0.095637634 0.35500214 0.32522988 -0.2692961 -0.008060637 0.40209424 -0.056452986 -0.27926156
