src/cartpole/results/CartPole-v1/train-a2c/20210408-075553/num_env6-num_episodes100000-learning_rate0.001-hidden_layers128-128-value_coefficient0.5.pt (torch, 11135 bytes, 7 tensors)

weight f4 [128, 4]
-0.056070924 0.17190363 -1.2099459 -0.30128387 -0.15492694 0.18073332 1.3711358 0.4131972
-0.05624346 0.023885077 -0.7902344 0.06395798 -0.20642975 -0.16881682 -0.8955617 -0.060986426
0.022081159 0.08330443 -0.22699563 -0.035988774 0.018906351 0.28625372 0.30262727 0.29156622
-0.050039917 -0.03498311 1.1847315 -0.34558988 -0.17843358 0.027782789 -0.64872134 0.3561062
0.06416896 -0.07132115 -0.19177115 -0.15388986 -0.27492636 0.41931945 0.66493577 0.2429817
0.16418682 -0.2284875 -0.023537725 -0.35937762 -0.12480538 -0.050997324 0.22365406 0.104810864
-0.047058042 0.15788412 1.5199219 0.43935457 0.17395397 0.004905912 0.638668 -0.2701501
0.0997403 -0.1987144 -0.094621316 -0.21530315 0.099991396 0.09580762 -0.3507365 0.18980387
0.15256394 -0.05506234 0.35273182 -0.058429506 0.25911748 0.3713247 -1.0994703 -0.16771597
0.092738375 0.32034492 1.2382005 0.45174682 0.12825482 -0.38069722 -0.6922539 -0.31291735
-0.30128425 0.36235136 0.50852025 -0.40951687 0.08296477 -0.10028373 -0.06700347 -0.22086741
0.123236045 -0.14862876 0.2452713 0.0847952 0.049979113 -0.0852648 -1.5624666 -0.30310354
0.05099946 -0.08722405 -1.5878623 -0.315737 0.2815386 0.1569218 -0.7664651 -0.005341391
-0.38824803 -0.06141342 -1.2914879 -0.34079447 -0.058772616 0.17331764 -0.81079966 0.18008663
-0.23350494 0.27858192 0.08528205 -0.22017802 -0.015611142 0.10113847 -0.5363445 0.044788443
-0.0011928771 -0.054657705 0.7292829 0.2428146 -0.35093728 -0.21290801 -0.99871075 -0.4173568
-0.14695573 -0.21499264 0.5399342 -0.10111615 -0.10157328 0.048478518 -0.24066283 -0.045346268
-0.041788355 0.119006276 1.664081 0.35109365 0.15583934 -0.0115595125 0.14727071 0.048832797
-0.3917664 -0.08555681 1.318011 0.06011125 0.04747931 -0.15946232 -0.45083404 -0.19855033
-0.1312886 0.062375434 0.034423795 -0.29021513 0.23735616 -0.5378357 0.010727074 -0.20249122
-0.054608103 -0.10847746 -1.2322521 -0.33476484 -0.013314792 0.042761367 -0.21638474 0.14978987
-0.052769028 -0.022544723 0.047521956 -0.10380112 0.07844706 0.112152815 -0.5145502 0.073620796
0.21864483 -0.15084624 -0.66621727 -0.37190464 -0.012822745 -0.008907612 1.2510557 0.14547168
0.060116645 -0.023518026 -0.6600199 -0.06483939 -0.34597242 0.4431018 1.0455083 0.13021617
-0.2045502 0.122449756 -1.2228248 -0.3893064 -0.130618 0.12903167 -0.2647487 0.07560129
-0.013712363 0.099815294 -1.6324087 -0.2713141 -0.2420305 0.38256368 0.37012476 0.32767224
0.093820415 0.0068883817 -0.004910672 -0.074624546 0.04689668 -0.07596055 -0.7644543 0.022801923
-0.17769946 -0.15306295 -0.2772508 -0.4249781 -0.15605801 0.25931862 0.33412695 0.17340945
-0.36849916 0.19156736 -1.1769072 -0.043999724 -0.073503956 0.033597562 0.33011237 0.22493215
0.0003443782 0.114930466 -0.35956717 -0.00022117296 0.23930342 -0.18162999 -0.9168465 0.0051536444
-0.02634399 0.1374752 -0.16695155 0.12125835 0.3316985 -0.35396722 -0.9121272 -0.73115
0.016125226 0.0049206 0.10595904 0.0665182 0.3277544 -0.18712966 -1.0862279 -0.21744567
00000000: a0aa 65bd 8107 303e 82df 9abf e141 9abe
00000010: 2ba5 1ebe 2812 393e 6181 af3f 958e d33e
00000020: 8b5f 66bd a3aa c33c cd4c 4abf 67fc 823d
00000030: 5262 53be 51de 2cbe 8843 65bf e7cc 79bd
00000040: 8ce3 b43c 839b aa3d 8b71 68be f768 13bd
00000050: 7ee1 9a3c d98f 923e f6f1 9a3e 2b48 953e
00000060: a8f6 4cbd 734a 0fbd 48a5 973f 28f1 b0be
00000070: 4bb7 36be bb98 e33c 9a12 26bf 8d53 b63e
00000080: 046b 833d d310 92bd a85f 44be 4e95 1dbe
00000090: 26c3 8cbe 0ab1 d63e 3b39 2a3f 32d0 783e
000000a0: 9720 283e a1f8 69be 30d2 c0bc 5800 b8be
000000b0: f799 ffbd 92e2 50bd 9205 653e 14a7 d63d
000000c0: efbf 40bd 60ac 213e cd8c c23f 15f3 e03e
000000d0: fd20 323e c6c1 a03b bf7f 233f 1d51 8abe
000000e0: a444 cc3d ca7b 4bbe d2c8 c1bd 6e78 5cbe
000000f0: 4ac8 cc3d c936 c43d bc93 b3be f25b 423e
00000100: b939 1c3e 0c89 61bd 4499 b43e c753 6fbd
00000110: 0cab 843e 451e be3e 71bb 8cbf bcbd 2bbe
00000120: 9eed bd3d 4004 a43e 5b7d 9e3f 5c4b e73e
00000130: 3b55 033e bfea c2be 8d37 31bf b436 a0be
00000140: ee41 9abe 1e86 b93e 622e 023f 32ac d1be
00000150: 6fe9 a93d 8e61 cdbd 1e39 89bd 112b 62be
00000160: 2e63 fc3d 2332 18be 6628 7b3e 1ba9 ad3d
00000170: e6b6 4c3d 509f aebd e8fe c7bf 6330 9bbe
00000180: cfe4 503d 86a2 b2bd 123f cbbf 48a8 a1be
00000190: d425 903e 1cb0 203e 0f37 44bf d606 afbb
000001a0: 72c8 c6be a38c 7bbd 7a4f a5bf 9d7c aebe
000001b0: 8ebb 70bd 2e7a 313e 9190 4fbf a168 383e
000001c0: eb1b 6fbe 4aa2 8e3e 5ba8 ae3d 5976 61be
000001d0: e0c5 7fbc b021 cf3d e04d 09bf 1674 373d
000001e0: 505a 9cba c2e0 5fbd 49b2 3a3f 64a4 783e
000001f0: 0dae b3be 8f04 5abe 82ab 7fbf caaf d5be
00000200: 907b 16be 0827 5cbe 2139 0a3f fc15 cfbd
00000210: a705 d0bd 6991 463d 5170 76be 02bd 39bd
00000220: 442a 2bbd 90b9 f33d 9b00 d53f 8cc2 b33e
00000230: 5994 1f3e 1c64 3dbc 22ce 163e e604 483d
00000240: 9b95 c8be 6938 afbd 96b4 a83f 3737 763d
00000250: aa79 423d 174a 23be b8d3 e6be c750 4bbe
00000260: 8570 06be 627d 7f3d f7ff 0c3d 1497 94be
00000270: 7e0d 733e 9aaf 09bf 9cc0 2f3c dc59 4fbe
00000280: bfac 5fbd 6e29 debd 70ba 9dbf 4c66 abbe
00000290: 4926 5abc 8b26 2f3d f693 5dbe 8462 193e
000002a0: 5624 58bd b6af b8bc 62a6 423d ae95 d4bd
000002b0: daa8 a03d 60b0 e53d 90b9 03bf 80c6 963d
000002c0: 6ee4 5f3e 7077 1abe 378d 2abf 496a bebe
000002d0: 7e16 52bc 3cf1 11bc 9822 a03f 87f6 143e
000002e0: df3c 763d e0a8 c0bc 10f7 28bf 84ca 84bd
000002f0: 4c23 b1be 3dde e23e 37d3 853f 6357 053e
00000300: 9c75 51be f0c6 fa3d 8685 9cbf 2b53 c7be
00000310: bac0 05be e120 043e 248d 87be d9d4 9a3d
00000320: d2a9 60bc f66b cc3d c5f2 d0bf afe9 8abe
00000330: d8d6 77be 63df c33e fe80 bd3e a8c4 a73e
00000340: eb24 c03d efb7 e13b b4e9 a0bb c1d4 98bd
00000350: bc16 403d 3491 9bbd 47b3 43bf 19cb ba3c
00000360: d9f6 35be 89bc 1cbe d1f3 8dbe bb96 d9be
00000370: accd 1fbe 69c5 843e b012 ab3e 3f92 313e
00000380: ecab bcbe 3c2a 443e e5a4 96bf 0e39 34bd
00000390: 3e89 96bd 999d 093d 7d04 a93e 9d54 663e
000003a0: a98d b439 aa60 eb3d 3019 b8be aaea 67b9
000003b0: f50b 753e 36fd 39be 74b6 6abf e7df a83b
000003c0: 5acf d7bc 4dc6 0c3e 59f5 2abe 4c56 f83d
000003d0: 63d4 a93e 313b b5be 2b81 69bf a52c 3bbf
000003e0: 0d19 843c fc3c a13b 0e01 d93d b23a 883d
000003f0: 6dcf a73e eb9e 3fbe 8409 8bbf 14aa 5ebe

bias f4 [128]
-0.11758014 -0.2610808 0.10594355 -0.022349486 -0.42371815 -0.1893182 0.20151506 -0.1600592
-0.2377906 -0.10187563 -0.09820624 -0.56237876 -0.27119422 -0.35649157 -0.095578335 -0.30197614
-0.19504684 -0.29135653 0.4632845 0.34403569 -0.5546158 -0.41600418 -0.55469567 -0.23051378
-0.23828651 -0.45837474 -0.22440305 0.05841803 -0.44947052 -0.008507376 -0.14463371 -0.21193053
0.022184964 -0.09671398 -0.2613226 -0.3433483 -0.19225319 -0.07658872 -0.64240724 -0.519207
0.4827726 -0.34666952 -0.27202025 -0.39765474 -0.1507687 -0.17785466 -0.06666712 0.094848886
-0.38767818 -0.41756892 -0.2105394 0.106519885 -0.37610424 0.27068198 -0.37150353 -0.2696253
0.3839838 0.08520363 -0.018558085 0.0049230037 -0.34189904 -0.25596574 -0.17257781 0.3283751
-0.44632584 -0.55496794 -0.004150206 0.38935027 -0.37794957 -0.6392016 -0.5535254 -0.14628947
-0.16651839 -0.3569259 -0.121659316 -0.094752535 0.29685584 0.32525992 -0.19393912 -0.45308924
-0.45181155 0.38927647 0.26659286 -0.025871476 -0.7038633 -0.06824922 0.014058374 -0.004159764
-0.4648946 -0.0568588 -0.57833856 0.3501043 -0.39911142 -0.2238663 0.2838164 -0.30036613
-0.24326296 -0.228618 -0.2475403 -0.47927868 0.25636148 -0.21339242 0.061926972 0.26251143
-0.029746035 -0.20464385 0.2982219 -0.14038168 -0.43727186 0.333982 -0.03764892 -0.7185741
-0.37785497 -0.6425728 0.39788336 -0.33213976 -0.63494444 -0.24893698 0.15672481 -0.080812454
-0.15768346 0.15000834 -0.03402794 -0.1076771 -0.23990002 -0.6044348 -0.5741136 -0.05941445
00000000: dbcd f0bd 62ac 85be eff8 d83d 4516 b7bc
00000010: 96f1 d8be a1dc 41be f759 4e3e 8fe6 23be
00000020: 617f 73be 2ca4 d0bd 5a20 c9bd 0ef8 0fbf
00000030: f8d9 8abe 1086 b6be 93be c3bd 9e9c 9abe
00000040: 5cba 47be af2c 95be a033 ed3e 7225 b03e
00000050: 4dfb 0dbf 80fe d4be 8900 0ebf ce0b 6cbe
00000060: 6101 74be 18b0 eabe eac9 65be bf47 6f3d
00000070: 0021 e6be 8562 0bbc dc1a 14be 5104 59be
00000080: 3ebd b53c fb11 c6bd 13cc 85be 59cb afbe
00000090: 05de 44be 8cda 9cbd cd74 24bf c0ea 04bf
000000a0: f82d f73e ab7e b1be 3d46 8bbe 6799 cbbe
000000b0: 1c63 1abe 881f 36be c588 88bd 2240 c23d
000000c0: c17d c6be 98cb d5be a497 57be 1927 da3d
000000d0: bc90 c0be d496 8a3e b635 bebe 540c 8abe
000000e0: 8699 c43e 3e7f ae3d 2007 98bc 2651 a13b
000000f0: 640d afbe f10d 83be 3db8 30be c820 a83e
00000100: d284 e4be 6112 0ebf 74fe 87bb eb58 c73e
00000110: 9b82 c1be b7a2 23bf d7b3 0dbf e8cc 15be
00000120: cc83 2abe febe b6be 8528 f9bd 9e0d c2bd
00000130: 7dfd 973e 7888 a63e fa97 46be 50fb e7be
00000140: d853 e7be 3f4f c73e dc7e 883e 6bf0 d3bc
00000150: 6330 34bf 3fc6 8bbd 1855 663c a14e 88bb
00000160: aa06 eebe c6e4 68bd ff0d 14bf df40 b33e
00000170: 5558 ccbe 353d 65be 6250 913e 97c9 99be
00000180: ed19 79be d61a 6abe 347b 7dbe 0464 f5be
00000190: d041 833e 8b83 5abe 23a7 7d3d e667 863e
000001a0: f5ad f3bc 288e 51be 8ab0 983e 37c0 0fbe
000001b0: 19e2 dfbe b0ff aa3e c135 1abd 79f4 37bf
000001c0: 3576 c1be a77f 24bf 5eb7 cb3e 390e aabe
000001d0: b88b 22bf 56e9 7ebe 787c 203e 0081 a5bd
000001e0: c677 21be c99b 193e e260 0bbd d085 dcbd
000001f0: 5aa8 75be 3dbc 1abf 1cf9 12bf 915c 73bd

weight f4 [2, 128]
0.021850117 -0.6750844 0.07261218 -0.025661726 -0.0018990228 0.060221795 -0.09492553 0.047344547
0.02126015 -0.06579092 0.07181274 -0.066485405 -0.51782966 -0.08456577 -0.042807646 0.0015074945
0.033041105 0.10540316 -0.1051877 0.0046681394 -0.08226857 -0.016307827 0.054227095 0.67025065
0.7795753 0.066749625 0.06417741 0.09520742 -0.06000284 0.009692425 -0.14102662 0.050875984
-0.015383566 0.009361337 -0.7420205 0.016273433 -0.14151196 0.032301825 0.07447742 0.116346106
0.14216459 -0.048202075 -0.027362771 -0.025774395 0.110036954 -0.7198963 0.08615985 -0.16403821
0.12452332 0.033038493 0.20511825 -0.016717207 0.06826491 0.060140446 0.026478808 -0.055257387
0.1563416 -0.034237366 0.006057018 0.009512703 -0.003886002 0.40654525 -0.040833637 0.057560287
-0.022573614 -0.039968617 0.006228135 0.10652409 0.011234401 0.02335755 -0.0134165 -0.006421005
-0.60559946 -0.010681173 0.03506732 -0.00958151 -0.0681997 0.095327415 -0.106600344 0.015478369
0.07168447 -0.07702841 0.030229457 -0.017376114 -0.05027017 -0.0073172534 0.07302889 -0.079131015
0.0151096415 0.0108194295 0.01520406 0.06029759 -0.027714606 0.15959881 -0.13869853 -0.015256949
-0.002840944 -0.055022243 0.022623464 -0.033990454 -0.078620285 -0.111039765 0.13442625 0.009885819
-0.018305305 0.03401247 0.056563042 -0.024627497 0.08021349 -0.07863997 -0.081120476 -0.04591654
0.019498808 -0.00813109 0.08491488 0.04612554 -0.020134877 -0.16148013 -0.04606218 -0.07613935
-0.014744088 -0.042021148 -0.058387373 -0.10562717 -0.05053568 0.008327353 0.037687976 0.04817973
-0.14199993 0.66193086 -0.015410393 -0.045515716 -0.0069531817 0.07031657 0.098346606 -0.030996986
-0.0035389727 -0.007865131 0.06450938 -0.054454096 0.5133281 0.07802849 -0.022180367 -0.036264334
-0.06769864 -0.06109578 0.037148923 -0.059161857 0.0647023 0.012771998 0.010690275 -0.710207
-0.68632054 0.039872482 -0.108679846 -0.062955275 -0.02376822 0.00018431318 0.041290455 -0.07924837
0.03917885 -0.018496418 0.8471623 -0.010427668 0.12859438 0.0436474 0.07394404 -0.19146134
-0.04893628 -0.00020748771 -0.023642963 -0.009510832 -0.04665694 0.7188632 -0.085586056 0.12905803
-0.11555858 0.06682036 -0.17542912 0.0022964224 0.07615306 -0.003440587 0.029221958 -0.052582953
-0.1072047 -0.046277624 0.013711891 -0.030058693 -0.01676597 -0.37243783 0.017804848 -0.05531945
-0.02459657 -0.0024687466 -0.06887977 0.0045455247 -0.042096097 -0.0021308712 -0.02769617 -0.012441658
0.5126487 -0.012657078 0.056260437 0.020924967 0.11112534 -0.09305171 0.20492442 0.12518339
0.004067488 0.02883959 -0.04117919 0.026270336 -0.037547544 -0.018700847 0.048452046 -0.06860257
0.039800443 -0.09729437 0.025918994 -0.07243072 0.061317015 -0.064102754 0.09479659 0.08460777
0.07841955 -0.047397044 -0.0038252908 -0.06756055 -0.003717475 0.13563396 -0.05254293 -0.051592864
-0.028467285 0.046467405 -0.0005568669 -0.008441043 -0.022174755 0.13673975 -0.04239333 0.040441673
0.011592695 0.0011368004 -0.14098544 0.05690774 0.03340527 0.2756767 0.05840434 -0.055482473
0.03763791 0.17726524 -0.07063113 0.26415613 0.10556419 -0.008068279 -0.09459176 0.06925259
00000000: 04ff b23c 55d2 2cbf b2b5 943d 8a38 d2bc
00000010: a2e8 f8ba 21ab 763d 5168 c2bd 5bec 413d
00000020: c429 ae3c 64bd 86bd 8f12 933d 8029 88bd
00000030: 7c90 04bf d230 adbd 1257 2fbd 1f97 c53a
00000040: 1c56 073d 9ddd d73d a66c d7bd 31f7 983b
00000050: 6d7c a8bd fe97 85bc 3b1d 5e3d 8c95 2b3f
00000060: 3f92 473f 07b4 883d 726f 833d 1cfc c23d
00000070: 8ac5 75bd facc 1e3c 4869 10be 5663 503d
00000080: 5a0b 7cbc 4b60 193c 0ef5 3dbf dd4f 853c
00000090: 83e8 10be eb4e 043d 9e87 983d de46 ee3d
000000a0: 9893 113e 8a6f 45bd e427 e0bc d324 d3bc
000000b0: 0e5b e13d 204b 38bf 9374 b03d a2f9 27be
000000c0: 1506 ff3d 5f53 073d 850a 523e 86f2 88bc
000000d0: 79ce 8b3d d455 763d 16ea d83c 9255 62bd
000000e0: 0318 203e 7b3c 0cbd f379 c63b 2bdb 1b3c
000000f0: 4cac 7ebb b326 d03e 2c41 27bd 56c4 6b3d
00000100: 4dec b8bc 22b6 23bd 6215 cc3b 4d29 da3d
00000110: 7e10 383c 5558 bf3c e1d0 5bbc 4b67 d2bb
00000120: 9108 1bbf 1600 2fbc c0a2 0f3d c4fb 1cbc
00000130: 49ac 8bbd 053b c33d 4851 dabd fc98 7d3c
00000140: 4fcf 923d 12c1 9dbd c4a3 f73c 5a58 8ebc
00000150: 18e8 4dbd 92c5 efbb 2c90 953d 710f a2bd
00000160: 6e8e 773c fa43 313c 731a 793c 9bfa 763d
00000170: be09 e3bc df6d 233e fd06 0ebe 48f8 79bc
00000180: 222f 3abb 015f 61bd d854 b93c 9339 0bbd
00000190: ac03 a1bd d168 e3bd 09a7 093e 21f8 213c
000001a0: 02f5 95bc a950 0b3d a6ae 673d 9bbf c9bc
000001b0: f846 a43d fe0d a1bd 7e22 a6bd fb12 3cbd
000001c0: f7bb 9f3c 4338 05bc dae7 ad3d 22ee 3c3d
000001d0: e6f1 a4bc 0c5b 25be b2ab 3cbd f3ee 9bbd
000001e0: 3091 71bc 5e1e 2cbd 9927 6fbd 0f53 d8bd
000001f0: 80fe 4ebd 736f 083c b55e 1a3d 1c58 453d
00000200: 6e68 11be 4d74 293f df7b 7cbc b06e 3abd
00000210: 84d7 e3bb 2202 903d f269 c93d 64ed fdbc
00000220: 1cee 67bb c0dc 00bc 7e1d 843d 420b 5fbd
00000230: 7869 033f 67cd 9f3d 9ab3 b5bc e989 14bd
00000240: 96a5 8abd 923f 7abd 7829 183d b453 72bd
00000250: a482 843d a441 513c 4326 2f3c 20d0 35bf
00000260: b4b2 2fbf 5451 233d 8a93 debd b2ee 80bd
00000270: 92b5 c2bc 3144 4139 2e20 293d f84c a2bd
00000280: 007a 203d cd85 97bc a1df 583f cfd8 2abc
00000290: 3fae 033e 9ec7 323d f96f 973d 710e 44be
000002a0: 6971 48bd 0f91 59b9 e3ae c1bc 52d3 1bbc
000002b0: 591b 3fbd 6b07 383f be47 afbd ca27 043e
000002c0: faa9 ecbd 1dd9 883d b1a3 33be 937f 163b
000002d0: 23f6 9b3d 797b 61bb e362 ef3c 3961 57bd
000002e0: 238e dbbd 9b8d 3dbd d7a7 603c a63d f6bc
000002f0: ca58 89bc 2cb0 bebe 79db 913c a696 62bd
00000300: bf7e c9bc b2ca 21bb d610 8dbd a0f2 943b
00000310: f56c 2cbd 16a6 0bbb 14e3 e2bc 19d8 4bbc
00000320: f23c 033f a25f 4fbc 5871 663d d66a ab3c
00000330: af95 e33d e591 bebd b5d7 513e 1330 003e
00000340: 9048 853b 0141 ec3c 83ab 28bd e334 d73c
00000350: 74cb 19bd 8532 99bc a775 463d 817f 8cbd
00000360: ca05 233d 4542 c7bd 1254 d43c 8f56 94bd
00000370: 8d27 7b3d 4e48 83bd b724 c23d d746 ad3d
00000380: 6e9a a03d 6723 42bd bbb1 7abb 305d 8abd
00000390: e2a0 73bb a1e3 0a3e 4137 57bd 0a53 53bd
000003a0: 3934 e9bc 9b54 3e3d b4fa 11ba 4d4c 0abc
000003b0: d5a7 b5bc 8105 0c3e a1a4 2dbd 2ba6 253d
000003c0: 49ef 3d3c b100 953a 7d5e 10be 1718 693d
000003d0: f7d3 083d 7f25 8d3e 6439 6f3d 9741 63bd
000003e0: 362a 1a3d 0585 353e 0ea7 90bd 793f 873e
000003f0: 0a32 d83d d130 04bc 53b9 c1bd 4dd4 8d3d

bias f4 [2]
-0.07772657 -0.006240551
00000000: 1c2f 9fbd 897d ccbb

weight f4 [128, 4]
0.033150945 0.17572491 0.24627674 0.35474607 0.35255337 0.3061543 0.3373938 0.014613983
-0.19029932 -0.060740408 0.033000447 -0.20088391 0.13093556 0.1441781 0.11724855 0.15983431
0.23078421 0.03498067 -0.2657132 -0.18647894 0.10817405 -0.0058795507 0.38124624 -0.3503046
-0.51568866 0.24756226 0.59716755 -0.17785598 0.07388036 -0.08995718 1.9557997 0.17202142
0.3165269 -0.2664194 -0.2644022 0.2068319 -0.029372135 -0.19208747 0.09416453 -0.23968805
0.369777 -0.46979418 0.0128887445 -0.33282244 -0.23953247 0.2208238 -0.92530715 -0.09830034
-0.63503075 -0.48343435 0.72463655 -0.16496907 -0.24518774 -0.32547027 -1.4146003 -0.22991866
0.29197225 0.145358 0.34324437 0.03610578 0.10605652 0.06480477 -0.29609004 0.1296921
0.3185148 -0.32981488 -0.5001027 -0.057902332 0.30734 -0.17147489 -0.020470789 0.21956238
-0.0036788653 0.0023643249 2.067175 0.15583429 -0.17013489 0.10666998 1.8167181 0.3427874
-0.3192152 0.25779417 -0.87606347 -0.45409033 0.088629514 -0.32818547 -0.9703479 -0.25958258
-0.30769843 0.12890789 -0.14135239 0.22794685 -0.0746891 0.14471921 0.18818451 0.14274706
0.5485438 0.059594896 -0.45258248 -0.16159041 0.008015878 -0.05717055 -1.82079 -0.26490265
0.0008992956 -0.23130593 -0.107549116 0.242334 -0.32180488 -0.3762244 -0.52063257 -0.24082811
0.018800253 -0.086955346 -1.5545789 -0.34394035 -0.0900423 0.26918575 0.46536785 0.019761443
-0.25666144 0.18518007 -0.23379798 -0.42073265 -0.20233724 0.24612524 0.27712706 -0.07063582
-0.07864767 0.10505939 1.1837184 0.31665638 0.44576722 0.08830829 -0.7661116 -0.21361578
-0.08302631 0.062312268 -0.24734974 -0.0030533904 -0.47009724 0.4065676 -0.23735574 0.40530333
-0.26524657 -0.35909832 0.7477265 0.13925098 0.36516535 0.27056465 -0.48049325 0.21879676
-0.10521539 -0.06490701 0.09318678 0.3534973 -0.5020857 0.1184319 1.3687111 0.29163957
0.28909189 -0.022992756 -0.34462214 0.27683386 -0.024049932 0.27618393 -0.012431571 -0.1046241
0.027705915 -0.25055668 -0.0028677052 0.2526038 0.09820729 -0.20062032 0.24790923 -0.20984608
0.35196078 -0.3701406 -0.50639355 -0.21098807 0.24300572 -0.087719224 -0.7489229 -0.3776594
0.07633791 -0.01616858 0.061822146 0.31329438 0.09681937 -0.17543152 0.16909865 -0.14997521
-0.05857698 0.128879 1.1850853 0.3307243 -0.10452601 -0.11231585 0.19435702 -0.26916632
0.01918721 -0.026224693 -0.020864341 -0.07578217 0.34689277 0.44276673 -0.19624513 0.19989312
-0.36170864 -0.38729 -0.044501733 -0.032431014 -0.2394273 -0.30436286 -0.046543136 -0.05834923
-0.093593925 -0.28727278 -0.102007866 -0.34964418 -0.18198887 -0.26487207 -1.0291758 -0.41748333
-0.25501072 0.09887781 -0.3877046 -0.014978464 -0.09147407 -0.18618715 0.30000678 -0.31748825
-0.35835394 0.3689534 0.05329784 0.4163267 -0.16812724 -0.11158042 0.17234263 -0.039507
0.32625854 -0.43344772 -0.10665562 0.19744416 -0.40690312 -0.42051405 0.38032708 -0.19915554
0.06371225 -0.3699453 0.310213 -0.37451723 0.22799917 -0.35230556 -0.36140138 -0.04108216
00000000: 49c9 073d 3bf1 333e f82f 7c3e 47a1 b53e
00000010: e081 b43e 42c0 9c3e e1be ac3e 7d6f 6f3c
00000020: d3dd 42be efca 78bd 7a2b 073d 83b4 4dbe
00000030: f913 063e 6da3 133e 0220 f03d 9bab 233e
00000040: b252 6c3e e447 0f3d 900b 88be 56f4 3ebe
00000050: 5b8a dd3d 3fa9 c0bb b532 c33e 205b b3be
00000060: 2c04 04bf f680 7d3e f9df 183f e11f 36be
00000070: 964e 973d 783b b8bd a557 fa3f 6226 303e
00000080: d00f a23e 2068 88be ba5f 87be becb 533e
00000090: d59d f0bc 94b2 44be 55d9 c03d c970 75be
000000a0: 6953 bd3e dd88 f0be 502b 533c b467 aabe
000000b0: 0048 75be a21f 623e eee0 6cbf b051 c9bd
000000c0: 6091 22bf b584 f7be c881 393f a7ed 28be
000000d0: 7f12 7bbe 0aa4 a6be 9f11 b5bf cc6f 6bbe
000000e0: 637d 953e bad8 143e babd af3e a8e3 133d
000000f0: 2934 d93d 5db8 843d 1d99 97be 02ce 043e
00000100: 5f14 a33e 7fdd a8be bb06 00bf ff2a 6dbd
00000110: ab5b 9d3e 1d97 2fbe 5bb2 a7bc f6d4 603e
00000120: 1e19 71bb caf2 1a3b 984c 0440 0693 1f3e
00000130: d737 2ebe ca75 da3d 388a e83f d581 af3e
00000140: 2d70 a3be 99fd 833e b245 60bf 877e e8be
00000150: 6483 b53d ed07 a8be b868 78bf 02e8 84be
00000160: a68a 9dbe 6e00 043e aebe 10be e66a 693e
00000170: 99f6 98bd 4631 143e 71b3 403e 492c 123e
00000180: 5e6d 0c3f c719 743d e4b8 e7be f577 25be
00000190: 0755 033c ab2b 6abd a60f e9bf 52a1 87be
000001a0: b5be 6b3a 76db 6cbe b642 dcbd 6726 783e
000001b0: 9cc3 a4be 7ca0 c0be 2d48 05bf a59b 76be
000001c0: fd02 9a3c a515 b2bd 71fc c6bf f318 b0be
000001d0: 1968 b8bd b7d2 893e b244 ee3e c0e2 a13c
000001e0: 2169 83be d89f 3d3e bd68 6fbe 456a d7be
000001f0: 7e31 4fbe 4108 7c3e 99e3 8d3e 83a9 90bd
00000200: 0812 a1bd 6129 d73d 1684 973f c920 a23e
00000210: 9a3b e43e fada b43d e41f 44bf 18be 5abe
00000220: b309 aabd 263b 7f3d 4049 7dbe 641b 48bb
00000230: 96b0 f0be a129 d03e 620d 73be eb83 cf3e
00000240: 66ce 87be bcdb b7be 016b 3f3f cf97 0e3e
00000250: f4f6 ba3e 7387 8a3e 3603 f6be 420c 603e
00000260: 2b7b d7bd f7ed 84bd b6d8 be3d 99fd b43e
00000270: b088 00bf 6d8c f23d ed31 af3f c851 953e
00000280: da03 943e 4e5b bcbc 5072 b0be 2bbd 8d3e
00000290: 5d04 c5bc fb67 8d3e caad 4bbc 2945 d6bd
000002a0: 84f7 e23c f748 80be 1cf0 3bbb 4955 813e
000002b0: e720 c93d 6a6f 4dbe ebdb 7d3e e4e1 56be
000002c0: 3434 b43e 1283 bdbe 02a3 01bf 420d 58be
000002d0: 7ed6 783e 23a6 b3bd 69b9 3fbf 935c c1be
000002e0: 0d57 9c3d f873 84bc 3839 7d3d 1f68 a03e
000002f0: 3c49 c63d 52a4 33be 3228 2d3e 1a93 19be
00000300: 6aee 6fbd dbf8 033e e0b0 973f b254 a93e
00000310: bc11 d6bd da05 e6bd 8705 473e 2bd0 89be
00000320: 7f2e 9d3c 2bd5 d6bc b2eb aabc af33 9bbd
00000330: ee9b b13e 52b2 e23e 7cf4 48be c8b0 4c3e
00000340: e031 b9be e04a c6be 7347 36bd 62d6 04bd
00000350: 6e2c 75be 73d5 9bbe 04a4 3ebd 9aff 6ebd
00000360: 2cae bfbd 6b15 93be 80e9 d0bd 9004 b3be
00000370: 4a5b 3abe 509d 87be 08bc 83bf 60c0 d5be
00000380: c490 82be 7380 ca3d 3881 c6be 3b68 75bc
00000390: c256 bbbd d8a7 3ebe 7d9a 993e d28d a2be
000003a0: 2b7a b7be 76e7 bc3e d64e 5a3d c628 d53e
000003b0: 8c29 2cbe 4684 e4bd 967a 303e 18d2 21bd
000003c0: 5c0b a73e dcec ddbe 436e dabd cd2e 4a3e
000003d0: 9b55 d0be 9e4d d7be 3bba c23e 6eef 4bbe
000003e0: 917b 823d 7869 bdbe 3dd4 9e3e b9c0 bfbe
000003f0: 9d78 693e 6561 b4be 9a09 b9be c445 28bd

bias f4 [128]
0.58677673 0.10777142 0.7812356 0.7115381 0.87271535 0.39818633 0.70741224 -0.444242
-0.5425686 -0.36306146 0.13156454 -0.4414789 -0.33003345 -0.13138595 -0.6837851 0.47261882
0.8030029 0.65506685 -0.42672887 -0.54664594 -0.528621 -0.19660193 0.78142273 -0.18886976
-0.14044686 -0.40387264 0.32980984 -0.63979614 -0.42454976 0.6930337 -0.1985435 -0.068395115
-0.4210277 -0.524507 0.32151532 0.44134444 -0.16849716 0.41159686 0.3692797 -0.50819004
0.84893346 0.8593228 0.7917717 -0.23743759 0.5316356 -0.5997529 0.18349591 -0.21514371
-0.42516172 0.6887223 -0.25199214 0.22999628 0.06893556 -0.773096 -0.5119765 -0.5330867
0.69589263 0.76678216 0.69737154 -0.46092686 0.3776853 0.34864545 0.8175504 0.85598695
-0.46791235 -0.42049277 -0.449044 -0.38873494 0.8867838 0.6071889 0.7996783 0.78552544
0.26058647 -0.4605865 0.8554137 0.8475802 0.46525928 -0.51436526 0.8267302 0.3862505
0.5607843 0.6448719 0.77129424 -0.45970222 -0.31473145 0.7486578 0.13227439 -0.55437714
0.89281917 0.27408606 0.83740014 -0.7261328 0.63027316 -0.074992664 -0.1974966 0.18947777
-0.376791 0.4095879 0.16794156 0.7036966 0.57397413 0.40788648 -0.41337037 -0.48368785
-0.40595093 -0.69243366 0.09624599 0.49586156 -0.094177246 -0.49812862 0.7126183 0.5694354
-0.040058043 -0.23265964 0.5764184 0.7506599 -0.5802823 0.19468583 0.34722137 -0.337559
0.8264939 0.16443883 0.626467 -0.28815323 0.3599829 -0.33678418 -0.32427227 0.56726307
00000000: 0037 163f 43b7 dc3d 0eff 473f 5c27 363f
00000010: 466a 5f3f 14df cb3e f818 353f b073 e3be
00000020: c7e5 0abf 31e3 b9be dbb8 063e 8609 e2be
00000030: 25fa a8be 0a8a 06be 8a0c 2fbf 18fb f13e
00000040: 9991 4d3f 76b2 273f 357c dabe fdf0 0bbf
00000050: b553 07bf 0452 49be 520b 483f 1367 41be
00000060: 4dd1 0fbe 65c8 cebe d6dc a83e aec9 23bf
00000070: 965e d9be a86a 313f fd4e 4bbe bd12 8cbd
00000080: f190 d7be 1746 06bf a89d a43e e6f7 e13e
00000090: 858a 2cbe d3bc d23e 3b12 bd3e be18 02bf
000000a0: b453 593f 94fc 5b3f 8db1 4a3f d722 73be
000000b0: 4519 083f 6889 19bf 5ae6 3b3e a24e 5cbe
000000c0: ccae d9be 1b50 303f 1d05 81be 2584 6b3e
000000d0: 162e 8d3d 9fe9 45bf e410 03bf 5f78 08bf
000000e0: 0526 323f d64b 443f f186 323f 9bfe ebbe
000000f0: f85f c13e a881 b23e fc4a 513f f621 5b3f
00000100: 3592 efbe d44a d7be 18e9 e5be 4408 c7be
00000110: 4304 633f bb70 1b3f b8b7 4c3f 3218 493f
00000120: 976b 853e fed1 ebbe 64fc 5a3f 04fb 583f
00000130: 7736 ee3e 71ad 03bf 97a4 533f a0c2 c53e
00000140: 8f8f 0f3f 5316 253f 8a73 453f 175e ebbe
00000150: 7b24 a1be 0aa8 3f3f f072 073e a9eb 0dbf
00000160: cc8f 643f 0255 8c3e db5f 563f d7e3 39bf
00000170: 9559 213f c195 99bd 8c3c 4abe 7606 423e
00000180: c0ea c0be 81b5 d13e dff8 2b3e 7625 343f
00000190: f8ef 123f 7fd6 d03e 48a5 d3be efa5 f7be
000001a0: cdd8 cfbe 5543 31bf 9e1c c53d 91e1 fd3e
000001b0: 00e0 c0bd b70a ffbe 276e 363f 85c6 113f
000001c0: e713 24bd 543e 6ebe 2890 133f 3f2b 403f
000001d0: 618d 14bf b95b 473e 00c7 b13e 89d4 acbe
000001e0: 1b95 533f a762 283e 2460 203f d288 93be
000001f0: ae4f b83e fa6e acbe 0407 a6be 2738 113f

weight f4 [1, 128]
0.23045775 0.055438906 0.36046144 0.22570339 0.29091254 0.13855267 0.16748607 -0.72557175
-0.02884733 -0.075808145 0.09818729 -0.38578543 -0.15190014 -0.22689095 -0.41156927 0.38289517
0.27434024 0.20832981 -1.9479032 -0.95895666 -0.13250686 -0.13356657 0.32558814 -0.00042337988
-0.13929228 -1.6126654 0.08546376 -0.24175765 -0.7313879 0.19695064 -0.13794294 0.0033201112
-0.6310826 -0.18609567 0.1498175 0.2583125 -0.13232473 0.26800373 0.12511258 -0.28806102
0.2844871 0.2684645 0.21472771 -0.04326845 0.14572199 -0.08478196 0.049483765 -0.02686177
-0.6296459 0.27074844 0.035692614 0.19084182 0.06567045 -0.1313314 -0.06534827 -0.21956456
0.37880364 0.2716938 0.2110129 -0.19056629 0.11262441 0.14048032 0.23166506 0.35933506
-0.07328171 -1.9487866 -0.06754864 -1.7373291 0.26429605 0.32950217 0.22686045 0.29654238
0.051258165 -1.3160479 0.26136222 0.3066807 0.12990679 -0.08604394 0.3232521 0.124203935
0.20045643 0.3204736 0.25500908 -0.14256105 -0.14673263 0.33370495 0.087898426 -0.027689071
0.27122343 0.07497903 0.33013633 -0.3570298 0.2793419 -0.08144391 -0.8606686 0.047180705
-0.12762764 0.050817423 0.08718829 0.29522613 0.3095257 0.27646756 -0.15862684 -0.24371786
-0.08740513 -0.45775953 0.045092948 0.25969803 -0.04779471 -0.34676296 0.27702186 0.18683654
0.013863457 -0.11828669 0.16418599 0.22044556 0.14041314 0.073231645 0.102773696 -2.0499284
0.32378957 0.050114322 0.175636 -0.19080442 0.29683828 -1.3137004 -0.13761504 0.32871056
00000000: 1efd 6b3e e813 633d 678e b83e ca1e 673e
00000010: 7df2 943e c0e0 0d3e 7881 2b3e 12bf 39bf
00000020: 3c51 ecbc 4d41 9bbd 6b16 c93d ab85 c5be
00000030: b68b 1bbe 1a56 68be 35b9 d2be d60a c43e
00000040: 5376 8c3e 6954 553e e454 f9bf 2f7e 75bf
00000050: e1af 07be adc5 08be 7db3 a63e 16f9 ddb9
00000060: a3a2 0ebe d26b cebf a007 af3d 518f 77be
00000070: 3d3c 3bbf 6ead 493e ea40 0dbe 3996 593b
00000080: a18e 21bf dd8f 3ebe c269 193e 8941 843e
00000090: 2280 07be c937 893e 831d 003e bc7c 93be
000000a0: 4ba8 913e 2e74 893e 95e1 5b3e 423a 31bd
000000b0: 2538 153e 2aa2 adbd 7daf 4a3d 370d dcbc
000000c0: 7930 21bf 8a9f 8a3e 6b32 123d 0a6c 433e
000000d0: 3b7e 863d bd7b 06be 50d5 85bd 88d5 60be
000000e0: 8df2 c13e 731b 8b3e c413 583e cf23 43be
000000f0: a0a7 e63d 13da 0f3e 9b39 6d3e c4fa b73e
00000100: b914 96bd d771 f9bf f156 8abd cd60 debf
00000110: d051 873e 82b4 a83e 1b4e 683e 67d4 973e
00000120: 15f4 513d 4274 a8bf 45d1 853e 4105 9d3e
00000130: 4906 053e ce37 b0bd 4d81 a53e a25e fe3d
00000140: 7344 4d3e 1e15 a43e 8d90 823e 86fb 11be
00000150: 1441 16be 60db aa3e 1704 b43d 31d4 e2bc
00000160: ccdd 8a3e 9b8e 993d a107 a93e 9ccc b6be
00000170: e705 8f3e 11cc a6bd c754 5cbf 8e40 413d
00000180: d2b0 02be ee25 503d c68f b23d e127 973e
00000190: 277a 9e3e 288d 8d3e 136f 22be 2d91 79be
000001a0: 7601 b3bd 755f eabe 62b3 383d 24f7 843e
000001b0: 63c4 43bd ea8a b1be cfd5 8d3e 1452 3f3e
000001c0: 8e23 633c 4b40 f2bd 5f20 283e 7bbc 613e
000001d0: 76c8 0f3e 79fa 953d 047b d23d 0732 03c0
000001e0: bfc7 a53e ad44 4d3d ecd9 333e 3c62 43be
000001f0: 30fb 973e 5627 a8bf f5ea 0cbe c04c a83e
