src/cartpole/results/CartPole-v0/train-a2c/20210407-003658/num_env24-num_episodes50000-learning_rate0.003-hidden_layers64-64.pt (torch, 7807 bytes, 7 tensors)

weight f4 [64, 4]
0	0xbcaaf371	-0.020868035
1	0x3d4b2cbe	0.049603216
2	0xbeff4fb5	-0.498655
3	0xbe5b6008	-0.21423352
4	0x3cdbf994	0.026852407
5	0x3ea34b1a	0.31893235
6	0x3fa6ef9c	1.3041873
7	0x3eac61fa	0.336685
8	0xbd0989e7	-0.03357878
9	0x3d6241fc	0.05523871
10	0xbe03186c	-0.12802285
11	0xbd30fc59	-0.043209407
12	0xbec69fb2	-0.38793713
13	0x3d3a401b	0.045471292
14	0xbee56612	-0.44804436
15	0xbeaa3449	-0.33243015
16	0x3d3c2d7d	0.04594182
17	0x3de7b547	0.11313873
18	0xc013f865	-2.3120358
19	0xbebc7c2e	-0.36813492
20	0x3e798ee0	0.24370909
21	0x3e103819	0.140839
22	0x3f710094	0.9414151
23	0x3f222270	0.633338
24	0xbbbfd6d9	-0.0058544693
25	0xbd8b4810	-0.06800854
26	0xbe7cd2f9	-0.24689855
27	0xbe319015	-0.17340119
28	0xbcf26158	-0.029587433
29	0x3df465ee	0.11933504
30	0x3f97f86c	1.1872687
31	0x3ef73d58	0.4828899
32	0xbe7304b5	-0.23732264
33	0xbe40bf34	-0.18822938
34	0xbfc6ec3a	-1.5540841
35	0xbeb6674d	-0.35625687
36	0xbe8bc398	-0.27297664
37	0x3eec9966	0.46210784
38	0x3ff8cf83	1.9438328
39	0x3f2ffd2e	0.68745697
40	0xbd9eaaed	-0.07747445
41	0xbee0278b	-0.4378017
42	0xbf8dfa64	-1.1092038
43	0xbeb8a068	-0.3605988
44	0xbe5de548	-0.21669495
45	0xbe28a713	-0.16469984
46	0x3fb6d986	1.4285133
47	0x3ec118a2	0.37714106
48	0x3dafcfb8	0.08584541
49	0x3e88d578	0.26725364
50	0x3fcc738b	1.5972761
51	0x3e65961c	0.22420543
52	0xbe4ea7ed	-0.20181246
53	0xbee7ddc1	-0.45286372
54	0xbfc8087c	-1.5627589
55	0xbde2d3d5	-0.1107556
56	0x3de938c8	0.11387783
57	0xbe10ca4c	-0.1413967
58	0xc005091c	-2.078681
59	0xbf040696	-0.5157255
60	0x3d8c6798	0.068556964
61	0x3db36620	0.08759713
62	0xbe98cc38	-0.29843307
63	0x3dab322e	0.083591804
64	0x3d8438d6	0.06456153
65	0xbe7107ca	-0.23538128
66	0xba6ccc2d	-0.000903311
67	0x3d1a3f20	0.037657857
68	0xbddfcb7f	-0.10927486
69	0x3dc87c2a	0.097893074
70	0xbfcc28af	-1.5949916
71	0xbdea32b8	-0.11435455
72	0x3dfc3305	0.12314419
73	0x3eb06086	0.34448642
74	0x3f0ed514	0.5579388
75	0x3ee879fd	0.4540557
76	0x3e257328	0.1615721
77	0xbe899820	-0.26873875
78	0x3dd279a1	0.10277105
79	0xbea1abc1	-0.3157635
80	0xbe19403f	-0.14965914
81	0x3e7e9887	0.24862872
82	0x3f741b68	0.9535432
83	0x3d6fc538	0.05853769
84	0x3da2645b	0.079292975
85	0xbdc15796	-0.09440534
86	0xbd6e1718	-0.058127493
87	0xbe5cf6e4	-0.21578556
88	0x3e2c8112	0.16846111
89	0xbdf63ec5	-0.12023691
90	0x401f7d49	2.4920218
91	0x3eb357db	0.35027966
92	0x3e14a127	0.145146
93	0xbdd211ff	-0.10257339
94	0xc00ca914	-2.1978197
95	0xbee00381	-0.43752673
96	0x3cdb33d8	0.02675812
97	0xbda97cac	-0.082757324
98	0xc0136e16	-2.303594
99	0xbee7d003	-0.45275888
100	0x3e83c13a	0.25733358
101	0x3e96278f	0.29327056
102	0xbe5fabf4	-0.21842939
103	0xbe2743f3	-0.16334514
104	0xbf03b1fc	-0.5144346
105	0x3bae34e8	0.0053163655
106	0xbfb427cc	-1.4074645
107	0xbee31d16	-0.44358128
108	0xbdd86b44	-0.10567334
109	0x3e363413	0.17793302
110	0xbe59dd9c	-0.21275944
111	0x3e37a8ae	0.1793544
112	0xbd812e6e	-0.06307684
113	0x3e733cf9	0.23753728
114	0x3f6325ee	0.8872975
115	0x3c901197	0.017586512
116	0x3d2ad669	0.041708384
117	0x3e1b8e2b	0.15190952
118	0x3f5ae613	0.85507315
119	0x3daf4c4d	0.08559475
120	0x3ca3db86	0.020002138
121	0xbca8afbb	-0.020591607
122	0xbecf48e3	-0.40485296
123	0x3e6c0048	0.23046982
124	0xbdfdd492	-0.1239406
125	0xbdd44fb7	-0.10366767
126	0xbf4d6bda	-0.80242693
127	0xbe8ca537	-0.274698
128	0x3e17f1a4	0.14838272
129	0xbe230ad4	-0.159221
130	0x3f9bd41e	1.2174108
131	0x3ecd5968	0.40107274
132	0xbd762fa1	-0.060104016
133	0x3cf07384	0.029351957
134	0x3e74afec	0.23895234
135	0xbb33edbd	-0.0027454935
136	0xbde13fa1	-0.109984644
137	0x3dc42f13	0.09579291
138	0x3e8db326	0.27675742
139	0x3e891a17	0.26777717
140	0x3f0064fa	0.5015408
141	0x3dcfba70	0.10142982
142	0x3fcf82a3	1.6211742
143	0x3e3d0930	0.18460536
144	0xbe3d5e8e	-0.18493101
145	0xbd0ee400	-0.034885406
146	0x3fe53154	1.7905679
147	0x3ea5f930	0.32416677
148	0xbe7cc770	-0.24685454
149	0xbed2b4e7	-0.41153643
150	0xbfcd0d0f	-1.601961
151	0xbedab1a0	-0.42713642
152	0xbdbfb0c8	-0.0935989
153	0x3c5b5d2d	0.013388914
154	0x3ec79573	0.38981208
155	0xbe265ba8	-0.16245902
156	0x3e9382d3	0.28810748
157	0xbe8fda93	-0.28096446
158	0x3e088cec	0.13335007
159	0xbe2ec133	-0.17065887
160	0xbbb4dd13	-0.005519518
161	0x396749d8	0.00022057386
162	0xbf0eb72f	-0.55748266
163	0xbdd0b252	-0.10190262
164	0xbd44e71e	-0.048071973
165	0x3d21d383	0.039508354
166	0xbe83029b	-0.25587925
167	0x3e1f9a7e	0.15586278
168	0xbe1c5e5f	-0.15270375
169	0x3e2c2c7f	0.16813849
170	0x3fddc153	1.7324623
171	0x3cf3c00b	0.02975466
172	0x3c90d442	0.017679337
173	0x3d943a44	0.07237676
174	0xbf081ad8	-0.5316596
175	0x3e6e3284	0.23261458
176	0x3ce1577f	0.027507542
177	0xbe18e42a	-0.14930788
178	0xbf9d6610	-1.2296772
179	0xbef16056	-0.4714381
180	0x3dcdfed6	0.10058372
181	0xbd96fa10	-0.073719144
182	0x400811e7	2.1260927
183	0x3ea7a07e	0.32739633
184	0x3d5c223f	0.053743597
185	0x3da38f0e	0.0798627
186	0xbfe6b795	-1.8024775
187	0xbe89cc61	-0.2691374
188	0xbe3f486d	-0.18679972
189	0x3eccc115	0.3999106
190	0x3fce7fb1	1.6132718
191	0x3ea10892	0.3145185
192	0xbe0b02a0	-0.1357522
193	0x3de4915e	0.11160539
194	0xbefd98a9	-0.49530533
195	0xbdf537e8	-0.11973554
196	0xbe2ff7aa	-0.1718432
197	0x3e2f9c53	0.17149477
198	0xbe0dbb9e	-0.13841102
199	0x3d9a260c	0.07526788
200	0xbd852fd2	-0.065032616
201	0x3dcc2034	0.0996708
202	0xbfd387ca	-1.6525815
203	0xbe389219	-0.18024482
204	0xbdcf9e00	-0.10137558
205	0x3de828ab	0.11335882
206	0x3ebab5c1	0.36466792
207	0x3f153557	0.58284515
208	0x3dd76bb0	0.10518587
209	0xbbe99f09	-0.007129554
210	0x3f780e55	0.9689687
211	0x3dad3c94	0.0845882
212	0x3e8603c2	0.26174742
213	0xbdd967af	-0.10615479
214	0xbea727c0	-0.32647514
215	0x3dcba301	0.099432
216	0xbded3738	-0.11582798
217	0xbdd6ff3b	-0.104979
218	0x3f0fed71	0.5622168
219	0xbe98b4a2	-0.29825312
220	0xbdb2c7d7	-0.08729523
221	0x3e3de6cf	0.18545078
222	0x3ea28ccf	0.31748053
223	0x3e4d134e	0.20026895
224	0xbeeb9074	-0.46008646
225	0x3e3c513b	0.18390362
226	0xbfa4b55d	-1.2867848
227	0x3c874d8a	0.016516466
228	0x3bc9ca8a	0.0061581777
229	0x3dcef020	0.10104394
230	0xbe7dedef	-0.24797796
231	0x3e6f8a31	0.2339256
232	0xbe318534	-0.17335969
233	0x3db56d45	0.08858732
234	0xbeca7a0d	-0.39546242
235	0xbe43364b	-0.1906368
236	0x3e1ed725	0.15511759
237	0xbe303336	-0.17207035
238	0x3f64bd59	0.8935142
239	0xbe0149c3	-0.12625794
240	0xbd9c9c83	-0.0764704
241	0x3e051f36	0.13000187
242	0xbeb82194	-0.35963118
243	0x3d88bc52	0.06676544
244	0x3e88cd2c	0.26719034
245	0xbebf49fc	-0.37361133
246	0xbf6a0d82	-0.9142686
247	0xbf20e3d9	-0.6284767
248	0xbe7d4412	-0.24732998
249	0xbe588dbb	-0.21147816
250	0xbfacfe2b	-1.3515066
251	0xbd18cebd	-0.037306536
252	0x3e2f7527	0.17134534
253	0xbea6ea9a	-0.32600862
254	0xbfbd6821	-1.4797403
255	0xbe3a2ac7	-0.18180381

bias f4 [64]
0	0xbf1ef689	-0.6209493
1	0x3e8b0c93	0.2715803
2	0xbe9877a9	-0.29778793
3	0xbf1582ae	-0.58402526
4	0xbe815e67	-0.25267336
5	0xbe1fff98	-0.15624845
6	0xbdfb187b	-0.12260529
7	0xbe5a86d8	-0.21340501
8	0x3ee0e821	0.439271
9	0xbde8c0ba	-0.11364885
10	0xbdb57a9b	-0.08861276
11	0x3d099123	0.03358568
12	0x3e826613	0.254685
13	0xbd9836e9	-0.07432348
14	0xbebe5692	-0.37175423
15	0xbeca41a2	-0.395032
16	0xbf24864a	-0.6426741
17	0xbe5dbeeb	-0.2165486
18	0xbeb34035	-0.35009924
19	0xbf2298ba	-0.6351429
20	0xbea086cc	-0.31352842
21	0xbeb34e5e	-0.35020727
22	0xbe640d42	-0.22270682
23	0xbec106c5	-0.37700477
24	0xbe9325ce	-0.2873978
25	0xbeff9c16	-0.49923772
26	0xbede34c3	-0.4339963
27	0xbe2813a9	-0.1641375
28	0xbe2f3336	-0.17109379
29	0xbdbbab9b	-0.091635905
30	0xbe0660b6	-0.1312283
31	0xbe336ca6	-0.17521915
32	0xbe53b345	-0.20673855
33	0xbe4861ca	-0.19568554
34	0xbedfae5e	-0.4368772
35	0x3e418827	0.18899594
36	0xbe8b0eb0	-0.27159643
37	0xbca9a18b	-0.020706913
38	0xbee77794	-0.45208418
39	0xbf29a87d	-0.6627272
40	0xbdd3849a	-0.10328026
41	0xbecf46c3	-0.40483674
42	0xbded35a8	-0.115825
43	0xbed1e890	-0.40997744
44	0xbeb4b82f	-0.3529677
45	0xbe49a7b6	-0.19692883
46	0xbe45482d	-0.19265814
47	0x3ea7515c	0.3267926
48	0xbeac4335	-0.33645025
49	0xbf0c3ef8	-0.5478358
50	0xbe615487	-0.22004901
51	0xbe4fa00c	-0.20275897
52	0xbd6b47e2	-0.0574416
53	0x3da5778f	0.080794446
54	0xbf2b7f7c	-0.669914
55	0xbeec2224	-0.46119797
56	0x3e84afe0	0.25915432
57	0xbece0e7d	-0.4024543
58	0xbe992318	-0.29909587
59	0xbe24de49	-0.1610042
60	0xbed46277	-0.41481373
61	0xbea6e338	-0.3259523
62	0xbdbb276f	-0.09138381
63	0x3e3ea5b1	0.18617894

weight f4 [2, 64]
0	0x3c953b03	0.018216616
1	0xbd059dc3	-0.032621156
2	0xbd00787f	-0.031364914
3	0x3cf358a9	0.029705362
4	0x3edb2c74	0.42807353
5	0xbd99e7c8	-0.07514912
6	0x3d43077f	0.04761457
7	0xbe760907	-0.24026881
8	0x3e764c0f	0.24052452
9	0xbf078410	-0.52935886
10	0xbc46f973	-0.012144434
11	0xbe0d7588	-0.13814366
12	0x3cec67db	0.028858116
13	0x3ec58523	0.38578138
14	0x3eec6c40	0.46176338
15	0x3e08fa51	0.13376738
16	0x3d7dcd76	0.06196352
17	0x3e08bcc7	0.13353263
18	0xbc776b73	-0.0151013015
19	0x3def49bd	0.11683986
20	0x3bd61f07	0.0065344605
21	0xbc713919	-0.014723086
22	0xbec54b61	-0.38534072
23	0x3f319dd1	0.69381434
24	0x3f17ee59	0.59348065
25	0x3e48225b	0.19544356
26	0x3de9c3a6	0.1141427
27	0x3d1f446a	0.038883604
28	0x3c143e81	0.009048105
29	0xbbb6cd3a	-0.005578664
30	0xbd7c82f9	-0.061648343
31	0x3d40071e	0.046881787
32	0xbe0bc96a	-0.13651052
33	0x3cb7f10a	0.022453804
34	0xbd2cb223	-0.042162072
35	0xbd93dbf2	-0.072196856
36	0xbe4665d7	-0.19374786
37	0x3e4b3dad	0.19847746
38	0xbd38447e	-0.044987194
39	0x3dbf174b	0.09330615
40	0xbb9f942c	-0.0048699584
41	0xbde19250	-0.11014235
42	0xbdaa2f40	-0.083097935
43	0xbcac507a	-0.021034468
44	0x3e11cdc0	0.14238644
45	0xbeeede90	-0.46654177
46	0x3edf0d36	0.43564767
47	0xbe650ec7	-0.22368918
48	0x3bc6b561	0.0060641025
49	0xbd8cd61e	-0.06876777
50	0xbc85456e	-0.016268458
51	0xbdc226a4	-0.09480026
52	0xbdaa44dd	-0.08313916
53	0xbc811d01	-0.0157609
54	0xbd1bfb5e	-0.03808152
55	0xbddcde71	-0.10784615
56	0x3e53229f	0.20618676
57	0x3d37fe71	0.04492039
58	0x3cd8feca	0.02648868
59	0x3dac657e	0.084177956
60	0x3ab01b26	0.0013435825
61	0x3e036c7b	0.12834351
62	0x3e0684b8	0.13136566
63	0x3e4e4a77	0.20145594
64	0x3d098803	0.033576977
65	0x3e31589e	0.17318961
66	0xbb07b5e6	-0.0020707785
67	0x3d6cd947	0.0578244
68	0xbec54139	-0.38526323
69	0x3e7db692	0.24776676
70	0x3d24bb2c	0.040217564
71	0x3e689e83	0.22716717
72	0xbe81564f	-0.2526116
73	0x3ecbfc1a	0.39840776
74	0xbe40216e	-0.18762752
75	0x3deaa39e	0.11456989
76	0x3e3d245a	0.18470898
77	0xbea42d6c	-0.32065904
78	0xbf1ed952	-0.62050354
79	0x3c4087be	0.011751113
80	0x3de621ac	0.11236891
81	0x3a3a7a6e	0.00071135804
82	0x3d85e7ed	0.06538377
83	0x3dc2532e	0.094885215
84	0x3c8276d3	0.0159258
85	0xbdfe077c	-0.12403771
86	0x3f1b8c37	0.60760826
87	0xbf076259	-0.5288444
88	0xbf36da01	-0.714264
89	0xbc51a848	-0.012796469
90	0xbdff8829	-0.12477142
91	0x3c1e6aa9	0.009668984
92	0x3c998a52	0.018742714
93	0x3d3ee649	0.046606336
94	0xbd908926	-0.07057409
95	0x3c139b5b	0.009009208
96	0x3da404aa	0.08008702
97	0x3b093e50	0.0020941682
98	0x3d9c518e	0.07632743
99	0x3e76c45e	0.24098346
100	0x3e21c0d7	0.15796219
101	0xbe5bdd42	-0.21471122
102	0xbd131b8a	-0.035914935
103	0xbba85b8c	-0.0051378664
104	0xbc90fdc7	-0.017699135
105	0xbe0279a0	-0.12741709
106	0xbd22699a	-0.03965149
107	0x3cdbc0a4	0.026825257
108	0xbe032ac4	-0.12809283
109	0x3f20fcb0	0.6288557
110	0xbed93a6b	-0.42427382
111	0x3e225414	0.15852386
112	0x3c715349	0.014729329
113	0x3d6885f7	0.056768384
114	0xbe17c755	-0.14822133
115	0x3e0c1913	0.1368144
116	0x3c828710	0.015933543
117	0xbe0fe394	-0.14051658
118	0xbca89460	-0.020578563
119	0xbd9ce38a	-0.07660587
120	0xbe64e76f	-0.2235391
121	0xbd8323c3	-0.064033054
122	0x3d1a259e	0.03763353
123	0x3dc56923	0.09639194
124	0xbc0b58fc	-0.008505102
125	0xbd673b3d	-0.05645298
126	0xbe0166af	-0.12636827
127	0xbd5b0d63	-0.053479563

bias f4 [2]
0	0x3cca0a27	0.024663044
1	0xbe06d692	-0.1316779

weight f4 [64, 4]
0	0x3dc5cd73	0.09658327
1	0x3de8abc3	0.11360886
2	0x3ebf6ffd	0.37390128
3	0x3e2bf3e9	0.16792263
4	0xbe6b4c0a	-0.22978225
5	0x3eb9d528	0.36295438
6	0xbbf15385	-0.0073646926
7	0x3e633810	0.22189355
8	0xbea2fa9f	-0.31831834
9	0xbe1a3341	-0.15058614
10	0xbc8c49ca	-0.01712503
11	0xbcf97361	-0.030450525
12	0x3e2e495c	0.17020172
13	0xbe9fa03c	-0.31176937
14	0x3ce249ed	0.027623141
15	0x3df83197	0.121188335
16	0x3e40e361	0.18836738
17	0xbe95b222	-0.29237467
18	0xbefc046a	-0.49222118
19	0xbe16a83c	-0.14712614
20	0x3f0c946a	0.5491396
21	0x3e336490	0.1751883
22	0xbf88ea88	-1.0696573
23	0xbe36a95b	-0.17838041
24	0x3ec77352	0.3895517
25	0xbe4ca3ac	-0.19984311
26	0xbf67fc4f	-0.9061937
27	0x3e8fcc56	0.28085583
28	0x3cbf4530	0.02334842
29	0x3d6eb678	0.058279485
30	0xc08657c9	-4.198216
31	0xbe8e38ad	-0.27777615
32	0xbe982b7f	-0.29720685
33	0x3e9b77a6	0.30364722
34	0xbe527109	-0.20550932
35	0x3e907543	0.28214464
36	0x3f73665e	0.95078075
37	0xbd4d3292	-0.050097056
38	0xbfae4d59	-1.3617355
39	0xbe76750d	-0.24068089
40	0xbd4fb636	-0.05071088
41	0xbf0f869a	-0.5606476
42	0xbff6bfbf	-1.9277266
43	0xbe900451	-0.28128293
44	0x3ea586cb	0.323294
45	0xbe681809	-0.22665419
46	0xbecb9ce6	-0.39768142
47	0xbe32c76d	-0.17458887
48	0x3de468c3	0.11152794
49	0x3e88ffd9	0.26757696
50	0xbf0e1743	-0.55504245
51	0x3ea79644	0.3273183
52	0x3e3e3a90	0.18577027
53	0x3db59610	0.08866513
54	0x3eb0ffd5	0.34570184
55	0xbe225e8a	-0.15856376
56	0x3dfc9350	0.12332785
57	0x3e29af62	0.1657081
58	0xbe70f10c	-0.23529452
59	0x3d9fe97b	0.07808205
60	0x3c90fad1	0.017697724
61	0x3daa79be	0.08324002
62	0xc07668cf	-3.850147
63	0xbe9f4200	-0.31105042
64	0xbec28449	-0.3799155
65	0x3e49e7d8	0.19717348
66	0x3e89ed69	0.26938942
67	0xbdf80a47	-0.12111335
68	0x3e0068cb	0.12539975
69	0xbe3b5f7b	-0.18298142
70	0x3d00a436	0.031406604
71	0xbe0bff1c	-0.13671535
72	0x3ea1b167	0.3158066
73	0xbec9395b	-0.3930157
74	0xbf7f77f0	-0.99792385
75	0x3e140ac4	0.14457232
76	0x3ecdf7ca	0.4022811
77	0xbe9ff55a	-0.31241876
78	0xbdfe4dff	-0.1241722
79	0xbe5df7fc	-0.2167663
80	0x3e795c33	0.24351577
81	0x3ddc027b	0.107426606
82	0xbe30220a	-0.17200485
83	0xbdde29a8	-0.10847789
84	0xbeba2a73	-0.3636051
85	0xbe885911	-0.26630452
86	0xc001cac0	-2.0279999
87	0xbe90dd77	-0.28293964
88	0xbd9e4b92	-0.07729258
89	0x3dfd4f5a	0.12368651
90	0xbed21ede	-0.41039175
91	0x3cd9290f	0.026508836
92	0x3d67db1d	0.056605447
93	0xbdff9bb9	-0.124808736
94	0x4072a0ee	3.7910724
95	0x3e15a5b8	0.14613998
96	0xbd94f281	-0.072728164
97	0x3d85e7f7	0.065383844
98	0x4081d700	4.057495
99	0x3ed7093b	0.4199923
100	0xbe0b37c5	-0.13595493
101	0xbe8d8d7c	-0.27647007
102	0x3ee50f7a	0.4473837
103	0xbeca2493	-0.3948103
104	0x3ce79961	0.028271379
105	0x3b5e6e38	0.0033940207
106	0x3d11062b	0.035406273
107	0xbd147c94	-0.03625162
108	0x3e167fc4	0.14697176
109	0x3de961a3	0.11395576
110	0xc0674c9b	-3.6140506
111	0xbe9936f6	-0.29924744
112	0xbdddf73c	-0.10838172
113	0x3dcb8e45	0.09939245
114	0x4079da09	3.9039328
115	0x3f112af9	0.56706196
116	0x3b322ece	0.0027188542
117	0xbbb80550	-0.0056158677
118	0x3e68cd89	0.22734655
119	0x3db5e13d	0.088808514
120	0xbd1675de	-0.0367335
121	0x3ca8f418	0.020624205
122	0x3ed8f61d	0.4237527
123	0xbd8a0441	-0.067390926
124	0x3cda66c2	0.026660327
125	0x3d856a27	0.065143876
126	0xc06ebb9a	-3.7302003
127	0xbea95f59	-0.33080557
128	0xbd77ed39	-0.060528968
129	0x3e61da40	0.22055912
130	0x3ea2e582	0.31815726
131	0xbe05e52a	-0.130757
132	0x3c2228d1	0.009897427
133	0x3dbdb779	0.0926351
134	0xc07942f3	-3.8947113
135	0xbe901165	-0.2813827
136	0xbd067965	-0.032830615
137	0x3c5f4840	0.013628066
138	0x4095d246	4.681918
139	0x3ee48e15	0.4463965
140	0x3d661bb7	0.056178775
141	0xbe380a38	-0.17972648
142	0xbf46e894	-0.77698636
143	0x3e4a55e7	0.19759332
144	0x3e2e2f4d	0.17010231
145	0x3e22d16a	0.15900198
146	0xbf163ae9	-0.5868364
147	0x3eb83ecb	0.35985407
148	0x3f5ef3b2	0.870906
149	0x3ea09097	0.31360313
150	0xbfdaef52	-1.7104285
151	0xbeb0f03e	-0.3455829
152	0xbed0564d	-0.40690842
153	0x3e8ad7ea	0.27117854
154	0x3c26dd62	0.010184618
155	0xbc07930e	-0.008274807
156	0x3eb3fffc	0.35156238
157	0xbe4a0d5e	-0.19731662
158	0xbece8046	-0.4033224
159	0xbe0f2fbf	-0.13983057
160	0x3da13bfc	0.07872769
161	0xbe986d13	-0.29770717
162	0x3e9f919a	0.31165773
163	0xbeb35701	-0.35027316
164	0xbe0ae5c2	-0.13564208
165	0x3e33eb10	0.17570138
166	0x3f8f0737	1.1174077
167	0xbe1b4120	-0.15161562
168	0x3d9c0116	0.076173946
169	0x3ce968b9	0.028492318
170	0xbed68be5	-0.41903606
171	0x3e677978	0.2260493
172	0x3d43be94	0.04778917
173	0xbf042931	-0.51625353
174	0xbf404dbb	-0.7511861
175	0xbe8a9e35	-0.27073827
176	0x3deac261	0.11462856
177	0xbe2cfe54	-0.16893893
178	0xbf0225e5	-0.5083907
179	0xbdcba8f2	-0.09944333
180	0x3e5573f4	0.20845014
181	0x3cb017b5	0.02149568
182	0x3dbbcd44	0.09170011
183	0x3c8cb9f9	0.017178522
184	0x3de4fedc	0.11181423
185	0xbe9ea271	-0.30983308
186	0xbe30ac62	-0.17253259
187	0xbeab8831	-0.33502343
188	0xbe8875f5	-0.26652494
189	0x3e76ba7a	0.24094573
190	0xbee41d6c	-0.44553697
191	0xbb6b6ab2	-0.003592175
192	0x3dcca3fa	0.099922135
193	0x3d46a94f	0.04850131
194	0xbee55b4a	-0.4479621
195	0x3e908eba	0.28233892
196	0xbeaf114e	-0.3419289
197	0x3e80c1e7	0.25147936
198	0xbe38828f	-0.18018554
199	0x3d624c99	0.05524883
200	0x3e4888c6	0.19583425
201	0xbe6e5df8	-0.23278034
202	0x3f267e8f	0.65036863
203	0xbe95141d	-0.29116908
204	0xbe4e3e4c	-0.20140952
205	0xbad21cf2	-0.0016030355
206	0xbda5c985	-0.080950774
207	0x3e583460	0.2111373
208	0xbe13f440	-0.14448643
209	0x3e2230af	0.15838884
210	0x3e4c6a3b	0.19962399
211	0x3d822504	0.063547164
212	0x3e9e146c	0.30874956
213	0xbea089c8	-0.3135512
214	0x406d145b	3.7043674
215	0x3e9a3cfa	0.30124646
216	0xbe0afffc	-0.13574213
217	0x3eb7d280	0.35902786
218	0xbe874604	-0.26420605
219	0x3e94f94c	0.29096448
220	0xbe95442d	-0.29153576
221	0x3d42301b	0.04740916
222	0xbe619d7b	-0.2203273
223	0x3d203aa8	0.03911844
224	0x3ef43c2f	0.47702166
225	0x3eca6269	0.39528206
226	0xc00b1620	-2.1732254
227	0xbea31f10	-0.31859636
228	0x3ea784fd	0.3271865
229	0xbe72ee21	-0.23723651
230	0x3ebb7e01	0.3661957
231	0xbea9e069	-0.33179024
232	0xbc55715d	-0.013027516
233	0xbaf252c0	-0.0018487796
234	0x3e0b3dd6	0.13597807
235	0x3e77cbf3	0.24198894
236	0xbf0f24e3	-0.5591566
237	0xbe99c829	-0.30035523
238	0x40164a6c	2.3482924
239	0x3d15c869	0.03656808
240	0x3db220a0	0.08697629
241	0xbd59da29	-0.05318657
242	0xbdb81404	-0.08988193
243	0xbd4494b8	-0.04799339
244	0x3e1fcb00	0.15604782
245	0xbed23e33	-0.4106308
246	0x3e5a8d77	0.21343027
247	0xbef7f0a4	-0.48425782
248	0xbd03babd	-0.03216051
249	0x3d26c32f	0.040713485
250	0xbebefcc4	-0.3730222
251	0x3ce964dd	0.028490478
252	0xbf0022fd	-0.5005339
253	0x3ea4e249	0.32203892
254	0xc049db61	-3.1540148
255	0xbe4ce25c	-0.20008224

bias f4 [64]
0	0x3f2545db	0.64559716
1	0x3f0fe0ee	0.5620259
2	0x3e88afe8	0.26696706
3	0x3f61388d	0.87976915
4	0x3f19d2be	0.6008719
5	0xbf82a074	-1.0205216
6	0xbf10fca2	-0.5663549
7	0xbf4a4d29	-0.7902399
8	0x3f819202	1.0122683
9	0xbe3f6a2f	-0.1869285
10	0x3ce00957	0.027348204
11	0x3f3d4b96	0.7394346
12	0x3f6fdc16	0.936952
13	0x3f8415e5	1.0319182
14	0x3f48e35a	0.7847191
15	0xbf374c33	-0.71600646
16	0xbe96c116	-0.29444188
17	0xbee8a599	-0.4543884
18	0xbeccf75e	-0.40032476
19	0x3f3c637e	0.73589313
20	0x3f8fa7e1	1.1223108
21	0xbf6e079d	-0.92980367
22	0x3f55929c	0.83426833
23	0xbf1ed356	-0.62041223
24	0xbf412ec2	-0.7546197
25	0x3f6f06da	0.9336983
26	0xbe87d8bb	-0.2653254
27	0xbf294632	-0.66122735
28	0xbf4a6cce	-0.7907227
29	0x3f6bd125	0.92116004
30	0x3e1ecd43	0.15507989
31	0xbf3709ce	-0.71499336
32	0x3f3af290	0.7302637
33	0xbf34bba1	-0.705988
34	0xbf601b8b	-0.8754203
35	0x3f094dca	0.5363432
36	0x3f7223ee	0.94586074
37	0x3da5ee17	0.08102053
38	0x3f67908f	0.90454954
39	0x3f80c625	1.0060469
40	0x3f453baa	0.77044165
41	0xbd91acb0	-0.07113016
42	0x3ebc45e3	0.3677207
43	0x3e048d07	0.12944423
44	0xbf27104d	-0.6525925
45	0x3f24c620	0.64364815
46	0x3f579d25	0.8422416
47	0x3f76450f	0.96199125
48	0x3f04c4ce	0.518628
49	0x3f432296	0.7622465
50	0x3ec05e64	0.37572014
51	0x3f537b07	0.826096
52	0x3ea57d1e	0.3232202
53	0xbf0d559b	-0.5520875
54	0x3f169823	0.5882589
55	0x3f55a065	0.8344787
56	0xbf057014	-0.5212414
57	0x3f6c43ee	0.9229115
58	0x3f392d6e	0.72334945
59	0xbf965b7c	-1.1746669
60	0xbe1c889b	-0.15286486
61	0x3f771d56	0.9652914
62	0xbf07af0b	-0.5300147
63	0xbf0957cb	-0.53649586

weight f4 [1, 64]
0	0x3e983e42	0.29735
1	0x3e108a09	0.14115156
2	0x3d9111e6	0.07083492
3	0x3ec4121b	0.38295063
4	0x3ee1c611	0.44096425
5	0xbee815ee	-0.4532923
6	0xbe1b2bc6	-0.15153417
7	0xc0820b37	-4.063869
8	0x3efbd2b1	0.49184182
9	0xbee8b5ac	-0.45451105
10	0xbf0045d2	-0.5010654
11	0x3ef2d8ad	0.47430936
12	0x3ea2baf1	0.3178325
13	0x3ee3de98	0.44505763
14	0x3e9146bf	0.28374287
15	0xc0711dbc	-3.7674398
16	0xbe0fd2ab	-0.14045207
17	0x3cb6c933	0.022312736
18	0xbdef4ced	-0.11684594
19	0x3ee834a3	0.4535266
20	0x3ed09e06	0.40745562
21	0xbf8c693d	-1.0969616
22	0x3ef76c0a	0.48324615
23	0xc03f8c85	-2.9929516
24	0xc04e8719	-3.2269957
25	0x3eb7ce21	0.3589945
26	0x3ced1ffa	0.028945912
27	0xc01753f9	-2.3645003
28	0xc03b6731	-2.9281733
29	0x3eb5a5e1	0.35478118
30	0x3bebcd89	0.0071961326
31	0xc024ac2c	-2.5730085
32	0x3e843477	0.25821277
33	0xc07a813e	-3.9141383
34	0xc06ba00b	-3.6816432
35	0x3e21be8f	0.15795349
36	0x3ef43181	0.47694018
37	0xbeaad522	-0.33365732
38	0x3ebc52f6	0.36782044
39	0x3eda8465	0.42679134
40	0x3eace507	0.33768484
41	0x3b10b1b9	0.0022078587
42	0x3d840652	0.06446518
43	0x3da0bca6	0.07848482
44	0x3d2e52e1	0.04255951
45	0x3ef24a7d	0.47322455
46	0x3eb5f69d	0.35539714
47	0x3ef904ac	0.48636377
48	0x3e148fa7	0.14507924
49	0x3ebba0b6	0.3664605
50	0x3e284109	0.16431059
51	0x3e847d21	0.25876716
52	0x3d95986a	0.07304461
53	0xbfaf3ceb	-1.3690466
54	0x3e88c10c	0.26709783
55	0x3eb20fab	0.3477758
56	0xbee26cf5	-0.44223753
57	0x3ec171fb	0.37782273
58	0x3ea0a046	0.3137228
59	0xbfcc6fdf	-1.597164
60	0xbb4af6b1	-0.0030969793
61	0x3ecfcde6	0.40586776
62	0xbb0383aa	-0.0020067492
63	0xbfec63dc	-1.8467975
