src/cartpole/results/CartPole-v0/train-a2c/20210407-003658/num_env12-num_episodes100000-learning_rate0.003-hidden_layers128-128.pt (torch, 11135 bytes, 7 tensors)

weight f4 [128, 4]
00000000: ae0b 5ebb f5f2 c1bb 9175 42c0 b079 a9be
00000010: 4684 2cbd 9b39 4abd 6645 3440 386d d23e
00000020: 30ca cabc 4703 1d3d 71f9 25c0 58c7 b1be
00000030: 0068 4cbe 2882 0a3e 566f 66bf 2bb4 acbd
00000040: 603d 313c 316a ccbb 184a 17c0 cf8b 8cbe
00000050: 395b b8bd cfa4 f43d c68b dd3e d41b 693e
00000060: 2fe2 b33d 8aa2 4cbd 4142 383f a7da c6bd
00000070: fabd 95bd e47f 0d3e 8bb1 1fbf 15a0 3a3e
00000080: 8828 333e d912 8bbe 14d3 0ac0 f755 aebe
00000090: 4272 0bbe a716 8f3e 6aab 933f 5bb3 da3e
000000a0: 08b1 7ebd 294f 02be 3861 9a3e c44e 5cbe
000000b0: 9188 e4bd 3204 dd3d 3131 703f 1efb 803e
000000c0: a302 50bd 88da b1bd bec3 473f b634 ec3e
000000d0: 4644 e53d ae68 cabd fe16 a23e da82 23be
000000e0: 6ea2 3e3d 0e31 97bd 515c 05bd 0cf2 f2bd
000000f0: 0d16 8d3d 5643 013d 22cb f4be 0b3f af3d
00000100: 3693 d43d 4554 e5bd be65 df3d 78c0 4dbd
00000110: 9035 44bc 1a2f a23c 6ea3 17c0 51a7 82be
00000120: fc0f f93c a3b6 11bc d9ae 8e3f f55c 893e
00000130: 610c c83d 99fd 10be 264f abbe bda2 69be
00000140: 50ce 2bbe 135a 043e eb36 53bf f89c 80be
00000150: b167 4c3d 4b39 b4bd d4a5 17bd d318 77be
00000160: 6ae3 323e 39b1 51be 898b bb3e 8a4f 26bd
00000170: f98c 913c 4a89 32bd 57f6 22c0 4ea9 b2be
00000180: b0e1 973d 87e7 66bd 9976 acbe 8143 01be
00000190: 4834 e93d 60c3 dcbd ab8b b2bf a51e 7cbe
000001a0: 7fe7 aebc 1dff 33b9 f77e 33c0 711c a2be
000001b0: 615b 9abd d2a3 203e 9c2e ba3d 2502 593e
000001c0: d70f 5abe 4e5b e93d f7e4 73bf 9c84 78be
000001d0: 633a 0cbe 4e39 ca3b b080 50be 0928 ae3d
000001e0: be20 c7bc 1eeb 8e3d b736 fc3c f06e ec3d
000001f0: 21e4 c6bc 1743 dcbd 52a1 04c0 6dad bcbe
00000200: 4237 143d ad4c b7bd 8a1c 963e 544f a4bd
00000210: bbac 89bc 25f7 233c 418c 75bd 9360 92bc
00000220: 763a 1bbe bc33 e53d 6951 b03f 009d 563e
00000230: b5cc 133e 2cdf c2bc fbe2 acba 486a c2bb
00000240: 977f dabd 8bc3 a33d 6592 103f 7a69 ac3d
00000250: 8eca 6b3d 90d3 c1bd 727a 9abd ec53 4abe
00000260: 0f00 b8bd aca1 3d3c 6ba7 303e 57f8 74be
00000270: 742f d33d 238e 8bbe b1ec 2ebe f8f4 a9be
00000280: 0d4b 0c3e 9703 033e ad4e c1bf 0b2f 66be
00000290: f667 3ebd e3e8 243d c881 85be 782c 203e
000002a0: 559a 0cbe d689 373e f6e8 a53e 6809 993d
000002b0: 4a75 053d 7440 793d b5d4 90be 92b9 1c3e
000002c0: 167d 203e 3deb 79be 7947 05c0 ec20 11bf
000002d0: ddf3 963b 2974 8ebb d5ee 083f 4223 013d
000002e0: cb6c 9fbc ad51 c13c 6d94 0ec0 d295 a3be
000002f0: a39c c4be 7322 e23e 4de2 0840 5e48 af3e
00000300: 8d6e 0bbe e1cd 393d 1042 95bf 4bcd b8be
00000310: d423 03be 5227 2c3d 01ae edbe 0df4 013e
00000320: c60a 83bc 19bd dfbb 4968 48c0 8d76 b7be
00000330: eff9 8ebe 2f78 9e3e 220a 343e 398c aa3e
00000340: d1c9 ac3d 7e24 ab3b 458e 423a dcc3 8cbd
00000350: 690d 233d 46c1 5bbd c61e 0fbf fb38 fdbd
00000360: 3bd9 46bc 613c edbd 1346 2ebe a81d 9bbe
00000370: 7dda 8dbc fff2 c13d 194b 063e ccf4 0f3e
00000380: 4fce 0abe e1bb 933e b2cf f5bf b3df 973d
00000390: a40a e43c 55fb 96bc 53a6 173f 6cca 103d
000003a0: dffd 5cbd 7da1 0d3d 21ae a5bd f9dd 013d
000003b0: 57c3 ca3d 1663 2bbe 71fd 15bd 3fbf c7bd
000003c0: e9c8 21bd d219 993d 0987 94be b3bd 223e
000003d0: c47d c63d 8432 83be af89 ea3e 5626 78be
000003e0: 29b5 9fbc 1afc 883d e61b f7bd 07a7 853d
000003f0: f7f6 d03c a67d e6bd 4baa 5abf 8050 28be
-0.0033881473 -0.0059188553 -3.0384257 -0.33100653 -0.042118333 -0.049371343 2.8167357 0.41098952
-0.024754614 0.038333204 -2.5933497 -0.347224 -0.19961548 0.13526213 -0.90013635 -0.08432802
0.010817856 -0.006238245 -2.3638973 -0.27450415 -0.09001774 0.11945497 0.432707 0.22764522
0.087833755 -0.049959697 0.71976095 -0.097096734 -0.07311626 0.13818318 -0.62380284 0.18225129
0.1749593 -0.27162817 -2.1691332 -0.3404996 -0.13617805 0.2794697 1.1536686 0.42714962
-0.06218055 -0.1272551 0.30152297 -0.21514422 -0.111588605 0.10791816 0.9382506 0.25191587
-0.050783765 -0.0868426 0.78033054 0.46133965 0.11194663 -0.09883247 0.31658167 -0.15967885
0.046541624 -0.07382403 -0.032558743 -0.11862573 0.068889715 0.031558357 -0.47811228 0.08556946
0.10379641 -0.11197714 0.10908078 -0.05023238 -0.011975661 0.01979785 -2.36935 -0.25518277
0.03040313 -0.008893642 1.1147109 0.26828733 0.09767986 -0.1415924 -0.33458823 -0.22815986
-0.1677792 0.12924986 -0.82505673 -0.25119758 0.049903575 -0.0879999 -0.03702338 -0.24130563
0.17469564 -0.20477761 0.36629894 -0.040603198 0.017767416 -0.04358796 -2.5462854 -0.34894794
0.07416093 -0.056373145 -0.33684233 -0.12623407 0.11386925 -0.10779452 -1.3948873 -0.24621065
-0.02135062 -0.00017165807 -2.8046243 -0.31662324 -0.075369604 0.15687492 0.09090921 0.21192224
-0.21295105 0.11394368 -0.9527125 -0.24269336 -0.13694148 0.006171382 -0.2036159 0.0850373
-0.024307605 0.06978439 0.030787809 0.11544597 -0.024278702 -0.10754984 -2.0723462 -0.36851063
0.03618551 -0.089501716 0.2931865 -0.08022943 -0.016805997 0.010007654 -0.05994821 -0.017868316
-0.1515902 0.11191508 1.3774844 0.20958328 0.14433558 -0.023788057 -0.0013190204 -0.00593308
-0.10668867 0.07996281 0.5647338 0.084185556 0.057566218 -0.094641805 -0.07542886 -0.19758576
-0.08984386 0.01157419 0.17251365 -0.23922859 0.10311785 -0.2725688 -0.17082478 -0.3319471
0.13700505 0.12794338 -1.5102135 -0.22478883 -0.046485864 0.04026116 -0.26075578 0.15641963
-0.13730748 0.17923674 0.32404298 0.07472497 0.03258256 0.060852483 -0.28287283 0.15305164
0.15672716 -0.24406143 -2.0824873 -0.5669086 0.0046067075 -0.0043473435 0.5348943 0.031527765
-0.019461056 0.023598516 -2.2278092 -0.3195024 -0.38400754 0.44166908 2.1388123 0.342349
-0.1361639 0.045362357 -1.1660786 -0.36094126 -0.12806636 0.042029686 -0.46421817 0.12690754
-0.015996348 -0.006827962 -3.131365 -0.35832635 -0.2792506 0.30951068 0.1758199 0.33310106
0.08436931 0.005222856 0.00074217125 -0.06873295 0.03980771 -0.053651117 -0.5590633 -0.12364384
-0.012136753 -0.11583782 -0.17018919 -0.30296063 -0.017316097 0.09470176 0.13114585 0.14058226
-0.13555263 0.28854278 -1.9204009 0.07415714 0.027837105 -0.018430391 0.59238166 0.035349295
-0.053953048 0.034577835 -0.08089853 0.03170583 0.09900539 -0.16737017 -0.036618654 -0.09753274
-0.039498243 0.07475628 -0.29009274 0.15892677 0.09691957 -0.25624478 0.4580817 -0.24233374
-0.019495564 0.066887096 -0.12065868 0.065259986 0.025508387 -0.11254434 -0.85416096 -0.16436958

bias f4 [128]
00000000: a908 06bf 0c0f 04bf 9bd6 d7be cea3 e3be
00000010: 2493 f4be 942d f5be 6f57 adbe b618 b3be
00000020: 8cc1 fabe 3144 26bf 3a1a d8be 402c 1ebf
00000030: eb08 fbbe 961e 15bf cece 8abe 0a3f bebe
00000040: c7f4 c3be 6dc6 e9be 5cf1 70be bcc6 bdbe
00000050: 504c 65bf 7965 dfbe d44a 2fbf f05b f5be
00000060: b644 b1be 7cd7 17bf 5568 02bf 4646 a0be
00000070: 9dbb 50bf 0451 abbe ffd6 acbe b2a5 eabe
00000080: b9b1 58be b3ec abbd 0610 cfbe c1fe b8be
00000090: 6000 e8be fd14 9dbe 9832 37bf d37a 44bf
000000a0: 3e89 443d 61f0 b1be 1c5b 4dbe 4e12 b9be
000000b0: 5546 fdbe 6ee5 37be db70 d2be 1550 b1be
000000c0: aa15 48bf 08da eebe 9490 0ebf e953 e2be
000000d0: 4aaa bdbe f7ac efbd 7de2 37bf 885d 03bf
000000e0: f67b 11be a0f5 82be 6950 41be 4075 92be
000000f0: ded8 bcbe c564 44bf c731 1ebe 687b c7be
00000100: 3886 11bf aaea fbbe 966f 45be 1cde 2dbe
00000110: a0cc 0dbf f667 3fbf 368c 61bf 73df 9dbe
00000120: 0549 90be 4fdb f3be 7fc3 14be 4096 d2be
00000130: c32a 8dbe 154a 73be 4029 dcbe 2d19 21bf
00000140: d853 e7be f040 8ebe 1fbf d3be 98c9 9bbe
00000150: 68a1 02bf d0cf 78be f2d2 11bf 43b1 dbbe
00000160: a829 16bf eeea eebe 4305 1abf 997a fdbd
00000170: 862e 06bf 3e54 05bf 8793 49be 1b79 11bf
00000180: d65f 2fbf 86e8 babe ba01 d4be 119b 42bf
00000190: 9e5f d4be a1ac b1be ee6f e1be d7dd 94be
000001a0: 90ec b1be 0132 11be 0df7 f4be fece fcbe
000001b0: 4040 ffbe 0c74 81be 9ae5 82be ea70 60bf
000001c0: b11f b5be 8636 47bf e9e1 c83d a8a3 22bf
000001d0: faa6 18bf fa9f 00bf 9901 07bf 706c 20bf
000001e0: d43c 72be 02e6 b1be 58d5 39be 03b0 fdbe
000001f0: f4c3 0dbf f450 4dbf 097d 3b3d f13c d7be
-0.52356964 -0.5158546 -0.42155918 -0.4446091 -0.4776851 -0.47886336 -0.3385577 -0.3497979
-0.4897579 -0.649478 -0.4220751 -0.6178627 -0.4903024 -0.58249795 -0.27110904 -0.3715747
-0.38272688 -0.456592 -0.23529571 -0.37065685 -0.8956957 -0.43632105 -0.68473554 -0.47921705
-0.34622735 -0.5931318 -0.5094045 -0.31303614 -0.81536275 -0.33460248 -0.3375778 -0.4582954
-0.21161546 -0.08394756 -0.40441912 -0.36131862 -0.45312786 -0.30680075 -0.71561575 -0.76749915
0.047982447 -0.34753707 -0.20054287 -0.36146778 -0.49467722 -0.17958614 -0.41101727 -0.3463141
-0.78158057 -0.4665072 -0.5568936 -0.44204643 -0.37043983 -0.11702912 -0.7182997 -0.5131459
-0.14207444 -0.25578022 -0.1887833 -0.2860508 -0.36884207 -0.7671626 -0.15448676 -0.3896134
-0.56845427 -0.49202472 -0.19280848 -0.16979259 -0.5539036 -0.74768007 -0.8810457 -0.3083454
-0.2818071 -0.47628257 -0.14527701 -0.41130257 -0.27571687 -0.23758729 -0.4300022 -0.6292904
-0.45181155 -0.27783918 -0.4135675 -0.3042724 -0.51027536 -0.24298024 -0.569625 -0.42908677
-0.5865731 -0.46663612 -0.6016428 -0.12376899 -0.5241474 -0.5208167 -0.19685183 -0.5682542
-0.6850561 -0.36505526 -0.41407567 -0.7601786 -0.414792 -0.34702018 -0.44030708 -0.290755
-0.34750795 -0.14179231 -0.47844735 -0.49376673 -0.49853706 -0.2528385 -0.25565797 -0.87672293
-0.3537574 -0.7781757 0.09808714 -0.6353097 -0.59629786 -0.50244105 -0.5273681 -0.6266546
-0.23656017 -0.34745795 -0.1814779 -0.4954835 -0.55377126 -0.8020165 0.04577354 -0.42038682

weight f4 [2, 128]
00000000: 6e3d 843f cc8d b8bf c730 9f3f 721a 51bd
00000010: 0c11 1e3f 0f8b a13d 234d 98bb aca7 ed3c
00000020: 41de b43e 8fd7 b6bc c46c 633d 7acb b2bd
00000030: 925e 9bbd f1b6 67bd 9536 a63a 251b b0bd
00000040: da0c 4bbd 63ce a33e 835c 69bd 2f90 0ebd
00000050: 7ea7 a83d bff6 483d 05b3 773d 061c 4f3f
00000060: 2372 113d cc19 ea3d f4a3 893f d862 2d3d
00000070: 0eca edbb aaba 2dbd a2f7 10be 05cb fb3c
00000080: aef8 9bbd 28b9 80bb ef06 153c 3ab7 c93b
00000090: 312f 0fbb 6716 503d bfcf da3d 708e 86bd
000000a0: 84be a53d 01eb a1bd 2e15 91bd 6e26 86bc
000000b0: 4b29 033f ee57 47bd 33ed f43e 99c9 8fbe
000000c0: d67e 163c f881 a33d d628 bb3f eaf2 cebd
000000d0: 9f16 3a3d 42be ee3c 5ef4 6b3d cfff fabd
000000e0: 7bd7 073d d00a 1ebd e180 213c 63bf 17bc
000000f0: 86f2 733d 1558 933d b8bb 3cbb 63c4 06ba
00000100: 1d35 813c e467 d9bc 9679 e2bc a732 d7bc
00000110: 17ee 16bc 0b7f 073d 23e5 1ebe c8f7 86bb
00000120: 4983 d3bc d89f 463d 8d12 5abc 3c89 9a3c
00000130: af01 ca3c b519 6c3c 170d 94bf e30e bf3d
00000140: 4fcf 923d 1915 22bd fdbb a0ba 2742 cd3a
00000150: 0094 74be 3d1f ebbd 0200 af3d 9ffc 8ebd
00000160: e027 5a3d a669 a03b 8f7d 123e 2006 013d
00000170: e2b3 86bc ba7e cc3e b43f 5abd 2c39 e63c
00000180: f9c0 49bd 6879 86bd cc0f fabc affd 45bd
00000190: 14b0 213d 2434 89bf f777 083f 4d79 70bc
000001a0: d2fe efbc e0dc f53c c9f2 3f3d c3a9 d73c
000001b0: 72ad 4a3d 8a59 3dbe 3d16 71bd 4856 973d
000001c0: f3cb 8dbe f38e c63c fc0e 41bd 2ee2 9f3d
000001d0: 51d3 a23c 71cf a7bf a1f0 863d 5bbe 90bd
000001e0: 1a03 9eba 6436 603d ba57 a7bd fa9e ca3d
000001f0: ef06 e0bf d37b a6bd 9570 39bd c7bb 9f3d
00000200: ba9e 93bf c4de b63f 5dde 97bf 5fe0 a4bc
00000210: 3355 20bf 0799 533d 9833 043c 8477 4fbc
00000220: 8ccb abbe d444 52bd f779 a53d fcc6 09bd
00000230: 8126 923d 55f0 4c3d 80b1 87bd fed8 513d
00000240: ec5d 743c fe1e 8dbe 0d4f 35bc 0649 a1bc
00000250: 55a1 ccbd 5772 57bd d89e 913b 9656 59bf
00000260: 2787 6c3d c8d1 fbbb 2c56 8fbf cf20 25bc
00000270: 7ab3 9cbd 382f 563d e159 2b3d a01b 72bd
00000280: 72b4 cc3d 1f9e aabb 10b3 c43d 82b8 a2b9
00000290: ddd7 2fbc 3300 ce3c 974f 2a3d 733e 1abc
000002a0: a87e 493c 1e1a fb3c 897e a23c 02e8 9abc
000002b0: e8de e5be 901c 433d 04a2 f4be 4ec1 7b3e
000002c0: 3472 67b9 7003 a43c 005c b7bf 166a b13d
000002d0: 44b9 ca3d febd e13c 10b7 f9ba 8f21 713c
000002e0: 1dd9 823c 35c0 2bbd b363 223c 6de0 38bc
000002f0: d944 a4bd 74fc 1abd 820f a5bc bf8b 343b
00000300: f9e7 80bd 7e3d 82bc 7562 0fbd 9aa2 0c3e
00000310: 495b b1bc 3c34 42bc 2f97 e93d 2390 71bc
00000320: 0d7c 89bd e01b 93bd f44b d63d cb70 f6bb
00000330: 3fa3 953c 99d0 46bc f4a2 a03f e308 423d
00000340: 9048 853b b82e 0dbc f84e 1fbc 4e24 f03b
00000350: 0ba7 1a3e 36d6 b53d f495 133d 9692 9fbd
00000360: ef2f d83a ab20 bbbd 8bc2 d0bd 92b8 32bd
00000370: 62fc 4c3d b399 9bbe 10b3 193c 2ef3 283d
00000380: 10aa ff3d 7f8f 16bd 9607 4a3d cef6 59bd
00000390: 4479 f9bd 125a 8c3f 6903 e7be 1d6d ddbc
000003a0: be2a 8fbc c6b6 4e3d 0ed1 153c df46 73bd
000003b0: 7631 0c3c 3ed8 783e e869 84bd b48c a2bd
000003c0: 33b7 9d3e beda ffbc a365 12bc 1382 cc3c
000003d0: 5e72 d8bb 756d b63f ce53 5bbd 56a2 79bd
000003e0: 036c c53c fbde a43d 75c6 41bd 3018 743d
000003f0: 0712 e73f a503 a73d 7c90 3ebc 7f89 213d
1.0331247 -1.4418273 1.2436761 -0.05105061 0.6174476 0.078878514 -0.0046478673 0.029010616
0.35325816 -0.022319583 0.05552365 -0.08730216 -0.07586397 -0.05657095 0.0012681062 -0.085989274
-0.049572803 0.31993398 -0.05697299 -0.034805473 0.082350716 0.04906344 0.06047346 0.80902135
0.03550924 0.114307016 1.075316 0.042330593 -0.007256753 -0.042414345 -0.14156964 0.030736456
-0.07615791 -0.0039283223 0.009095891 0.0061558755 -0.0021848197 0.050802615 0.10684156 -0.065701365
0.080929786 -0.079061516 -0.07084118 -0.016375747 0.51234883 -0.04866784 0.4783722 -0.28083494
0.0091855135 0.07983774 1.4621837 -0.10104926 0.04543173 0.029143456 0.057606094 -0.12255823
0.033164483 -0.03858453 0.009857387 -0.009261939 0.05955746 0.07194535 -0.0028798413 -0.0005140958
0.015772397 -0.026538797 -0.027645867 -0.02626927 -0.0092120385 0.033080142 -0.15517096 -0.0041188933
-0.025819438 0.048492283 -0.013310087 0.018864267 0.024659006 0.014410426 -1.1566495 0.09329011
0.07168447 -0.0395709 -0.0012263056 0.0015659974 -0.23884583 -0.114805676 0.08544923 -0.069817774
0.053260684 0.004895407 0.1430571 0.031499982 -0.016443197 0.39940435 -0.05328341 0.028103434
-0.0492563 -0.06566125 -0.03052511 -0.048337635 0.03947456 -1.0719037 0.5330805 -0.014677358
-0.029296312 0.030012548 0.046862397 0.026326066 0.049481817 -0.18491188 -0.0588591 0.07389504
-0.27694663 0.024238085 -0.04713343 0.07806812 0.019876154 -1.3110181 0.06588865 -0.070675574
-0.0012055368 0.05473937 -0.081710294 0.098936036 -1.7502116 -0.08129086 -0.045273382 0.077994876
-1.1532815 1.4286733 -1.1864735 -0.02012652 -0.62630004 0.05165961 0.0080689415 -0.012662772
-0.3355373 -0.05133517 0.080799036 -0.033637032 0.0713625 0.050033886 -0.06625652 0.05123233
0.014914971 -0.27562708 -0.01106621 -0.01968814 -0.09991709 -0.052599277 0.0044439845 -0.84897745
0.05774608 -0.00768492 -1.1198173 -0.010078623 -0.0765142 0.052291125 0.041833762 -0.059108377
0.09995355 -0.005206838 0.09604466 -0.00031036517 -0.010732618 0.02514658 0.04157981 -0.009414303
0.012298264 0.030652102 0.019835727 -0.018909458 -0.44896626 0.04763466 -0.47779858 0.24585459
-0.0002207242 0.02002117 -1.4324951 0.086628124 0.09898618 0.027556416 -0.0019051749 0.014717474
0.015972668 -0.04193135 0.009911465 -0.011283976 -0.08020944 -0.037838414 -0.020148996 0.0027549115
-0.06294245 -0.015898462 -0.035006005 0.13733903 -0.021649973 -0.011853274 0.11405789 -0.0147438375
-0.06713114 -0.07183051 0.10463706 -0.00752077 0.018266318 -0.0121346945 1.2549729 0.047371756
0.004067488 -0.008617096 -0.009723417 0.0073285466 0.15102784 0.08878748 0.03603168 -0.07791631
0.0016493778 -0.0913709 -0.10193356 -0.04363305 0.05004538 -0.303907 0.009381071 0.04124754
0.12483609 -0.036757942 0.04932364 -0.053213887 -0.12181333 1.0964987 -0.4511979 -0.027029568
-0.017476436 0.050467275 0.009144081 -0.05939376 0.008556714 0.2430124 -0.064655125 -0.07936993
0.30803832 -0.031232234 -0.008935365 0.024964368 -0.0066054305 1.4252154 -0.05354672 -0.06094583
0.024099356 0.08050343 -0.047308404 0.05959338 1.8052377 0.08154992 -0.011631127 0.039437767

bias f4 [2]
00000000: ccbe 81bd 06e2 a8bc
-0.0633522 -0.020615589

weight f4 [128, 4]
00000000: 368d 473c c33e 123e a5dd 523e d7ec 9c3e
00000010: 51a7 dd3b c5eb cdbc 2ff1 963e 9b32 9fbc
00000020: eff4 16be 7374 12bd 614a 11bd 7db4 34be
00000030: 3cc0 463d e9c5 bc3d ab1e bc3d 4351 293e
00000040: 7122 703e f8d4 a2bc ed2b 90be 3081 ccbd
00000050: c76b 363d b96b 69bd d22e 033f 06ca 65bd
00000060: 89c1 9ebe cdfa 483e 6a77 093f 9a12 24bd
00000070: cbcf 393e 4cf8 c4be d041 2440 63e3 c13d
00000080: 2059 f03d 2abd a7be ffc0 a1be 795a 8ebe
00000090: 8bce b9bd acd4 c7be 47db 983e 08a9 0bbd
000000a0: 39e2 0c3e 3d2e 82be a3ec 3d3f a19f e2be
000000b0: 83b5 03be c94a e73d 282c c7bd b274 993c
000000c0: 5c08 21bf 525f 09be 308b 053e 81ac 58bd
000000d0: ba4c 34bd 1803 583d 0b69 54c0 f7a2 52be
000000e0: 358d 263f 352c 0b3e 2993 8d3c 23d4 1f3d
000000f0: ff02 7a3d b7b7 1d3d 334b acbe c7f3 dd3d
00000100: 801b 843e df79 86be b2df f7be bbd5 b6bd
00000110: d740 333e ae20 36be dbeb b1bd f0d6 bc3d
00000120: 4849 38bc 8442 8cbc 7039 6e40 347f 753e
00000130: e1e2 02bd 6dd3 af3c bbe6 6540 8874 9b3e
00000140: edfb 5cbe f985 c33d 059b 25c0 4c73 58be
00000150: bb43 473d 5a87 92bc 2f38 1dc0 30b7 95be
00000160: 66d5 92be e360 143e 8322 5abe e8e6 583e
00000170: 43b1 2dbd c901 573d 9c4c 293e feb9 fe3d
00000180: c56e 1c3f 8371 3f3d d470 6fbf e2ce 87be
00000190: 094a 42bd b59e 7e3d 1a0d 48c0 e2bc 59be
000001a0: 758d 383d 9379 c0bb b04c 83be 19b0 283d
000001b0: 8be1 19bf ae72 89be 2cac 4cbf 654f 54be
000001c0: 1e24 a0bc 4b9b b73c 4f15 45c0 85ef 4abe
000001d0: 1f54 0bbe e454 463e 7f57 cf3e 8713 9c3d
000001e0: c9d7 2bbd 21b6 513c 318c 3ac0 9136 1fbe
000001f0: 2f06 cebd e2c9 8a3c d403 b53e dd75 a1bc
00000200: 8eaf 23bd a70c e43c dbe2 2740 007d d73e
00000210: 2920 1e3f df5e 753d f433 79be 826b 38bd
00000220: d5b9 87bb d693 803c 7489 45be 2e1e 623d
00000230: fd27 adbe 64e0 9b3e faa0 cfbe f5cd b33e
00000240: 897d 1cbc 86dc b73b dd16 5040 fa9b 373e
00000250: b49b 913c 2dcf 10bd 21a8 14bf 3d3b aa3d
00000260: 562e 633b 2d4c 67ba be01 b2bd f2d7 323c
00000270: c38d 16be 0fbb 233e b33f cc3f 2049 7a3e
00000280: df28 603e 7914 04bd 50bc afbe 8434 6b3e
00000290: 6ca5 81ba 69f7 5a3e b3be f3bc 3f45 acbb
000002a0: 4d6a a23d fc3e 39be bd23 aabc 44c7 013e
000002b0: c191 383e 25f4 3abe 450a fa3e 17dd 1dbe
000002c0: 37a0 9d3d 22fb 97bd b720 dcbd c3a5 50be
000002d0: 2fcb b23c 4b73 dfbd 3ca2 00c0 282c 06bf
000002e0: 9ff6 343c 66cb f6bb f05b 4abe c7af e33c
000002f0: 3d05 253d 1c66 febd a7f4 5e3e 25e2 31be
00000300: 180e afbc 1c8d a5bc 6741 3840 49d4 9a3e
00000310: d949 58bd 6dea edbd ffa1 153e 3ef1 56be
00000320: 55aa f83d 0c8e a53c bfe6 fc3d c0fe 203b
00000330: 4cef 35bd 89b8 af3d ea08 b9be c27b fb3d
00000340: da63 7abd e8cf 72b8 fe2c 5dbe 0fbe 11be
00000350: 1fa6 15bf 4650 6dbe bc62 a3be f98c 07be
00000360: 4820 46bb 79cd ecbd 21d5 9cbf 0942 09bf
00000370: 567a cdbc 7de8 f63c eb74 4fc0 85c0 99be
00000380: c920 69be c037 dd3d 9bd7 e8be 2186 7c3c
00000390: 4697 5abd afa7 10be 913a 903e 60bc 8abe
000003a0: cc56 babe 6fcd bb3e 90d8 febc dfdc c23e
000003b0: d70f 9b3c 5e4c babd b3c0 81bf 52a6 8cbe
000003c0: 1ef9 1e3e def0 32be 33ce 64bd b6e7 07bd
000003d0: fce4 afbc a292 a7bc c610 3b3e 15d3 b9bd
000003e0: 7995 d43d 365a 97be 0e67 9a3e fd9e a4be
000003f0: 80df 8f3e 04d1 96be 3bcd d8be 7377 92bd
0.012179663 0.14281754 0.20592363 0.30649444 0.0067643304 -0.025136838 0.29480883 -0.01943331
-0.14741872 -0.035755586 -0.035471324 -0.17646976 0.048523173 0.09217436 0.09185537 0.16534905
0.23450638 -0.019876942 -0.28158513 -0.09985578 0.04453638 -0.056987498 0.5124332 -0.056100868
-0.3100703 0.19626923 0.53697836 -0.040056802 0.18145673 -0.38470685 2.5665169 0.09467199
0.11735749 -0.32761508 -0.31592557 -0.278034 -0.09072598 -0.39029443 0.29854795 -0.034096748
0.13758172 -0.25425902 0.74189204 -0.44262412 -0.1286221 0.11293561 -0.09725219 0.018732402
-0.6290338 -0.13415268 0.13041377 -0.052898888 -0.044018485 0.052737325 -3.3189113 -0.20569979
0.65059215 0.13591082 0.017282085 0.03902067 0.061038014 0.038505282 -0.33651122 0.108375125
0.2580223 -0.26264855 -0.48412853 -0.089274846 0.17505203 -0.17785904 -0.08687564 0.092206836
-0.01124794 -0.01712156 3.7222557 0.23974305 -0.03195465 0.02146312 3.5922077 0.30362344
-0.21580477 0.09547038 -2.5875866 -0.21137732 0.048648577 -0.017886806 -2.4565542 -0.29241323
-0.28678435 0.14490084 -0.21302228 0.21181834 -0.042405378 0.052491937 0.1653313 0.12437819
0.6110652 0.046739113 -0.9353154 -0.26525027 -0.047433887 0.062163074 -3.1257997 -0.2126346
0.04505678 -0.005873868 -0.25644445 0.041183565 -0.60109776 -0.26845306 -0.79950213 -0.20733412
-0.019548472 0.022412917 -3.0794256 -0.19817932 -0.13606308 0.1936832 0.40496442 0.07620912
-0.041953836 0.012799771 -2.9148066 -0.15548159 -0.10059773 0.016941968 0.35354483 -0.019709522
-0.039962344 0.027838064 2.6232212 0.42087555 0.6176782 0.05990493 -0.24336225 -0.045024402
-0.004142026 0.015695494 -0.19290715 0.055204563 -0.3381957 0.30444634 -0.40552503 0.3511807
-0.009551414 0.0056110052 3.2513955 0.17930594 0.01777444 -0.03535383 -0.58069044 0.0831208
0.003466507 -0.0008823302 -0.086917385 0.010915743 -0.14702515 0.15989326 1.595694 0.24441957
0.21890591 -0.032246087 -0.3432336 0.22969252 -0.0009891219 0.21383442 -0.029754018 -0.005257278
0.079304315 -0.18090433 -0.020768994 0.1267367 0.1802435 -0.18257196 0.4883596 -0.1541637
0.07696574 -0.07420947 -0.10748427 -0.20375733 0.021825401 -0.10910662 -2.009902 -0.5241113
0.011045127 -0.007531571 -0.19761634 0.027793778 0.0402882 -0.124218196 0.21773015 -0.17371424
-0.021369025 -0.020208888 2.8789918 0.30240086 -0.0528048 -0.11616979 0.14612578 -0.20990464
0.12141863 0.020209335 0.12348699 0.0024565905 -0.044417664 0.08580119 -0.36139613 0.12279464
-0.061130382 -5.7890924e-05 -0.21599194 -0.14232658 -0.58456606 -0.23175153 -0.31911266 -0.1323737
-0.0030231643 -0.11562628 -1.2252542 -0.53616387 -0.025082748 0.030140156 -3.241511 -0.30029693
-0.22766413 0.10801649 -0.45476994 0.015412838 -0.05336692 -0.14126466 0.28169683 -0.27096844
-0.36394346 0.3668017 -0.031109124 0.38059136 0.018928451 -0.09096597 -1.0136932 -0.27470642
0.15524718 -0.17474696 -0.05586071 -0.03317996 -0.021471493 -0.020455662 0.18268117 -0.09073464
0.10380072 -0.29561013 0.3015675 -0.32152548 0.28100204 -0.2945634 -0.42344078 -0.071516894

bias f4 [128]
00000000: a773 2f3f 2a68 11be bd18 713f a81a 293f
00000010: 102d 833f 0bb5 04be bd36 543f 3e46 19bf
00000020: 5d4e 2bbf a501 94be 4c29 1bbf c6f5 fbbe
00000030: bbb9 b6bf f592 40bf d506 b9bf 659d 063f
00000040: f93d 5a3f b409 343f 98f9 3bbf 718e 49bf
00000050: 76be 17bf 8162 2fbf b6cc 673f 6a75 dabe
00000060: 1a45 10be 39a3 3abf 1c3d 94be 4a25 a9bf
00000070: e6fb 2fbf d0f1 243f 4075 23bf 46af 9fbe
00000080: 4449 36bf 6310 96bf 8c97 0dbe a0bc a83c
00000090: b6d3 26bf 8236 83be 7b19 21bd 211e 69bf
000000a0: 6416 763f a3fc 813f da99 563f d87d 18bf
000000b0: b817 b4be aeb5 5ebf 4a4d e9bd 4165 cbbe
000000c0: 8e99 23bf dc50 473f 24aa cbbe 0e47 62be
000000d0: c7d3 debe 0d18 b2bf ce43 4fbf a69e 4ebf
000000e0: 23f8 5c3f 71ee 423f 64a4 3a3f ce1f 1abf
000000f0: dae5 64be 95c4 3fbe f231 503f f937 813f
00000100: b041 04bf 4ade 3dbf b835 14bf 190c 3cbf
00000110: 6aae 823f 6db1 2c3f a85f 453f c024 6e3f
00000120: 12db 03bf 369e 39bf 113e 633f f2ac 7a3f
00000130: 21fc 07bf bf40 10bf e7b2 7a3f 83fb 08be
00000140: 1731 e83e 7405 383f df1d 5e3f a0ae aabf
00000150: 8363 06bf f141 5f3f a79d ffbe 70e3 b2bf
00000160: 2d10 8a3f bb4f 83be 2adf 813f 2e16 b1bf
00000170: 0170 3a3f c889 30be 144d a4be 03c9 8ebe
00000180: f60d 18bf 773b 8dbd 4693 62be 033e 743f
00000190: 3258 273f 033e fe3e 2a38 18bf fc12 6fbf
000001a0: d166 20bf 9f0e a5bf 2c5d 63be cffd 8b3e
000001b0: 5681 abbe b154 7ebf bf94 343f bb81 ae3e
000001c0: 04d7 d7be 6113 dabe 2e0b ae3e 4da2 393f
000001d0: 862c 83bf 1836 92be a31f 16be c162 2fbf
000001e0: 7346 803f 367c 38be a6f7 633e fe02 53bf
000001f0: 9042 063d 0b87 3bbf 5f10 15bf f86e 2b3f
0.68535846 -0.14199892 0.9417837 0.660563 1.0248127 -0.12959687 0.82896024 -0.59872806
-0.6691645 -0.28907505 -0.6060989 -0.49210948 -1.427543 -0.7522424 -1.445521 0.52583915
0.8525081 0.70327306 -0.73427725 -0.78732973 -0.59274995 -0.6850968 0.9054674 -0.42667705
-0.1408886 -0.7290531 -0.28952873 -1.3214505 -0.6874374 0.64431477 -0.63850784 -0.3118841
-0.71205544 -1.1723751 -0.13827342 0.020597756 -0.65166795 -0.25627524 -0.03933094 -0.910616
0.96127915 1.0155224 0.8382851 -0.5956702 -0.35174346 -0.8699597 -0.11391695 -0.39725688
-0.6390618 0.77857757 -0.39778244 -0.22097418 -0.43520948 -1.391359 -0.80962837 -0.8071083
0.86316127 0.7614508 0.7290709 -0.6020478 -0.22353306 -0.18727334 0.8132621 1.0095206
-0.5166273 -0.7416731 -0.5789447 -0.7345596 1.0209477 0.6745823 0.77099085 0.93024826
-0.5150615 -0.72507036 0.8876658 0.97920144 -0.53119093 -0.56348795 0.97929233 -0.13377194
0.45349953 0.7188332 0.8676433 -1.3334541 -0.5249559 0.87209994 -0.49924967 -1.3975658
1.0786186 -0.25646767 1.0146229 -1.3834894 0.72827154 -0.1724006 -0.32090056 -0.27887735
-0.593963 -0.06896108 -0.22126493 0.9540712 0.6536895 0.49656686 -0.594607 -0.9338834
-0.62656885 -1.2895087 -0.22203511 0.27342078 -0.33497113 -0.9934798 0.7053947 0.34083351
-0.4215623 -0.4259291 0.33992904 0.72513276 -1.0247962 -0.28556895 -0.14660506 -0.6851006
1.0021499 -0.18016133 0.22262439 -0.8242644 0.032778323 -0.73252934 -0.58228105 0.669662

weight f4 [1, 128]
00000000: 615a 553e 159c 133b 4c37 c93e 993e 273e
00000010: 2123 ae3e f449 4b39 17da 6a3e a013 c0be
00000020: 7b8e 43ba c6bc 58be 2634 05be 1da9 82bd
00000030: 6426 24c0 cdf4 81c0 d4b2 2cc0 4e1e 293e
00000040: ce7e 733e 0114 333e 6aa8 adc0 d10d 9dc0
00000050: 271f 10bf 872f 94bf be68 b93e fb04 7ebd
00000060: d17f 12be fe26 7dc0 38a8 86bc b4a0 e3bf
00000070: 8b30 70c0 b270 1a3e d434 63c0 726c fd3a
00000080: 71c1 d1bf 8078 98bf 86a7 2abc 8f0d 15bc
00000090: e4f9 90c0 8a3c 35bb efc0 adba d58d 0dbf
000000a0: d554 a73e e533 ad3e cedc 803e 126e 67bd
000000b0: aa0c 02bc baa9 1dbf 5740 5e3b 040e a63c
000000c0: c66b 4bc0 d89d 823e 523f 45bd 3c7a a7bc
000000d0: e47f c5bc 7c6b e6bf 24cd c8bd 2394 74c0
000000e0: 1f23 c23e 94e1 563e cc3a 4f3e 01df 5abe
000000f0: bae0 8bbc 1f21 93bb ed85 563e 3012 c73e
00000100: 820c 7c3c da0b 9ec0 2969 84bd 62ca 88c0
00000110: 234b b03e 0c50 723e 7a6d 493e 16b8 903e
00000120: b8c3 58bc ff56 93c0 56f0 8a3e cec0 bb3e
00000130: 50e1 97bd 51d2 443d f27d bb3e 1717 40ba
00000140: d3a7 a33d 1364 873e 2612 973e 5ea9 9cbf
00000150: c798 fbbf 8966 ab3e 8b5f 8cbd 7bec 1bc0
00000160: f35f b93e 7587 9d3c b57e bf3e b775 04c0
00000170: dbae 6c3e da99 94be 99d8 f2bc 66fc d9bc
00000180: 5900 4ac0 0905 263b 3330 c93a fe05 c33e
00000190: 53ae 423e a59f 013e 2986 a73c 0cf2 9bbe
000001a0: cc83 45c0 f714 e7bf 7111 bf3c 669f c53c
000001b0: 5e3c 0a3d b64f 9abf 632e 563e 86cd 2b3d
000001c0: 178d c53b c8f6 16be 459e 213d 572f 463e
000001d0: 07ab 8fbe b442 c5ba 3f69 293c 8f94 acc0
000001e0: 8dcb c23e d1ca 7f3b 6f9b 593c f3c7 20be
000001f0: 3cf6 4cbc 5ae1 1fc0 9cc7 31be 6905 603e
0.20835258 0.0022523452 0.393 0.16332473 0.34011176 0.00019387138 0.22934757 -0.37514973
-0.0007459891 -0.21165761 -0.13008174 -0.06379912 -2.5648432 -4.061133 -2.6984148 0.16515467
0.23778841 0.174881 -5.4268084 -4.9079366 -0.56297535 -1.1577004 0.36212724 -0.06201647
-0.1430657 -3.955505 -0.016437635 -1.7783418 -3.7529628 0.15082052 -3.5500994 0.0019334687
-1.6387159 -1.1911774 -0.010415917 -0.009097471 -4.530504 -0.0027654492 -0.0013256351 -0.55294544
0.3268191 0.33828655 0.2516846 -0.056501456 -0.00793759 -0.6158711 0.0033912861 0.020270355
-3.178453 0.2551105 -0.04815609 -0.020444028 -0.024108835 -1.8001552 -0.098047525 -3.8215415
0.3791742 0.20984489 0.20237273 -0.21374132 -0.017074931 -0.0044900323 0.20949526 0.38881063
0.0153838415 -4.9389467 -0.0646537 -4.274705 0.34432325 0.23663348 0.19670668 0.28265446
-0.013230257 -4.6043696 0.27136487 0.36670536 -0.07416022 0.048052136 0.36619526 -0.00073276594
0.07990994 0.26443538 0.29506034 -1.2239187 -1.9655999 0.33476666 -0.06854161 -2.4363086
0.36206016 0.01922963 0.37401357 -2.0696847 0.23113577 -0.2902363 -0.029644297 -0.02660961
-3.1562712 0.002533259 0.0015349447 0.3809051 0.19011812 0.12658556 0.020449715 -0.30458105
-3.0861692 -1.8053273 0.023323746 0.024123859 0.033748977 -1.2055576 0.20916133 0.04194405
0.006028782 -0.14742577 0.03945758 0.19353996 -0.2806017 -0.0015049786 0.010340034 -5.3931346
0.38045922 0.00390308 0.013281687 -0.15701275 -0.012509879 -2.4981294 -0.17361301 0.21877064
