src/cartpole/results/CartPole-v0/train-a2c/20210407-003658/num_env12-num_episodes50000-learning_rate0.003-hidden_layers64-64.pt (torch, 7807 bytes, 7 tensors)

weight f4 [64, 4]
0	0xbcf9d4bd	-0.03049695
1	0x3dd86b0f	0.10567295
2	0xbe9510b8	-0.29114318
3	0xbe5bd9b6	-0.21469769
4	0xbda38602	-0.07984544
5	0x3e5ccdac	0.21562833
6	0x3f926e8a	1.1439984
7	0x3eae9a0a	0.34101897
8	0xbe0284ef	-0.12746023
9	0x3c7d671e	0.01546648
10	0xbe393833	-0.18087845
11	0x3cabceca	0.020972628
12	0xbe6d232c	-0.23157948
13	0xbcc034ff	-0.02346277
14	0xbcbbc9ac	-0.022923313
15	0xbd697814	-0.05699928
16	0x3d7cd3b3	0.06172533
17	0x3d8f5223	0.06998088
18	0xc01c6687	-2.4437578
19	0xbeb3394d	-0.35004655
20	0x3d320de0	0.043470263
21	0x3e8a62e4	0.27028573
22	0x3ed53529	0.4164212
23	0x3e86e7e1	0.26348785
24	0x3d8d403b	0.068970166
25	0xbdea3c54	-0.11437288
26	0xbd99f50a	-0.075174406
27	0xbde46666	-0.111523435
28	0xbd5681fe	-0.052370064
29	0x3ea15fc2	0.3151837
30	0x3e8b9d62	0.2726851
31	0x3e118aa3	0.14213042
32	0xbe11b25d	-0.14228196
33	0xbe0c4779	-0.1369914
34	0xbfb3f6dd	-1.4059712
35	0xbea85bf3	-0.32882652
36	0xbe27c5f2	-0.16384104
37	0x3ec58828	0.3858044
38	0x3f73230b	0.94975346
39	0x3f1966b3	0.5992233
40	0x3e449db5	0.19200785
41	0xbe376f57	-0.17913567
42	0xbfe74900	-1.8069153
43	0xbf249441	-0.6428872
44	0xbe9e8dbe	-0.30967516
45	0xbe3a21f2	-0.18177012
46	0x3fbc83c4	1.4727712
47	0x3edfc368	0.4370377
48	0xbd4a9291	-0.049456183
49	0x3e3e5d0d	0.18590184
50	0x3fb8f57e	1.4449918
51	0x3e989401	0.29800418
52	0x3e002452	0.12513855
53	0xbdcbb6c6	-0.09946971
54	0xbf8bd790	-1.092516
55	0xbeb386c3	-0.35063753
56	0x3e10ec23	0.14152579
57	0xbe8b054a	-0.27152473
58	0xbe53f70a	-0.20699707
59	0xbe354f26	-0.17705974
60	0x3e157e31	0.1459892
61	0x3e547820	0.20748949
62	0x3e749ac3	0.23887162
63	0x3e8de799	0.27715757
64	0x3e382252	0.17981842
65	0xbd7092c8	-0.05873373
66	0xbd16cbc2	-0.036815412
67	0x3ceaec69	0.028677182
68	0x3dccd5a9	0.1000169
69	0x3e6eb335	0.2331055
70	0xbfdce417	-1.7257107
71	0xbe5de37a	-0.21668807
72	0x3d1db3f6	0.038501702
73	0x3edea3c3	0.43484315
74	0x400026e4	2.0023737
75	0x3f3fceb4	0.7492478
76	0x3e62a19c	0.22131962
77	0xbe9c170c	-0.30486333
78	0x3e0fd8e1	0.14047576
79	0xbe8ec150	-0.2788186
80	0xbe3ed9d7	-0.18637787
81	0x3e2d8e16	0.16948733
82	0x3fd22c6a	1.6419804
83	0x3ee11e20	0.43968296
84	0x3d8135dc	0.06309101
85	0xbdef59e5	-0.11687068
86	0xbd80bebe	-0.06286381
87	0xbe56fcd7	-0.20994888
88	0x3e5361d0	0.20642781
89	0xbb7456da	-0.0037283213
90	0x3fdf540f	1.7447528
91	0x3ee97ab7	0.45601436
92	0x3df5604b	0.11981257
93	0xbe47b7ea	-0.19503751
94	0xbfc62872	-1.5481093
95	0xbdafc63d	-0.08582733
96	0x3db7ae68	0.08968812
97	0xbe0d1a20	-0.13779497
98	0xbfba28d5	-1.4543711
99	0xbd351db9	-0.0442178
100	0x3e014b08	0.12626278
101	0x3d6fb509	0.058522258
102	0xbf45dc44	-0.77289224
103	0xbe89ed82	-0.26939017
104	0xbeb9d991	-0.36298802
105	0x3d6b3377	0.057422128
106	0xbff34dc2	-1.9008105
107	0xbee69f2c	-0.45043314
108	0xbceaa452	-0.028642807
109	0x3d9f3bdf	0.077750914
110	0xbe470e1a	-0.19438973
111	0x3dbf54a5	0.093423165
112	0xbe4a50d8	-0.19757402
113	0x3e5ce31b	0.21571009
114	0x3f67249c	0.90290236
115	0x39b12487	0.00033787286
116	0xbd9f1b97	-0.07768934
117	0x3d8edc88	0.06975657
118	0x3f0746f4	0.5284264
119	0x3deb3f68	0.11486703
120	0x3cdd3afd	0.027005667
121	0x3b123342	0.0022308384
122	0xbe915d0d	-0.28391305
123	0x3ddcef81	0.10787869
124	0xbe3a9aa6	-0.18223056
125	0xbdb659cd	-0.08903847
126	0xbf7c6519	-0.9859176
127	0xbe4f1473	-0.20222645
128	0xbd1a2af1	-0.03763861
129	0xbdd40a88	-0.10353571
130	0x3ded2780	0.115798
131	0xbdd5e39a	-0.10443802
132	0x3e23d194	0.15997916
133	0x3eb3f7ed	0.3515009
134	0x3f505e61	0.8139401
135	0x3dadc119	0.08484096
136	0xbc47cf14	-0.012195367
137	0x3d3a1afa	0.045435883
138	0x3d69bd43	0.05706526
139	0x3e522e9c	0.20525593
140	0x3edcec1d	0.4314889
141	0x3e05dfc9	0.13073649
142	0x3fbd1637	1.4772404
143	0x3de8614b	0.11346682
144	0xbe925082	-0.28577048
145	0xbdfa70f4	-0.12228575
146	0x3fb4b8c8	1.4118891
147	0x3dffad86	0.12484269
148	0xbd2e66e5	-0.042578597
149	0xbeb7b413	-0.35879573
150	0xbff0c6b0	-1.8810635
151	0xbebf0ccf	-0.3731446
152	0xbcf5582a	-0.029949266
153	0x3d851012	0.06497206
154	0x3f1ddd9b	0.6166627
155	0xbe08f1fa	-0.13373557
156	0x3ec3cc83	0.38241968
157	0xbee4a923	-0.4466029
158	0xbf87c14b	-1.0605863
159	0xbea495b5	-0.32145467
160	0x3d480e50	0.048841774
161	0xbdad2b29	-0.08455498
162	0xbf3cd051	-0.73755366
163	0x3d32dbf9	0.043666814
164	0xbc8307ee	-0.015994992
165	0x3cff0160	0.031128585
166	0xbe695b07	-0.2278863
167	0x3e38bdcc	0.18041152
168	0xbe188ba6	-0.14897022
169	0x3e0d9634	0.13826829
170	0x3ff1afbe	1.8881757
171	0x3ee25fb1	0.44213632
172	0x3eb39c4c	0.35080183
173	0xbd1e1ece	-0.038603596
174	0xbfa8e457	-1.3194684
175	0x3e4fe190	0.20300889
176	0x3e29b194	0.16571647
177	0xbdd43b94	-0.10362926
178	0xbfd5c0d6	-1.6699474
179	0xbefed3cd	-0.49770966
180	0xbc887e8b	-0.016661903
181	0x3b5e15ec	0.0033887578
182	0x40209fae	2.509746
183	0x3eead58e	0.45866054
184	0x3e9b0a66	0.3028137
185	0x3e88dd01	0.26731113
186	0x3e2519d8	0.1612314
187	0xbde49f6d	-0.111632206
188	0xbe5bcf77	-0.2146586
189	0x3e8e171d	0.2775201
190	0x3fbbacd2	1.4662116
191	0x3eb7697b	0.35822663
192	0xbd39705a	-0.045273162
193	0x3d011ee3	0.031523596
194	0xbe14bcdf	-0.14525174
195	0x3c33f065	0.0109826075
196	0xbe8e5994	-0.27802718
197	0x3e384be8	0.17997706
198	0x3f13679d	0.57579976
199	0x3d122f16	0.035689436
200	0x3d860fc1	0.065459736
201	0x3d83a54b	0.064280115
202	0xc01976b1	-2.3978693
203	0xbec1b010	-0.37829638
204	0xbe85dfbe	-0.26147264
205	0x3eea75c8	0.45792985
206	0x3d2fa63d	0.042883147
207	0x3e6c73f4	0.23091108
208	0x3e2313ad	0.15925474
209	0xbbc1eb09	-0.005917911
210	0x3f3a03b8	0.72661924
211	0xbd5a106d	-0.05323832
212	0x3d2ff9d3	0.04296286
213	0xbc605253	-0.013691503
214	0x3de32ccf	0.11092531
215	0xbb20153c	-0.002442672
216	0xbdf5e013	-0.120056294
217	0xbe0e813c	-0.13916487
218	0x3f13ab92	0.5768367
219	0xbe270da4	-0.16313797
220	0xbe9e403d	-0.30908385
221	0x3e04406c	0.129152
222	0x3e593a9d	0.21213765
223	0x3dbf4d53	0.0934092
224	0xbeb6b35e	-0.3568372
225	0x3e9addc0	0.30247307
226	0xbfa636ad	-1.2985436
227	0xbd3dfbcd	-0.046382714
228	0xbe1ecf00	-0.15508652
229	0x3dc0bbf3	0.094108485
230	0xbe37bb10	-0.17942452
231	0x3e28b837	0.16476522
232	0x3bd29c96	0.006427358
233	0x3da42a8e	0.08015929
234	0xbf41a082	-0.7563554
235	0xbe298826	-0.16555843
236	0x3e63a41b	0.2223057
237	0xbe5b4222	-0.21411946
238	0x3ea03c88	0.31296182
239	0xbc515a38	-0.0127778575
240	0xbe15d5bf	-0.14632319
241	0x3e4d327b	0.20038788
242	0xbff11189	-1.8833476
243	0xbe9554c4	-0.29166234
244	0x3e80905d	0.2511014
245	0xbeb496ae	-0.3527121
246	0x3e66ff12	0.22558239
247	0xbe9ad446	-0.30240077
248	0xbcfa0111	-0.030518087
249	0xbce006cf	-0.027346997
250	0xbf85078a	-1.0392926
251	0x3d03a968	0.03214398
252	0x3e7766ee	0.24160358
253	0xbe8a8d32	-0.27060848
254	0xbfbbfe75	-1.4687029
255	0xbdcc1862	-0.09965588

bias f4 [64]
0	0xbf2b0ebc	-0.6681936
1	0x3ea20ea8	0.31651807
2	0xbec37b75	-0.38180128
3	0xbf238c64	-0.63886094
4	0xbe9bfeec	-0.30467927
5	0xbcf49842	-0.029857758
6	0xbdde8a83	-0.10866263
7	0xbde56991	-0.11201776
8	0x3e9457c2	0.28973204
9	0xbd660254	-0.056154564
10	0xbeae01e7	-0.33985826
11	0xbd6262cb	-0.055269998
12	0x3ea516d4	0.3224398
13	0xbe87c49c	-0.2651719
14	0xbeff48e5	-0.49860302
15	0xbec865df	-0.3914022
16	0xbf11c803	-0.5694582
17	0xbd9b3408	-0.075782835
18	0xbe965da6	-0.29368323
19	0xbf22a97f	-0.6353988
20	0xbe459504	-0.19295126
21	0xbeb83042	-0.35974318
22	0xbe0e7e68	-0.13915408
23	0x3e5b6ec3	0.21428971
24	0x3e4754df	0.1946597
25	0xbf05dd75	-0.5229104
26	0xbe47efb8	-0.19525039
27	0xbe012ab1	-0.12613942
28	0xbe9ffb65	-0.31246486
29	0xbd361979	-0.044457886
30	0xbeae5abd	-0.34053603
31	0xbe2325a0	-0.15932322
32	0xbeda1b15	-0.42598787
33	0xbe8d1e71	-0.27562287
34	0xbed55aa7	-0.41670725
35	0x3e045449	0.12922777
36	0x3de8d92a	0.11369546
37	0xbde05b67	-0.109549336
38	0xbebb4edf	-0.3658361
39	0xbe1f57e9	-0.15560879
40	0xbcfdeded	-0.03099724
41	0xbec2b8f9	-0.38031748
42	0xbe4504a8	-0.19240057
43	0xbec4696a	-0.38361675
44	0xbe9bf767	-0.3046219
45	0xbe80949e	-0.25113386
46	0xbe8e9d2c	-0.27854288
47	0x3ecd5727	0.40105554
48	0xbdfe98d0	-0.124314904
49	0xbede32be	-0.43398088
50	0xbeaab420	-0.3334055
51	0xbe0f02f3	-0.13965969
52	0xbb0f99eb	-0.002191181
53	0xbe0aaad0	-0.13541722
54	0xbf2a71c4	-0.6657984
55	0xbea71b98	-0.3263824
56	0x3db1beb5	0.086789526
57	0xbed37b66	-0.41305083
58	0xbe61341b	-0.21992533
59	0xbe5d3766	-0.21603164
60	0xbe82f3fe	-0.25576776
61	0xbeb86d27	-0.36020777
62	0xbd9560cb	-0.072938524
63	0x3e86652d	0.26249066

weight f4 [2, 64]
0	0x3d08df75	0.03341623
1	0xbcdca880	-0.026935816
2	0x3bb41535	0.005495692
3	0x3d489eb1	0.048979465
4	0x3f0d4742	0.55186856
5	0x3d607d7b	0.054807168
6	0x3d401349	0.04689339
7	0xbd32c022	-0.043640263
8	0x3dfb1ddb	0.12261554
9	0xbe2623c6	-0.16224584
10	0x3eefb596	0.46818227
11	0xbe5f16da	-0.21786061
12	0x3d09d4fe	0.03365039
13	0x3e2821c1	0.16419126
14	0xbd0baeee	-0.034102373
15	0x3c44eaa9	0.012018838
16	0x3d61bfe6	0.05511465
17	0x3e1fcf86	0.15606508
18	0xbf086f04	-0.53294396
19	0x3daadfb9	0.08343453
20	0xbe090c04	-0.1338349
21	0xbd2439ba	-0.040094115
22	0xbcf10d4b	-0.029425284
23	0x3e39d8f5	0.18149169
24	0x3d378396	0.044803225
25	0x3de0f9fe	0.10985182
26	0x3e38e810	0.18057275
27	0x3cca3f21	0.024688305
28	0x3c617803	0.013761523
29	0xbb64a779	-0.003488986
30	0xbd6cb47e	-0.05778932
31	0x3d1d8023	0.03845228
32	0xbd43159e	-0.047628038
33	0xbe440e71	-0.19146134
34	0x3c66fa92	0.014097827
35	0xbc9687e8	-0.018375352
36	0xbe06d544	-0.13167292
37	0x3e6030df	0.21893643
38	0xbd19d110	-0.037552893
39	0x3e823106	0.25428027
40	0x3ce8b450	0.028406292
41	0xbde9fdce	-0.114253625
42	0xbeb531b3	-0.3538948
43	0x3e28f9af	0.16501497
44	0x3ee61ffd	0.4494628
45	0xbf3ddbc1	-0.7416344
46	0xbdf6f677	-0.12058728
47	0xbe8445b0	-0.25834417
48	0x3bbc738a	0.005751078
49	0xbd02239c	-0.03177224
50	0x3f3e7bef	0.7440786
51	0x3ba53133	0.0050412654
52	0xbd6657e6	-0.05623617
53	0xbd8ebe6b	-0.06969913
54	0xbd27f7b4	-0.041007712
55	0xbe06c091	-0.13159396
56	0x3e0eaad4	0.13932353
57	0xbcc46c1a	-0.023977328
58	0x3d299d7f	0.041409966
59	0x3de8fa0e	0.11375819
60	0x3e7166fb	0.2357444
61	0x3d805dcd	0.06267891
62	0x3dba455a	0.09095259
63	0x3e8d75d0	0.27628946
64	0x3c968c99	0.018377589
65	0x3e2b8619	0.16750373
66	0xbd1f767d	-0.03893136
67	0x3d1de69a	0.038549997
68	0xbf0251a9	-0.50905854
69	0x3df14694	0.1178104
70	0x3d27af58	0.040938705
71	0x3cfa2bbf	0.030538438
72	0xbe09ef72	-0.13470247
73	0x3d003063	0.031296145
74	0xbf2afeeb	-0.66795224
75	0x3e46f31c	0.19428676
76	0x3e383c25	0.17991693
77	0xbdcae471	-0.09906853
78	0xbdff41fb	-0.12463757
79	0x3e08b422	0.13349965
80	0x3df4284b	0.11921748
81	0xbcb2c55d	-0.021822626
82	0x3f154e51	0.58322626
83	0x3e035e94	0.12829047
84	0x3e200bcc	0.156295
85	0xbdca11d1	-0.098666795
86	0x3e80ddb0	0.25169134
87	0xbc875b5c	-0.016523056
88	0xbe298fab	-0.16558711
89	0x3d951544	0.07279447
90	0xbe43ca5b	-0.19120161
91	0x3cc37f39	0.023864375
92	0x3c65d9f8	0.014029019
93	0x3d3656d7	0.04451641
94	0xbd987056	-0.074433014
95	0x3c8eda86	0.017438184
96	0xbc10195a	-0.008795107
97	0x3e5d3194	0.21600944
98	0x3ca46488	0.020067468
99	0x3e3fa74a	0.1871616
100	0x3dc460ab	0.095887505
101	0xbe70d040	-0.23516941
102	0xbd318efc	-0.04334925
103	0xbe2a1946	-0.16611204
104	0xbd50cb60	-0.050975204
105	0xbdfc87d5	-0.123305954
106	0x3e6cb11a	0.23114434
107	0xbe230bab	-0.1592242
108	0xbedece75	-0.4351689
109	0x3f676919	0.9039474
110	0x3e0720e3	0.13196139
111	0x3e45d0c1	0.19317915
112	0x3c767405	0.01504231
113	0x3ca1fb0b	0.019773027
114	0xbf6897ff	-0.9085693
115	0x3d1770c6	0.036972784
116	0xbc33b966	-0.010969495
117	0xbdb14ff5	-0.08657829
118	0xbc909bdb	-0.017652443
119	0xbd588178	-0.052857846
120	0xbe206f6d	-0.15667506
121	0x3b9f67c0	0.004864663
122	0x3cba0db2	0.022711609
123	0x3d88d4c4	0.06681207
124	0xbe78bc46	-0.2429057
125	0x3c16eda2	0.0092119295
126	0xbdb0095f	-0.085955374
127	0xbe0364ac	-0.12831372

bias f4 [2]
0	0xbc97a7dc	-0.018512659
1	0xbdb54046	-0.0885015

weight f4 [64, 4]
0	0x3d9163ae	0.070990905
1	0x3ddcc16e	0.10779081
2	0x3ed36a07	0.4129183
3	0x3e428ef7	0.1899985
4	0xbe7b6f7a	-0.24554244
5	0x3ef57060	0.47937298
6	0x3e64ccf8	0.22343814
7	0x3e68fa09	0.22751631
8	0xbedcb2ad	-0.4310507
9	0xbd35b2c2	-0.04435993
10	0x3d27c9c9	0.04096392
11	0xbddb7bd9	-0.107169814
12	0x3e060777	0.13088785
13	0xbeaa9b12	-0.33321434
14	0xbbe29e08	-0.0069158114
15	0x3e19ebab	0.15031306
16	0x3e12a8e6	0.14322242
17	0xbea68fc5	-0.32531562
18	0xbee97bc9	-0.45602253
19	0xbde65f4b	-0.112486444
20	0x3e8cd36e	0.27505058
21	0x3e4d756f	0.20064329
22	0x3f08ad05	0.53389007
23	0x3ed4ae3f	0.4153919
24	0x3e93e90d	0.2888874
25	0xbe592d08	-0.21208584
26	0xbf6954e1	-0.9114514
27	0xbc8a4c07	-0.016881956
28	0x3c9c4285	0.019074688
29	0xbcb5e8e6	-0.022205781
30	0xc04c3d2d	-3.1912339
31	0xbe6188c5	-0.2202483
32	0xbec29b74	-0.38009226
33	0x3e87c004	0.26513684
34	0xbe1bf832	-0.15231398
35	0x3ea01cc8	0.31271958
36	0x3ee493ec	0.44644105
37	0xbe403c76	-0.18773064
38	0xbfc255f5	-1.5182482
39	0xbebe708d	-0.37195244
40	0x3d211166	0.039323233
41	0xbd4cbe22	-0.049986012
42	0xc014d4ed	-2.325496
43	0xbe716de3	-0.23577075
44	0x3e99d5a9	0.30045822
45	0xbe826129	-0.25464752
46	0xbeb3be41	-0.3510609
47	0xbe26579e	-0.16244361
48	0x3d8033b5	0.06259862
49	0x3e86955d	0.2628583
50	0xbf0900de	-0.5351695
51	0x3ea66e44	0.32506
52	0x3e10a7fd	0.14126582
53	0x3da7b930	0.081896186
54	0x3ec77a27	0.38960382
55	0xbe3e5207	-0.18585978
56	0x3d42a07a	0.047516324
57	0x3e392200	0.18079376
58	0xbdcefc8d	-0.10106764
59	0x3dc30005	0.09521488
60	0x3ca2a7ef	0.019855468
61	0xbcbdadb8	-0.023154125
62	0xc03dbec3	-2.9647682
63	0xbe4487a8	-0.19192374
64	0xbd28bb03	-0.041193973
65	0x3d33cd66	0.043897055
66	0xc02d8081	-2.7109683
67	0xbdf448fd	-0.11927984
68	0x3ec9d27a	0.39418393
69	0xbd5d15b0	-0.05397576
70	0x3fbbafdc	1.4663043
71	0x3d9c1bc3	0.07622483
72	0x3e922d1b	0.28550038
73	0xbeb092df	-0.34487054
74	0xbf04bed1	-0.5185366
75	0xbe59ca5d	-0.21268602
76	0x3eadf90f	0.3397908
77	0xbe992582	-0.2991143
78	0xbd0ab489	-0.033863578
79	0xbe4a23c1	-0.19740202
80	0x3e551381	0.20808221
81	0x3db8d5eb	0.090251766
82	0xbe45b074	-0.19305593
83	0xbe096090	-0.13415742
84	0xbedaf4fa	-0.42765027
85	0xbdb567d4	-0.08857694
86	0xbfc039f4	-1.5017686
87	0xbdf2280f	-0.11824047
88	0xbe1b1889	-0.15146078
89	0x3dba8ade	0.09108518
90	0xbeb92e60	-0.36168194
91	0x3d60271e	0.054724805
92	0xbd90746a	-0.07053454
93	0x3c83f1e0	0.016106546
94	0xbeb47c2d	-0.3525099
95	0x3db21ad0	0.0869652
96	0xbdb6c0be	-0.089234814
97	0x3e2ef4de	0.17085597
98	0x403a2210	2.908329
99	0x3efb01de	0.49024862
100	0xbe28314f	-0.1642506
101	0xbe6fe4a3	-0.23427062
102	0x3f21c40a	0.63189757
103	0xbec10061	-0.37695602
104	0x3d2b49e8	0.04181853
105	0xbd9648a9	-0.073380776
106	0xbd47f9b5	-0.048822124
107	0xbda9e2a8	-0.082951844
108	0x3dc1990f	0.09453022
109	0xbd82aba8	-0.06380397
110	0xc036fc50	-2.85915
111	0xbea60bc1	-0.32430843
112	0xbed4a8cb	-0.4153503
113	0x3e896094	0.26831496
114	0x400e7ee6	2.2264953
115	0x3f125f6c	0.5717685
116	0xbdd3e197	-0.10345762
117	0xbd299793	-0.041404318
118	0x3e9a1dd0	0.3010087
119	0x3e0aff95	0.1357406
120	0x3ead8907	0.33893606
121	0x3e23a05c	0.15979141
122	0x3f29920c	0.66238475
123	0x3dbcfbed	0.092277385
124	0x3d693c78	0.056942433
125	0x3d892807	0.06697088
126	0xc017ba03	-2.3707283
127	0xbe9914a5	-0.29898563
128	0xbde98d84	-0.11403945
129	0x3e83de13	0.25755367
130	0x3ea98eef	0.33116862
131	0xbe270ea8	-0.16314185
132	0x3b28b231	0.0025740976
133	0xbd29280b	-0.041297954
134	0xc034ae2f	-2.8231313
135	0xbe3235d0	-0.1740334
136	0xbc38c21e	-0.01127675
137	0x3dce4ea9	0.10073597
138	0x40817b4d	4.0463014
139	0x3ed9a195	0.4250609
140	0x3c5f4958	0.013628326
141	0xbe1ea1a5	-0.1549135
142	0xbf31c063	-0.69434184
143	0x3e815629	0.25261047
144	0x3e0b7087	0.13617145
145	0x3e20f092	0.1571677
146	0xbf0a1f90	-0.5395441
147	0x3ec5d2b9	0.3863733
148	0x3f08c2bd	0.5342215
149	0x3e17a62c	0.14809483
150	0xbfe8a1b7	-1.8174351
151	0xbe666439	-0.2249917
152	0xbed563fa	-0.4167784
153	0x3e96708a	0.29382735
154	0x3d33b6a7	0.043875363
155	0xbba9f60d	-0.0051868022
156	0x3e8cbe4f	0.27488944
157	0xbe70f44c	-0.23530692
158	0xbeb9697b	-0.36213288
159	0xbddcee23	-0.107876085
160	0x3cf846bf	0.030307172
161	0xbe8aab22	-0.2708369
162	0x3ed29589	0.4112971
163	0xbeab56f9	-0.33464792
164	0xbe00b42c	-0.1256873
165	0x3e065b17	0.13120686
166	0x3d09ce46	0.033643983
167	0x3e0e1a9a	0.13877335
168	0x3db4bff6	0.08825676
169	0xbc050099	-0.008117818
170	0xbece00d9	-0.40235022
171	0x3e8e6ef9	0.2781904
172	0xbc5e761c	-0.013577964
173	0xbee6bdbb	-0.45066628
174	0xbffe8a1c	-1.9885898
175	0xbeab98b3	-0.33514938
176	0x3cbb13f0	0.022836655
177	0xbd11dc1c	-0.035610303
178	0xc02cd120	-2.700264
179	0xbe8e38d7	-0.2777774
180	0x3e33fd4c	0.17577094
181	0x3b256550	0.002523739
182	0x3e1cfa5a	0.15329877
183	0x3cfc2c45	0.030782828
184	0x3db319d7	0.08745163
185	0xbe932a85	-0.28743377
186	0xbdf5d983	-0.12004378
187	0xbea4fa2e	-0.32222122
188	0xbea6c368	-0.32570958
189	0x3e55ad01	0.20866777
190	0xbeca6adc	-0.39534652
191	0x3ced5e27	0.02897556
192	0x3d825bcd	0.06365166
193	0x3d627456	0.055286728
194	0xbeeb3f3e	-0.45946687
195	0x3e9fb96e	0.3119616
196	0xbeae13bd	-0.33999434
197	0x3e90723e	0.2821216
198	0xbe04556f	-0.12923215
199	0x3d8c9c02	0.06865694
200	0x3e34a818	0.17642248
201	0xbe5068d9	-0.20352496
202	0x3f2e38c3	0.6805536
203	0xbe90f69b	-0.28313145
204	0xbe62d82d	-0.22152777
205	0x3acb724e	0.0015521736
206	0xbc0854c8	-0.008320995
207	0x3e72ef8c	0.23724192
208	0xbe80df0d	-0.25170174
209	0x3e95f5a1	0.29288962
210	0x3edcb209	0.4310458
211	0x3c5f7168	0.013637878
212	0x3db8ec33	0.090294264
213	0xbd0a20d5	-0.033722717
214	0x406b3970	3.6753807
215	0x3e871d2a	0.26389438
216	0xbe0d2478	-0.13783443
217	0x3ea54d40	0.322855
218	0xbe548d28	-0.20756972
219	0x3eb1fde1	0.34764007
220	0xbea72d9b	-0.32651982
221	0x3d9fb35b	0.07797881
222	0xbd2a659c	-0.04160081
223	0x3e0570fa	0.13031378
224	0x3e8a9876	0.27069443
225	0x3e4bfb31	0.1992004
226	0xbf8cec88	-1.1009684
227	0xbdfae718	-0.12251109
228	0x3e89cf07	0.26915762
229	0xbe43e671	-0.19130875
230	0x3ef14104	0.47119915
231	0xbea66923	-0.32502088
232	0xbd76d6f2	-0.06026358
233	0xbb02fbf7	-0.0019986609
234	0x3df93c12	0.12169661
235	0x3e87aaa0	0.26497364
236	0xbe30f8d9	-0.17282428
237	0xbea5661a	-0.3230446
238	0x4008e0b9	2.138716
239	0x3d11f046	0.035629533
240	0x3dd745dd	0.10511372
241	0xbdc36475	-0.09540645
242	0xbe159de6	-0.14611015
243	0x3cc0ade6	0.023520421
244	0x3da09ea6	0.0784276
245	0xbed6a715	-0.41924348
246	0x3e88371d	0.26604548
247	0xbee1bb6f	-0.44088313
248	0x3d960dc8	0.07326847
249	0x3cfdea10	0.030995399
250	0xbe8d0feb	-0.27551207
251	0x3e186bf5	0.14884932
252	0xbeea619d	-0.45777598
253	0x3e78d3a0	0.24299479
254	0xc003f3c0	-2.0617523
255	0x3ad3be40	0.0016154721

bias f4 [64]
0	0x3f378653	0.7168934
1	0x3f13f22a	0.5779139
2	0x3e53224d	0.20618553
3	0x3f66de7d	0.9018324
4	0x3f0da0ef	0.5532369
5	0xbf71b0a2	-0.94410145
6	0xbf0458ae	-0.51697814
7	0xbf1fd19b	-0.6242921
8	0x3f837d95	1.02727
9	0xbedbca6e	-0.4292788
10	0xbefc68b7	-0.4929864
11	0x3f3fb11b	0.74879616
12	0x3f6ebdc5	0.93258315
13	0x3f87941c	1.0592074
14	0x3f4cf600	0.80062866
15	0xbf12f603	-0.57406634
16	0xbef5e0bc	-0.4802302
17	0xbf399c91	-0.72504526
18	0xbe67b93b	-0.22629254
19	0x3f41ed39	0.757526
20	0x3f937d19	1.1522552
21	0xbf4fb557	-0.8113608
22	0x3f57c29c	0.84281325
23	0xbe881ef5	-0.26586118
24	0xbf31ca96	-0.69449747
25	0x3f5d9763	0.8655912
26	0xbe76ed48	-0.24113953
27	0xbf1b7e24	-0.6073935
28	0xbf40ba66	-0.7528442
29	0x3f7137a8	0.9422555
30	0x3dfbe5a0	0.12299657
31	0xbf07580a	-0.5286871
32	0x3f3d398e	0.73915946
33	0xbf06e2b9	-0.526897
34	0xbf4eb284	-0.80741143
35	0x3efc1402	0.49234015
36	0x3f738354	0.95122266
37	0x3d2de071	0.042450372
38	0x3f6bbf64	0.92088914
39	0x3f813158	1.0093184
40	0x3f3dfeb9	0.742168
41	0xbf0b4dd6	-0.54415643
42	0x3efcb3fd	0.4935607
43	0xbe07d387	-0.13264285
44	0xbf08eb7f	-0.5348434
45	0x3f2be7e7	0.6715073
46	0x3f57d492	0.8430873
47	0x3f793f6a	0.9736239
48	0x3f162b87	0.5866017
49	0x3f4860af	0.7827253
50	0x3ec88b76	0.391689
51	0x3f5f5d88	0.8725209
52	0x3e7be7be	0.24600121
53	0xbf2e6077	-0.68115944
54	0x3f241049	0.6408735
55	0x3f519da2	0.81881154
56	0xbf60333a	-0.87578166
57	0x3f704305	0.93852264
58	0x3f45b5e6	0.7723068
59	0xbf167538	-0.5877261
60	0xbd90f724	-0.07078388
61	0x3f746a41	0.9547463
62	0xbed99e78	-0.42503715
63	0xbe5a30b7	-0.21307646

weight f4 [1, 64]
0	0x3ecf937b	0.40542206
1	0x3e25165c	0.1612181
2	0x3d94cd9e	0.07265781
3	0x3ec9bdc9	0.39402607
4	0x3eb1e242	0.34742934
5	0xbed59933	-0.41718444
6	0x3c50b822	0.012739213
7	0xc034f1a8	-2.8272495
8	0x3f01b8ba	0.50672495
9	0xbeb033ef	-0.34414622
10	0xbff0269c	-1.8761783
11	0x3ee3f5c3	0.4452344
12	0x3ea72ebc	0.32652843
13	0x3ee1753f	0.44034764
14	0x3e900901	0.2813187
15	0xc02a5a69	-2.6617682
16	0xc026d0d5	-2.606496
17	0xbf25049e	-0.6446017
18	0xbd0e4115	-0.034730036
19	0x3edcec52	0.43149048
20	0x3ecafd36	0.3964631
21	0xbf686d14	-0.9079144
22	0x3ef5d817	0.48016426
23	0x3b5c99f9	0.003366111
24	0xbffc7437	-1.9722966
25	0x3e8c2f83	0.2738
26	0xbc75ebdf	-0.015009849
27	0xc019ff7c	-2.4062185
28	0xbf552be1	-0.8327008
29	0x3ebb3da1	0.36570457
30	0x3d876f9b	0.06613084
31	0xbf201a91	-0.6254054
32	0x3e890af2	0.26766163
33	0xc01444dd	-2.316703
34	0xc04b3514	-3.1751146
35	0x3e0bf3f5	0.13667281
36	0x3efaa6d9	0.4895542
37	0xbe67a3b0	-0.22621036
38	0x3ec1ef3a	0.37877828
39	0x3ed2086f	0.4102206
40	0x3e98eb4b	0.29867014
41	0xbc07f754	-0.008298714
42	0x3e02f643	0.12789254
43	0xbe84c383	-0.25930414
44	0xc01478e2	-2.319878
45	0x3efbe21e	0.4919595
46	0x3ea680e1	0.32520202
47	0x3ef7a4d9	0.48367956
48	0x3e3b20b6	0.18274197
49	0x3ec10116	0.3769614
50	0x3e2c33e7	0.16816674
51	0x3e8bf042	0.2733174
52	0x3d9de109	0.07708938
53	0xbfed117c	-1.8520961
54	0x3ea367f1	0.31915238
55	0x3e96058e	0.29301113
56	0xbe9d5a4b	-0.3073295
57	0x3eba66b9	0.36406496
58	0x3eb02e98	0.34410548
59	0xbf01c0b7	-0.50684685
60	0xbb91768d	-0.004439181
61	0x3ebfa931	0.3743377
62	0xbcfaae2f	-0.030600635
63	0xbf222d3f	-0.6335029
