src/cartpole/results/CartPole-v0/train-a2c/20210407-003658/num_env24-num_episodes50000-learning_rate0.003-hidden_layers128-128.pt (torch, 11135 bytes, 7 tensors)

weight f4 [128, 4]
0	0x3a4e7980	0.0007876381
1	0x3d3d0333	0.04614563
2	0xc00d321c	-2.2061834
3	0xbece8a8c	-0.40340078
4	0xbdc7156b	-0.09720882
5	0x3e619155	0.22028096
6	0x3e43b4a7	0.19111882
7	0x3ec84873	0.39117774
8	0x3e1afa3c	0.1513452
9	0x3d4601a4	0.04834141
10	0xbfb0e8de	-1.3821065
11	0x3debfe52	0.11523117
12	0x3db3187f	0.08744907
13	0xbcd15ded	-0.025557483
14	0xbfc6ab14	-1.5520959
15	0xbe466d0a	-0.19377533
16	0x3c631caa	0.0138618145
17	0x3dd4ffbe	0.104003415
18	0xbedbfb6c	-0.42965257
19	0xbc88a631	-0.016680809
20	0xbdfa703b	-0.122284375
21	0x3e568632	0.20949629
22	0x3fc718fe	1.5554502
23	0x3f031f08	0.51219225
24	0x3d8d9492	0.06913103
25	0x3caf7e6b	0.021422585
26	0x3f8e78c6	1.1130607
27	0xbe6b00a5	-0.22949465
28	0xbd0405ce	-0.0322321
29	0x3e01678d	0.12637158
30	0xbea293fe	-0.31753534
31	0x3e48caf3	0.19608669
32	0x3a209afe	0.0006126611
33	0xbd9f58f2	-0.07780637
34	0xbf26c1be	-0.6513938
35	0xbe63eae8	-0.22257578
36	0xbe84d6fb	-0.25945267
37	0x3eccb323	0.3998042
38	0x3f9b6a16	1.214175
39	0x3ef9ca84	0.4878732
40	0x3e668ba6	0.22514209
41	0xbe463136	-0.1935471
42	0xbf05f8e6	-0.52332914
43	0xbec42be0	-0.38314724
44	0x3befed0b	0.007321959
45	0xbcd68485	-0.026186237
46	0x3f14af43	0.5807993
47	0x3e749e2c	0.23888463
48	0xbd9d5661	-0.07682491
49	0x3e37f648	0.17965043
50	0x3e56a828	0.20962584
51	0x3e9e4557	0.30912277
52	0x3d4ae400	0.049533844
53	0xbdeb38fd	-0.11485479
54	0x3e656147	0.2240039
55	0xbe52fec4	-0.20604998
56	0x3db58f65	0.08865241
57	0xbe229ceb	-0.15880172
58	0x3e8c4996	0.27399892
59	0xbe3a6086	-0.18200883
60	0x3d15f8f5	0.036614377
61	0x3d6e8732	0.0582344
62	0xbf1af931	-0.60536486
63	0x3d525d4e	0.051358514
64	0xbeb658f1	-0.35614732
65	0xbd59d9a8	-0.05318609
66	0xbe9ad609	-0.3024142
67	0xbdba5da3	-0.09099891
68	0xbcbf6f31	-0.02336845
69	0x3e01357d	0.1261806
70	0xbf88b5d3	-1.0680488
71	0xbdc1e512	-0.0946752
72	0xbda60431	-0.08106268
73	0x3e8b1c90	0.2717023
74	0x3fdb6676	1.7140644
75	0x3ebfb330	0.37441397
76	0x3e2fc02d	0.17163153
77	0xbeb3d5f1	-0.35124162
78	0xbf50a849	-0.8150678
79	0xbece839d	-0.40334788
80	0xbec63a02	-0.3871613
81	0x3eb14ea1	0.34630302
82	0x3eb3148c	0.34976614
83	0xbe951617	-0.29118416
84	0x3daeb02f	0.08529698
85	0xbdcf2a62	-0.10115506
86	0xbd777530	-0.060414493
87	0xbe55438e	-0.20826551
88	0x3e1465c6	0.14491948
89	0xbe39ed57	-0.18156944
90	0x3e772569	0.24135365
91	0x3db11439	0.08646435
92	0xbd381d31	-0.044949714
93	0xbd8f6914	-0.07002464
94	0xc0029ad8	-2.040701
95	0xbef94965	-0.48688808
96	0x3e571c5b	0.2100691
97	0xbd8c0826	-0.06837492
98	0xc009cede	-2.1532512
99	0xbeabcf17	-0.33556435
100	0x3e329813	0.17440824
101	0xbc2a753b	-0.0104039265
102	0xbf2308d5	-0.6368535
103	0xbe186e2c	-0.14885777
104	0xbe943a87	-0.28950903
105	0x3d0e6757	0.03476652
106	0xbff4d5d2	-1.9127753
107	0xbeefb5c2	-0.46818358
108	0xbd497684	-0.04918529
109	0x3e162328	0.14661849
110	0xbda70e2c	-0.08157
111	0x3d0cfc37	0.03442022
112	0xbec9eab2	-0.3943687
113	0x3ec1ad5a	0.3782757
114	0x3eda7735	0.42669073
115	0xbecd9bab	-0.40157828
116	0xbd2962b1	-0.041353885
117	0x3d7ef07e	0.06224107
118	0xbe861034	-0.26184237
119	0x3d81b4a7	0.06333285
120	0x3e2d923f	0.1695032
121	0xbe7165b9	-0.2357396
122	0xbb8c52cd	-0.0042823316
123	0x3ee8cb87	0.4546778
124	0xbe2603ea	-0.1621243
125	0xbd379e19	-0.044828508
126	0xbff39a56	-1.9031475
127	0xbf0ff7fe	-0.5623778
128	0x3c16a8ae	0.00919549
129	0xbdd8ca17	-0.105854206
130	0x4001ffcc	2.0312376
131	0x3e6b23cc	0.22962874
132	0xbd3c544a	-0.04597882
133	0x3e04a3b2	0.1295307
134	0x3e622802	0.22085574
135	0xbd80b48c	-0.062844366
136	0xbcf30ccb	-0.029669186
137	0x3da31e1b	0.079647265
138	0x3e710456	0.2353681
139	0x3e525fbc	0.20544332
140	0x3e8d6775	0.27617994
141	0xbd9ef3d2	-0.07761349
142	0x3e37a410	0.17933679
143	0xbde752f5	-0.1129512
144	0xbdc40c39	-0.09572644
145	0xbc8aff1b	-0.016967347
146	0x3eceb1af	0.40369937
147	0xbd8d5e97	-0.06902807
148	0x3d9b16f3	0.075727366
149	0xbdc54dc1	-0.09633971
150	0xbe588180	-0.2114315
151	0xbe4e76d3	-0.20162515
152	0xbce79981	-0.028271439
153	0xbcc94d32	-0.024572942
154	0x3ea45718	0.32097697
155	0xbe40a8ea	-0.18814436
156	0x3e05a2c8	0.13050377
157	0xbe7f2a34	-0.24918443
158	0xbc50707b	-0.01272213
159	0xbe6b6310	-0.22987008
160	0x3d3f1edc	0.04666029
161	0xbdc21234	-0.09476128
162	0xbfe39fe0	-1.7783165
163	0xbe9acffa	-0.302368
164	0xbe6072ee	-0.21918842
165	0x3d90bdee	0.07067476
166	0xbdf36b92	-0.11885752
167	0x3ce98c3c	0.028509252
168	0xbb1e965d	-0.002419851
169	0xba517da9	-0.0007991442
170	0x3c96ef61	0.018424692
171	0xbdece327	-0.11566763
172	0x3d2eb8b6	0.042656623
173	0xbd736580	-0.05942297
174	0xbfc57ba3	-1.5428356
175	0xbddf7a37	-0.109119825
176	0x3e4b603a	0.19860926
177	0xbe340607	-0.17580424
178	0xbfcd0932	-1.6018431
179	0xbf1b8921	-0.6075612
180	0x3c9016f5	0.017589072
181	0xbceebcf3	-0.029142832
182	0x3e99b1a1	0.30018333
183	0x3d79647a	0.060886838
184	0x3c38f467	0.011288739
185	0x3b10b094	0.0022077905
186	0xbd0c67cd	-0.03427868
187	0x3b83694f	0.0040103565
188	0xbe2a2efe	-0.16619489
189	0x3ea79639	0.32731798
190	0x3fa5701d	1.2924839
191	0x3e85f051	0.2615991
192	0xbeb573ba	-0.35439855
193	0x3d84840b	0.06470498
194	0xbf9551b1	-1.1665555
195	0xbec1fdbd	-0.378889
196	0xbe1d2b86	-0.15348634
197	0x3e46f31a	0.19428673
198	0xbeadd490	-0.33951235
199	0x3c7fd46d	0.015614611
200	0x3c92d878	0.017925486
201	0x3d8e3413	0.06943526
202	0xc003e8e6	-2.06109
203	0xbe95721f	-0.2918863
204	0xbe549d1b	-0.20763056
205	0x3ed29754	0.4113108
206	0x3f047e9b	0.51755685
207	0x3eb3ef27	0.35143396
208	0x3d9fc3a4	0.07800987
209	0x3c6fb0f9	0.014629596
210	0xbc6db2b3	-0.014507937
211	0xbda7504b	-0.081696115
212	0xbdae126d	-0.08499608
213	0x3d74a0b2	0.059723563
214	0xbf67d1a7	-0.9055428
215	0xbe37a8aa	-0.17935434
216	0xbd961d7a	-0.07329841
217	0x3ce81e2f	0.028334705
218	0x3e861ac0	0.26192284
219	0xbec537f6	-0.38519257
220	0xbeafad86	-0.34312075
221	0x3ec9374c	0.393
222	0x3f219acc	0.63126826
223	0xbc4914f4	-0.012273062
224	0xbe7e13ee	-0.2481229
225	0x3e4b25cd	0.19838639
226	0xbfc3d33c	-1.5298839
227	0x3cad0e87	0.021125091
228	0xbc9fa7ef	-0.019489257
229	0x3e431ce0	0.19053984
230	0x3f4a8453	0.7910816
231	0x3e273fa4	0.1633287
232	0x3c19d4f2	0.009389149
233	0xbcdd3094	-0.027000703
234	0xbdd431c0	-0.103610516
235	0xbc075b7b	-0.008261557
236	0x3e081b79	0.1329173
237	0xbdc9a94d	-0.09846745
238	0xbf8978fd	-1.0740048
239	0xbe4c47e5	-0.199493
240	0xbdcc0c21	-0.09963251
241	0x3e29639f	0.16541909
242	0xbe820e3e	-0.2540149
243	0x3de92bc6	0.11385302
244	0x3ec5a0dd	0.3859929
245	0xbedb83aa	-0.4287389
246	0xbfa0e006	-1.2568367
247	0xbf368dc9	-0.71310097
248	0x3c408f3e	0.011752902
249	0xb90adedf	-0.00013243732
250	0xbdc30c84	-0.095238715
251	0x3d0de92b	0.034646194
252	0x3e43b063	0.19110255
253	0xbea2fc75	-0.31833234
254	0xbf9cb893	-1.2243828
255	0xbe9e75ec	-0.30949342

bias f4 [128]
0	0xbe8bbc53	-0.27292117
1	0xbeeb3504	-0.45938885
2	0xbd57d752	-0.05269558
3	0xbe5541dd	-0.20825906
4	0xbec3d909	-0.38251522
5	0xbeb612ba	-0.35561162
6	0xbde15317	-0.11002176
7	0xbeaff80e	-0.34368938
8	0xbe8ffbc1	-0.2812176
9	0xbe922a40	-0.2854786
10	0xbe81801c	-0.25293052
11	0xbf0a6ba4	-0.54070497
12	0xbef9ea2a	-0.48811466
13	0xbec4c546	-0.38431758
14	0xbe3e3280	-0.18573952
15	0xbea04a9d	-0.31306925
16	0xbe382a81	-0.17984964
17	0xbf0463f9	-0.51715046
18	0x3eced12a	0.40393955
19	0x3df83f42	0.121214405
20	0xbf392d4a	-0.7233473
21	0xbeda9a2c	-0.4269575
22	0xbf1bdd33	-0.608844
23	0xbe7923c6	-0.24330053
24	0xbe9e3a1e	-0.30903715
25	0xbf2c5401	-0.6731568
26	0xbe424b66	-0.18974075
27	0xbe85a715	-0.26104036
28	0xbed00279	-0.40626886
29	0xbe1e53f9	-0.1546172
30	0x3e146e0c	0.14495105
31	0xbec29051	-0.3800073
32	0xbe689e96	-0.22716746
33	0xbdd9ddc6	-0.10638003
34	0xbecc61e5	-0.39918438
35	0xbec20979	-0.37897852
36	0xbed20e70	-0.4102664
37	0xbe3abaef	-0.18235372
38	0xbf3a1a1d	-0.72696096
39	0xbf3aeb2e	-0.73015106
40	0x3ee29444	0.44253743
41	0xbe6b2c5d	-0.22966142
42	0xbe8d969a	-0.27653962
43	0xbe39f9f0	-0.1816175
44	0xbe85952f	-0.2609038
45	0xbe576d22	-0.21037725
46	0xbd453bf2	-0.04815287
47	0x3e9269b6	0.28596276
48	0xbf04f754	-0.5193989
49	0xbf0c1090	-0.5471277
50	0xbe80a600	-0.25126648
51	0x3dfcaae5	0.12337283
52	0xbebdbb60	-0.37057018
53	0xbe40955f	-0.1880698
54	0xbefce2a6	-0.4939167
55	0xbe8894f6	-0.26676148
56	0x3e77375d	0.24142213
57	0x3ded09d7	0.115741424
58	0xbda0f589	-0.07859332
59	0xbe5da9f7	-0.21646868
60	0xbecfaee2	-0.40563112
61	0xbedbc2fe	-0.42922205
62	0xbddf0331	-0.108892806
63	0x3df0966b	0.1174744
64	0xbf12021e	-0.5703448
65	0xbf22baa4	-0.6356604
66	0xbdab8616	-0.08375184
67	0x3e4c0f45	0.199277
68	0xbeb61506	-0.35562915
69	0xbf38a9d0	-0.72134113
70	0xbf221811	-0.6331797
71	0xbeabbfe6	-0.33544844
72	0xbe48d16b	-0.19611137
73	0xbeae4241	-0.34034923
74	0xbe2208e4	-0.15823704
75	0xbe7b5661	-0.2454467
76	0x3dfc1df5	0.12310401
77	0x3d3004ff	0.042973515
78	0xbe8dcbab	-0.2769445
79	0xbf1070d0	-0.5642214
80	0xbee753d8	-0.45181155
81	0x3e369f81	0.17834283
82	0x3ea1b3f0	0.31582594
83	0xbe3ae116	-0.18249926
84	0xbf130bf5	-0.5744012
85	0xbe1479ba	-0.1449956
86	0xbe5c0f63	-0.21490245
87	0xbe22525a	-0.15851727
88	0xbee47381	-0.44619372
89	0xbeb544d1	-0.35404065
90	0xbf2b7727	-0.6697869
91	0x3d4c91ea	0.049943842
92	0xbec2d3da	-0.38052255
93	0xbebe6c85	-0.3719217
94	0x3e1e5a7f	0.15464209
95	0xbf10ea05	-0.56607085
96	0xbeca7bfb	-0.39547715
97	0xbe64b9c1	-0.22336484
98	0xbe806e84	-0.25084317
99	0xbf2ee47d	-0.68317395
100	0x3df22e5a	0.11825247
101	0xbebce123	-0.36890516
102	0xbe0c0934	-0.13675386
103	0xbab48d0d	-0.0013774947
104	0xbe2f33bf	-0.17109583
105	0xbe5c1533	-0.21492462
106	0x3e2181cb	0.15772168
107	0xbe8a0b76	-0.2696187
108	0xbea8eb9f	-0.32992265
109	0xbc9e4eb3	-0.019324636
110	0xbe700e87	-0.23443042
111	0xbf38056e	-0.71883285
112	0xbee65c37	-0.4499223
113	0xbf37d44f	-0.7180833
114	0x3e9be4a1	0.30447868
115	0xbefae444	-0.49002278
116	0xbf20c096	-0.6279386
117	0xbeafc74e	-0.34331745
118	0xbe6209f9	-0.22074117
119	0xbea34bf6	-0.3189389
120	0xbe70e88e	-0.23526213
121	0xbea2916d	-0.31751576
122	0xbe2cc4c7	-0.1687194
123	0xbeb5e8e8	-0.35529256
124	0xbede4a31	-0.4341598
125	0xbf50e259	-0.8159538
126	0xbf2bedec	-0.67159915
127	0xbe9ddea6	-0.3083393

weight f4 [2, 128]
0	0x3ec69820	0.38787937
1	0xbcce8478	-0.02520965
2	0x3e028e01	0.12749483
3	0x3d66327e	0.056200497
4	0xbb08f2f3	-0.0020896762
5	0xbe549b71	-0.20762421
6	0xbd4750ee	-0.048661165
7	0x3d1b9c9e	0.03799116
8	0x3cf1c705	0.029513845
9	0xbd9a5a53	-0.07536759
10	0x3d924e00	0.071437836
11	0xbd9f4f77	-0.077788286
12	0x3d4c90d6	0.049942814
13	0xbddc4a7e	-0.10756396
14	0xbce29a93	-0.027661597
15	0xbc9ebe36	-0.019377809
16	0x3dcbcf20	0.09951615
17	0xba6a27af	-0.0008932305
18	0xbdc7fac6	-0.09764628
19	0xbd8e48ba	-0.06947465
20	0x3d55c575	0.052190263
21	0xbc066738	-0.00820332
22	0x3ce92081	0.028457882
23	0x3f0e3631	0.5555144
24	0x3f542054	0.8286183
25	0xbbda8bbe	-0.0066694906
26	0x3de20d09	0.110376425
27	0x3a9f0a95	0.0012133891
28	0xbe10d423	-0.14143424
29	0x3c80fcec	0.015745603
30	0xbe8a6478	-0.27029777
31	0x3e0db6ea	0.13839307
32	0xbeeb51bf	-0.45960805
33	0xbc2f9fe6	-0.010719275
34	0x3d913c7d	0.07091615
35	0x3c9dd002	0.019264225
36	0xbc70847f	-0.014680027
37	0x3d4b169d	0.049582113
38	0x3da3a851	0.07991088
39	0xbe05557d	-0.13020892
40	0x3e2254e7	0.158527
41	0x3c15f14c	0.009151768
42	0xbd03a2d3	-0.032137703
43	0x3db2dbdd	0.08733342
44	0x3eaacca9	0.33359268
45	0x3c54715e	0.012966482
46	0x3b2f5c65	0.0026757952
47	0xbd90d822	-0.07072474
48	0x3d8a8a93	0.06764712
49	0x3e1b8bfd	0.1519012
50	0x3ea187fe	0.31549066
51	0x3d456737	0.048194136
52	0x3d9f3042	0.07772876
53	0x3d56c3bd	0.052432764
54	0xbca7a2b5	-0.020463327
55	0xbd37ad92	-0.044843264
56	0x3dea0f97	0.11428755
57	0xbc83605a	-0.016037155
58	0x3c214b50	0.009844616
59	0x3d68c1d8	0.05682549
60	0xbca2b879	-0.019863354
61	0x3eed4989	0.46345165
62	0xbc766fed	-0.015041334
63	0xbc91d0be	-0.017799731
64	0xbd10fce4	-0.035397425
65	0x3c799f51	0.015235738
66	0xbc4dc267	-0.012558556
67	0x3d695cc2	0.056973226
68	0x3c89b5f1	0.01681039
69	0xb820c74a	-3.8332575e-05
70	0xbb54c277	-0.0032464543
71	0xbda898dd	-0.08232281
72	0xbdafbe24	-0.08581188
73	0x3c75c6e4	0.0150010325
74	0x3dc2029b	0.09473153
75	0x3cb8e5a1	0.022570433
76	0xbc7bb265	-0.015362357
77	0x3b7c7c78	0.0038526338
78	0x3d301f68	0.0429987
79	0x3d3422e6	0.043978594
80	0x3d92cf4f	0.07168447
81	0xbcda84be	-0.026674625
82	0x3d2e7e76	0.04260107
83	0xbba3b0f3	-0.004995459
84	0xbc895c1c	-0.016767554
85	0xbd8ae7a0	-0.0678246
86	0x3d6c8911	0.057747904
87	0xbd985ecf	-0.07439958
88	0x3d50238b	0.050815146
89	0xbd1e5b4d	-0.03866129
90	0xbc8d973b	-0.017284026
91	0x3d03b9f2	0.032159753
92	0x3c8c6c60	0.017141521
93	0x3ed4e8bf	0.4158382
94	0xbd8ce917	-0.06880396
95	0x3d160cc1	0.036633257
96	0xbec18351	-0.377955
97	0xbd4e36a4	-0.050345078
98	0x3b694555	0.0035594304
99	0xbcfd6d79	-0.03093599
100	0xbc92fc44	-0.017942555
101	0xbede020b	-0.43360934
102	0x3e89948d	0.26871148
103	0xbd05e2e1	-0.03268707
104	0xbcb0d0ad	-0.02158388
105	0x3cf0abf8	0.029378876
106	0x3c414cef	0.011798128
107	0xbdd69b28	-0.104788125
108	0x3f59b7c2	0.8504602
109	0xbd4db8b3	-0.05022497
110	0xbdf9c71f	-0.121961825
111	0x3c56d268	0.013111688
112	0x3c90a807	0.017658247
113	0xbda3a1e2	-0.07989861
114	0x3d73bff9	0.05950925
115	0x3d952a41	0.0728345
116	0xbbfd2638	-0.0077255033
117	0xbe6dca04	-0.23221594
118	0x3c36183f	0.011114179
119	0xbdc0e022	-0.0941775
120	0x3c5f192f	0.013616844
121	0xbe583550	-0.21114087
122	0xbe80e611	-0.25175527
123	0x3db317b1	0.08744753
124	0xbf489248	-0.7834821
125	0xbcba6d28	-0.022757128
126	0xbd149244	-0.036272302
127	0x3c62ceca	0.013843248
128	0xbf020e49	-0.5080305
129	0x3c45889e	0.012056498
130	0xbd8ff571	-0.07029236
131	0xbe026f4c	-0.12737769
132	0xbbdd980d	-0.0067625106
133	0x3ead23a5	0.33816257
134	0x3d55542d	0.05208223
135	0xbcb14d95	-0.02164344
136	0xbc413571	-0.011792527
137	0x3ae07711	0.0017125328
138	0x3d84e1e7	0.064884
139	0xbd30bf26	-0.043151043
140	0xbd5f00d7	-0.05444416
141	0x3dcee71a	0.10102673
142	0xbd18e3d6	-0.037326656
143	0xbc7bf919	-0.015379214
144	0xbe0964d4	-0.13417369
145	0x3d3924ba	0.04520104
146	0x3cf28874	0.029606082
147	0x3c7571d4	0.014980752
148	0xbd8edc69	-0.06975634
149	0x3b98f1d0	0.004667498
150	0x3d1556bf	0.03645968
151	0xbf1870c3	-0.5954706
152	0xbf3c40c0	-0.735363
153	0x3de8058a	0.113291815
154	0xbe1e9885	-0.15487869
155	0x3cfe44f5	0.03103874
156	0x3d6c3048	0.057663232
157	0xbbc04e78	-0.005868729
158	0x3e2ea7dd	0.17056222
159	0xbe2ac451	-0.16676451
160	0x3ef780b3	0.48340377
161	0x3acfa31a	0.0015841455
162	0x3d0c2eee	0.034224443
163	0xbc5bd970	-0.01341854
164	0x3ae7055c	0.0017625499
165	0x3cd7ffca	0.026367087
166	0x3d8c4f41	0.06851054
167	0x3d61a9a8	0.055093437
168	0xbd85bb53	-0.0652987
169	0xbd6bc50f	-0.057560977
170	0xbc9a90aa	-0.01886781
171	0xbdfb1f57	-0.12261837
172	0xbe8a593e	-0.2702121
173	0xbc655eee	-0.013999684
174	0xbb09c12c	-0.002101968
175	0x3d126858	0.03574404
176	0xbd705cee	-0.058682375
177	0xbd552a4e	-0.052042298
178	0xbe9254aa	-0.2858022
179	0xbd803c61	-0.06261516
180	0x3d88945e	0.06668924
181	0x3b8bd6a1	0.004267529
182	0x3d9bfbc3	0.07616379
183	0xbd8104dd	-0.06299756
184	0xbd856e29	-0.06515152
185	0xbd840cdc	-0.06447765
186	0x3c229920	0.009924203
187	0xbd9e74ca	-0.077371195
188	0xba4eb80e	-0.00078857027
189	0xbedbd31a	-0.42934495
190	0xbc02de1b	-0.007987524
191	0x3ca42c3e	0.020040628
192	0xbc40e3b0	-0.011773035
193	0xbd6c3a86	-0.057673
194	0xbd4d2e53	-0.050093006
195	0x3d5d94dd	0.054097045
196	0xbd4343d6	-0.047672115
197	0x3cae33bd	0.021264905
198	0xbd1b19d3	-0.037866425
199	0x3d81f778	0.06346029
200	0xbbe9eb40	-0.0071386397
201	0xbd1d09bd	-0.038339365
202	0xbb5f1418	-0.0034039076
203	0xbc37f0dd	-0.01122686
204	0x3d6ebf79	0.05828807
205	0xbaceb8f0	-0.0015771668
206	0x3d629b98	0.055324167
207	0x3dc601dd	0.09668324
208	0x3b854890	0.004067488
209	0xbcb03e55	-0.021514097
210	0xbd5b57ce	-0.053550534
211	0x3c639321	0.013890059
212	0xbd9182bd	-0.071050145
213	0x3d2b3d1c	0.041806325
214	0x3d828691	0.06373323
215	0xbd962fcb	-0.073333345
216	0x3b862eee	0.00409495
217	0xbd43d8b0	-0.04781407
218	0x3d6f3c7e	0.0584073
219	0xbd356c02	-0.044292457
220	0x3c86d800	0.016460419
221	0xbea403fb	-0.32034287
222	0x3ccbffb8	0.02490221
223	0x3d0602b5	0.032717425
224	0x3ee835b7	0.4535348
225	0xbd554bd4	-0.05207427
226	0x3c79abd3	0.01523872
227	0xbd909ec2	-0.07061531
228	0xbd83e1cb	-0.06439551
229	0x3eea99b1	0.45820382
230	0xbe3f4feb	-0.1868283
231	0xbc13c61b	-0.0090194
232	0xbcce5907	-0.025188936
233	0x3d514f28	0.05110088
234	0x3d35144c	0.04420881
235	0x3d92e1c3	0.07171967
236	0xbf4adc25	-0.79242164
237	0x3dddd972	0.1083249
238	0xbacb7cac	-0.0015524826
239	0xbc9842ab	-0.018586477
240	0x3c5c177e	0.013433335
241	0x3d954ee9	0.072904415
242	0xbdecb47d	-0.11557863
243	0x3cf76314	0.030198611
244	0x3cabfffd	0.020996088
245	0x3eb15cfc	0.34641254
246	0x3aa0f2d5	0.0012279401
247	0xbd195f40	-0.037444353
248	0x3c17fdcc	0.0092768185
249	0x3eb1593a	0.34638387
250	0x3dfb5d62	0.12273671
251	0x3d919398	0.071082294
252	0x3f56a8a6	0.8385109
253	0x3cbc8c52	0.023016129
254	0xbca903b0	-0.020631641
255	0x3dd426bf	0.10358953

bias f4 [2]
0	0xbdd72cbe	-0.10506581
1	0x3cacd60a	0.021098156

weight f4 [128, 4]
0	0xbbbb1b71	-0.0057100584
1	0x3e367dfb	0.17821495
2	0x3e9a5164	0.3014022
3	0x3ea8255c	0.32841003
4	0xbcde1fd4	-0.027114786
5	0x3df775ce	0.12083016
6	0x3f109228	0.56473017
7	0x3c89a6d1	0.016803177
8	0xbe33ef87	-0.17571841
9	0xbd373371	-0.044726793
10	0xbc9201ee	-0.017823186
11	0xbe3b3813	-0.1828311
12	0x3da090b6	0.078401014
13	0x3dc6f8bf	0.09715413
14	0x3d6170cb	0.05503921
15	0x3e33362c	0.17501134
16	0x3e5db3d6	0.21650633
17	0x3bb0ac80	0.0053916574
18	0xbe6d7c9a	-0.23192063
19	0xbda76769	-0.08174021
20	0xbd097be8	-0.03356543
21	0xbd2609aa	-0.04053656
22	0x3f0f4c08	0.5597539
23	0xbeb321fd	-0.34986869
24	0xbef2c34c	-0.47414625
25	0x3e9f3667	0.31096193
26	0x3f4a875e	0.79112804
27	0xbe09a069	-0.13440098
28	0x3d934062	0.071900144
29	0xbd7c4baf	-0.061595615
30	0x4064f6a0	3.5775528
31	0x3dd9762f	0.10618245
32	0x3e81536d	0.2525896
33	0xbe6edfef	-0.23327611
34	0xbf8b7183	-1.0894016
35	0xbe6ad899	-0.22934188
36	0x3db4ac7f	0.088219635
37	0xbe23c240	-0.15992069
38	0x3efc9900	0.4933548
39	0xbe8e85f8	-0.27836585
40	0x3e9d5f58	0.30736804
41	0xbed1a83a	-0.4094866
42	0xbd1f0ed7	-0.03883251
43	0xbf076cc4	-0.5290034
44	0xbdcb4155	-0.099245705
45	0x3db9bfea	0.09069808
46	0xc04cde08	-3.2010517
47	0xbe012248	-0.12610734
48	0xbf0c0ba4	-0.5470526
49	0xbe665230	-0.2249229
50	0xbeb8fd02	-0.3613053
51	0xbe302288	-0.17200673
52	0x3c7f45d7	0.015580616
53	0xbdae3711	-0.08506597
54	0xc04807cb	-3.1254756
55	0xbe7a26d2	-0.24428871
56	0x3f218e2e	0.63107574
57	0x3e8836fc	0.2660445
58	0x3ecb7072	0.39734226
59	0x3df84f87	0.12124544
60	0x3dcfaddc	0.10140583
61	0x3923311c	0.00015563186
62	0xbebfbd2c	-0.37449014
63	0x3e2609b3	0.16214637
64	0x3ec0bdce	0.3764481
65	0xbec91291	-0.39271978
66	0xbf13bc9d	-0.57709676
67	0xbce08cde	-0.02741092
68	0x3e633c62	0.22191003
69	0xbe18ab20	-0.14909029
70	0xbcffb0dc	-0.031212263
71	0x3e1a35d9	0.15059604
72	0x3cb18803	0.0216713
73	0xbd102fb1	-0.035201732
74	0x40603861	3.503441
75	0x3e6319eb	0.22177856
76	0xbd223109	-0.039597545
77	0x3cf5faab	0.030026754
78	0x40593a77	3.3941934
79	0x3ea06c91	0.3133283
80	0xbdd395b9	-0.10331292
81	0x3e3f3fcc	0.1867668
82	0xc0407cbf	-3.007614
83	0xbea340f2	-0.31885487
84	0x3d912c6d	0.07088552
85	0xbdeeebe7	-0.116660886
86	0xc019362e	-2.3939319
87	0xbee02e2b	-0.43785223
88	0xbe82cbd6	-0.2554614
89	0x3e1c2d02	0.15251544
90	0xbe320444	-0.1738444
91	0x3e74b7f7	0.23898302
92	0xbdc40609	-0.095714636
93	0x3e2ac3db	0.16676275
94	0x3efc39af	0.4926276
95	0x3e1a2304	0.1505242
96	0x3e049ed4	0.12951213
97	0xbe19d6ee	-0.15023395
98	0x4033a493	2.8069198
99	0x3dc48582	0.09595777
100	0x3c7658d2	0.015035825
101	0xbc5da163	-0.013527247
102	0xc04373b6	-3.0539374
103	0xbe75af07	-0.23992549
104	0x3dadd035	0.08486978
105	0xbe160355	-0.14649709
106	0xbed04864	-0.4068023
107	0xbd6103b0	-0.054935157
108	0xbf1450e8	-0.57935953
109	0xbe966383	-0.29372796
110	0xbf94e5f2	-1.1632674
111	0xbe202bd4	-0.15641719
112	0x3cbf8c50	0.023382336
113	0xbcc898fd	-0.024487013
114	0xc038ec81	-2.889435
115	0xbe7ce661	-0.24697258
116	0xbdc72893	-0.09724536
117	0x3e708854	0.23489505
118	0x3ed33f1a	0.4125908
119	0x3d9e2e96	0.07723729
120	0xbd05ef1a	-0.03269873
121	0x3cadc4ee	0.021212067
122	0xc03e91d8	-2.9776516
123	0xbe39c075	-0.18139823
124	0xbde958dc	-0.11393902
125	0x3e4339c3	0.19065003
126	0x3f2941cc	0.66116023
127	0x3e4ce95d	0.20010896
128	0xbdfcfc07	-0.12352758
129	0x3dca57f8	0.0988006
130	0x401a3141	2.4092562
131	0x3ee15791	0.4401212
132	0xbbf436aa	-0.0074528055
133	0xbb530119	-0.00321967
134	0xc04aeda9	-3.1707556
135	0xbe287d81	-0.16454126
136	0xbd69bd46	-0.05706527
137	0x3dd1a643	0.1023679
138	0xbe186278	-0.14881313
139	0x3dbcd62d	0.09220538
140	0xbe901aa6	-0.2814533
141	0x3ede3f03	0.4340745
142	0xbebd561c	-0.3697976
143	0x3edb50d6	0.4283511
144	0x3d4f811e	0.050660245
145	0xbd517f08	-0.051146537
146	0x403dcc5a	2.9655976
147	0x3e27d679	0.16390409
148	0xbd61cecc	-0.055128857
149	0x3e28fcb4	0.16502649
150	0xbe8063fd	-0.25076285
151	0x3ec2c657	0.38041946
152	0xbb71fb61	-0.0036923515
153	0x3c4ddbe0	0.012564629
154	0xbcf398e4	-0.02973599
155	0x3ca2fa6f	0.019894807
156	0xbf1a24cf	-0.60212415
157	0x3e1401f6	0.14453873
158	0x400e4e5e	2.2235332
159	0x3f06fd61	0.52730376
160	0x3e6e4e86	0.23272142
161	0xbdcd9865	-0.100388326
162	0xbeba955f	-0.36442086
163	0x3e98ebff	0.2986755
164	0xbd2b5be3	-0.041835677
165	0x3e812206	0.2522127
166	0x3d57da38	0.052698344
167	0xbbb25496	-0.0054422123
168	0x3c86e048	0.016464368
169	0xbe62c2f1	-0.22144677
170	0x3dadf1f8	0.084934175
171	0x3e4b85fa	0.19875327
172	0x3e0f6a56	0.14005408
173	0xbe6e2787	-0.23257266
174	0x3eda8d71	0.42686036
175	0xbea84fa4	-0.3287326
176	0x3e92f69f	0.28703782
177	0xbf025125	-0.50905067
178	0xbf23ce8a	-0.6398703
179	0xbe967565	-0.2938644
180	0x3f0ed8a5	0.55799323
181	0x3c26ed0d	0.010188353
182	0xbfa24eb8	-1.2680273
183	0xbe9f3a27	-0.31099054
184	0xbdd0699f	-0.101763956
185	0x3e217ad7	0.15769516
186	0xbdaaaf92	-0.08334269
187	0x3e241031	0.16021802
188	0x3de55436	0.111977026
189	0xbe15c775	-0.14626868
190	0x3dfb7bd0	0.12279475
191	0xbddd3391	-0.10800851
192	0xbd83a1a3	-0.06427314
193	0x3cc50786	0.024051439
194	0x401a685b	2.4126194
195	0x3e995d53	0.29954013
196	0xbe051ba9	-0.12998833
197	0xbdcceb9c	-0.100058764
198	0x3e55367c	0.20821565
199	0xbe3dc361	-0.18531562
200	0x3d0a5408	0.033771545
201	0xbd2dd18c	-0.042436168
202	0x3d47445d	0.04864918
203	0xbe162d07	-0.14665614
204	0xbdcae36e	-0.0990666
205	0x3e16b2f0	0.14716697
206	0xbe3c1e7b	-0.18371002
207	0x3f1024ff	0.5630645
208	0x3b3da667	0.0028938295
209	0xbd867d40	-0.06566858
210	0xbbc78def	-0.006089918
211	0xbe2343e1	-0.15943862
212	0xbf097ff0	-0.5371084
213	0xbea06b0e	-0.31331676
214	0x3e6297bf	0.22128199
215	0xbe4758eb	-0.19467513
216	0xbec252e6	-0.3795387
217	0xbedcee0f	-0.43150374
218	0x3d04a693	0.03238542
219	0xbe9fc7c7	-0.31207106
220	0x39b025e1	0.00033597558
221	0xbc6ddf3e	-0.014518557
222	0xc050ce4e	-3.2625918
223	0xbe86f5ac	-0.26359308
224	0xbe68c2de	-0.22730586
225	0x3df16932	0.117876425
226	0xbee313f6	-0.44351166
227	0xba83093a	-0.0009997257
228	0xbda6060e	-0.081066236
229	0xbe3ab951	-0.18234755
230	0x3e851172	0.25989872
231	0xbe8c6f22	-0.27428538
232	0xbea7c3fa	-0.32766706
233	0x3ec4f5a3	0.38468656
234	0x3d197910	0.03746897
235	0x3edafad6	0.42769498
236	0x3e551988	0.2081052
237	0x3e35a38d	0.17738171
238	0xbf68bd65	-0.90913993
239	0x3e0ab986	0.13547334
240	0x3e83f9a6	0.25776404
241	0xbee08e43	-0.43858537
242	0xbf01a5d0	-0.50643635
243	0xbe108f8f	-0.14117263
244	0xbeaa843c	-0.33304012
245	0xbeb8fa6e	-0.36128563
246	0x3eaa7ac1	0.3329678
247	0xbe8b3cb5	-0.27194753
248	0x3e19c648	0.15017045
249	0xbea88ef4	-0.32921565
250	0x3e5b4687	0.21413623
251	0xbeb1389d	-0.34613505
252	0x3eb0faa8	0.34566236
253	0xbe9d2b0b	-0.30696902
254	0xbedabe65	-0.42723384
255	0xbd3cbf03	-0.0460806

bias f4 [128]
0	0x3f2ae247	0.6675152
1	0xbe35b19d	-0.17743535
2	0x3f5a6678	0.85312605
3	0x3f350c2d	0.70721704
4	0x3f73b8fd	0.95204145
5	0x3e322723	0.17397742
6	0x3f33e965	0.70278007
7	0xbf161109	-0.58619744
8	0xbf0b1f19	-0.54344326
9	0xbe919296	-0.2843215
10	0xbe385703	-0.18001942
11	0xbf0b748a	-0.544747
12	0xbfa5df70	-1.2958813
13	0xbf073d11	-0.52827555
14	0xbfb5c576	-1.4200885
15	0x3f0d0467	0.5508484
16	0x3f50560e	0.8138131
17	0x3f421f34	0.7582886
18	0xbf2bda77	-0.67130226
19	0xbf2dec16	-0.67938364
20	0xbf2aff4e	-0.66795814
21	0xbf146669	-0.57968765
22	0x3f5231a5	0.82107
23	0xbe90b590	-0.2826352
24	0xbeecdc27	-0.46261713
25	0xbf1c1487	-0.6096882
26	0xbd35b3b9	-0.04436085
27	0xbf9cc442	-1.2247393
28	0xbf16fed5	-0.5898259
29	0x3f29af63	0.66283244
30	0xbf0f4d57	-0.55977386
31	0xbe7511a3	-0.23932509
32	0xbf241d6c	-0.64107394
33	0xbf1093a6	-0.56475294
34	0x3e2ea1cc	0.17053908
35	0x3eeea194	0.4660765
36	0xbf0a8442	-0.5410806
37	0xbd9c47ac	-0.07630858
38	0x3bcfbd10	0.0063396767
39	0xbf5b3dfe	-0.8564147
40	0x3f711e6b	0.9418704
41	0x3f6ea23a	0.9321629
42	0x3f51d171	0.8196021
43	0xbe5f954e	-0.21834299
44	0x3e82ad31	0.2552276
45	0xbf804b1f	-1.0022925
46	0xbe8a11b5	-0.26966634
47	0xbe87a715	-0.2649466
48	0xbf0b8a0d	-0.54507524
49	0x3f3c8251	0.7363635
50	0xbeb6923b	-0.3565844
51	0x3e288c33	0.16459732
52	0xbe2206b3	-0.15822868
53	0xbfa85fc2	-1.3154223
54	0xbf7f414a	-0.99709
55	0xbf2660c0	-0.6499138
56	0x3f44c8f3	0.76869124
57	0x3f4a559d	0.79036885
58	0x3f2d7be1	0.6776715
59	0xbf09f9d7	-0.5389685
60	0x3e551e74	0.20812398
61	0x3e40419c	0.18775028
62	0x3f4bb050	0.79565907
63	0x3f72bbe1	0.9481793
64	0xbeb40173	-0.35157356
65	0xbf9dce94	-1.2328668
66	0xbf371c66	-0.7152771
67	0xbe497959	-0.19675197
68	0x3f6cd0ef	0.9250631
69	0x3f24b60b	0.64340276
70	0x3f431ec6	0.7621883
71	0x3f568cb6	0.8380846
72	0x3da54593	0.08069911
73	0xbf2453a6	-0.6419014
74	0x3f55c4d7	0.8350348
75	0x3f733526	0.95002973
76	0x3deb4273	0.114872836
77	0xbf76708f	-0.962655
78	0x3f62f59e	0.8865603
79	0xbdfe578f	-0.12419044
80	0x3f0014d0	0.5003176
81	0x3f2ceeba	0.6755177
82	0x3f46a6e0	0.7759838
83	0xbe990e37	-0.29893658
84	0xbf04db7c	-0.51897407
85	0x3f51042c	0.8164699
86	0xbdc5b69b	-0.0965397
87	0xbfbb5799	-1.4636108
88	0x3f7bab72	0.9830848
89	0xbda1aa30	-0.07893789
90	0x3f6f9abd	0.93595487
91	0xbe9ccdc3	-0.30625734
92	0x3e9b4a38	0.30330062
93	0xbe305dad	-0.17223234
94	0xbeaf6c22	-0.34262186
95	0xbe4aae87	-0.1979314
96	0xbef3cefb	-0.4761885
97	0x3e7323f4	0.23744184
98	0xbe30c419	-0.17262305
99	0x3f622715	0.88340884
100	0x3f1a7cf2	0.603469
101	0x3e72dafb	0.23716347
102	0xbe7e7c8b	-0.24852197
103	0xbf8094fa	-1.0045464
104	0xbf15a8a9	-0.5846048
105	0xbf5910bd	-0.84791166
106	0x3cba261b	0.022723248
107	0x3efe3fb8	0.4965799
108	0xbeb3cd6c	-0.35117662
109	0xbfa1ae7b	-1.2631372
110	0x3f3a69fb	0.72817963
111	0x3efd33a9	0.49453476
112	0xbed98117	-0.424813
113	0xbea45610	-0.3209691
114	0x3efc6ead	0.4930319
115	0x3f3d0f93	0.7385189
116	0xbf1e13b4	-0.61748815
117	0xbdf7ec95	-0.12105671
118	0x3e9f701f	0.3114023
119	0xbf166ce7	-0.5875992
120	0x3f674916	0.90345895
121	0xbe34e318	-0.17664754
122	0x3f095f40	0.53660965
123	0xbe9da639	-0.3079088
124	0x3eb943d0	0.3618455
125	0xbf19a9dc	-0.6002481
126	0xbf7f459a	-0.9971558
127	0x3f26f46b	0.652167

weight f4 [1, 128]
0	0x3e6a44cc	0.22877806
1	0xbbf02b26	-0.0073293624
2	0x3ec0c8db	0.3765324
3	0x3e5673df	0.20942639
4	0x3eadffd8	0.33984256
5	0x3d0ae783	0.033912193
6	0x3e722e5b	0.23650496
7	0xc04abb07	-3.1676652
8	0x3d338307	0.04382613
9	0x3abe4b5d	0.001451831
10	0xbd2c73b1	-0.04210252
11	0xc0315ac3	-2.7711647
12	0xbfa4261b	-1.2824129
13	0xbfd32ae8	-1.6497469
14	0xbfdbf638	-1.7184515
15	0x3e84a1c3	0.25904664
16	0x3e7b4f38	0.24541938
17	0x3e6ae07a	0.22937194
18	0xc049235e	-3.1427836
19	0xc02619a1	-2.5953143
20	0xbf9b3e78	-1.2128439
21	0xbfa6ebbe	-1.3040693
22	0x3eae8caf	0.34091708
23	0xbb9f2125	-0.004856246
24	0xbfd77a30	-1.6834164
25	0xc039ad1a	-2.9011903
26	0xbc35b187	-0.011089689
27	0xbf986fe1	-1.1909143
28	0xc035a6d2	-2.838307
29	0x3e36bbaf	0.17845033
30	0xc0320878	-2.781767
31	0x3ab0d38c	0.001349078
32	0xbfaada79	-1.3347923
33	0xc06ff4d0	-3.7493172
34	0x3c7bb191	0.015362159
35	0x3e212e90	0.15740418
36	0xc01bc4ea	-2.4338937
37	0x3c6f26ba	0.0145966355
38	0x3925dcf5	0.00015817939
39	0xbf4c7cf5	-0.7987817
40	0x3ea17598	0.3153503
41	0x3ea4e1a7	0.3220341
42	0x3e74cda8	0.23906577
43	0xbcb0bfea	-0.021575887
44	0x3d88bd64	0.066767484
45	0xbf79dc27	-0.9760155
46	0x3ac62153	0.0015116133
47	0x3d1ad902	0.03780461
48	0xbfc5485e	-1.541271
49	0x3e8f3a3d	0.2797412
50	0xba761567	-0.00093873445
51	0x3db7333f	0.08945321
52	0x3b176e5f	0.0023106558
53	0xbf88cafa	-1.0686944
54	0xbf43db65	-0.76506644
55	0xc0204c6d	-2.5046647
56	0x3ebf6fba	0.37389928
57	0x3e8c8667	0.2744629
58	0x3e4f5484	0.20247084
59	0xbecce4ce	-0.40018314
60	0x3d321075	0.043472726
61	0x3de41c41	0.111382015
62	0x3e5bf2bd	0.21479316
63	0x3ec4de65	0.38450924
64	0xbd29e536	-0.04147836
65	0xc001fed0	-2.0311775
66	0xbebc1b53	-0.36739597
67	0xbeb09a47	-0.34492704
68	0x3ea1a0fb	0.3156813
69	0x3e8c1839	0.2736223
70	0x3e567237	0.20942007
71	0x3e97bf12	0.29637963
72	0x3c8f5899	0.017498301
73	0xc00f6295	-2.240392
74	0x3e83a7e6	0.25714034
75	0x3eb21d2c	0.3478788
76	0x3d2d103c	0.04225181
77	0xbf32c003	-0.69824237
78	0x3eadfff9	0.33984354
79	0x3c7808f8	0.015138857
80	0x3e092d15	0.13396104
81	0x3e95a7b3	0.29229507
82	0x3e900b09	0.2813342
83	0xbea989a3	-0.3311282
84	0xc0171c95	-2.3611195
85	0x3ea7ad85	0.32749572
86	0xbd074248	-0.033022195
87	0xc0273ab0	-2.612957
88	0x3eabc139	0.33545855
89	0x3b3ed377	0.0029117742
90	0x3ebb8a0c	0.3662876
91	0xbf2f27ed	-0.68420297
92	0x3de71bbd	0.112845875
93	0xbf15f195	-0.5857175
94	0xbf593b65	-0.84856254
95	0xbc52db69	-0.012869694
96	0xc016a38c	-2.353732
97	0x3d4ff6af	0.050772365
98	0x3bc440b6	0.0059891595
99	0x3ebc9a85	0.3683664
100	0x3e63a57d	0.22231098
101	0x3d92ece9	0.07174093
102	0x3b8f5704	0.0043743867
103	0xbf5c4721	-0.86046034
104	0xc02ddb08	-2.7164936
105	0xbfbdadf7	-1.4818715
106	0x3d287b9e	0.041133516
107	0x3e354cd2	0.17705086
108	0xbf93038d	-1.1485459
109	0xc015fbc2	-2.343491
110	0x3e83fb1e	0.25777525
111	0x3e0a6711	0.13515879
112	0x3cdbc60e	0.026827838
113	0xbefe8e26	-0.49717826
114	0x3e01e2b6	0.1268414
115	0x3e63ee1e	0.22258803
116	0x3c5ec099	0.013595724
117	0x3cb1195d	0.02161854
118	0x3d5a3870	0.05327648
119	0xc05023ba	-3.2521806
120	0x3eb4d981	0.35322192
121	0x3bb93414	0.00565196
122	0x3e0353d6	0.1282495
123	0xbc3b6112	-0.011436718
124	0x3df0515d	0.11734269
125	0xc027c823	-2.6215904
126	0xbf9b7620	-1.2145424
127	0x3e8dfb86	0.2773096
