src/cartpole/results/CartPole-v0/train-a2c/20210407-003658/num_env6-num_episodes100000-learning_rate0.002-hidden_layers128-128.pt (torch, 11135 bytes, 7 tensors)

weight f4 [128, 4]
00000000: e045 b43d ff17 7fbd 8195 25c0 46d4 6cbe
00000010: 2e01 61be 5bdb 973e db15 8ebe e0a8 463e
00000020: c29d b6bc eb14 db3c 9574 0fbf 593a ccbb
00000030: 6e0f 25be 469e 283d 3d80 6ebf 7f26 2cbe
00000040: a025 4a3d 1de3 bb3b 22d3 babe df9f 533d
00000050: 2544 a93d bc60 5a3e 666b c23e 4fad ad3e
00000060: 564e 2e3e 2665 1abe 191e d93f 2431 64bd
00000070: eb0d 62bd 2da3 303e c401 a2be ff8e a33e
00000080: edf4 23bd d20b 8dbd f951 28bf a160 91be
00000090: a9c5 d1bd 786e 5e3e bc5a 8a3f 74f2 b13e
000000a0: 92b8 3b3d b751 72be f0d5 b1bf e314 00bf
000000b0: 9874 31be b0ac 453c 2214 e13e d3ad a63d
000000c0: 1ae7 8abc 0b6a 023e 85ab 203f dc91 b23e
000000d0: 2a28 e03d b01b 15be 9aad 363e 457a 25be
000000e0: 64cd 953d 5b95 0cbe a68e 903c 963e 44be
000000f0: 6363 f4ba 7f49 ce3d c2a8 8ebe 2077 de3d
00000100: 00b4 9e3d bdea 09bd 5403 573e 4db4 32bd
00000110: 642d 0abd 8aca 0b3e 9b98 b7bf 92c6 b4bd
00000120: 349a a63d 2716 e13d 7e2c 843f 41b9 ad3e
00000130: 904f 033e 359a 41be a985 0cbf 6bbb 68be
00000140: dd94 e6be 5840 023f 22ca 173f e428 45be
00000150: 5e97 983d a9e7 cfbd 4278 89bd ffd4 57be
00000160: c8bd 8f3c 4c6c 87be d331 7b3e ffc9 6e3e
00000170: 1009 663d ec60 b2bc aea9 13c0 1e10 99be
00000180: d655 653d 0187 9fbc 9188 0cc0 9367 9fbe
00000190: cc56 283e 574d 9d3d 491b bbbe f9d5 6fbd
000001a0: 8d2d bfbd ce8f 35bb 8197 00c0 dfb0 dabe
000001b0: b919 bcbd f752 fe3d 5589 a4be 25ec 1a3e
000001c0: 5435 babe 01d1 a53e 8565 a7bd 6d4c 61be
000001d0: 7e57 f8bc bd08 4f3d 4133 3abe 11a2 9f3d
000001e0: 3d3b 99bc 0487 8f3c 0628 ab3e 2661 803d
000001f0: 39c6 f4bd 24da 333d 03b2 b93e e132 0bbe
00000200: 01a5 893d 06c7 c93b 22cc e13f 8994 223e
00000210: c9b4 76bc cbd6 fa3c f847 a7bd 99a8 f13c
00000220: 2627 1ebe a672 bf3d cb2c a33f 35ee b83e
00000230: 3920 0b3e 0cf1 a9bd 9a5f 35be e271 eabc
00000240: 9c6e 66be fcd2 c0bd c7b6 b93f 8455 0e3e
00000250: 8af6 0e3d 3b7b 9cbd 1d45 e2be 967e 0abe
00000260: 7a16 0cbd c932 233d 1a47 213e 0ee2 71be
00000270: 5257 1b3f afd6 7bbe 10c7 b93c 1625 d1be
00000280: b27d c0bd e1e2 853c 53cc acbf f5a3 a0be
00000290: fed7 67be 48ba b8bd 6b59 9cbe cbd4 b6bc
000002a0: 8790 1cbe b8a7 e23b f26f d1be 92b7 aabd
000002b0: 95a1 a83d e8c3 523c 8001 d0bd 3a73 0c3e
000002c0: 7f7a 223e 561e 25be 2364 f43e 27ad d9be
000002d0: 792b 9a3c f425 b7bc ff69 873e ff54 4a3d
000002e0: e6e5 4e3e b2c9 303d 67d2 a6bd 8276 1a3d
000002f0: c424 42be 5918 893e dfec a33f cbcf 393e
00000300: a9b7 45be 2f46 363e 80b6 ac3c d468 5ebe
00000310: 8b4f 09be 678f 193e 54a7 70be e0b5 2a3d
00000320: e457 333d 3e3a 4abc 9acf 1fc0 5fe6 86be
00000330: 8982 00be 4ac2 973e 31a0 7ebd 00c5 ae3e
00000340: f17e 893d dd06 413c 5449 fb3b 8204 8bbd
00000350: 7229 43bd b323 eb3c da04 15bf 8915 323c
00000360: 6575 b43d bd88 cfbd 761a 473f 5195 1ebe
00000370: 31dc d9bd 32ee 163e ef1f c43d 9faf 813e
00000380: b071 a9be f2e5 cb3e b035 a2bf 8436 0dbe
00000390: 5a8e 223d 6641 9d3d 0d97 483f ee3f c53d
000003a0: 75c7 42bc 79e6 5c3d 5552 28be 02f5 0c3d
000003b0: 94f3 313c f8a2 b03c 2aae c3bf 8a0d 90be
000003c0: 12f8 2fbd 4194 003e b29c c8b8 00a4 f93d
000003d0: 94a7 fa3d f195 6fbe 0ea4 003f 4d9c b7be
000003e0: ce13 84bd 45a1 0d3d e82e cb3c cee8 f03c
000003f0: 2700 dc3d a0a8 fbbd e082 50bf 4084 fdbd
0.0880239 -0.062278744 -2.58725 -0.23127851 -0.21973106 0.29659542 -0.2775105 0.19400358
-0.022292022 0.026743373 -0.56037265 -0.0062325415 -0.16119167 0.041166566 -0.93164426 -0.1681156
0.04935229 0.005733861 -0.36489207 0.051666137 0.08264951 0.21325964 0.37972564 0.33921286
0.1702207 -0.15077648 1.696231 -0.055710927 -0.055189054 0.17249747 -0.31641972 0.31945035
-0.0400285 -0.0688702 -0.6575008 -0.28394035 -0.10242779 0.21721828 1.080894 0.3475529
0.045830317 -0.23663984 -1.3893414 -0.5003187 -0.17329633 0.012065098 0.43960673 0.08138623
-0.016955901 0.12735765 0.6276172 0.34876907 0.10945161 -0.14561343 0.17839661 -0.16159923
0.07314566 -0.1372885 0.017646145 -0.191645 -0.0018645342 0.10072612 -0.27863127 0.10862565
0.07749176 -0.03367113 0.20997363 -0.04362898 -0.033734694 0.13651481 -1.4343446 -0.08826937
0.08134881 0.10990553 1.0326078 0.339304 0.1282332 -0.18906482 -0.5489145 -0.22727744
-0.4503545 0.5087943 0.59292805 -0.1925388 0.07450746 -0.101516075 -0.067123905 -0.21077345
0.01754655 -0.2644981 0.24530725 0.23319243 0.056160986 -0.021774732 -2.3072314 -0.2989511
0.055990063 -0.019473555 -2.1958354 -0.31133708 0.1643936 0.07680767 -0.36544254 -0.05855367
-0.0933486 -0.0027704122 -2.009247 -0.42713067 -0.09184594 0.12418168 -0.32136026 0.15129144
-0.3636881 0.3238602 -0.0817366 -0.2200181 -0.030315157 0.050545443 -0.18183614 0.077945836
-0.018705005 0.017520435 0.33428973 0.062685296 -0.119518705 0.043909207 0.36268625 -0.13593628
0.06720925 0.0061577586 1.7640421 0.15876974 -0.015057751 0.03062 -0.08168024 0.029499339
-0.15444621 0.09348039 1.2748045 0.36119238 0.1358651 -0.08297929 -0.1771225 -0.028618757
-0.22503132 -0.09415242 1.4508904 0.13899809 0.034903087 -0.07640692 -0.44193354 -0.13524851
-0.034201123 0.039843354 0.1574978 -0.2362139 0.60680115 -0.24593614 0.022677928 -0.40848607
-0.093989745 0.016343536 -1.3499855 -0.3137509 -0.22640988 -0.09019905 -0.3053697 -0.022318264
-0.15289508 0.0069169663 -0.4090572 -0.083357945 0.08233944 0.0128640905 -0.10156536 0.1371583
0.15867041 -0.16124853 0.47732648 -0.42514917 0.018819558 -0.022356965 0.26448056 0.049397465
0.20204887 0.0431611 -0.081456 0.037710674 -0.18959337 0.26776388 1.2806662 0.18145673
-0.19308342 0.1780021 0.021083117 -0.21719676 -0.1340925 0.1499611 -0.2350133 0.041677356
0.04378499 -0.012342988 -2.497046 -0.26347634 -0.12549795 0.29640418 -0.06216449 0.34134674
0.06713665 0.0117814215 0.0076686535 -0.06787969 -0.047646947 0.028703546 -0.5821053 0.010869392
0.08811454 -0.10133503 0.7777475 -0.15486647 -0.10637701 0.14739302 0.09576403 0.253293
-0.3309455 0.39823872 -1.2672634 -0.13790327 0.03968654 0.076784894 0.78355485 0.09631334
-0.011888375 0.053930733 -0.16437657 0.034413345 0.010861296 0.021562085 -1.5287526 -0.2813533
-0.042961188 0.12556554 -9.56593e-05 0.12189484 0.12238994 -0.23397042 0.5025033 -0.35861436
-0.0644909 0.034577627 0.02480264 0.029407885 0.107422166 -0.12288022 -0.814497 -0.1237874

bias f4 [128]
00000000: 99f7 c9be cb05 e6be e9f5 18be a011 86be
00000010: 2cb1 edbe 3d5e 8dbe 7639 2fbe df97 c3be
00000020: 98e0 f0be e29e b4be 0339 81be dcf0 12bf
00000030: 5561 0dbf 414f d1be f9b2 a8be 3ef0 92be
00000040: cc85 6abe 6e38 0dbf 81ae ed3d 5abb 1abe
00000050: 3e31 31bf f668 d8be ee30 02bf bb2f cfbe
00000060: e0bc c2be 005e 20bf 639a 9cbe 5b29 54be
00000070: fb5c f8be 20f2 11be 06d8 56be fb50 1abf
00000080: 10f2 68be 69b5 cabd 2e6c a4be fcbf d1be
00000090: 3e47 61be 3bdd 8ebe c23b 3bbf 820f bbbe
000000a0: 7cec a43e f686 d1be 41c8 e0be 30cd f0be
000000b0: f49d b5be 8584 43be 2ed0 d0bd 24c0 013e
000000c0: 1e2a 15bf 54bb e8be 8e44 c9be 8aff 73be
000000d0: e9a9 bbbe d734 46be 783e f4be 27cf e6be
000000e0: 1265 303e e7b5 5dbe 6b03 0ebe a096 89be
000000f0: bbfa c7be 775f 2cbf 7dc5 2abe 00d5 21be
00000100: bd62 18bf 5dc1 27bf 712b 6bbe 83af 2cbe
00000110: 25f3 f3be ac42 3cbf d9d2 35bf 5ac1 abbe
00000120: b745 95be 475e b4be 29b4 a0be d5d0 82be
00000130: 6dbf a5bd b5f3 fe3d 7a8f 9dbe b680 16bf
00000140: d853 e7be 4498 56be e360 6dbe bd24 71be
00000150: dcbd 36bf 4c75 46be e1f4 cebe 89df 96be
00000160: 71e5 e6be 75c4 ebbe cbb4 3abf 18e0 603d
00000170: aa42 a8be 069e f4be 2f49 c2bb 1aa8 10bf
00000180: b00d bcbe 446f cbbe 98ba bfbe 8e2e 24bf
00000190: 601b 72bd 1e3d adbe 0106 43be 1737 8bbe
000001a0: 2115 50be 66fb 53be 3293 7cbd feef 8ebe
000001b0: f369 dfbe 7b8c 7a3d 0ba2 8ebe f8ea 50bf
000001c0: acf5 dabe 5374 31bf b55f 763e fae3 e3be
000001d0: 7758 1bbf 1337 cdbe a269 a7be dff2 9dbe
000001e0: f625 bcbe 09c5 87be 9b09 67be 85ad d7be
000001f0: 28e3 edbe d3b0 38bf ec05 27bf 927c 8abe
-0.39446715 -0.44926295 -0.14937557 -0.26185322 -0.46424234 -0.2761096 -0.17111763 -0.38201806
-0.4704635 -0.35277468 -0.2523881 -0.5739877 -0.5522664 -0.40880778 -0.32949045 -0.28698915
-0.22902602 -0.5516423 0.116055496 -0.15110531 -0.6921576 -0.4226758 -0.5085591 -0.40466103
-0.38034725 -0.6264343 -0.30586538 -0.20718901 -0.48508438 -0.1425252 -0.20980844 -0.60279816
-0.2274859 -0.098978825 -0.32113785 -0.40966785 -0.21999833 -0.2790316 -0.7313806 -0.3653527
0.32211673 -0.4092328 -0.43902782 -0.47031546 -0.3547207 -0.19093521 -0.10195957 0.12670952
-0.5826739 -0.4545542 -0.39310116 -0.23827949 -0.3665307 -0.19356094 -0.4770391 -0.4507992
0.17226055 -0.21651421 -0.13868491 -0.2687273 -0.3905848 -0.6733317 -0.16676898 -0.1580391
-0.5952566 -0.65529424 -0.2296579 -0.16863827 -0.47646442 -0.73539233 -0.71024853 -0.33545953
-0.2915475 -0.35228178 -0.3138745 -0.2554995 -0.08093152 0.12448827 -0.30773526 -0.5879015
-0.45181155 -0.20956522 -0.2318149 -0.23549171 -0.7138345 -0.19380683 -0.40421203 -0.2946742
-0.45096925 -0.46048322 -0.7293212 0.054901212 -0.3286336 -0.47776812 -0.0059291343 -0.565065
-0.36729193 -0.39733326 -0.37447047 -0.64133537 -0.059108138 -0.3383569 -0.19045259 -0.27190468
-0.2032056 -0.2070137 -0.061663814 -0.27917475 -0.4363552 0.06116913 -0.27858004 -0.81608534
-0.42765558 -0.6931812 0.24059947 -0.4450987 -0.6068186 -0.4008108 -0.3269778 -0.30849358
-0.36747712 -0.26517513 -0.22562258 -0.42124572 -0.4646237 -0.7214481 -0.6524341 -0.27048165

weight f4 [2, 128]
00000000: 4a79 a03f 1160 4c3d c9da e83c 9558 72bd
00000010: 6d4e c23b 104c c53d 524d 11be c801 a73c
00000020: cc68 433c c8ae f5bc a285 933e 537e a7bd
00000030: 09cb 93bd 6640 e53c 835f bbbc c823 efbc
00000040: b831 be3a 3f80 8d3d a7f1 25bd aefe 67bc
00000050: 8ab2 483e 6bbb efba 7617 57bd be32 9f3f
00000060: 1ade 943f df1d 823d 6c47 203e 51df 0d3d
00000070: 552e 08bd 94ab b93b 62c7 28bd 7c72 d4bc
00000080: 2070 2ebf 7bf0 1bbc 69d4 3ebd a127 5bbc
00000090: 4869 d5bd 97ba 3a3d f8c2 c63d a329 d4bd
000000a0: b23a a03d 1687 c3bd b0bf abbc 60cd d4bc
000000b0: 3cd9 4d3b b59e 0ebc e769 b53d 7275 33bd
000000c0: a43c e73c 5182 b7ba dac6 783f 3c44 d63c
000000d0: 22fd 923d 4733 2d3d 4e14 163c d0c2 54bd
000000e0: 8cf2 113e c2fb 26bd c811 333c 48c7 9c3e
000000f0: 8f19 a6bc 7eaf ac3c d1d9 e83c c8c7 2f3c
00000100: ac88 aabc 367b 51bd e151 ca3e f79e 763d
00000110: ebd1 99bc 85c8 613d d6c7 3e3c e3dc 0cbc
00000120: 4123 cdbd ceba 80bd 0c2d 8b3d 96e1 8cbb
00000130: 20ea f03b 64a5 04bc 68b3 a4bf ac73 873d
00000140: 4fcf 923d 35fc 15bd d8de 763c b0f4 9dbb
00000150: 87c7 0cbe 208f 0cbf 3b0f ba3d ae5e 2dbd
00000160: d1d1 1f3c 131c 2dbd 1659 413c 1164 613d
00000170: 1430 f2be aa4a 623d bc67 b8bc bbb3 c33d
00000180: 5de2 10bd 0514 9abd 285b 2cbd 7716 883d
00000190: 0019 97bc aba6 13bf ed4b 223e 4939 193c
000001a0: 2098 c0bc 16bb 223d e5b7 423d 0fc4 35bb
000001b0: 931e 293d 0b33 89bd 7e31 9abe 4f54 74bd
000001c0: d473 a53c f5cb 4dbd 044e 3b3c 30bb cd3d
000001d0: c371 883c c31b 43bf 1fbf 073d 87a3 60be
000001e0: 2a8d 103d dd78 c23c 82a2 55bd 1691 513d
000001f0: 21ae 9bbf c1d8 71bd a8cc 863a c28a b23d
00000200: 6fda afbf 1720 81bd 49bf eb3c 72c8 44bc
00000210: 2a30 72bc f617 0c3d 2cce 143e 0b58 84bb
00000220: e7da bd3b 61d9 32bd f672 1bbe 0961 20bd
00000230: 0d93 8a3d e366 0dbd 6481 2cbd 015b b6bb
00000240: 02e7 13bd 8b09 cbbc d27f e1bc 7435 25bd
00000250: 69af 5abe 91b7 dfba 267f f03d 0a50 a4bf
00000260: 66ee 88bf 1a7e 303d 90d9 4dbe 714a 1cbb
00000270: 02f2 4ebd a6f8 893b 24bd 6fbd 8dcb 1fbb
00000280: 9287 343f e396 c839 355f 1b3e 0b77 9d3c
00000290: c3f4 ba3d 74b7 f83c 1369 523d cb4d e93c
000002a0: 2d9d 753c afc5 403d a915 f6bc 0182 18bc
000002b0: 90bd 763d 7462 fb3b 103d b4bd 0eb7 103c
000002c0: d7cc 9dbc b460 cf3d 262d 71bf 7e33 26bd
000002d0: 71c7 943d 372c 6c3c e9a0 3e3d 46f4 64bd
000002e0: 2d43 bfbd f8cd 22bd 1ad3 103c 5f4c a7be
000002f0: 2828 c5b9 7c6f 553c a1c0 52bd 0c10 0bbc
00000300: cee2 d7bc 61a0 0e3c b665 eabe 2452 503d
00000310: 9300 46bc a1d6 0abd f117 58bd 9c2e 28bc
00000320: 0a66 ec3b ccdd 213d 2573 bf3c 1925 803c
00000330: 2eb5 113d 23ef 293c 4949 b13f 8c9f 983d
00000340: 9048 853b ca94 3dbc d422 d5bc 6bb3 603c
00000350: e46a 4b3d 0ae6 053f 43ef fa3c 91df d7bd
00000360: eff4 383d b117 35bd 4d35 f03c 398b 89bd
00000370: 27b2 013f 08dc 243d 9a3c afbc 77af d6bc
00000380: c03a e33d ecb4 debc 665a 793d 3f08 2cbe
00000390: 97da 82bd 8ff2 193f 40e5 9cbd 1223 51bd
000003a0: 3891 bebc 1dea 263d 87bb 0a3c 912c f8bc
000003b0: 6736 893c 1e18 003e 6be8 353e 85e7 5d3d
000003c0: 2980 323c 1326 313d 2c3e 8abd cbf3 283b
000003d0: 92db 5dbb d957 603f 2363 aabc 04b7 b33d
000003e0: 151d 4bbc a65c e43d be69 9dbd c4e2 db3d
000003f0: 45b9 a23f 63e8 723d 624a 6dbd 0cd7 f73c
1.2537014 0.049896304 0.028424637 -0.05916651 0.0059297592 0.096336484 -0.14189652 0.020386592
0.011926841 -0.029990569 0.2881289 -0.08178391 -0.0721646 0.02798481 -0.022872692 -0.029191867
0.0014510667 0.069092266 -0.04051366 -0.014159841 0.19599357 -0.0018290108 -0.05251261 1.243736
1.163028 0.06353354 0.15652245 0.0346368 -0.03324731 0.0056662057 -0.04120577 -0.025933497
-0.6813984 -0.009517784 -0.04658929 -0.0133761475 -0.104204714 0.045588102 0.09705156 -0.10359504
0.07823695 -0.0954725 -0.020965427 -0.025976837 0.003141 -0.008704831 0.0885809 -0.043813176
0.028227158 -0.0014000629 0.97178423 0.026155584 0.071771875 0.04228523 0.009160114 -0.0519436
0.1425268 -0.04076744 0.010929532 0.3062079 -0.02027586 0.021079775 0.028424175 0.010728784
-0.020817123 -0.051142894 0.39515594 0.060210194 -0.018776855 0.05512287 0.011644324 -0.008597585
-0.1001649 -0.0628563 0.067957014 -0.004299353 0.0073521286 -0.008096073 -1.286725 0.066138595
0.07168447 -0.036617476 0.0150677785 -0.004820429 -0.13747989 -0.5490589 0.09084936 -0.04232662
0.009754614 -0.0422631 0.011801025 0.05502707 -0.47302306 0.055246986 -0.022510402 0.09555765
-0.035372127 -0.0752335 -0.04207912 0.0664491 -0.018444538 -0.5767619 0.15849276 0.009352037
-0.023510039 0.0397292 0.047538657 -0.0027735268 0.041288923 -0.06699189 -0.30115885 -0.059650715
0.020196833 -0.050243337 0.011432175 0.10045469 0.016655808 -0.76214236 0.03314125 -0.2193738
0.035290875 0.023739273 -0.052156933 0.051163755 -1.2162515 -0.059044603 0.0010284381 0.08717872
-1.3738536 -0.06304949 0.028777735 -0.0120106805 -0.014781991 0.03420254 0.14531773 -0.004038816
0.0057939175 -0.04366434 -0.15180573 -0.03915504 0.06766329 -0.03452195 -0.042115584 -0.0055650477
-0.036108978 -0.024784824 -0.02752677 -0.04033418 -0.21355976 -0.0017068257 0.11743002 -1.2836926
-1.0697753 0.04308901 -0.20102525 -0.0023848081 -0.050523765 0.0042105494 -0.058529988 -0.00243828
0.70519364 0.00038259392 0.15173037 0.019221803 0.09128716 0.030360915 0.051369738 0.028479477
0.014991087 0.047063526 -0.030039625 -0.009308339 0.060239375 0.0076716486 -0.08800709 0.008832706
-0.019262714 0.101258665 -0.94209516 -0.04057645 0.07264603 0.0144148385 0.046540175 -0.05589702
-0.09338985 -0.03974721 0.008839393 -0.32675454 -0.00037604687 0.013027068 -0.051453236 -0.008487713
-0.026353266 0.0087052295 -0.45780724 0.050859585 -0.012085098 -0.033896092 -0.052757207 -0.010265019
0.0072143124 0.039518163 0.023370335 0.01564269 0.035573177 0.010371956 1.385049 0.07452306
0.004067488 -0.011571119 -0.026017584 0.013714652 0.049662486 0.52304137 0.030631667 -0.10540689
0.045155462 -0.044212047 0.02932229 -0.06716008 0.50662464 0.0402489 -0.021391202 -0.026206715
0.1109519 -0.02718588 0.060877226 -0.1680002 -0.06389349 0.6013574 -0.076609135 -0.051058836
-0.023262605 0.04075061 0.008467562 -0.030294688 0.016749574 0.125092 0.17764442 0.054175872
0.010894814 0.0432492 -0.067501396 0.0025780078 -0.0033852798 0.87634045 -0.020799225 0.08775142
-0.01239707 0.11150484 -0.07686184 0.107366115 1.271279 0.059303652 -0.057932265 0.03025391

bias f4 [2]
00000000: 2bd0 f7bd 92b1 173d
-0.12100252 0.03703458

weight f4 [128, 4]
00000000: 0325 98ba e7d4 493e 7787 713e bd5f 963e
00000010: 7994 1f3c 30fd d3bc 16f2 a03e 036a d5bb
00000020: 6600 42be 0c61 25bd ae5c 5d3d a8d9 4abe
00000030: f53b cb3d 1824 fe3d 1ef0 323e 5827 3f3e
00000040: 36ef 663e 7ba9 e43c d116 9abe 8985 3fbe
00000050: 0bed 4e3d 503b 90bd 6431 e03e c6a1 fbbd
00000060: cab2 aabe 7530 5d3e 7b0d f73e e3fa fdbd
00000070: 851a b13d 7829 72bd 031c 2140 060d 2b3e
00000080: 7719 1e3e 7a27 29be 4662 d1bd 39c7 c73c
00000090: 7714 8f3e a89b 98bc 3b3c c13e 564e 6cbe
000000a0: ddd4 843e 93b7 c5be 1555 893e 3613 5dbe
000000b0: 910f 0bbe 242d 743d 3af6 e8bd cda8 27bc
000000c0: 3067 1ebf 231f 60be 5c0b a03f 6cf9 31bd
000000d0: 7851 263c 3fb5 10bd 5799 1ac0 7cd3 1abe
000000e0: d5f4 c73e fbd0 163e 429b 203e 217d 9e3d
000000f0: 699d 993d 1e8a 613d 07d5 85be 3e07 fc3d
00000100: 0977 9a3e 6794 9fbe 5cd1 ebbe e67c 86bd
00000110: d5b2 8f3e 0bac 9fbd 4c63 e1bc 74fc 9c3d
00000120: 206e 183c 5c13 a3bc 74da 2640 cc94 0d3e
00000130: e6e1 85bc faf4 ef3b 238b 2c40 3810 793e
00000140: 5203 b3be be2b 46bc 59b2 bebf f4fb 55be
00000150: fcb3 a9bd 951a aabe 3eb4 91bf 5e20 eabe
00000160: 0e0c 9bbe 95ef 113e 307a 0ebe eaa0 4c3e
00000170: 19b3 4bbe 8970 51bd 957a f8be 87f2 85bb
00000180: de8a 063f d3c7 04bd 4cc1 6abf 69f6 6abe
00000190: 0146 62bc 0398 2dbd 2653 1fc0 e5cb 48be
000001a0: 1101 c53c 3ef2 abbb 7d95 38be 79ef 9c3c
000001b0: 3294 cbbe 2018 59be 3138 19bf 725d 51be
000001c0: 8729 ac3c 1d89 bebc ec54 ecbf 7b8a b5be
000001d0: 8dff 07be cf8b 493e dd24 003f 4a5c a23d
000001e0: 3d5d 97be 0d36 9cbd b447 5abf 377b a0bd
000001f0: ef1f 9cbd cf24 cf3c 473f 4d3e 99a7 803c
00000200: eb15 e73b 2880 1c3c 8161 f43f 0b2b 9d3e
00000210: d4f2 053f aeea 193d 0e3c 36bf aff0 273d
00000220: 15e9 38bd 7fb3 643c 85d8 96be 693f 063d
00000230: b4ff c9be 2ded bd3e c56c a9be c323 bd3e
00000240: 8a4c dcbc 629a 90bc 5e02 b43f 61a9 573d
00000250: caa3 c53e fc9c 813e d0ef dbbe 6355 8b3e
00000260: 74c5 8bbc 0b59 c83c bbe9 07bd 5677 223e
00000270: af2d 01bf 1415 e13d 640a d73f 21c1 953e
00000280: 1bc5 883e 3976 9e3b e11e 9abe c706 583e
00000290: 8e7b ebbc 6d2b 7e3e 5107 62bd 60cd a4bd
000002a0: 818d c13c dc47 e6bd 194f a13d c2e0 873d
000002b0: d9cf 773d 950f a2bd 8795 4a3e e571 fabd
000002c0: ffc6 ce3e e8a9 a1be bf71 d1be 1c5f 76be
000002d0: a26a ef3e 3655 bdbc 4e69 6f3d 7d78 00be
000002e0: 1725 b73b 93e8 933c feca b6bd a810 7b3d
000002f0: 884d 07bc ecd9 22bd de97 01c0 fea5 0fbe
00000300: d9b0 e5bd 21cf 913e 5ff3 8d3e 78cf a63e
00000310: 0e77 a9bd 3bc0 a7bd a700 183e c574 92be
00000320: 0098 a3bb 006e 4ebd 20fc 37bd b0b3 ccbd
00000330: 675b 6b3e 09b7 4dbd 70ba c5bd eb65 c43e
00000340: 9ded c2bc d5a9 fcba 7fef aabd 26d9 08bd
00000350: ec4a c7be db18 6fbe f836 97bd e230 22be
00000360: bb8d f6bc 4a2b f7bd 183a 36bf ffa9 b9be
00000370: 3c4b 0ebc e6e3 3bbd 3774 29c0 a4e4 62be
00000380: c7bf 80be b35d d43d a0c2 c9be 3862 86bc
00000390: 9f22 0dbe db07 02be da47 8d3e 160b aabe
000003a0: c4cc 89be 6474 b63e ff23 0b3c 2fa2 b33e
000003b0: 371d adbe 7754 a0bd 9607 3b3e 5dba 31bd
000003c0: 217b ac3e f604 67be 3d32 07be ebc3 22bc
000003d0: 55bd 10be a446 d8bd 5a6f 553e 8f8a 8bbe
000003e0: 5fe4 a43d c63e b7be 149b cd3e f3f4 99be
000003f0: 9e49 7e3e acc6 b9be 6150 b5be a343 14bd
-0.001160771 0.19710122 0.23586832 0.29369918 0.0097399885 -0.025877565 0.31434697 -0.0065128817
-0.18945464 -0.040375754 0.054043464 -0.19809592 0.09923545 0.12409228 0.1747441 0.18667352
0.22552189 0.027912846 -0.30095533 -0.18703283 0.05051903 -0.07042563 0.43787682 -0.12286715
-0.3333953 0.21600516 0.48252472 -0.124013685 0.08647636 -0.05912158 2.5173347 0.16704187
0.15439402 -0.16518965 -0.10223822 0.024386989 0.279453 -0.01862891 0.37741265 -0.23076758
0.25943652 -0.3861662 0.26822725 -0.2158936 -0.13580157 0.059613362 -0.11375089 -0.010233116
-0.618762 -0.21886878 1.2503467 -0.043450758 0.01015126 -0.0353291 -2.4156091 -0.15119737
0.3905398 0.14728157 0.15684226 0.0773871 0.07500727 0.05506336 -0.2613909 0.12306069
0.30168942 -0.3116791 -0.46058166 -0.06566791 0.28066126 -0.077964865 -0.027513169 0.07665339
0.0093036 -0.019906692 2.6070833 0.13826293 -0.016343068 0.0073229047 2.6959922 0.24322593
-0.3496347 -0.01209539 -1.4898177 -0.20896894 -0.082862824 -0.33223405 -1.138313 -0.4572782
-0.30282634 0.1425155 -0.13913798 0.19983259 -0.19892539 -0.051132713 -0.48531023 -0.0040877494
0.52555645 -0.03241713 -0.917012 -0.2294556 -0.013810636 -0.042381298 -2.48945 -0.1960903
0.02404836 -0.0052473834 -0.18025775 0.019157158 -0.39761502 -0.21200609 -0.59851366 -0.20445803
0.021015896 -0.02325874 -1.8463416 -0.35457215 -0.13281079 0.19682239 0.5005625 0.07927759
-0.29563323 -0.07627497 -0.8526566 -0.07836001 -0.07623278 0.025286106 0.2004367 0.015704917
0.0070521734 0.009552039 1.9092256 0.30696902 0.5232365 0.037577324 -0.71185386 0.041001018
-0.04514416 0.013958811 -0.29462066 0.032775316 -0.39452899 0.37095013 -0.33090797 0.36941347
-0.026891965 -0.01765174 1.4063222 0.052651767 0.38601524 0.25315082 -0.429564 0.27213582
-0.017061926 0.024456521 -0.033181887 0.15865836 -0.5046033 0.109903485 1.6800046 0.29248908
0.2671288 0.0048358706 -0.30101684 0.21096335 -0.028745439 0.24821253 -0.05518276 -0.08046985
0.023627045 -0.11244175 0.07876415 0.06634666 0.060500953 -0.07913128 0.19783603 -0.12228755
0.40386197 -0.3157494 -0.40907094 -0.24059719 0.46761042 -0.02311192 0.058450036 -0.12545963
0.0055891383 0.018055236 -0.089254364 0.06129518 -0.008258231 -0.039758608 -2.0248942 -0.14028165
-0.11215372 0.2847834 0.2772474 0.3258016 -0.08274661 -0.08190962 0.14843999 -0.28604713
-0.004992485 -0.050397873 -0.04491818 -0.0999521 0.22984086 -0.050223384 -0.09654701 0.38359007
-0.023794943 -0.0019276688 -0.083464615 -0.033410214 -0.38924348 -0.23349325 -0.07383531 -0.1583896
-0.03009688 -0.120688036 -0.71182394 -0.3626251 -0.008684929 -0.045871638 -2.6477182 -0.22157532
-0.25146315 0.10369434 -0.394063 -0.016404256 -0.13782738 -0.12698309 0.2759388 -0.33211583
-0.26914036 0.35635674 0.008492469 0.35084674 -0.33811352 -0.078286104 0.18264613 -0.04339062
0.3368769 -0.22560486 -0.13202758 -0.009934406 -0.14134724 -0.10560349 0.20843259 -0.2725415
0.08051371 -0.3579008 0.40157378 -0.30069694 0.2483277 -0.36284387 -0.35412887 -0.036197316

bias f4 [128]
00000000: a4c3 2b3f f61b 58be 1547 5a3f 4847 393f
00000010: f902 733f 7d9e 9a3b d71f 423f 164b 04bf
00000020: c8db 20bf 7efb 0ebf 1524 16bf f71a f1be
00000030: e5f0 9dbe 2543 02bf 1d9a 69bf a4e1 0a3f
00000040: 0d97 563f 71a9 423f 5be8 06bf 2609 1bbf
00000050: 4f19 47bf ece5 ccbe 6ea4 593f 0115 01bf
00000060: a02f 16be ff7a 0dbf 821e 943d 985e 75bf
00000070: 424f 18bf a59b 2d3f d661 37bf 105e 55be
00000080: b36e 06bf 5510 35bf 5f58 75bd 9443 043f
00000090: e62b c1be 04cc 843e 2b25 ad3e fd4a f2be
000000a0: 56a0 683f 3f5b 6e3f 823c 533f e277 a8be
000000b0: 5a36 f13e 0130 5dbf e574 05be a65b e0be
000000c0: 04e4 07bf 6f52 383f fc4b 69be f8e5 30bf
000000d0: 0a76 c6bd 9814 86bf ae72 25bf 9d5d 19bf
000000e0: 4aa8 463f d155 303f bb89 453f 9466 42bf
000000f0: b834 d23e f3d0 933c 6330 5a3f 1fd8 703f
00000100: 8c8a 00bf 363f 13bf ab52 39bf 31dc 0abf
00000110: b222 723f 4114 283f e94e 4a3f 1788 5b3f
00000120: de3b 99be 012e 0abf 8ed1 653f f57b 6b3f
00000130: 3ddb 973e 184c 31bf 4cf4 633f d259 9a3e
00000140: e416 193f 2c71 343f a632 4b3f d9c5 49bf
00000150: 9b1c 9abe 6896 4d3f 34dc babe 0eb8 6cbf
00000160: 16f0 773f ab95 2abe cb3f 6a3f 2495 5abf
00000170: d258 2c3f cce4 01be 105b cdbe 5113 6bbe
00000180: 24fe 22bf 22c0 2fbe d055 04be 6d8f 2a3f
00000190: b757 243f 9ce3 9d3e 9f65 32bf 953e 53bf
000001a0: 17e9 06bf 7a1a 52bf 3ae5 dfbd c361 e73e
000001b0: 39b7 73be f880 02bf e554 3d3f b7de fe3e
000001c0: 4513 a6be 6e06 8cbe 34e2 f93e 041e 4c3f
000001d0: 19c1 19bf c3ea 99bd 35c8 03be 7555 edbe
000001e0: e96e 643f 395c 19be 09f1 213f 4dfb c7be
000001f0: fd37 ba3e f33e febe bff1 20bf 1f2d 1c3f
0.670954 -0.21104416 0.8526471 0.7237439 0.9492641 0.0047186003 0.75829834 -0.5167707
-0.6283536 -0.55852497 -0.58648807 -0.47090885 -0.3084785 -0.50883704 -0.91250783 0.5425055
0.83824235 0.760398 -0.52698296 -0.60560834 -0.7777299 -0.40019166 0.85016525 -0.50422674
-0.14666605 -0.552658 0.072323814 -0.95847464 -0.5949594 0.6781562 -0.7163366 -0.20836663
-0.52512664 -0.70728046 -0.05989873 0.51665616 -0.37728804 0.25936902 0.3381742 -0.47322837
0.90869653 0.9310798 0.825142 -0.32903963 0.4711178 -0.86401373 -0.13032873 -0.43819922
-0.530823 0.72000784 -0.22782892 -0.69100904 -0.09690483 -1.0475035 -0.6462811 -0.5990847
0.7760054 0.68880945 0.77163285 -0.7593777 0.41055846 0.01804397 0.8523008 0.94079775
-0.50211406 -0.5751833 -0.72391766 -0.54242235 0.9458419 0.65655905 0.7902666 0.8575453
-0.29928488 -0.53976446 0.8977288 0.9198602 0.29659453 -0.69256735 0.8904464 0.30146652
0.59800553 0.70485187 0.7937416 -0.78817517 -0.3009995 0.80307627 -0.36496127 -0.92468345
0.9685072 -0.16658656 0.9150359 -0.8538382 0.6732303 -0.12684935 -0.40108538 -0.22956587
-0.6366904 -0.17163137 -0.1292336 0.666251 0.6419634 0.30837715 -0.6968631 -0.8251737
-0.52699417 -0.8207165 -0.10932393 0.45191774 -0.23800363 -0.5097804 0.73957664 0.49779293
-0.32436576 -0.27348655 0.48805392 0.797333 -0.6006027 -0.0751548 -0.12869342 -0.4635426
0.89231735 -0.14976586 0.63258415 -0.39058915 0.3637084 -0.496574 -0.62868875 0.6100635

weight f4 [1, 128]
00000000: 9ed9 883e e611 b23c af06 bc3e cc83 5f3e
00000010: efc8 9f3e 91ee a2ba d78c 233e a400 8abf
00000020: 4904 23bc 40c2 b0bd 0b9f 23be 052f 6cbc
00000030: f116 f6bd 4c4f 0fc0 ade4 2fbf 922c 9f3e
00000040: 8d08 9e3e ed07 9c3e bb00 46c0 cc6c 24c0
00000050: e554 47be e8b3 58be 4d1a b43e 7818 72be
00000060: 5bab a5bd 4cd7 3cc0 4dc5 173a bfb4 28bf
00000070: ebd8 5cbf 2264 2e3e 3b23 1bbf dcf6 91ba
00000080: a163 b1bf ae1b 07be 1f8a 913b 37ee 3d3e
00000090: 3629 56bd 2e5a 0c3e 079e 613d 7b48 2fbe
000000a0: e859 b23e d682 903e f51a 9d3e 8b56 b53c
000000b0: d0b8 e33d 266b dabe 3736 083d 163e fcbf
000000c0: 5590 fa3b 3637 7b3e ca3e 6c3d 1fd1 08be
000000d0: 9d3b 12bb ef08 38bf df0c 20bd 9dc0 2dc0
000000e0: 494c c43e 7735 283e a971 623e 4ff0 84bf
000000f0: 02cb 743d f846 173b 9dd7 733e 7baf cd3e
00000100: 07a7 bd3b 5c7a 49c0 79e6 4cbd 08d1 53c0
00000110: 90b7 913e 6379 923e ad20 493e a67b a03e
00000120: 6040 f9bb 7b7d fabf 4020 8b3e 4bff ba3e
00000130: 4f02 423d d525 b7be 2fe9 aa3e 85e1 953d
00000140: 00fe 233e b600 9f3e 4f4b 6f3e 4078 0dbe
00000150: c7d8 48be 26ce ca3e 8a77 d8bc 2181 85bf
00000160: 6f09 913e 65ad 14bb 1fe3 b33e 75b0 e3be
00000170: 37a7 663e 5e6f 12be f873 0bc0 3da3 9bbb
00000180: dde3 62be bd3d e33b 68f6 8e3a b74f 7c3e
00000190: 893f ac3e d45d de3d 6484 b8be 6c7c 05be
000001a0: af21 12c0 83d0 f1be 46d7 d93a a726 063e
000001b0: 2b33 d2ba 1f35 6dbc 7372 893e 4af8 d53d
000001c0: 658a a0ba 9019 b5bd 9b68 b23d 4e41 743e
000001d0: 4604 ce3b 448e 9c39 934f c3ba 4b7d 3cc0
000001e0: aee8 a63e d7bf 7f3b ef77 323e ed2e 593c
000001f0: 1793 a03d f706 21c0 3972 04be b856 893e
0.2672853 0.02173705 0.3672385 0.2182762 0.31207988 -0.0012430717 0.15971695 -1.0781446
-0.009949752 -0.086308 -0.15978639 -0.014415507 -0.120160945 -2.239215 -0.68708307 0.31088692
0.308659 0.30474797 -3.0937946 -2.5691404 -0.19465978 -0.21162379 0.35176316 -0.23642147
-0.08089324 -2.9506407 0.0005789593 -0.65900797 -0.8626849 0.17030385 -0.6060063 -0.0011136192
-1.3858529 -0.13194153 0.004441514 0.18547903 -0.052285396 0.13706276 0.055082347 -0.17117493
0.34834218 0.2822482 0.3068463 0.022135993 0.111192346 -0.42659873 0.03325483 -1.9706447
0.0076466003 0.2453278 0.057677068 -0.13361023 -0.0022313364 -0.7188863 -0.039074775 -2.7148812
0.3833945 0.16426645 0.2211367 -1.0385836 0.059763916 0.0023083072 0.23812719 0.40172943
0.0057877335 -3.1480932 -0.050024483 -3.3096333 0.2846036 0.28608236 0.19641371 0.31344336
-0.007606551 -1.9569544 0.27173042 0.36522898 0.047365483 -0.3577105 0.3338103 0.07318405
0.16014862 0.3105523 0.23368572 -0.13815403 -0.19613944 0.39610404 -0.026424188 -1.0430032
0.2832751 -0.002268636 0.35134217 -0.44470564 0.22524725 -0.14300296 -2.1789532 -0.004749684
-0.22157235 0.00693485 0.0010907175 0.24639784 0.33642223 0.1085774 -0.36038506 -0.13035744
-2.283306 -0.47229394 0.0016619943 0.13100682 -0.0016036978 -0.014477997 0.2684513 0.10447748
-0.0012248276 -0.08842766 0.08711358 0.23853037 0.0062871305 0.00029860635 -0.0014901034 -2.9451473
0.32599396 0.0039024258 0.17428564 0.013255817 0.07840555 -2.51605 -0.12934197 0.26823974
