src/cartpole/results/CartPole-v0/train-a2c/20210407-003658/num_env24-num_episodes100000-learning_rate0.001-hidden_layers64-64.pt (torch, 7807 bytes, 7 tensors)

weight f4 [64, 4]
-0.1392613 0.2186522 -1.2774543 -0.45196077 -0.14948252 0.22425586 0.8994728 0.35165754
-0.08001211 0.074847914 -0.11304963 -0.02087357 -0.28210673 -0.21582285 0.1510285 0.16574499
0.25643715 0.2772259 -1.2652323 -0.2860999 -0.12478259 0.28756583 0.3246093 0.38895342
-0.05594003 -0.019847156 -0.2657806 -0.34012005 -0.16882654 0.11877639 0.41222748 0.25561416
-0.29398152 -0.22454983 -1.0164388 -0.38395372 -0.24425536 0.5630719 1.1894441 0.30457857
0.182645 -0.242339 -1.3148065 -0.56799716 -0.27348903 -0.24534747 0.98966914 0.3022743
-0.13777612 0.16929747 1.2417521 0.37041822 0.08358646 -0.06698785 -0.29042035 -0.18262896
0.104163185 -0.47817114 -1.1775285 -0.30712673 0.21543385 0.21465267 0.72581357 0.4797602
0.33214352 0.12176983 0.69999665 0.22572826 0.31065127 0.47164378 -1.0494896 -0.20891182
0.19540656 0.32034978 1.1266816 0.64561284 0.08660714 -0.49898002 -0.3951568 -0.20928133
-0.42723736 0.30745086 1.0673335 -0.19921812 0.12314283 -0.04191184 -0.21297179 -0.2779583
0.19884369 -0.2929966 1.0700502 0.46320638 0.22336146 0.08999638 -1.0376768 -0.22260371
0.14147012 -0.1109678 -1.4021641 -0.3508651 0.2213357 0.12204311 -0.52300286 -0.1959536
-0.56193125 -0.06407693 -1.4841682 -0.4509739 -0.096054494 0.21464632 -0.6280906 0.24593784
-0.23384665 0.38743037 1.1174974 -0.27065626 -0.07408502 0.066805884 0.9619747 0.10678213
0.07790632 0.019866752 0.08776167 0.11843165 -0.4689834 -0.29391035 -0.825635 -0.22827838
-0.10162646 -0.36665776 0.7583087 0.27379763 -0.2093219 -0.043690924 -0.67997515 -0.16078171
-0.03708929 0.12135635 1.7873967 0.50516033 0.29920906 0.2557473 1.3227046 -0.032255437
-0.33195445 -0.15801552 1.1612091 0.009303934 -0.2652833 -0.44585246 -1.2775544 -0.4156529
-0.07378651 0.054887135 0.62444395 -0.25683266 0.14258824 -0.4365111 -0.35384363 -0.21540868
0.01376427 -0.036951866 -0.7657023 -0.15293309 -0.039451152 0.012607025 -0.2786455 0.19671103
-0.3495725 -0.054357953 1.2429025 -0.14279473 0.21118008 -0.019697668 -0.701178 0.23429906
-0.047777385 -0.17437868 -0.5347623 -0.5090088 0.043243427 -0.038588125 0.9868871 -0.034139268
0.109403566 0.08624101 -1.0615994 -0.27956182 -0.24760765 0.38769785 1.2413528 0.2810915
-0.10128386 0.024351796 -0.0849355 -0.071710125 -0.29215366 0.1618668 -0.33414164 0.01442906
-0.019290745 0.2799305 -1.0849996 -0.38063666 -0.35560492 0.35102093 -0.015407288 0.48514134
0.07149663 -0.047387812 0.81073517 -0.020399187 -0.011889165 0.011226637 1.4871793 0.2589693
-0.18883194 -0.14205602 0.50101554 -0.34915406 -0.2480563 0.18763304 0.13401824 0.17329131
-0.46057788 0.2492836 -0.9292378 -0.05990303 -0.009360137 0.008929021 0.27953753 0.40097296
-0.078284785 0.35793057 -0.34626868 -0.31753847 0.24112388 -0.21465847 0.5994453 0.07710593
0.07461742 0.35459727 -0.6277545 -0.1375134 0.3927832 -0.47697565 -0.0888781 -0.3505222
0.035343166 -0.031092385 -1.1628884 0.04388231 0.26944515 -0.24483593 -1.1636759 -0.12508112
00000000: 849a 0ebe 5de6 5f3e 9f83 a3bf 6767 e7be
00000010: f211 19be 54a3 653e d943 663f 750c b43e
00000020: 64dd a3bd dd49 993d 9086 e7bd 0dff aabc
00000030: 4b70 90be aa00 5dbe 37a7 1a3e 0eb9 293e
00000040: bb4b 833e 8ef0 8d3e 22f3 a1bf b07b 92be
00000050: 048e ffbd d43b 933e 3133 a63e e724 c73e
00000060: 5f21 65bd 8196 a2bc 6514 88be 3724 aebe
00000070: dde0 2cbe 0941 f33d 7b0f d33e dcdf 823e
00000080: bf84 96be 64f0 65be ab1a 82bf 9595 c4be
00000090: 141e 7abe 7b25 103f b43f 983f b9f1 9b3e
000000a0: 4a07 3b3e b727 78be 944b a8bf 4368 11bf
000000b0: c106 8cbe 5e3c 7bbe f55a 7d3f b2c3 9a3e
000000c0: 2f15 0dbe 515c 2d3e bcf1 9e3f 75a7 bd3e
000000d0: 612f ab3d ed30 89bd fab1 94be 1603 3bbe
000000e0: 8253 d53d d9d2 f4be 41b9 96bf b73f 9dbe
000000f0: b19a 5c3e e9cd 5b3e ebce 393f 21a3 f53e
00000100: b70e aa3e 7662 f93d fb32 333f 4f25 673e
00000110: af0d 9f3e 4b7b f13e ad55 86bf fbec 55be
00000120: a818 483e e304 a43e 1a37 903f e246 253f
00000130: 165f b13d 4f7a ffbe fe51 cabe d84d 56be
00000140: dbbe dabe 336a 9d3e 629e 883f d6ff 4bbe
00000150: 4f32 fc3d c0ab 2bbd 4715 5abe 8d50 8ebe
00000160: ae9d 4b3e a603 96be 68f7 883f 6329 ed3e
00000170: deb8 643e 0650 b83d 98d2 84bf 3af2 63be
00000180: 8bdd 103e 1643 e3bd 1d7a b3bf 97a4 b3be
00000190: d3a5 623e bdf1 f93d 84e3 05bf 0fa8 48be
000001a0: bada 0fbf c43a 83bd 39f9 bdbf 0de6 e6be
000001b0: 38b8 c4bd 3fcc 5b3e 8cca 20bf 21d7 7b3e
000001c0: 7f75 6fbe 465d c63e 280a 8f3f 7593 8abe
000001d0: e3b9 97bd 86d1 883d f943 763f 97b0 da3d
000001e0: 598d 9f3d 99bf a23c 64bc b33d 4b8c f23d
000001f0: 981e f0be 6b7b 96be d15c 53bf cfc1 69be
00000200: 8921 d0bd 91ba bbbe 8520 423f 342f 8c3e
00000210: 7b58 56be 41f5 32bd da12 2ebf f6a3 24be
00000220: f0ea 17bd ae89 f83d 6ac9 e43f 3052 013f
00000230: ee31 993e 4ff1 823e 624e a93f 471e 04bd
00000240: eff5 a9be d2ce 21be 80a2 943f 876f 183c
00000250: 36d3 87be c646 e4be e786 a3bf 75d0 d4be
00000260: 621d 97bd 55d1 603d 8fdb 1f3f 927f 83be
00000270: a702 123e 627e dfbe fe2a b5be 1894 5cbe
00000280: 8883 613c d75a 17bd 1105 44bf 7e9a 1cbe
00000290: 8897 21bd b28d 4e3c 9faa 8ebe 9e6e 493e
000002a0: 2bfb b2be 72a6 5ebd 6e17 9f3f c838 12be
000002b0: 973f 583e 015d a1bc 6780 33bf 18ec 6f3e
000002c0: 38b2 43bd 5390 32be 2fe6 08bf 674e 02bf
000002d0: 0520 313d 950e 1ebd a2a4 7c3f 9ed5 0bbd
000002e0: fa0e e03d 209f b03d 7de2 87bf ba22 8fbe
000002f0: dc8c 7dbe 5580 c63e a6e4 9e3f 3aeb 8f3e
00000300: ea6d cfbd 6b7d c73c aaf2 adbd c2dc 92bd
00000310: 2a95 95be 69c0 253e 9d14 abbe dd67 6c3c
00000320: a007 9ebc 0d53 8f3e 44e1 8abf cfe2 c2be
00000330: d911 b6be 04b9 b33e da6e 7cbc 7264 f83e
00000340: d36c 923d b919 42bd 578c 4f3f 321c a7bc
00000350: c6ca 42bc eeef 373c e45b be3f a097 843e
00000360: 295d 41be 2277 11be 8e42 003f 52c4 b2be
00000370: 7902 7ebe e022 403e 143c 093e 4773 313e
00000380: ddd0 ebbe 3344 7f3e 87e2 6dbf e15c 75bd
00000390: 435b 19bc 074b 123c 8b1f 8f3e 544c cd3e
000003a0: c653 a0bd ad42 b73e 214a b1be 6794 a2be
000003b0: 2ee9 763e 6ecf 5bbe 3f75 193f b7e9 9d3d
000003c0: 05d1 983d c68d b53e 85b4 20bf 50d0 0cbe
000003d0: e11a c93e 2736 f4be b905 b6bd a577 b3be
000003e0: ffc3 103d 75b5 febc 87d9 94bf f0bd 333d
000003f0: b7f4 893e 45b6 7abe 55f3 94bf 4415 00be

bias f4 [64]
-0.44212186 0.35170332 -0.30475205 -0.4274225 -0.19386412 0.020620156 0.27050263 0.113746636
0.33450657 0.02045419 -0.22541195 0.24697727 0.43994692 0.072503425 0.02386624 -0.2113768
-0.36119077 -0.008729484 -0.3170298 -0.40271243 0.05896907 -0.30942875 0.013842575 0.074904494
-0.21465263 -0.5454226 -0.2569314 0.13337247 0.03324741 0.22198547 -0.36409813 0.089943476
-0.15113354 -0.1407344 -0.26022178 0.02315985 0.27793404 0.030136209 -0.30259562 -0.3295258
0.20780765 -0.40098667 0.18040708 -0.405144 -0.2147204 0.17692848 -0.20461601 0.31454146
-0.24575981 -0.4483422 -0.031482898 0.09143869 0.1467518 -0.13476664 -0.60912937 -0.2609134
0.26237795 -0.30693254 0.12281159 0.16464652 -0.21760696 -0.26240703 0.213669 0.27239457
00000000: cc5d e2be 7512 b43e 7608 9cbe 1fd7 dabe
00000010: 5184 46be 9aeb a83c 527f 8a3e fff3 e83d
00000020: 7244 ab3e 8c8f a73c 64d2 66be 9ce7 7c3e
00000030: b940 e13e ad7c 943d 2283 c33c 2973 58be
00000040: ffed b8be 1c06 0fbc bb51 a2be 5330 cebe
00000050: 8d89 713d 726d 9ebe f8cb 623c 8767 993d
00000060: e6cd 5bbe d1a0 0bbf 838c 83be cb92 083e
00000070: 702e 083d 2950 633e 126b babe 4934 b83d
00000080: c0c2 1abe ae1c 10be ca3b 85be bab9 bd3c
00000090: 5f4d 8e3e 36e0 f63c d0ed 9abe 9bb7 a8be
000000a0: 87cb 543e 204e cdbe a2bc 383e 096f cfbe
000000b0: aadf 5bbe bd2c 353e dc86 51be 940b a13e
000000c0: 76a8 7bbe 1c8d e5be 36f4 00bd 3544 bb3d
000000d0: 1b46 163e 4400 0abe e7ef 1bbf 7196 85be
000000e0: 6756 863e 4326 9dbe a584 fb3d 1999 283e
000000f0: 5cd4 5ebe 375a 86be 0ccc 5a3e 4d77 8b3e

weight f4 [2, 64]
0.22204784 -0.074563004 -0.04623531 0.08419198 0.21020429 0.09986852 0.053740647 -0.00010356649
0.14303608 -0.27510175 0.36282745 -0.18230599 0.017570123 0.020763777 0.07548521 -0.11815673
0.010737639 0.2094474 -0.1642043 0.21352704 0.0038274892 0.004736999 -0.036020152 0.10345503
0.26222634 0.1290177 0.253557 0.06739534 -0.062410627 -0.013449696 -0.04299351 0.17009088
-0.08681304 0.09223052 -0.8330201 0.014500864 -0.1532459 0.21997741 -0.045318585 0.08039167
-0.0042537567 -0.08981748 -0.16086312 0.03125389 0.11497298 -0.06556858 0.12143241 -0.2837188
0.023611689 0.020163944 0.0018135554 0.110647246 -0.10918731 -0.9193499 -0.022422966 -0.0822143
0.23146126 -0.20635043 0.09400913 0.055961106 0.06589294 0.10634412 0.17454256 0.31003335
-0.17025392 0.21512973 0.012799696 0.0033375965 -0.16739517 0.0727491 0.034091033 -0.012997996
-0.15512325 0.1441524 -0.5626016 0.15873209 0.19599757 0.0443585 -0.23422416 0.26367593
0.16359496 -0.07520367 0.21448636 -0.001801024 0.018632734 -0.14349808 0.25828576 0.061514113
-0.383011 0.05362949 -0.2641858 -0.01884254 0.09020142 0.05447701 -0.08922899 -0.11420056
0.030390153 -0.06768251 0.86718506 0.15428612 0.11745925 -0.236212 -0.035583522 0.007776454
-0.018315345 -0.14774229 0.038113493 -0.025463123 -0.10067931 0.2278822 -0.110058814 0.2185527
-0.0028182103 -0.032163106 -0.16630362 -0.06863331 0.041982107 0.76307255 -0.036237225 -0.10223773
-0.24881375 0.18723774 -0.029887319 0.12460874 -0.07305457 -0.034454193 -0.16954504 -0.16205636
00000000: 8260 633e 7db4 98bd 3d61 3dbd d86c ac3d
00000010: cb3f 573e de87 cc3d 271f 5c3d d631 d9b8
00000020: 0d78 123e 23da 8cbe 85c4 b93e 6cae 3abe
00000030: 38ef 8f3c cc18 aa3c fd97 9a3d 28fc f1bd
00000040: ecec 2f3c 6179 563e 2c25 28be d5a6 5a3e
00000050: 9dd6 7a3b d438 9b3b de89 13bd 3be0 d33d
00000060: 8842 863e 371d 043e 39d2 813e 9106 8a3d
00000070: 49a2 7fbd 1d5c 5cbc f619 30bd 4e2c 2e3e
00000080: 09cb b1bd 5be3 bc3d ce40 55bf 0895 6d3c
00000090: 7eec 1cbe c241 613e fb9f 39bd 63a4 a43d
000000a0: 1963 8bbb 3af2 b7bd 4db9 24be 1404 003d
000000b0: f476 eb3d d248 86bd 8eb1 f83d 9743 91be
000000c0: 4d6d c13c db2e a53c d2b4 ed3a 069b e23d
000000d0: 999d dfbd 845a 6bbf 5eb0 b7bc f95f a8bd
000000e0: 2e04 6d3e 874d 53be dc87 c03d 7937 653d
000000f0: e1f2 863d f2ca d93d 49bb 323e b1bc 9e3e
00000100: 0b57 2ebe f84a 5c3e d1b5 513c 94bb 5a3b
00000110: a469 2bbe 7bfd 943d 0aa3 0b3d 8cf5 54bc
00000120: a1d8 1ebe b09c 133e a906 10bf aa8a 223e
00000130: 96b3 483e 42b1 353d 75d8 6fbe 8800 873e
00000140: 7085 273e 6204 9abd 50a2 5b3e 5610 ecba
00000150: ada3 983c 29f1 12be 083e 843e 39f6 7b3d
00000160: 051a c4be 99aa 5b3d 5c43 87be ac5b 9abc
00000170: 86bb b83d 4923 5f3d b0bd b6bd fce1 e9bd
00000180: c5f4 f83c 219d 8abd d7ff 5d3f 2efd 1d3e
00000190: 7a8e f03d 8fe1 71be 07c0 11bd a0d1 fe3b
000001a0: 100a 96bc c149 17be e51c 1c3d 0a98 d0bc
000001b0: f430 cebd f459 693e 8466 e1bd 47cc 5f3e
000001c0: b9b1 38bb 76bd 03bd 7f4b 2abe 9f8f 8cbd
000001d0: 6ef5 2b3d b958 433f 7c6d 14bd 0462 d1bd
000001e0: 08c9 7ebe 40bb 3f3e 40d6 f4bc de32 ff3d
000001f0: a29d 95bd d71f 0dbd 379d 2dbe 1af2 25be

bias f4 [2]
0.0075818663 -0.11459619
00000000: 4e71 f83b 68b1 eabd

weight f4 [64, 4]
0.1305249 0.09724196 0.20459792 0.15348595 -0.25835657 0.44376794 -0.18673584 0.14653507
-0.5415366 -0.32478005 -0.16446538 -0.11964282 0.19909105 -0.3263117 -0.18242998 0.09835133
0.19837166 -0.3539027 -0.6961624 -0.15096074 0.5820609 0.17202762 -0.15879369 -0.15576614
0.34787333 -0.3844255 -1.2461541 0.35433763 0.019327266 0.015207411 -3.158969 -0.26083684
-0.39716914 0.234528 -0.3014066 0.31693467 0.55838615 -0.085447215 -1.2723749 -0.3116854
-0.016084898 -0.27968165 -2.148573 -0.1015164 0.27654573 -0.1867996 -0.54233205 -0.2513173
0.15575494 0.23600377 -0.7276067 0.3055298 0.14770265 0.13012807 0.21502805 -0.23856333
0.123724654 0.17838603 -0.44672218 0.03033132 0.0024422822 0.02937574 -2.9009118 -0.21899535
0.016212638 0.014581231 -2.4349003 -0.1683974 0.091927715 -0.12103426 -2.3009527 -0.40361425
0.4223973 -0.499868 -1.001549 0.18005985 0.3302959 -0.24554247 -0.22727886 -0.2858241
0.1605233 0.17483902 -0.34017068 -0.22242552 -0.51543814 -0.048948437 -1.488284 -0.28240508
-0.17710271 0.05137101 -0.5045112 0.05946132 0.4354322 -0.4304293 1.3528445 0.29098096
-0.104486704 0.12550828 2.958724 0.4791797 -0.092835374 -0.25330743 0.3333063 -0.42255062
0.029740192 -0.020560762 -2.683809 -0.27948895 0.06341488 -0.16166478 -2.8775713 -0.35386723
-0.53077734 0.30154318 2.475842 0.6493731 -0.051194098 -0.067215994 0.08414668 0.12058009
-0.001190686 0.10886287 0.14773268 -0.18703105 -0.47455803 0.3384245 -2.0193653 -0.48491517
-0.09987188 0.26903367 0.16569869 -0.21819617 -0.0063458416 0.041179307 -2.8174398 -0.26247314
-0.076258704 0.07552497 3.7130475 0.44912267 0.23475122 -0.29478636 -0.95080304 0.46192688
0.15787318 0.16522521 -0.7076253 0.3569427 0.8041948 0.050262038 -1.5962493 -0.28440964
-0.43226376 0.3557502 -0.10573352 -0.059869707 0.26456222 -0.2823833 -0.499293 -0.09465669
0.062480938 -0.3190076 0.10275581 -0.3805828 0.69431925 0.23693463 -0.3522792 -0.20329961
0.1584546 -0.038913492 -0.716646 0.29229173 0.16307904 -0.21662621 -2.5187504 -0.5336425
0.43369403 -0.024695514 -0.25889984 -0.033673614 0.15236822 0.03986011 -0.027866311 -0.038821034
0.14205228 -0.24106471 -0.36395973 -0.43687174 -0.36225414 0.173943 -0.5339289 0.029249113
0.1529651 0.027922615 -0.69567615 0.3084094 -0.3468582 0.30428 -0.34617203 0.02395843
0.16041134 -0.25250274 0.40833482 -0.33904326 -0.20863861 -0.030562501 -0.32951427 0.18630266
-0.23976403 0.1867718 0.02240879 0.0032911818 0.433944 -0.08386125 2.972723 0.34498402
-0.06585975 0.33959538 -0.43224287 0.31775033 -0.3116381 0.020206397 -0.34211957 0.06577344
0.46379408 0.16680773 -0.44485244 0.0014905335 0.33969963 -0.18445526 0.16863388 -0.41158184
0.023504598 0.012345306 -0.09310184 0.20261575 0.044135094 -0.15200014 3.1589215 0.1709634
0.31568846 -0.3116746 -0.71448815 0.33048943 0.1035781 -0.4509252 0.076399036 -0.46405178
0.0657957 0.072033614 -0.26604924 0.14199279 -0.19060972 0.24340257 -2.7342331 -0.11198184
00000000: 52a8 053e cb26 c73d 1e82 513e 6c2b 1d3e
00000010: 5047 84be 8d35 e33e ae37 3fbe 4a0d 163e
00000020: 25a2 0abf 9249 a6be 9d69 28be 4b07 f5bd
00000030: 86de 4b3e 5412 a7be edce 3abe 6c6c c93d
00000040: f121 4b3e bc32 b5be b337 32bf 7495 1abe
00000050: f101 153f 0228 303e d09a 22be 2981 1fbe
00000060: 741c b23e 6bd3 c4be fa81 9fbf be6b b53e
00000070: 3754 9e3c 8128 793c 8c2c 4ac0 688c 85be
00000080: c159 cbbe 1c28 703e f751 9abe 4345 a23e
00000090: 65f2 0e3f f3fe aebd 2edd a2bf 3b95 9fbe
000000a0: 7ac4 83bc 6f32 8fbe 3882 09c0 d5e7 cfbd
000000b0: 6797 8d3e 6548 3fbe 46d6 0abf a9ac 80be
000000c0: 397e 1f3e f9aa 713e 6f44 3abf 676e 9c3e
000000d0: 5d3f 173e 4b40 053e 5030 5c3e f249 74be
000000e0: 5a63 fd3d d4aa 363e c5b8 e4be 6379 f83c
000000f0: b20e 203b 64a5 f03c 8aa8 39c0 5140 60be
00000100: 5ed0 843c 1ee6 6e3c 68d5 1bc0 5e70 2cbe
00000110: 9944 bc3d cfe0 f7bd cf42 13c0 87a6 cebe
00000120: 7544 d83e b3ee ffbe c232 80bf 9c61 383e
00000130: 8b1c a93e 7c6f 7bbe cabb 68be 8957 92be
00000140: 3860 243e 0009 333e da2a aebe 84c3 63be
00000150: c1f3 03bf 287e 48bd 1780 bebf 6697 90be
00000160: 6a5a 35be 686a 523d a527 01bf b78d 733d
00000170: f8f0 de3e 3b61 dcbe 022a ad3f 75fb 943e
00000180: 20fd d5bd 3e85 003e bc5b 3d40 0b57 f53e
00000190: 7920 bebd 83b1 81be 20a7 aa3e 8e58 d8be
000001a0: b4a1 f33c 0b6f a8bc 87c3 2bc0 2d19 8fbe
000001b0: a9df 813d 748b 25be 212a 38c0 162e b5be
000001c0: 06e1 07bf de63 9a3e 3274 1e40 513d 263f
000001d0: e7b0 51bd 8aa8 89bd 1855 ac3d b2f2 f63d
000001e0: cb10 9cba 7ff3 de3d 3c47 173e 1185 3fbe
000001f0: 45f9 f2be fa45 ad3e 483d 01c0 cd46 f8be
00000200: a189 ccbd c8be 893e ebac 293e d16e 5fbe
00000210: c7f0 cfbb a2ab 283d ef50 34c0 e162 86be
00000220: 862d 9cbd d6ac 9a3d 92a2 6d40 68f3 e53e
00000230: a062 703e 3dee 96be d467 73bf ae81 ec3e
00000240: 82a9 213e cc30 293e ef26 35bf 32c1 b63e
00000250: b6df 4d3f 91df 4d3d e651 ccbf 249e 91be
00000260: ad51 ddbe e424 b63e d18a d8bd f039 75bd
00000270: b374 873e 8b94 90be 55a3 ffbe 5edb c1bd
00000280: 03ec 7f3d f754 a3be a371 d23d c0db c2be
00000290: e8be 313f fe9e 723e f05d b4be c62d 50be
000002a0: ec41 223e c163 1fbd 1d76 37bf 43a7 953e
000002b0: 31fe 263e 43d3 5dbe 3533 21c0 cb9c 08bf
000002c0: 250d de3e 3f4e cabc 858e 84be 58ed 09bd
000002d0: 6a06 1c3e 5b44 233d e447 e4bc ce02 1fbd
000002e0: 2776 113e abd9 76be ee58 babe a7ad dfbe
000002f0: 6079 b9be 1d1e 323e 90af 08bf d69b ef3c
00000300: e2a2 1c3e f8bd e43c d517 32bf d6e7 9d3e
00000310: 6697 b1be 97ca 9b3e 763d b1be 7844 c43c
00000320: df42 243e 0a48 81be 4311 d13e 1497 adbe
00000330: 5ca5 55be 365e fabc 18b6 a8be 20c6 3e3e
00000340: b484 75be 1b41 3f3e a492 b73c deb0 573b
00000350: e82d de3e 72bf abbd 1841 3e40 bfa1 b03e
00000360: 7ae1 86bd 72df ad3e f04e ddbe 2cb0 a23e
00000370: 078f 9fbe e387 a53c 4c2a afbe 3ab4 863d
00000380: 6b76 ed3e a5cf 2a3e b3c3 e3be 015e c33a
00000390: 1ced ad3e d7e1 3cbe 5cae 2c3e dbba d2be
000003a0: b78c c03c f743 4a3c 2dac bebd 817a 4f3e
000003b0: 00c7 343d eda5 1bbe c52b 4a40 0811 2f3e
000003c0: eba1 a13e d093 9fbe b2e8 36bf e935 a93e
000003d0: c120 d43d abdf e6be 1977 9c3d 3298 edbe
000003e0: e5bf 863d 5c86 933d 9b37 88be 8f66 113e
000003f0: 322f 43be 863e 793e adfd 2ec0 bc56 e5bd

bias f4 [64]
0.6572906 0.6089944 0.21906877 0.81923753 0.5290855 -1.0083971 -0.33494148 -0.58876723
0.93026996 -0.626348 0.047929518 0.67985755 0.943402 0.98800653 0.8000546 -0.5269326
-0.40254384 -0.5108534 -0.017855313 0.699145 1.1071689 -0.23428927 0.75227106 -0.15384151
-0.65109724 0.90619856 -0.51560193 0.5312991 -0.6755551 0.9231935 0.54066294 -0.33254772
0.7211377 -0.5301868 -0.7499188 0.4653008 0.866336 0.09259522 0.8777479 0.95187575
0.7477972 -0.5278381 0.55471444 -0.5851704 -0.64855176 0.595097 0.8285449 0.881064
0.63482493 0.732583 0.42166296 0.86432505 0.48148018 -0.5871624 0.6223632 0.8460879
-0.9082322 0.9117984 0.70663935 -0.511456 0.15616305 0.9439737 -0.4256307 -0.4380741
00000000: 3244 283f 0fe7 1b3f 9053 603e 8db9 513f
00000010: 2672 073f 2813 81bf 737d abbe 73b9 16bf
00000020: 2c26 6e3f 5858 20bf be51 443d 250b 2e3f
00000030: cb82 713f ffed 7c3f 61d0 4c3f 0ee5 06bf
00000040: 3a1a cebe 4ac7 02bf 4e45 92bc 2bfb 323f
00000050: b6b7 8d3f 87e9 6fbe d694 403f a188 1dbe
00000060: 4fae 26bf a1fc 673f 7dfe 03bf 3803 083f
00000070: 2ef1 2cbf 6956 6c3f e368 0a3f b243 aabe
00000080: 7b9c 383f 52ba 07bf aefa 3fbf e83b ee3e
00000090: 32c8 5d3f 90a2 bd3d 16b4 603f 21ae 733f
000000a0: a36f 3f3f 6620 07bf c401 0e3f bacd 15bf
000000b0: 7d07 26bf 4758 183f 851b 543f 698d 613f
000000c0: e383 223f 8f8a 3b3f 35e4 d73e 6844 5d3f
000000d0: 9284 f63e 4650 16bf 3253 1f3f 3799 583f
000000e0: e881 68bf 9f6b 693f 51e6 343f c8ee 02bf
000000f0: 35e9 1f3e 43a8 713f 44ec d9be 404b e0be

weight f4 [1, 64]
0.39126787 0.19661207 0.30702454 0.38776714 0.6107694 -0.5193675 0.14218764 -3.424253
0.47098902 -1.0477887 -0.71564853 0.5229176 0.37434033 0.40303826 0.29983658 -3.1012328
-2.159435 -2.4189155 0.2676335 0.4882274 0.37797928 -0.21619095 0.5050102 -0.39599648
-2.4184058 0.31898662 -3.1570792 -1.0125325 -1.4357156 0.33881968 0.20802858 -0.5745899
0.3363063 -2.777638 -2.962071 0.28201094 0.4709826 -0.2873418 0.3910824 0.40983412
0.3466672 -0.2305563 0.19644348 -1.9290043 -0.34925178 0.53579736 0.37866998 0.4899965
0.28261942 0.43736887 0.39155436 0.29057842 0.32003832 -1.175398 0.39710045 0.3674629
-0.9305949 0.35597983 0.35451454 -2.9859908 0.062777385 0.39044002 0.01257787 -2.0427532
00000000: 4354 c83e ad54 493e 5232 9d3e 6a89 c63e
00000010: 625b 1c3f 45f5 04bf a399 113e f626 5bc0
00000020: 7925 f13e f11d 86bf be34 37bf eedd 053f
00000030: 89a9 bf3e 085b ce3e 2e84 993e 997a 46c0
00000040: 2f34 0ac0 83cf 1ac0 4207 893e f1f8 f93e
00000050: 8086 c13e 2961 5dbe 5948 013f 0dc0 cabe
00000060: 29c7 1ac0 3752 a33e 960d 4ac0 aa9a 81bf
00000070: 87c5 b7bf c679 ad3e 7205 553e 5318 13bf
00000080: 5730 ac3e d2c4 31c0 9292 3dc0 bd63 903e
00000090: a224 f13e 771e 93be f43b c83e c7d5 d13e
000000a0: 5d7e b13e f316 6cbe 7b28 493e 9de9 f6bf
000000b0: 21d1 b2be 042a 093f 08e1 c13e d2e0 fa3e
000000c0: 7eb3 903e d0ee df3e d079 c83e b2c6 943e
000000d0: 10dc a33e 7173 96bf c050 cb3e 1924 bc3e
000000e0: 783b 6ebf fd42 b63e ee82 b53e 791a 3fc0
000000f0: 6e91 803d c1e7 c73e 6913 4e3c 78bc 02c0
