src/cartpole/results/CartPole-v0/train-a2c/20210407-003658/num_env12-num_episodes50000-learning_rate0.001-hidden_layers128-128.pt (torch, 11135 bytes, 7 tensors)

weight f4 [128, 4]
00000000: 1b00 03bc 4fda 383e a33b a4bf 0d95 ccbe
00000010: 60f2 12be df48 143e 97d7 2c3f b92d de3e
00000020: 3795 5abd 4fbb fc3b 6639 7ebf 858f 8fbd
00000030: a845 ddbe c8f7 67be 9c1c 3cbf 98bb 87bd
00000040: 502f 2fbc 90e8 463e 9b14 91bd 6e8a e9bd
00000050: afa8 123e 1ab4 da3e c94c d13e a52d cd3e
00000060: 337d a0bd cc09 19bc e176 8c3f 08ff ccbe
00000070: 30dc 85be cdc7 27bd 4777 19bf 6b1c a73e
00000080: a536 0abe b67d 3cbe 8064 09b9 4c34 bebe
00000090: 2703 4bbe 0ed6 de3e 3d19 5d3f bcc6 d83e
000000a0: efdb e03d ae13 8fbe 56e5 cbbe 71cc babe
000000b0: 15a7 88be f2e1 0dbe 61aa 443e 857e 8b3e
000000c0: 7641 95be 3fe1 c0bc 6f99 333e a1f1 d63e
000000d0: f1b6 fd3d ff2a 433d 3c26 123f f2fd 8abe
000000e0: da70 103e e43f 87be f638 3cbd 5efe 8cbe
000000f0: 68e9 243e 5b27 0f3e 97ac 423e e1e1 903e
00000100: dfb6 3f3e bc1d 18bd e236 aabe f299 f03c
00000110: ad4e c03e 7585 df3e b36e 88bf a3b4 4bbe
00000120: 6d4a c13d 1533 c83e 71c8 a33f a891 033f
00000130: a164 1b3e fa0a d2be abef 37bf 81c3 c6be
00000140: 7ff2 a6be 544f ae3e f1f4 113f c1b1 b3be
00000150: 247b 953d cad4 dbbd faba a3bd 5166 51be
00000160: f4af 103e 7a4c 89be f328 0e3d e3b6 0b3e
00000170: 48ef 693e 1de8 093c 61fd 74bf 2ac7 8fbe
00000180: e512 673e 2333 94bc 1db6 87bf a3fc a0be
00000190: 9c56 fe3e c7c4 8c3e 1cc2 80bf e8e4 63be
000001a0: 4c95 b8be e7b0 803d b8d7 90bf 4522 fabe
000001b0: 0147 4bbd c786 d63d 6ec9 44bf fdf8 323e
000001c0: 1e40 a8be 77cb 9c3e 0c9f 623d afd0 83be
000001d0: 110d b9bd bace b03d 2400 dbbe 4ce8 343d
000001e0: d1fe 2c3e c174 9b3d e02b a23e cb53 873e
000001f0: 48fb 8cbe 0985 0ebe 201b cbbe 007c 98be
00000200: 54b6 f8bd b26e aebe eb5d ea3e c1b6 db3d
00000210: 21a3 0ebe fdd2 4b3d 00c3 7a3d b41e 8cbd
00000220: a6d5 b73d a2f2 30bd a2fa 1c3f e62b d73e
00000230: b7b6 ed3e 5ebf 813e af1d dcbd 32f3 9dbd
00000240: 1903 83be 3bee a7bd 5ee6 0b3f 3710 583d
00000250: 2f81 e5bd 2c8d 86be 404b 0fbf 5406 bebe
00000260: bb1a 18be 3f10 8a3e 5691 013f 0dca ecbe
00000270: 1b1d 903e f875 d8be 34df c5bc f938 62be
00000280: 4f22 a1bc 2619 0dbe e9cb a2bf 278a ddbe
00000290: 52c5 90bd e96b 0c3d ed7f 59be 3d3f 233e
000002a0: 1bd3 8abe 06d0 c2bb a40e 9bbc 889f 5abe
000002b0: 9be3 673e 22e2 e63d d16b 44be acc5 953e
000002c0: ee9f db3c 918d 5bbe 56cf 8bbe ee71 e8be
000002d0: f6ce 93bd 1e80 a4bd e7c2 143e 07c4 8b3c
000002e0: 7927 1a3c e735 ba3c 60b1 ecbd 122e b9bb
000002f0: 2391 8cbe c107 be3e 57eb 6e3f 30ec 853e
00000300: 3fde b0be 7cfe 19bd 8a22 4fbf 9535 9ebe
00000310: b26d a7be e6b0 233e 6750 e8be f0a7 dcbd
00000320: 42f8 bc3c 62d1 703e ea0a 97bf 8839 c1be
00000330: 5882 90be 2674 bc3e a551 073f 3c54 dc3e
00000340: ce91 d83d f9a3 30bc fae8 b83b 57ea 33bd
00000350: 2e88 9c3d 4e63 cbbd 790d 33bf 67c4 24bc
00000360: 3d5d 3ebe 6093 02be db70 693e 5f9e 97be
00000370: f4bd 7bbd abaa e63e e230 183f bc9d a23d
00000380: 5cfb cabe 89e4 643e 0e8b 8bbf cbdf 0ebe
00000390: 3477 07be 79be a2bc f216 163f e6ad dc3e
000003a0: 0f09 063d a341 a53e 0c7a b9be 13c0 9ebe
000003b0: fe1d 923e ce8b 82be 5927 69bf 3a6c ee3b
000003c0: c740 e43c 940b 933e e88d 1e3e 6bac f53d
000003d0: 0c08 353e 35de e6be 26a2 b9be 720d 43bf
000003e0: de2e dcbb dea3 83bd 740c 223e 5da1 613d
000003f0: c1a3 e03e cb08 40be 691f 93bf d8ce 64be
-0.007995631 0.18052028 -1.28307 -0.39957467 -0.14350271 0.14480923 0.67516464 0.4339426
-0.05336496 0.0077127586 -0.99306333 -0.07009796 -0.43217206 -0.22653115 -0.73481154 -0.066275775
-0.0106924325 0.19424653 -0.07084008 -0.114033565 0.1432216 0.42715532 0.40878895 0.40073887
-0.0783638 -0.009340715 1.0973779 -0.40038323 -0.26144552 -0.04096203 -0.5994763 0.3263887
-0.13497408 -0.1840733 -0.00013102777 -0.37149274 -0.19825421 0.43522686 0.86366636 0.42339122
0.10979449 -0.27944702 -0.39823407 -0.364841 -0.26689973 -0.13855723 0.1920562 0.27244964
-0.29151505 -0.023544906 0.17538999 0.41981223 0.12388409 0.047648426 0.5708959 -0.2714687
0.1410555 -0.26415932 -0.04595276 -0.27537817 0.16104662 0.13979857 0.1901115 0.28297332
0.18722104 -0.037137732 -0.33244997 0.029370282 0.37560025 0.43656507 -1.0658783 -0.19893126
0.09438024 0.39101472 1.2795545 0.5139413 0.15175106 -0.41024 -0.7185008 -0.38821033
-0.32606885 0.34044898 0.57014376 -0.35096553 0.07298878 -0.10733946 -0.07994647 -0.20449187
0.14129621 -0.2681616 0.03470702 0.13643984 0.22845185 0.0084171565 -0.95699126 -0.28081638
0.22565801 -0.01809079 -1.0602452 -0.31442747 0.49675453 0.2749388 -1.0059237 -0.2225529
-0.36051404 0.062837414 -1.1315832 -0.4885427 -0.04962826 0.104749255 -0.7686986 0.17477794
-0.32861418 0.3062398 0.05532746 -0.2574515 -0.09035695 0.0863318 -0.42773545 0.044166848
0.1689408 0.075906284 0.316741 0.26431116 -0.27535462 -0.13917936 -0.39669132 -0.29782104
-0.12144151 -0.3406883 0.4577478 0.10728217 -0.13929416 0.04976176 0.061221123 -0.06841794
0.08976297 -0.043200143 0.61319935 0.4202568 0.46428463 0.25341314 -0.10747849 -0.077124014
-0.255883 -0.08199736 0.5464839 0.05274984 -0.112062804 -0.2627958 -0.559742 -0.37114203
-0.14853947 0.2696552 0.5061239 -0.46247903 0.28147206 -0.42277503 -0.024154283 -0.22092046
-0.01966968 -0.13779125 -1.2718478 -0.43269464 -0.07068886 0.0342826 -0.21240206 0.15942092
-0.27114186 -0.0059452085 -0.01892788 -0.21349919 0.22645418 0.112736 -0.19181754 0.29252374
0.026809659 -0.21440722 -0.27306622 -0.4539942 -0.07217209 -0.08032249 0.14527474 0.017061247
0.009408825 0.02273078 -0.11557269 -0.005651244 -0.2745448 0.3711529 0.9332785 0.2615676
-0.3454456 -0.03759621 -0.8091208 -0.30900255 -0.32700878 0.1598545 -0.45373842 -0.10774219
0.023067597 0.23517373 -1.1800206 -0.37739205 -0.28224444 0.36807364 0.52858955 0.43033016
0.10574685 -0.010781282 0.0056430073 -0.043924656 0.07643162 -0.0993105 -0.6994243 -0.010056592
-0.18590255 -0.12751532 0.22796957 -0.29613015 -0.06146045 0.45052084 0.5944959 0.07940242
-0.39644897 0.22352804 -1.0901811 -0.13952558 -0.13229066 -0.019866215 0.5862876 0.43101424
0.032723483 0.3227664 -0.36225927 -0.31005916 0.28538507 -0.25497288 -0.91075665 0.007276085
0.02786292 0.2871977 0.1548382 0.11995777 0.17678851 -0.45091406 -0.36256522 -0.7619239
-0.006719454 -0.064277396 0.15825063 0.05508553 0.43874934 -0.18753354 -1.1493961 -0.2234453

bias f4 [128]
00000000: c580 b9bd 7f08 2dbe c2fa 4d3e 1c39 f73d
00000010: 3d9f c5be 4ada a4bd 22d0 7d3e edc4 e7bd
00000020: ee9d c13c e8b4 a3bd ca24 223e fa36 00bf
00000030: c6f9 c2be 8181 95be c629 103e 4994 47be
00000040: 39a2 b0bd c4c0 0fbe 33f9 023f 48fa de3e
00000050: 54b9 06bf 8896 dbbe e0f7 edbe 9646 95bd
00000060: fe13 b0bd 8fef 54be 5802 c5bd 71a9 ad3d
00000070: 4e51 cebe 0c3f d23c 67b9 f9bd 59d9 fdbe
00000080: 2d98 8c3d 19b1 9d3d bf66 8bbe 7948 08bd
00000090: 1329 7dbe ac25 813e 6afe e5be d89c 07bf
000000a0: 2568 f93e 428c b3be cb8d 21bd 240b 26be
000000b0: bbc6 edbd 83b4 5abe eb00 e8bc 8859 843e
000000c0: fc11 04bf f721 9bbe acaa f9bd 10ce a33e
000000d0: 2a12 c7be 52a4 c03e 5382 b7be 1706 2fbe
000000e0: 2e64 b93e 9286 9b3e d334 7d3e eb36 223e
000000f0: 15ff a3be eb1f 7cbe f032 9dbd 2b20 ab3e
00000100: 8212 a0be 5c11 15bf d3f0 0a3e 29e3 d23e
00000110: 58b1 7fbe 79e3 efbe a2c4 06bf e861 193e
00000120: d1b3 93bd 597c 90be ebbd 7b3d 3581 303e
00000130: 35a6 bb3e a1db ac3e 2392 ddbc 9d78 f0be
00000140: d853 e7be 95c5 e93e fa87 9d3e 7c0e 423e
00000150: 869a cbbe 30fa a23e 7371 ca3e 7a6e ce3e
00000160: 30f5 d7be 368c 63be abdd d2be eaa5 da3e
00000170: 8823 8cbe 539b c8be 8ed9 9c3e adec b6be
00000180: 9570 28be a683 33be 57dc 4fbe 4aea 96be
00000190: def0 d03e 0037 00be d446 523e f784 a23e
000001a0: fec4 e53d e20f ffbd 5967 c43e d4f0 153e
000001b0: ce74 aebe 3096 cb3e 63f2 e73d e71f d2be
000001c0: 6b2f 9ebe 92df b6be 6097 d43e bd7b 8cbe
000001d0: 1d8a 05bf 9546 1ebd 483e 213e 115b 0a3e
000001e0: 2d40 30bd 2c25 683e f6be 223e 6c5f 77bd
000001f0: 2db1 86be f2f8 04bf e39d c8be ce31 433e
-0.09057764 -0.16897772 0.20115188 0.120714396 -0.38598052 -0.08049448 0.24786428 -0.113168575
0.023634877 -0.079934895 0.15834346 -0.5008389 -0.38081187 -0.29200366 0.14078435 -0.1949016
-0.086246915 -0.14038378 0.511615 0.43550324 -0.5262654 -0.42888284 -0.46478176 -0.07288854
-0.08597563 -0.2079451 -0.09619588 0.08479584 -0.40296406 0.025664829 -0.12193566 -0.49579886
0.06864963 0.07699794 -0.27226827 -0.03327224 -0.247227 0.25224054 -0.44920665 -0.529737
0.48712268 -0.35067946 -0.039441865 -0.16215187 -0.116101705 -0.21357922 -0.02832075 0.25849557
-0.5158994 -0.3029935 -0.12190756 0.3199315 -0.38881046 0.37625366 -0.35841617 -0.17092167
0.36209244 0.30376107 0.24727182 0.15841262 -0.3203055 -0.2462155 -0.07675731 0.3342298
-0.3126412 -0.58229613 0.1356843 0.41188934 -0.24969995 -0.46853235 -0.5264379 0.14978755
-0.07212032 -0.2821987 0.061460417 0.17236789 0.36650243 0.33761314 -0.027047222 -0.4696702
-0.45181155 0.45658556 0.30767804 0.18950838 -0.3976633 0.31831503 0.3953968 0.40318662
-0.4217925 -0.22221455 -0.41184744 0.42704707 -0.27370858 -0.39181003 0.3063473 -0.35727444
-0.16449197 -0.17530689 -0.20298897 -0.29475623 0.40808767 -0.12520981 0.20534831 0.3174207
0.11219214 -0.12454201 0.38360098 0.1464265 -0.3407349 0.3976302 0.113255285 -0.41039965
-0.30895552 -0.35717446 0.4152174 -0.27438155 -0.5216387 -0.03864153 0.15746415 0.13511302
-0.043029953 0.2267043 0.15893158 -0.060393736 -0.2630705 -0.5194236 -0.39182958 0.19061968

weight f4 [2, 128]
00000000: eec2 963d 0af6 3ebe fe52 203e 2b07 be3c
00000010: 38c0 ea3b ed81 353c 5c63 cabd 9441 213d
00000020: 29f6 5b3c ef1c 4dbe 26d9 993d 1dd7 b8bd
00000030: ebcc afbd faea 8abc 9bf8 14bd 8a2a 8bbd
00000040: 4bdc dfbc 891b 103e c7d8 19be 8e5e 683d
00000050: 8f38 fdbb 8b4d 1fbd 99e6 bf3c 14b2 873d
00000060: 4d62 713e 713e 0e3e 328f 103e 0d0c ca3d
00000070: cced 0dbd 38d3 133d 8f06 0abe fddf 423d
00000080: 83bf 18bd 8b1f 53bb ddea c1bd 40d5 203d
00000090: c2f9 8dbc 2001 323d 32a0 3f3d 1738 c8bc
000000a0: c90c 2c3e c3d2 4abd cf83 92bc 5f96 ffbc
000000b0: ca37 a23d 2df6 413c 6265 7aba c0e3 4fbe
000000c0: 9c00 2a3e 6f0f af3d 68bf 0c3e 1de6 f3bd
000000d0: 4d01 963d 8ab1 9b3d 47ee f33c 0ea9 e4bd
000000e0: 4401 0b3e e6e2 f8bd 1e48 8f3c 0f85 fd3c
000000f0: 9aaf 56bd 32a8 9d3e 4f13 24bd 016a 9d3d
00000100: 0a3a cf3b dd2e dbbb 9738 303d 9e96 e33d
00000110: 7c92 383d 734d d23c 9631 9ebc e820 8fbd
00000120: 83e3 9ebd eb35 893c 2a97 f23d a9f4 17bd
00000130: 9f8f 65bd 665d de3d 3ce4 e43b 0330 123e
00000140: 4fcf 923d 0e5f 00be 3e16 dc3d 6bff 70bd
00000150: 3929 36be edd3 62bd 55b8 803c 1ce9 05be
00000160: 7e1b 5b3d 53a5 efbd 016d 85bc 437e 723d
00000170: 88d1 0cbd a88f dd3d e08c 3cbe f829 1dbb
00000180: c3c8 29be 43df fbbc 5fc5 1dbb 676e 16be
00000190: 24e9 eebd 6c7f abbd c803 273e 3181 c93c
000001a0: f64f 66bc 1a7d 223d 2deb ef3d 5c65 81bd
000001b0: 5d3f 793d ad08 54bd 78f9 c9bd 78e6 913d
000001c0: 1a53 d9bc ff83 a93c c941 983d 1f00 843d
000001d0: 64bf 3f3c 6137 883c 3bb1 3cbd 7b41 b8bd
000001e0: 5ce7 2b3c dac4 e9bd d866 f2bd 7b35 bcbc
000001f0: 1843 51bd 78da 1bbe 0604 4dbd f7b1 d33c
00000200: 2f6a 46be 007e 313e 9a7f cbbd 2347 c1bd
00000210: af34 83bc baa7 f43d 0f65 d13d 6c97 bcbc
00000220: 1cc4 8c3b b4b0 013e d4ad 7a3d 1460 fbbc
00000230: de94 a63d e3ba 2a3c cf70 eabc dff7 073d
00000240: 9d37 f0bb 5779 c5bd cf58 a83d bfc9 e3bd
00000250: 8431 21bc f3d1 103d 64f3 293d d786 d9bd
00000260: ede3 11be 6940 04bd 5421 3ebe a0fe 87bd
00000270: 9a32 49bd 25bd d6bc a095 0f3d fa8a 9bbd
00000280: eb36 7a3d 48c7 c1bb 449f 4c3e 7ae3 08bd
00000290: 9e9f 903b 1515 053d 9327 d03d 5890 4fbd
000002a0: b62a 99bd 073c 913a 86a9 07bd 0ae0 85bb
000002b0: f1a8 81bc 8de3 52bc 9b68 c83a eb11 2c3e
000002c0: 98d2 20be 239b 6b3c 8ab1 dcbd 405d d63d
000002d0: 48c3 913d e949 9ebc db5d d43c 88ac 793b
000002e0: d160 b1bd 64fc 273d 6053 153b a0ea 52bd
000002f0: b218 023d c231 8cbe ab7f 8b3c 11d3 98bd
00000300: e51c 5bbd df6c 12bd c86b d8bd 8c6e 70b8
00000310: b57d 9bbd 91a7 91bb 1a9a b2bc d0fe 503d
00000320: 67c9 7bbc f732 24bd f634 debc 326b 463d
00000330: 1cb1 ca3d 49b4 d9bd 750f bb3d b890 09bb
00000340: 9048 853b 6e0d 9e3d 0883 f2bd 0eb7 8a3d
00000350: 6978 b83d 9283 f03c 1f9d d83d 82f2 8abc
00000360: 80bd b93a fa2c fa3c 7227 6b3d 3f18 92bd
00000370: ac39 8b3d f0e2 4fbc 1c98 0f3e 17f1 923d
00000380: 5b2d 773e 69c9 92bd 42b7 ad3c f1c5 393d
00000390: 1890 0c3d 42de dd3d f654 a6bd cfca 87bd
000003a0: f200 06bd 1e28 273d 326f 7abd 6eaf f63c
000003b0: 2057 38bb 4101 e13d aaee cbbc 081d 9dbd
000003c0: 8a03 6c3d 13d0 e2bc 318b 05be 6205 1e3d
000003d0: c86f cd3a 5dd2 c73d e33e 6f3d af9c 2abd
000003e0: ef2f 4b3c 9a5f 7f3e ef9f 2ebc 47dc 393e
000003f0: d353 d93d 611e 1c3e 3581 e0bb f893 bb3d
0.07361399 -0.18648544 0.15656659 0.023196777 0.0071640275 0.01107834 -0.098822325 0.03936918
0.013425388 -0.20030569 0.07512121 -0.090254046 -0.08584007 -0.016957749 -0.0363699 -0.06795223
-0.027326724 0.14073004 -0.150241 0.0567308 -0.0077276896 -0.03889231 0.023425387 0.066257626
0.23572655 0.13891007 0.14117125 0.0986558 -0.03465061 0.036090106 -0.13479064 0.047576893
-0.037292015 -0.0032214846 -0.09468625 0.03926587 -0.017331008 0.043458104 0.046783634 -0.024440808
0.16801752 -0.049517404 -0.017885117 -0.031199632 0.07920797 0.011838478 -0.00095518504 -0.20301723
0.16601795 0.085478656 0.1374489 -0.11909125 0.07324467 0.07602222 0.029776705 -0.11165057
0.13574702 -0.121526524 0.017490443 0.030947236 -0.05241356 0.30792385 -0.040057477 0.07686234
0.0063240575 -0.006688936 0.04302272 0.11112712 0.045061573 0.025671696 -0.019310754 -0.06988698
-0.07758238 0.016749343 0.118452385 -0.03709856 -0.05604517 0.10857658 0.0069852155 0.14276128
0.07168447 -0.1253626 0.1074643 -0.058837336 -0.17789163 -0.05537789 0.015712896 -0.13077205
0.053493015 -0.11701455 -0.016287329 0.059202444 -0.034379512 0.10818416 -0.18413115 -0.0023981314
-0.16580491 -0.030746108 -0.0024073941 -0.14690553 -0.11665562 -0.08373913 0.16310036 0.024597736
-0.01405715 0.039670087 0.11714778 -0.06318161 0.060851444 -0.051766086 -0.098620355 0.071240366
-0.026528884 0.020692823 0.074344225 0.064453356 0.011703346 0.01662797 -0.046067458 -0.089968644
0.010492172 -0.114144996 -0.11836022 -0.02297472 -0.051089376 -0.15220058 -0.050052665 0.025841696
-0.19376443 0.17333221 -0.099364474 -0.094373964 -0.016016332 0.11946054 0.102243535 -0.023021422
0.004295839 0.12665063 0.06120093 -0.030685462 0.08133863 0.010420534 -0.028618244 0.033195373
-0.0073308484 -0.09642284 0.08220064 -0.111224644 -0.009838466 0.035356473 0.04149188 -0.10621422
-0.14247103 -0.03228799 -0.18567401 -0.06640363 -0.049120523 -0.026213238 0.035054803 -0.07594867
0.06108753 -0.0059136488 0.1998263 -0.033420064 0.004413559 0.03249081 0.10163798 -0.050674766
-0.074788496 0.0011080512 -0.033120655 -0.0040855454 -0.015827628 -0.012871635 0.0015289964 0.1680371
-0.15705335 0.014380249 -0.107760504 0.10467005 0.07117325 -0.019322352 0.02592366 0.0038097221
-0.086610444 0.041012183 0.002278529 -0.051493287 0.031761833 -0.27381712 0.01702865 -0.07462133
-0.053494353 -0.03574836 -0.10567433 -5.7323414e-05 -0.07592336 -0.0044450243 -0.021801997 0.051024258
-0.015367842 -0.040087666 -0.027124863 0.048442073 0.09897062 -0.1063009 0.091338076 -0.00209908
0.004067488 0.07717405 -0.118413985 0.06773196 0.090073414 0.029359613 0.105768435 -0.01696134
0.0014170855 0.030539025 0.057410665 -0.07133531 0.067981094 -0.012688383 0.14022869 0.071748905
0.24138395 -0.07167322 0.021205548 0.045354787 0.034317106 0.10833408 -0.08121674 -0.066304795
-0.032715745 0.040809743 -0.0611412 0.030112948 -0.0028128102 0.10986567 -0.024894077 -0.07671553
0.057620563 -0.027687108 -0.13041379 0.038579352 0.0015673572 0.097569205 0.058409583 -0.04165333
0.012401565 0.24938813 -0.010658248 0.18150435 0.10611691 0.15245964 -0.00685134 0.09159082

bias f4 [2]
00000000: c84c cbbd 27ad 7a3c
-0.09926754 0.015300072

weight f4 [128, 4]
00000000: 2ef2 9a3d 9601 343e 83c3 633e 980c b23e
00000010: 3e64 a93e d06f e33e cbc5 f53e 794a b9bc
00000020: ac8f 6cbe 17df 8bbd d94d 2d3d 4b8e 54be
00000030: b2d6 ce3d 1654 333e c056 2e3e d476 1b3e
00000040: b496 693e bdf0 403d fd56 8bbe 9565 4ebe
00000050: d44e ec3c 4ed9 353d 554d ea3e 3492 dfbe
00000060: 5dc6 03bf 14cf 973e 81a9 153f 2166 8fbe
00000070: 5d95 4b3e 4a54 7ebe fb36 cf3f 2aa5 533e
00000080: 289e 063f de3a 0dbf 80f3 49bf a959 733e
00000090: 937b cf3e de38 10be fbac 47bb bea6 a4be
000000a0: 4404 673e 9a74 e4be 8368 503e 3618 8fbe
000000b0: 24c7 efbd 0b2e 653d d2ac c7bf 7caf 15be
000000c0: 625a 3fbf d305 00bf 9b2d 583f cd4f 623c
000000d0: 46fb a63d a173 1fbe 1a9e dfbf 440c 99be
000000e0: 00aa 963e 7d66 263e c8bb 9bbe ab0c 3abe
000000f0: 2e9f 003e 072b 153d 944b 9ebe a7db 153e
00000100: 2019 c33e b9a4 c8be 7689 01bf 205c febb
00000110: ff9c a73e 6e23 22be 9618 10bd 553c 383e
00000120: eb33 5bbd 6dd7 993d 18ec 0140 ac05 a33e
00000130: 9f2a 10be 5c1a 423e 8aab e73f dc44 043f
00000140: 198f 99be f98c 393e 6221 a6bf 117f 07bf
00000150: a118 543e cb0f 8abe afc7 8fbf bff7 c6be
00000160: e4c5 9bbe 8a1d c73d 8b8f 0dbe 930a 853e
00000170: b31e 4ebd 1a7f ea3e a8c1 993e 2bf9 15be
00000180: d055 203f a00c 38bc 5fe4 20bf eff4 67be
00000190: a712 133e e19d 5dbe 4dc3 c8bf 8392 c8be
000001a0: 52a9 523b 123f c0be f50c 8bbe c2b5 9e3e
000001b0: d3b7 c0be b23e bdbe 799d 2bbf 1fca 96be
000001c0: bf53 223e 105d 64be ca25 a4bf c486 d3be
000001d0: df38 24be a04c 953e a96d 0c3f fefa a73c
000001e0: 9399 a6be 676f f73d 62d8 10bf 6458 fabe
000001f0: 08d3 bfbe 94c5 aa3e 9d20 cd3e 470e aebe
00000200: 5ee3 26be 6fee 733e be8d 973f c78a ea3e
00000210: fbe6 143f 2008 72bd 08d0 87bf 2b59 96be
00000220: 1559 d9bd 4441 c83d e77b 64be 7469 babc
00000230: 18b4 ebbe fc2b e33e db8c 8fbe 2ab2 d13e
00000240: ccea 26be d951 17be f5a4 a43f 6cb9 2d3e
00000250: 64ed a63e b421 873e f871 05bf 37b0 a33e
00000260: c100 32bd 75b7 2cbe f440 b8bb 02d3 ad3e
00000270: d1c1 03bf 6789 ad3d 76a4 d33f 9da5 bb3e
00000280: ac4b a93e da5f 57bd 764e afbe 81d4 993e
00000290: 995c 8dbc 914b 9d3e 90f0 d9bb ed41 00be
000002a0: 6907 f63c 739a 93be 715e 1a3c 952d 613e
000002b0: 8300 813d c5b2 5ebc 728d c43e 249d adbe
000002c0: 7540 a93e 230a d1be b5a1 cabe 5a6f 27be
000002d0: 6976 8f3e 22b6 90be 5642 99bf 9aa0 02bf
000002e0: 6189 2c3e e324 85bd df57 e0bd 4e93 af3e
000002f0: 8af1 913d 6032 8ebd 785a 2a3e 83e8 32be
00000300: d83e 00be 486b 5f3e 0035 983f f97c ec3e
00000310: 0d78 0bbe 6c3d c4bd 1fd4 453e a9f2 9abe
00000320: 0098 a3bb 006e 4ebd 20fc 37bd b0b3 ccbd
00000330: ffcf a43e ba3d ed3e 6c09 4cbe 8b84 993e
00000340: cf63 c3be 4527 e4be 6587 f43c f808 f23c
00000350: 653a a9be 494c f4be 5843 a93d 3e3d dd3d
00000360: 1224 fdbd 6794 21bf 1165 53bf 8947 b6be
00000370: b0f0 923d 882d 3abe 8857 cebf 258b f6be
00000380: 1f9f 88be fb77 db3d 1f6d cdbe 8cb5 eebc
00000390: 1e5d a5be 5a90 9abe 3d93 a73e a24e 9ebe
000003a0: 0d73 e7be d28a ca3e 90ba 213e 0d0d d43e
000003b0: 32e1 32bd 24ab bbbd 42ae e5bd d72c 9ebd
000003c0: d9a6 d03e a53f eebe 7eed 61be 3cc1 623e
000003d0: 74fe 0fbf caf1 b5be 7d63 053f 0c8f 99be
000003e0: 6191 033d 7e73 b3be ea67 a83e d9d7 c8be
000003f0: d769 8a3e 6b03 cbbe 8f9e c0be 4459 9ebb
0.07565723 0.1757873 0.2224255 0.34775233 0.3308429 0.44421244 0.48002467 -0.02261852
-0.23101681 -0.068296604 0.04231057 -0.20757405 0.10099544 0.17512545 0.1702528 0.15182048
0.22811395 0.047104586 -0.27214804 -0.20155938 0.028846182 0.04439669 0.45762125 -0.43666232
-0.51474553 0.29650176 0.5846177 -0.28007606 0.19881196 -0.24836841 1.6188654 0.20668474
0.5258508 -0.5516795 -0.78887177 0.23764671 0.40523967 -0.14084193 -0.0030468095 -0.32158464
0.22560221 -0.4462021 0.20352368 -0.2794816 -0.11707905 0.055952113 -1.5599616 -0.14617723
-0.7474729 -0.5000889 0.8444459 0.013812971 0.08153395 -0.15571453 -1.7470124 -0.2989217
0.29426575 0.16250034 -0.30416703 -0.18168895 0.12560722 0.036417987 -0.30917037 0.14634572
0.38105106 -0.39188173 -0.50600374 -0.007762447 0.32736966 -0.15833828 -0.035179697 0.17991765
-0.05351631 0.07511792 2.030035 0.31840265 -0.14078759 0.18955368 1.8099225 0.5166757
-0.29991987 0.18120183 -1.2978938 -0.5292826 0.2071252 -0.26965174 -1.1232814 -0.3886089
-0.30424416 0.09722431 -0.13824289 0.2598463 -0.050322246 0.45800096 0.3003056 -0.14645831
0.6263094 -0.011233479 -0.62848467 -0.22652029 0.14362584 -0.21642257 -1.5684601 -0.3917428
0.003214438 -0.3754812 -0.27158323 0.30998045 -0.37640247 -0.36961895 -0.6703716 -0.2945108
0.15852259 -0.22301126 -1.2824032 -0.41313756 -0.1603732 0.29160023 0.5485483 0.020505425
-0.32539043 0.12081795 -0.56580174 -0.48895562 -0.37465692 0.33353865 0.40063944 -0.33995268
-0.16297671 0.23821424 1.1840131 0.45809004 0.5816495 -0.05908978 -1.0610361 -0.29364905
-0.10612694 0.097780734 -0.2231289 -0.022755362 -0.46035838 0.44369495 -0.28037152 0.4095624
-0.16300505 -0.14777316 1.2862841 0.16965264 0.3260299 0.263929 -0.5212703 0.3197038
-0.04345775 -0.16866858 -0.0056229774 0.3395005 -0.51467615 0.08473473 1.6534564 0.3664979
0.33065546 -0.052581646 -0.34239548 0.3004494 -0.017256068 0.30721715 -0.0066509917 -0.12525149
0.03003283 -0.28828773 0.009421931 0.21990044 0.06298926 -0.013592427 0.38389164 -0.3390895
0.3305699 -0.40828046 -0.39576498 -0.16351071 0.28020027 -0.28263956 -1.1973369 -0.5102631
0.16849281 -0.06501176 -0.1095426 0.34292072 0.07126148 -0.06943202 0.16636074 -0.17471509
-0.12523973 0.21818268 1.1891174 0.46189097 -0.13620014 -0.09582028 0.19319199 -0.3026326
-0.004992485 -0.050397873 -0.04491818 -0.0999521 0.32189938 0.46336156 -0.19925469 0.29983935
-0.38162085 -0.4456121 0.029849717 0.029545292 -0.33052364 -0.4771445 0.08264798 0.10802697
-0.123603955 -0.6311707 -0.8257609 -0.35601452 0.07174814 -0.18181431 -1.6120462 -0.48153034
-0.266839 0.10716244 -0.40122315 -0.029139303 -0.32297605 -0.30188257 0.3272952 -0.30919367
-0.45204964 0.39559036 0.15793824 0.41416207 -0.043671794 -0.09163502 -0.11214878 -0.07723396
0.40752295 -0.46532932 -0.22063252 0.22144026 -0.5624764 -0.35536033 0.5210493 -0.2999195
0.032121066 -0.3504905 0.3289178 -0.3922718 0.27033874 -0.39651045 -0.3762097 -0.0048324186

bias f4 [128]
00000000: d804 183f 20bd 1d3e b155 3e3f 9153 2f3f
00000010: f10b 583f a9fb bd3e 84d0 303f 9f03 c6be
00000020: 254c e7bd a1d4 87be fc30 a43e beeb 94be
00000030: b458 a5be b0c1 c1be 7a68 17bf d427 e33e
00000040: b0b0 413f 7dc1 2c3f 3812 dcbe 424d 05bf
00000050: 65f3 e0be f76a babe 83b4 3f3f 9de9 4c3a
00000060: a14e 32be c528 d3be e56c 9c3e 1526 12bf
00000070: c855 dbbe 911b 2d3f 239a aebd 658d 4d3e
00000080: 9a00 ccbe 8464 d8be 29a4 aa3e e396 e13e
00000090: faca e6be a809 a93e f71b c63e ddc5 03bf
000000a0: c35a 523f 5bda 553f 8614 453f 341a 4b3a
000000b0: 8191 fb3e ce7a ffbe c8dc 723e 724d 743e
000000c0: 98c0 d6be da7d 263f fc4b 69be 18df 873e
000000d0: 0aa2 243e 480e 15bf 6618 38be 8a05 f4be
000000e0: 5c05 283f 64f0 273f 9873 2b3f c823 85bd
000000f0: b849 bb3e ceb7 bb3e 1fba 493f 43f5 4e3f
00000100: 5bf2 72bd a056 c8be f95c a8be 66b9 c5be
00000110: 70f5 593f f2be 133f c6f7 443f f0f9 3f3f
00000120: 0575 a63e 87b3 e9be efee 513f 960f 533f
00000130: 25f4 d63e a928 9bbe a8a2 493f 6e76 cb3e
00000140: 3c01 0e3f 06ed 1d3f 97af 3b3f faa3 cdbe
00000150: 82b1 71be ec5d 303f de18 993e 1df4 20bf
00000160: c0e6 5c3f 9462 863e 8f2b 4f3f cc3e 54be
00000170: d4c8 213f 540f a1bd f5b2 29be e78e 8a3e
00000180: a53e 8cbe 3e23 ef3e e5f6 563e 5a2d 2e3f
00000190: 62d2 033f 3546 b73e c47f afbe bd87 f1be
000001a0: 828f 9bbe 07eb 08bf c98e 3a3e 980f ec3e
000001b0: 06b2 50be 4f33 f6be a661 2e3f b150 0c3f
000001c0: 92f0 c43d 4f80 553d 1395 0f3f 4fea 373f
000001d0: df67 b1be 4028 263e fca1 d53e c701 b1be
000001e0: 41e5 4b3f cf04 9e3e 7445 1a3f f56a 9ebe
000001f0: d79f c83e 76ef bcbe 9dfd 51bd b367 073f
0.5938239 0.15404177 0.74349505 0.6848689 0.8439322 0.37106064 0.6906817 -0.38674638
-0.1129382 -0.2652941 0.32068622 -0.29086107 -0.32294238 -0.37843084 -0.59143794 0.44366324
0.7566023 0.6748274 -0.4298265 -0.5207101 -0.43935695 -0.36409733 0.74884814 0.00078167935
-0.17412807 -0.41242042 0.3055183 -0.5708936 -0.42838883 0.6762019 -0.08525493 0.20073469
-0.3984421 -0.42264187 0.3332837 0.4406043 -0.45076734 0.3301518 0.3869321 -0.5147379
0.8216974 0.8353631 0.7698444 0.000774774 0.49134448 -0.4989838 0.23717034 0.23857668
-0.41943812 0.65035784 -0.22782892 0.26537395 0.16077438 -0.58224916 -0.17978057 -0.47660476
0.6563318 0.6560118 0.6697326 -0.06500965 0.3657968 0.3666367 0.78799623 0.8084299
-0.05931316 -0.3912859 -0.32883433 -0.3861801 0.8514013 0.57713234 0.7694057 0.7499075
0.32511154 -0.4564478 0.8200521 0.8244566 0.41983142 -0.3030446 0.7876382 0.39738792
0.55470634 0.61689794 0.73314804 -0.40164167 -0.2360287 0.68893313 0.29901785 -0.6287249
0.86289597 0.26247084 0.8092584 -0.2072708 0.63197064 -0.07864252 -0.16572173 0.2706215
-0.27391544 0.46706575 0.2099262 0.6803795 0.51492894 0.3579575 -0.34277165 -0.47173873
-0.30382925 -0.53483623 0.1821853 0.46105647 -0.2038041 -0.4808602 0.6811775 0.54810625
0.09616198 0.052124318 0.56086844 0.718419 -0.3464956 0.16226292 0.41725147 -0.34571669
0.7964669 0.30863044 0.6026223 -0.30940977 0.39184448 -0.36901444 -0.051267255 0.5289261

weight f4 [1, 128]
00000000: 197b 8a3e d0d5 083e e03a ae3e 644e 5f3e
00000010: a6ca 933e 2878 3f3e 3b96 513e 2d53 cbbe
00000020: 6895 673d 1d56 e73c 37f2 193e 4f06 35bf
00000030: 54fc 73be 90db 2bbf 14d4 1ebe a0ab ba3e
00000040: 2f3a 813e 8cf9 713e 7c53 99bf c032 6dbf
00000050: 005b a8be c611 24bf f369 a03e 77d2 3e3d
00000060: f360 81be 96a6 8abf 9fb7 113e 8df6 a5be
00000070: 0abb 11bf 5fe8 493e 8544 91be 1274 993d
00000080: 1850 44bf e3ce a7be 3619 5f3e a2fc 903e
00000090: e93a c4be 24a4 923e 8cb0 273e c98f 09bf
000000a0: 9fb6 8b3e 9f63 8c3e a285 6c3e 79cd c13c
000000b0: 9d5c 123e d955 dabe 4c82 983d 5906 183d
000000c0: 51e4 59bf 745f 8d3e ca3e 6c3d 50df a53e
000000d0: 391f f63d 4dc1 14be cd68 8abe 9621 37bf
000000e0: 655c bf3e 5c69 793e c1a2 5a3e c7ea 013a
000000f0: c42e 223e d61f 6d3e cef9 5c3e fe3d ad3e
00000100: 52d5 813d cd3a abbf e917 febd b8fd 82bf
00000110: 4a92 8a3e dd1c a63e 04c0 523e 2338 8e3e
00000120: 20f3 fd3d 065c 55bf b3e0 7a3e 0e5d 983e
00000130: 0a1d 043e 0b5e 99bc 0f92 a03e 5434 203e
00000140: d1bd 533e e4f4 9f3e 415b 893e ad67 5abe
00000150: b3f0 bebe d0db a53e 999d a53d 3bb7 58be
00000160: 6cac 8e3e 80df ec3d 8dfb a53e c24b 58be
00000170: 146b 993e 84bf 1cbe 1f97 94bc 0e7c 9a3d
00000180: f0f3 fdbe a438 cd3d 161f f63d 2e6c a43e
00000190: 0c40 9f3e 5c19 b93e 21ba 03be 2a0a 07bf
000001a0: 53a9 5ebe 91a4 e0be f509 213e 529b 893e
000001b0: 506f 81bc 7e38 89be b760 873e 1fa5 533e
000001c0: 53eb 613d 8505 b2be 4ec3 3f3e 68a3 613e
000001d0: 8d16 113e 8d11 193e 6214 2b3e 865c a4bf
000001e0: 1b7f a53e 3c9c 9c3d 77e9 323e 97d1 d7be
000001f0: 336a b13e 4b06 4dbf 7f23 91be 75e2 a63e
0.2704704 0.13362813 0.34029293 0.21807247 0.28865546 0.1869818 0.20467465 -0.39711896
0.05653897 0.028239304 0.15033804 -0.7071275 -0.23826724 -0.671319 -0.15510589 0.36459064
0.25239703 0.23630351 -1.1978602 -0.92655563 -0.32881927 -0.6408962 0.31330833 0.046587434
-0.2526928 -1.0832088 0.14230202 -0.32414666 -0.56926024 0.19717549 -0.2837259 0.07492842
-0.76684713 -0.3277503 0.21786961 0.28317744 -0.38326195 0.28640854 0.16375941 -0.53735024
0.27287766 0.27419755 0.23097852 0.023657547 0.14293142 -0.42643622 0.07446727 0.03711543
-0.8511401 0.27611887 0.057677068 0.32396936 0.12017674 -0.14526863 -0.27033082 -0.71535623
0.3737518 0.24356598 0.21351148 0.0004955944 0.15838152 0.23156676 0.21579668 0.3383636
0.06339516 -1.337732 -0.12406904 -1.0233679 0.27064735 0.32443896 0.2058106 0.27777204
0.12399888 -0.8334354 0.24499778 0.29758495 0.12901703 -0.018721601 0.31361434 0.15644962
0.20677878 0.31241524 0.26827434 -0.21328612 -0.37293014 0.32394266 0.080867 -0.21163647
0.27865922 0.11566067 0.3241848 -0.2112265 0.29964507 -0.15307432 -0.018138466 0.07543193
-0.49600172 0.10020569 0.12017648 0.32113785 0.3110355 0.3615216 -0.12863971 -0.52749884
-0.2174428 -0.43875554 0.15726455 0.26876312 -0.015800148 -0.26800913 0.26440975 0.20668457
0.055156063 -0.34769836 0.18726847 0.22034991 0.14168759 0.14948101 0.16706994 -1.2840736
0.32323536 0.07646987 0.17471872 -0.42152092 0.34651336 -0.8008773 -0.28347394 0.32594648
