src/cartpole/results/CartPole-v0/train-a2c/20210407-003658/num_env12-num_episodes50000-learning_rate0.002-hidden_layers32-32.pt (torch, 6143 bytes, 7 tensors)

weight f4 [32, 4]
000000 f7 f2 f7 bd 24 74 0d 3d 72 15 e9 bf 93 16 b4 be
       -0.12106889 0.03453459 -1.820967 -0.35173473
000010 a9 0e d4 bd df 92 32 3e 20 e1 36 bd 04 a9 b4 3e
       -0.10354359 0.1743884 -0.04464829 0.352852
000020 3c 84 6f bc ad 6c 01 bd c2 d2 ba bf 81 7d 0f be
       -0.0146189295 -0.031597782 -1.4595568 -0.1401272
000030 d7 00 0a bf ac f1 9f be b8 e9 67 3f 3a 34 c2 3e
       -0.5390753 -0.31239069 0.90591 0.3793047
000040 c8 c1 80 3b be b4 32 3d 86 20 08 c0 f5 87 c2 be
       0.0039293505 0.0436294 -2.126985 -0.37994352
000050 1b b3 71 3e 0c 49 07 3f 93 a0 6c 3f 8e d1 ee 3e
       0.2360348 0.52845836 0.92432517 0.46644253
000060 54 03 86 bd b5 6b 08 be 58 dd 47 bf a6 92 f1 be
       -0.065436035 -0.13322337 -0.7807212 -0.47182196
000070 98 26 74 be 59 7e 9b 3b 71 52 40 3f b8 45 15 3f
       -0.23842847 0.0047452864 0.75125796 0.5830951
000080 dc cd e9 bd f3 f9 14 be 9b 0c b8 bf 87 31 11 bf
       -0.11416218 -0.14548473 -1.4378847 -0.567162
000090 3a fe 9d be 7d 05 98 3e 80 e2 a1 3f 02 03 c4 3e
       -0.30858022 0.29691687 1.2647247 0.38283545
0000a0 32 fd e6 3c ee b2 9e be 07 a9 51 bf 8b f3 f5 be
       0.028196905 -0.30995888 -0.8189854 -0.4803737
0000b0 1e b2 4a be 91 94 4d 3d 08 b5 9e 3f a4 db 1d 3e
       -0.19794509 0.050190512 1.2398996 0.15415817
0000c0 64 8b 5e be 97 e4 37 3e 67 96 ce be 8e 74 69 3e
       -0.21732861 0.17958294 -0.40349123 0.22798368
0000d0 92 02 98 3d b2 2b 3f be 68 a8 84 bf 76 d1 ab be
       0.07422365 -0.18669012 -1.0363894 -0.33558244
0000e0 92 db 2f 3e c3 02 a2 be 3a de 12 bf fc 3f 02 be
       0.17173603 -0.31642732 -0.5737034 -0.1271972
0000f0 2f b5 c2 3d e3 9d 7b 3d 7f 73 43 3f 5a ac 1a 3f
       0.09507214 0.06142987 0.7634811 0.6041924
000100 d3 dd f8 3e ec f5 41 3e 3f c9 8d 3f 9c 23 b6 3e
       0.48606738 0.18941468 1.107704 0.35574043
000110 f2 7e 63 3d 7c 28 4d 3e a4 ae b8 bf bf f8 21 be
       0.055540986 0.20034975 -1.4428296 -0.15817545
000120 96 a8 b1 bd 60 6c d1 3e 8b d8 2a 3f 40 bb 97 3e
       -0.08674733 0.40902996 0.6673667 0.29635048
000130 f8 db 4c bd 48 f2 09 bf 9d 51 9c 3f 44 59 0b 3e
       -0.050014466 -0.53885317 1.2212406 0.13608271
000140 f6 25 ba be d4 9d 28 3e 7a d8 74 be 09 09 a8 be
       -0.36357087 0.16466457 -0.23910704 -0.32819393
000150 bc 3b ab 3d 74 64 ce bd bc 3e 91 bd 97 02 59 be
       0.08361003 -0.10077754 -0.07092044 -0.21192394
000160 98 8f ed 3d af 38 13 be af 3e 25 3e 76 f6 04 3e
       0.11599654 -0.14377092 0.16137193 0.12984642
000170 2a 06 44 3e 66 57 d8 bc 0b a9 0c c0 4c cf 0f bf
       0.19142976 -0.026408862 -2.1978176 -0.56175685
000180 9c 1d 96 3e b5 ee 61 3c a0 7a c8 bf 83 b2 b0 be
       0.29319465 0.013789822 -1.5662422 -0.34511194
000190 a7 a9 ce 3e f1 d4 14 3e 97 5c ab bf 21 70 d5 bd
       0.4036381 0.14534356 -1.3387631 -0.104217775
0001a0 9e 3f 63 be 3d 60 19 bb c6 0d 33 bf 1c c1 17 be
       -0.22192237 -0.002340331 -0.6994289 -0.14819759
0001b0 38 4d fa ba 08 a1 d5 3d 7f 06 6f be 3f 4d 89 3e
       -0.0019096499 0.10431105 -0.23342322 0.26816747
0001c0 a0 1b a3 be 3a 0f 54 3e e5 3c 84 3f 71 48 5d be
       -0.31857014 0.20708933 1.0331084 -0.21609665
0001d0 a4 3e a0 bd 39 f1 8e 3d 52 68 6c 3d 23 91 95 3d
       -0.07824448 0.06979603 0.057716675 0.07303073
0001e0 b4 5f 86 3d c6 e2 9d 3d 0a b0 19 bf 72 86 26 3e
       0.06561223 0.07709269 -0.6003424 0.16262224
0001f0 93 83 ac be 60 09 8e be 8a a0 a9 bf 85 29 04 bf
       -0.33694133 -0.27741528 -1.3252118 -0.51625854

bias f4 [32]
000000 2f e9 62 be 39 4b ed be cb b0 86 3e 56 0d 12 bc
       -0.22159265 -0.46346453 0.26306757 -0.008914312
000010 61 53 74 be eb 18 c9 3d 5b 62 d2 3e 68 01 04 be
       -0.23859932 0.09819206 0.41090664 -0.12891161
000020 38 ed 81 be ec c9 db 3e 07 79 87 3e 03 f9 af 3e
       -0.25376296 0.42927492 0.26459524 0.34369668
000030 07 a8 14 3a cd 6f 9c 3e 7b f7 b3 3d 3a 15 ad 3d
       0.000567079 0.30554047 0.087874375 0.08451314
000040 52 90 b3 bd 63 84 a9 be e7 94 b5 3d b8 0d 0c bd
       -0.08767761 -0.33108816 0.088662915 -0.03419277
000050 2a 1d d8 be 56 75 cc be bd 06 1a bf a6 9f a1 be
       -0.4220975 -0.3993327 -0.6016653 -0.31567115
000060 d6 70 59 be 3c 9c b9 3e 1d b3 e4 bd b5 79 02 bf
       -0.2123445 0.3625201 -0.11166976 -0.5096696
000070 f0 6b da 3d c6 be dd be 4c 84 c5 bd e1 8d 5e be
       0.10665119 -0.4330961 -0.09644374 -0.2173381

weight f4 [2, 32]
000000 e7 23 9f 3e 2e 02 a4 bc 2d 31 51 3e 70 20 83 be
       0.3108208 -0.02002057 0.20428915 -0.25610685
000010 e5 32 f9 3e 8e 89 64 be cb 7f ec ba 79 20 ad bd
       0.48671642 -0.22318098 -0.0018043456 -0.08453459
000020 fe 48 66 3e 31 a2 e8 be 40 95 88 3e 27 0f 4f be
       0.22488782 -0.45436242 0.2667637 -0.20220624
000030 a3 c6 21 3d 67 11 35 3e 46 d3 0a be 20 81 0f be
       0.039496075 0.1768242 -0.13557157 -0.14014101
000040 0b a8 76 be 31 ec ac 3d c0 d6 59 3d d0 87 95 be
       -0.24087541 0.084434874 0.053183317 -0.2920518
000050 2d e7 50 3d 51 ca 5e bd f0 25 b3 3d b1 7e 19 3f
       0.051001716 -0.054392163 0.087474704 0.5995894
000060 bf 8c 0a 3f a2 5e 4a 3e 56 63 ab 3d e1 9c 4d bd
       0.5412101 0.19762662 0.08368556 -0.05019844
000070 22 c9 f2 bd f5 f5 05 3e a7 4b d6 3d 60 aa a5 3e
       -0.11854769 0.13082106 0.10463648 0.32356548
000080 cc 6a f0 be ba f3 de bb 5e 9e f9 be 20 cc c9 3b
       -0.4695648 -0.006803957 -0.48753637 0.006158367
000090 1a 0d 1e bf d4 5e 92 3e 86 41 3c be e5 cd 16 3e
       -0.6173874 0.28587973 -0.1838437 0.1472698
0000a0 76 cc c0 be 32 6f 0e 3f 67 cf 7a be d4 35 0f 3c
       -0.3765599 0.5563842 -0.2449318 0.008740861
0000b0 c6 3f 8f 3c 5e 0b 33 3c 5a 37 b3 bd 85 5c cd 3e
       0.017486464 0.010928003 -0.08750792 0.4010965
0000c0 eb 9c 91 3e 12 59 10 be 06 e4 b1 3d b7 fe e9 3d
       0.2844003 -0.14096478 0.0868607 0.11425536
0000d0 77 6e 21 bc c8 4b bc bc 1f b0 19 3d 9a 16 07 bf
       -0.009852997 -0.022985354 0.037521478 -0.5276886
0000e0 07 34 18 bf d2 51 69 be fc 93 87 3c 5f 92 05 be
       -0.5945439 -0.22785118 0.016550057 -0.13044117
0000f0 d3 1e 23 bd e3 31 0f 3e ad ef cb 3d cd 58 4a be
       -0.03982432 0.13983874 0.09957824 -0.19760437

bias f4 [2]
000000 cb 39 2e be 2f 0d d6 3d
       -0.17014234 0.10451733

weight f4 [32, 4]
000000 43 e7 16 be 3d 3c 80 bd cd 5a 84 be 59 2b 2d be
       -0.14736657 -0.062614895 -0.25850525 -0.16911067
000010 2a 16 3f bc 78 17 9c 3e 0b 4e 17 bd 2b ef b5 3e
       -0.011662999 0.30486655 -0.036939662 0.35534033
000020 4e 5b 25 3f 9b 24 82 be d4 84 0f c0 c2 f4 17 bf
       0.64592445 -0.25418553 -2.2424822 -0.59357846
000030 fb d7 38 be 8d f9 be 3c 77 30 e9 3d ea a2 b9 3e
       -0.1805114 0.023312354 0.11386197 0.36257106
000040 9b af bd bc 9d 8a 8d 3d 4a 15 63 3f b3 8b a4 be
       -0.023155024 0.06911204 0.8870436 -0.32137832
000050 66 c0 b2 3e c2 73 f7 be 76 62 09 be a3 89 2a be
       0.34912413 -0.48330504 -0.13416466 -0.16654067
000060 a8 59 6c be e5 80 9f bd 2b 67 1d c0 98 2f a1 be
       -0.23081076 -0.077882566 -2.4594219 -0.31481624
000070 a9 53 0a bf 44 dc 88 3d ef 70 01 40 3f dd f3 3e
       -0.54033905 0.06682637 2.022518 0.47629735
000080 10 2f a9 bc 2e d1 53 3e b2 dc 4e 40 30 77 30 3f
       -0.020652324 0.20685264 3.2322202 0.68931866
000090 d7 ef 48 3e 1f 1e 20 3e 86 b9 52 3e 0c 55 ea bd
       0.19622742 0.1563649 0.20578584 -0.11442003
0000a0 ac 79 a4 bd 7c 75 ea 3d db 72 9a 3e aa 64 a6 3c
       -0.080310196 0.114481896 0.30165753 0.020311672
0000b0 ee 0b fa bd b1 a8 6c be 9d dc 1c bf f4 27 87 bc
       -0.12209307 -0.23111226 -0.6127413 -0.016498543
0000c0 db c4 9e 3b c6 30 a4 be 83 3c cf 3e 22 56 de be
       0.0048452443 -0.3206846 0.40475854 -0.4342509
0000d0 d2 fd fd bd 7f ea 40 3e df 57 82 3f 0c 71 ea bd
       -0.12401928 0.18839453 1.0183066 -0.11447343
0000e0 9b d9 fb be b9 39 d4 3e 57 c5 3c 3e e6 2b d1 3e
       -0.49189457 0.4145029 0.18434654 0.40853804
0000f0 a9 d7 4c be 54 81 e0 3d 35 9f 1a bd 45 16 b0 bd
       -0.20004143 0.109621674 -0.037749488 -0.085979976
000100 be 5d 01 be 38 48 35 3e 1e a7 e4 3f 79 82 9e 3e
       -0.12633416 0.1770333 1.78635 0.30958918
000110 cc e2 61 3c ab ca 9c be 28 0c 84 3e e7 5a e8 be
       0.013786983 -0.30623373 0.25790524 -0.45381853
000120 01 9f 5d 3e b4 c5 75 be e2 c9 63 bf b6 8b 55 bd
       0.21642686 -0.24001199 -0.88979924 -0.05213519
000130 11 78 5e 3d 36 b2 7c bd 52 71 45 c0 de 8e c5 be
       0.054313723 -0.061693393 -3.0850415 -0.38585562
000140 56 01 02 bd f5 86 d9 3d 4f b6 1c 3e 0a 85 1c bd
       -0.031739555 0.10621444 0.1530392 -0.038212813
000150 19 84 98 be 79 95 00 be e0 ee b8 bd d3 c4 33 3e
       -0.29788283 -0.1255702 -0.09029937 0.17555551
000160 11 ae e6 3d 6a 72 47 3e 34 cf a8 be 98 3b 27 bd
       0.11263669 0.19477239 -0.32970583 -0.040828317
000170 28 04 87 3e f3 5b 62 3b 7d c0 8f bd f7 e2 4a bd
       0.26370358 0.003453967 -0.07019136 -0.049532857
000180 c8 dc ae be 56 e3 25 3e a9 39 62 3e 40 71 60 3e
       -0.34152818 0.16200003 0.22092308 0.21918201
000190 0c 9b 97 3e 1a e0 88 bd 8f 0d 08 3e 46 f0 90 be
       0.2961048 -0.06683369 0.13286422 -0.28308314
0001a0 90 b8 a5 bd 0f 74 97 be eb 4c c1 3e e9 cb 42 3e
       -0.08091843 -0.29580733 0.37753996 0.19023098
0001b0 8c c7 8c be 59 4f 3d 3e a2 4a 80 3e 69 3a c0 3e
       -0.27495992 0.184873 0.2505694 0.37544563
0001c0 48 8e 8f 3d 22 41 c5 3d 2d 59 1f 3e 8b c9 a5 bd
       0.0700956 0.09631564 0.15561362 -0.08095082
0001d0 c7 9a 80 3e d2 30 1d 3e 66 97 e1 be 60 66 98 3e
       0.25118086 0.15350655 -0.4406082 0.29765606
0001e0 4b 5b 42 3e 7e e2 17 3e eb 9a d9 be fb 12 70 3d
       0.18980138 0.14832494 -0.42501006 0.05861185
0001f0 35 ff ef bd 03 6a aa 3e 3b ba 67 be 96 27 af 3d
       -0.11718599 0.33284006 -0.22629635 0.08552472

bias f4 [32]
000000 53 61 47 3f 5c 72 5b 3f 0c a5 0a bf b6 84 65 3f
       0.7788288 0.85721374 -0.5415809 0.89655626
000010 41 e2 ba 3e 6c df 4a 3f 81 39 0e bf 28 56 1c bf
       0.36500743 0.79247165 -0.55556494 -0.61068964
000020 3f 45 12 bf c8 98 86 3f 64 6a 62 3f e3 6d 92 3f
       -0.5713691 1.0515375 0.8844359 1.1439785
000030 07 8c 61 3f a5 b3 51 bc 86 a6 c7 3e 28 29 40 3f
       0.8810429 -0.012799178 0.38994235 0.750628
000040 8f 67 92 be 3f 82 77 3f 73 49 3c 3e de f7 28 bf
       -0.28594634 0.96683115 0.18387394 -0.66003215
000050 99 64 15 bf 51 f3 01 bf 0e c1 7e 3f e2 10 84 3f
       -0.58356625 -0.50761896 0.9951333 1.0317652
000060 3d 6d 48 3f 3e 05 88 3f 4c f5 92 3f 7c 4f 37 3f
       0.78291684 1.06266 1.1481109 0.7160566
000070 ae 39 e0 3e d5 23 87 3f e4 8d 53 3f 4b 08 92 3f
       0.43794006 1.055781 0.8263838 1.1408781

weight f4 [1, 32]
000000 f5 c1 28 3f 28 2a 16 3f 3f 83 94 bf 2a 08 11 3f
       0.65920955 0.58658075 -1.1602553 0.5665308
000010 c0 7d ba 3d 98 8c 0f 3f 90 b1 db bf c1 86 46 bf
       0.09106016 0.56073904 -1.7163563 -0.7754937
000020 c8 ec 06 c0 4d 9c 19 3f e8 35 23 3f 28 54 f7 3e
       -2.108202 0.6000412 0.6375413 0.48306394
000030 ed 16 c8 3e e7 bc 83 bc 3e 61 52 3e f9 61 18 3f
       0.3907999 -0.016081287 0.20544907 0.59524494
000040 83 37 47 bf 47 8a 2f 3f 06 2c d3 3d c5 3d 10 c0
       -0.7781908 0.6857037 0.10311131 -2.25377
000050 e0 f1 7c 3d cd 76 91 bd 86 47 d4 3e c2 da 17 3f
       0.061754107 -0.071027376 0.41460818 0.5931817
000060 ab 48 a9 3e 5b 1f 00 3f f6 78 18 3f 8f f8 96 3e
       0.33063254 0.50047845 0.5955957 0.2948651
000070 c0 c9 ef 3d 52 bd cd 3e ad e2 fb 3e 8c f3 e6 3e
       0.11708403 0.40183502 0.49196377 0.45107687
